cancer_iterative/cancer_models/10_train/real_final_model.pt (torch, 45323 bytes, 7 tensors)

net.0.weight f4 [64, 30]
000000 64 84 21 3e 5b a3 c0 bd 35 b6 f3 3c ee d2 12 3e
       0.1577316 -0.094061576 0.029749969 0.14338276
000010 68 06 eb bd 6e 7f 3b 3e 88 39 e8 3c 2a 28 23 3e
       -0.11475831 0.1831033 0.028347746 0.1593329
000020 89 29 dc 3a 84 4b f6 bb 40 56 cd 3d 0d d1 bc bc
       0.0016797046 -0.0075163264 0.100262165 -0.023048902
000030 d1 65 e8 3d 17 c8 95 bc 3a bf 32 bd b8 e3 ac 3c
       0.11347545 -0.018283887 -0.0436394 0.021104679
000040 fa ee 8b 3d 65 ae 2d 3d fd ed 03 3e c5 7a b3 3d
       0.068326905 0.042402644 0.12883754 0.08763651
000050 2b 6b 52 bb 46 ba 06 be 90 de 10 3d 19 a6 b1 bc
       -0.0032107334 -0.13156995 0.035368502 -0.021685647
000060 a5 70 db bb 5e b5 86 3d 23 f9 2a 3e 96 64 30 3e
       -0.006696778 0.06577562 0.166966 0.1722587
000070 b9 d4 6e be fc 5e 2e 3e 43 30 00 bc ef 9a 12 3e
       -0.23323335 0.17028421 -0.0078240065 0.14316915
000080 2a f9 81 3d 2a a4 6a be 9b 43 3e be f6 1c bb bd
       0.063463524 -0.22914186 -0.18580477 -0.09136383
000090 ed 06 0c 3e 75 91 95 bd e2 d6 e7 3d 33 2b 02 bd
       0.13674517 -0.07303134 0.113202825 -0.03177948
0000a0 d3 42 0f 3e 8f 01 e6 bd 14 fa a9 3d d3 b6 75 bd
       0.13990335 -0.11230766 0.08299652 -0.059988808
0000b0 9a 3f bf bd 88 d2 8f 3d 56 57 d8 bd 00 55 e7 3c
       -0.09338303 0.070225775 -0.10563533 0.028238773
0000c0 25 b7 45 bd dd db bb bc 29 7e 64 be b7 e4 cc bd
       -0.048270363 -0.022931987 -0.22313751 -0.100045614
0000d0 7e 5d 45 3d f7 d8 cd bd 76 40 5e 3e f1 ca 1b 3e
       0.048184864 -0.100511484 0.21704277 0.15214135
0000e0 51 7c c6 bb c3 a3 15 be 3b b4 24 3e b2 b7 b0 3d
       -0.0060573 -0.14613251 0.16084377 0.08628787
0000f0 49 bd a0 bd 6e 09 e8 3d 09 0b 1d 3e 0d b5 4b 3e
       -0.07848603 0.113299236 0.15336241 0.19893284
000100 0a e9 d7 bd 8d aa 2d bc 12 d1 39 bc 23 95 55 3d
       -0.105424955 -0.0105997445 -0.01134135 0.05214418
000110 05 d8 20 be 43 1f f2 bd 07 e3 b5 3d 3b 24 b5 bd
       -0.15707405 -0.11822369 0.08881193 -0.08844801
000120 0d 4d 9b 3d ab 6d 83 3c a6 62 16 3c 0e c9 20 3c
       0.07583056 0.016043505 0.009178793 0.00981356
000130 c9 63 89 3c 88 80 39 3d 0b 42 4d be 85 7e 86 3d
       0.016771214 0.045288593 -0.20044725 0.065671004
000140 9b 0f 95 bd 93 f3 ff bd ce 58 91 3d 6d 0f a5 3c
       -0.07278367 -0.1249763 0.07097016 0.020148957
000150 d9 38 02 3e 7c 47 8a bd e6 49 12 be 0e 64 44 3e
       0.12716998 -0.06751916 -0.14286003 0.19178793
000160 6a ab 30 bb ff f4 2e 3e 1d 7d 00 3e 52 9a 9c bd
       -0.002695764 0.17085646 0.12547727 -0.07646622
000170 54 8e d4 3d 3a a3 e6 3d e6 9a d9 bd f2 12 6f bd
       0.103787094 0.11261602 -0.10625248 -0.058367677
000180 ec 34 db 3d d1 f0 b2 3d e0 45 a7 bd bf 8e 9f bd
       0.107034534 0.08737338 -0.081676245 -0.077908985
000190 54 67 70 3e 7e 1d 1e bd d6 2d 24 3e 0e 11 18 3e
       0.23476917 -0.038602345 0.1603311 0.14850256
0001a0 b5 89 10 be 92 9e 16 be 27 2c 41 3e 82 c1 7f 3c
       -0.14115031 -0.14708927 0.18864499 0.015610101
0001b0 8a 2e 0a 3e a2 45 7e 3d 6c 17 fd 3d 56 a1 44 3e
       0.13494316 0.062078126 0.12357983 0.1920217
0001c0 53 a3 75 3e 17 6d 60 bd 75 9a 3e 3d b7 cf 1e 3e
       0.23988084 -0.054791536 0.04653402 0.15508924
0001d0 e6 c4 31 3e 15 7b 2e 3e 57 59 c9 bd 49 f6 c6 bd
       0.17360267 0.1703914 -0.09831493 -0.09714944
0001e0 c2 0d 36 be fa 17 e8 bc 31 e7 ec 3d 80 c8 40 be
       -0.17778686 -0.028331745 0.11567534 -0.18826485
0001f0 e1 81 12 3e 7b 10 ad bd 32 0a 46 be f1 02 a7 bd
       0.14307357 -0.08450409 -0.19339827 -0.08154858
000200 91 f6 24 3e e6 7a 6f 3e 65 2a 24 be 3c 16 1e 3d
       0.16109683 0.23386726 -0.16031797 0.038595423
000210 e2 7e d1 3d 91 9e 56 3d 2a 59 14 3e 7d ce 0d 3e
       0.10229279 0.052397314 0.14487138 0.138483
000220 3d ee 07 3e 80 e6 68 3d 07 57 ce bd 44 8a 04 be
       0.13274474 0.056860447 -0.10075193 -0.12943369
000230 33 b4 13 be c6 ba 7e bd 9d 6c 34 be 46 fe 69 bb
       -0.1442421 -0.06218984 -0.17619558 -0.0035704537
000240 19 83 ea 3d 19 58 0a bd fc c2 8d 3d da 7a 01 3d
       0.11450786 -0.033775423 0.06921956 0.0316113
000250 39 85 24 3e 98 30 20 3e c4 5b be 3b 56 5e 17 3e
       0.16066445 0.15643537 0.005809279 0.1478208
000260 ee 3f 47 3d 58 5a 67 3d c6 16 2a be a5 78 97 bd
       0.048644952 0.056482643 -0.1661025 -0.07396058
000270 ac 42 91 bd 42 8a 92 bc c0 d1 c5 3d bb a4 b3 bd
       -0.07092795 -0.017888192 0.09659147 -0.08771654
000280 7c 46 f2 bd 8b 23 47 3c 51 f9 a4 3d fb b0 1d 3e
       -0.1182985 0.01215447 0.08055366 0.15399544
000290 1c 89 22 be 93 83 08 3b e2 00 d2 bd 5f 16 5b bd
       -0.15872616 0.0020830377 -0.10254075 -0.05348813
0002a0 9e 75 5c be f7 bb 06 be 96 bb 92 3c 2d 0c 82 3d
       -0.21529242 -0.1315764 0.017911714 0.063499786
0002b0 b0 12 e4 3d 34 69 e9 3d c8 c7 4d 3e cc 5e 60 3e
       0.11136377 0.11397019 0.20095742 0.21911162
0002c0 d2 25 2b 3e f9 e5 a2 3d e8 94 21 be 09 b9 3f 3e
       0.16713646 0.0795402 -0.1577946 0.18722929
0002d0 c6 ee e2 bd bf 0f 80 bd a1 96 63 be 1b ed d7 bd
       -0.11080699 -0.06253003 -0.22225429 -0.10543271
0002e0 b2 97 b5 bd 44 97 20 3e 58 77 4c be 87 c4 43 be
       -0.08866824 0.15682703 -0.19967401 -0.19117938
0002f0 68 4a 53 3d 2f ed 56 bd 7f c1 af 3c ff d3 aa bd
       0.05158463 -0.05247229 0.02145457 -0.08341216
000300 4e 3d 10 be e0 c2 60 bd 2b 42 2e 3e a6 5c 08 be
       -0.14085886 -0.054873347 0.17017429 -0.13316593
000310 4c a6 b2 3d 45 5f f0 3d 8f e8 55 3e 22 d8 e6 bd
       0.08723125 0.11736921 0.20889495 -0.11271693
000320 14 e0 92 bc 79 9d 34 be 16 7a b7 3d e4 2c 0f be
       -0.017929114 -0.17638196 0.08958833 -0.13981968
000330 a0 93 21 3e b0 05 1b bb 0e aa dd bc 8c 74 24 bd
       0.1577897 -0.0023654513 -0.027058627 -0.04015021
000340 6a 2d af 3d 2f 8d bf 3d fc d6 9b bc b5 90 e6 3c
       0.08553584 0.093531005 -0.019023411 0.028145174
000350 ea e4 57 be 01 0f a6 3d 8f 3e 51 3e 94 a7 31 3e
       -0.21083418 0.081083305 0.2043402 0.17349082
000360 f8 72 f3 3d 87 53 1f be f9 ad 14 bc 2c 20 5f 3e
       0.11887163 -0.15559207 -0.009074681 0.21789616
000370 cb 3f 2e be f6 87 40 3e c0 a0 34 be 78 b7 38 be
       -0.17016523 0.18801865 -0.17639446 -0.18038738
000380 01 96 f4 3d 9c e9 e9 bd 51 75 1a bd 6f 7a 13 3e
       0.119426735 -0.114215106 -0.037709538 0.14402173
000390 ab 32 35 3e af 85 4c 3e d5 a7 a8 bd 05 ca 2a be
       0.1769511 0.19972871 -0.082351364 -0.16678627
0003a0 ad e1 08 3e 34 49 b9 bd 8b 18 07 bd ca ba 60 3d
       0.13367338 -0.090471655 -0.03298239 0.054865636
0003b0 00 23 0a be ee b4 c7 3d fd 94 22 3e 10 b4 e0 bd
       -0.13489914 0.097513065 0.15877147 -0.10971844
0003c0 79 91 3e be 05 83 16 bd 3e 35 29 3d c0 0a 26 bd
       -0.18610181 -0.036746044 0.04131054 -0.040537596
0003d0 80 5a 99 bd ac a9 14 3c d4 0f 39 be c7 55 14 be
       -0.07487965 0.009073656 -0.18072444 -0.14485846
0003e0 8e c0 cb bd 46 b0 34 3e 5c 29 12 3e 26 43 4c bd
       -0.09948836 0.17645368 0.1427359 -0.049868725
0003f0 51 2f 0c bc 5d f9 65 3d c4 44 27 3d 40 a1 95 bd
       -0.008556203 0.056146014 0.040837064 -0.073061466

net.0.bias f4 [64]
000000 6e ed 00 3d a5 4d bc bd de fc 24 3d e7 52 9c bc
       0.03147643 -0.09194497 0.040280215 -0.0190825
000010 0d 12 88 bd c3 c2 99 3c 22 88 a6 bd d4 9d 27 3e
       -0.06644068 0.018769627 -0.08131434 0.163688
000020 0e ec 0f be 4d 85 02 3b 66 0b 31 be 0c 35 80 3d
       -0.14054891 0.001991588 -0.17289504 0.06260118
000030 df 66 b2 bc 95 fb 80 3d 03 75 9f 3c 34 b7 47 3e
       -0.021777568 0.062979855 0.019464975 0.1950348
000040 8c ec 61 3e 94 99 30 3d 3d 77 d5 bb 26 cf c7 bd
       0.22062892 0.043115214 -0.0065144585 -0.09756307
000050 50 31 65 bd 68 56 8c 3b 2c 12 a0 bd ee af 2e 3e
       -0.05595523 0.0042827614 -0.07815966 0.170593
000060 a6 b5 16 bd ba 71 2a 3d 13 e3 ed 3c 3a 6c ae bd
       -0.036794327 0.041612364 0.029038941 -0.08516736
000070 bb 99 36 3e 97 5d 43 bd 4d 8d 0a be 1f 42 32 3d
       0.17832081 -0.047696676 -0.13530464 0.04352009
000080 95 1c b8 bd ff 8c 9a 3d 5e 7e 7a bd e7 0a fc 3c
       -0.089898266 0.07546424 -0.06115567 0.030766917
000090 06 d8 b7 bc 5d 12 68 3e 27 94 3e 3e 65 fa 7b 3e
       -0.022441875 0.22663255 0.18611203 0.24607237
0000a0 cc f5 7e 3d fb e5 42 3e a0 86 ad bd ff 15 be bd
       0.06224613 0.19033043 -0.08472943 -0.09281539
0000b0 1d da 12 3e 5e 52 be 3d 6e 93 b8 3d 6a f8 2c 3e
       0.14341016 0.09293054 0.09012495 0.16891637
0000c0 49 5e 01 3e c0 d9 f4 3d de e0 5e 3c df c4 16 bd
       0.12633623 0.11955595 0.013603417 -0.036808845
0000d0 db b4 bb 3d 68 23 69 3e 72 ca fd 3c a3 23 3d 3b
       0.09165355 0.22767413 0.030980323 0.0028860352
0000e0 f5 e9 16 3e d4 1f 35 3e 94 40 18 3d c3 44 38 bc
       0.14737685 0.17687923 0.03717096 -0.011246863
0000f0 d8 d3 ea bd be 51 48 3d fe 21 04 3e f8 a2 ae bd
       -0.11466187 0.04890608 0.12903592 -0.085271776

net.2.weight f4 [64, 64]
000000 8a 64 bf bd 95 50 00 be 24 46 b5 3d 6f f4 0f 3e
       -0.09345348 -0.1253074 0.08851269 0.14058088
000010 0e 05 cc 3d 42 e9 0c 3e f4 ca df bc 31 65 22 3d
       0.099619016 0.13760856 -0.027318455 0.039647285
000020 3e 59 93 3d 27 8a 36 bd fe 30 b4 bd 85 17 c8 3d
       0.07194756 -0.044565346 -0.08798407 0.09770111
000030 4d 8d 21 bd e9 a7 51 3d f0 16 58 bd cd 60 64 bd
       -0.039441396 0.051185522 -0.05275625 -0.05575638
000040 03 a5 33 bd 7f 8c b0 3c c6 76 42 3d 18 8d cf 3d
       -0.04385854 0.021551369 0.047476552 0.10134333
000050 13 8a ba bb fe 0e dd 3d db de 8d bd af b6 20 bc
       -0.0056927293 0.10793875 -0.06927272 -0.00980918
000060 b9 23 93 bd 29 42 07 3d 55 52 e7 3d 95 f5 b8 bd
       -0.07184548 0.03302208 0.112950005 -0.09031216
000070 b5 d1 16 3c 3c 25 f9 bd e6 ee 05 bd 4b 7c 6a bd
       0.0092052715 -0.12165305 -0.032698534 -0.05724744
000080 d4 f7 aa bc cc 5e 8a bd f1 9b 7c 3c 22 87 d1 bd
       -0.020870127 -0.06756362 0.015418039 -0.10230853
000090 be eb 72 bb 29 67 5f bd 76 3d a8 bd 35 fa d4 3d
       -0.0037066783 -0.05454174 -0.08214848 0.10399286
0000a0 4a 0b 85 3c 49 6a b0 bd 63 bd 29 bd 27 36 9c bd
       0.016240735 -0.08614022 -0.04144038 -0.07627516
0000b0 2f 49 a2 bd e7 44 3e bb 61 9b e9 ba 2e ec e7 3d
       -0.07924115 -0.0029032768 -0.0017822796 0.113243446
0000c0 87 24 b6 ba c4 39 9d bd 9b a5 a1 3d c0 e1 a6 ba
       -0.0013896384 -0.076770335 0.07892915 -0.0012732074
0000d0 d3 2e 43 bd 40 f1 a5 3d 6b 37 d2 3d 72 5b dd bd
       -0.047652077 0.081026554 0.102644764 -0.108084574
0000e0 e2 fd 01 be 45 c1 b6 bd f2 38 04 be 6c 49 08 bc
       -0.12694505 -0.08923582 -0.12912348 -0.008318286
0000f0 f1 31 12 3d 15 42 ed bd 7f 9b 04 be fa 8b da bd
       0.03569216 -0.1158487 -0.12949942 -0.1067123
000100 ad 6a ab 3c ac 4d e4 3d c7 22 4c 3e e5 98 41 3e
       0.02092489 0.11147627 0.19935142 0.18905981
000110 d9 8e 3b 3d 5f ce 5c bc b9 84 29 3e 73 53 ca bc
       0.045790527 -0.013476937 0.16554536 -0.024697995
000120 84 96 ac 3d af 28 06 3e 1e 29 91 3d 69 56 0c 3e
       0.08427146 0.13101457 0.070879206 0.13704838
000130 e9 3b 9b bd 27 c7 9e 3c f3 48 1a bd d9 d4 24 3e
       -0.07579786 0.019382073 -0.037667226 0.1609682
000140 18 b1 cb bc 99 06 5c 3d 4d b0 2c 3e 2c 73 21 3e
       -0.024864718 0.05371723 0.16864128 0.15766591
000150 5e 69 9e bc 72 bb c0 bc be 65 0b 3e 2f 89 ae 3d
       -0.019337352 -0.02352688 0.1361303 0.085222594
000160 6c 57 2b bd 04 ba 15 3e bb 98 31 bd ae 88 36 3e
       -0.04183142 0.1462174 -0.043358546 0.17825577
000170 b5 af 17 3e 4b 39 0c 3e 2a e9 37 3d 2b f0 90 3d
       0.1481312 0.1369373 0.044900097 0.070770584
000180 82 15 84 bd 24 b3 ea 3d 6f 4f 76 3d 9e c9 1f 3e
       -0.06449415 0.114599496 0.060134348 0.15604255
000190 f5 10 44 bb cc 2f 51 3e 5a 5e f7 3d a4 8b 09 3d
       -0.0029917334 0.2042839 0.12078543 0.033580437
0001a0 3c 37 a0 3d 44 cc d3 bb 85 45 9a bb 63 2b 5b bd
       0.07823035 -0.0064635593 -0.0047079944 -0.053508174
0001b0 f1 62 fb bc 68 6c bb 3d ae df 35 bb 71 f6 f6 3c
       -0.030686827 0.09151536 -0.0027751732 0.03014681
0001c0 68 bf 0b 3e 5a 20 80 3d 2f 1c 6c bc 36 70 e3 3b
       0.13647234 0.062561706 -0.014411016 0.006940867
0001d0 fd 92 91 3c 49 31 ff 3d 7e 22 2e 3e ab 18 17 3e
       0.017770285 0.12460572 0.17005345 0.14755504
0001e0 d7 03 e4 bc d7 10 03 3d c1 3b a8 3d 9c 3e a6 3c
       -0.027833862 0.03199848 0.08214522 0.020293526
0001f0 39 82 02 3e 52 37 8b 3d 2a d4 60 3d 5f e8 d6 bc
       0.12744989 0.06797661 0.054889835 -0.02623385
000200 12 6b 16 3e af dc 42 bd 0d 17 00 3d 99 7b 80 bd
       0.14689282 -0.04757374 0.031271983 -0.062735744
000210 2c fc 0c 3e d7 d3 55 3d e0 e0 cb 3d a7 7d 6d bd
       0.13768071 0.05220398 0.09955001 -0.05798116
000220 9c d1 9d 3c bf 85 a5 3d fc 1e f8 3d 1d 79 13 3e
       0.019264989 0.08082151 0.12115285 0.1440167
000230 aa 0b 87 3c 34 69 04 3d af 3f 98 3d a7 9d 18 ba
       0.016485054 0.032326892 0.07434022 -0.0005821832
000240 30 b4 e2 bb 37 97 8f bd 66 2e 8f bd f3 48 dd bc
       -0.0069184527 -0.07011264 -0.06991272 -0.027012324
000250 5d 83 65 3d 93 4f 55 3d a1 0c 37 3d fe b5 7f 3d
       0.05603348 0.05207784 0.04468978 0.06242942
000260 88 53 74 3c 24 83 9b bd 4f 67 10 3e fe 6c 3d bd
       0.0149124935 -0.075933725 0.14101909 -0.04624652
000270 ca b6 3f 3d 81 06 8b 3d 6e b4 97 3d 4e 30 44 bc
       0.04680518 0.0678835 0.07407461 -0.011974407
000280 e9 7a 88 bd a9 0d 10 3e 82 0a 57 3d af 02 20 3e
       -0.06664068 0.14067711 0.052500255 0.15626024
000290 16 b2 c4 3d ec 5b cd 3d c9 4d 87 3d 05 74 79 3c
       0.0960428 0.10027298 0.06606633 0.015225415
0002a0 cf 3f 1b bd b1 31 6b 3d 4b f5 2a 3e 21 c3 dc 3d
       -0.03790265 0.057420436 0.16695134 0.107794054
0002b0 4c fd 1c 3e 25 9b 23 3e 8d d4 12 3e ee 68 cf bc
       0.15331 0.15977152 0.14338894 -0.025318589
0002c0 e9 8d 13 bd 45 c7 15 3d 6e 92 9c bc 5c 1b 16 bb
       -0.036024008 0.03656699 -0.019112792 -0.002290449
0002d0 b8 d1 9d ba cd a0 1f 3e 1b 03 07 3d 0c 66 29 3e
       -0.001204065 0.15588684 0.032961946 0.16542834
0002e0 3f 22 3f bd 26 b8 ad bd e6 39 78 3d 3a db 7e 3d
       -0.04666352 -0.08482389 0.06060209 0.06222079
0002f0 d6 31 94 bc dc cd a7 bc 7a e4 9b 3d 22 07 2e 3d
       -0.01809017 -0.020483904 0.07611938 0.04248727
000300 10 e7 75 bb 2e 9f 05 3e 15 4f 99 bd 19 30 57 3d
       -0.0037521757 0.13049003 -0.07485787 0.052536104
000310 72 e9 a7 bc 38 fe 98 bd de c5 d4 3d 53 e1 07 3e
       -0.020497058 -0.074703634 0.10389303 0.13269548
000320 b9 8b 75 3b c3 7f d7 bd ba f9 1e 3d cc 6d 0a bd
       0.0037467314 -0.105224155 0.038812377 -0.033796117
000330 85 d7 bf 3c ce 34 6a 3c 22 1f a2 3d e6 97 07 bd
       0.023418197 0.014294816 0.07916094 -0.033103846
000340 85 08 ce bc 2b c1 40 bd bc 81 51 bd e8 c8 15 be
       -0.025150547 -0.04705922 -0.051149115 -0.14627421
000350 af 27 89 3d df 0f 96 3d b3 a0 0f 3e f6 bd 90 3d
       0.06697022 0.07327246 0.14026146 0.07067482
000360 4b b2 52 bc 12 14 26 bc 3a a6 af 3d 7b cc c6 bd
       -0.012859891 -0.010136621 0.08576627 -0.0970697
000370 44 4a fe 3d ac 5e 87 bd 15 ce aa bd f9 1c 02 be
       0.12416509 -0.06609854 -0.08340088 -0.12706365
000380 86 5e 20 3e 9c 42 fb 3d 83 b7 a5 3d b1 3d 8d 3b
       0.15661058 0.12268564 0.08091643 0.0043103327
000390 0a 50 14 3e 81 fc b2 3d cd 19 f8 3d cf 05 8c bd
       0.14483657 0.087395675 0.12114296 -0.068370454
0003a0 02 7c 96 3d 9c 47 e4 3d 76 f6 da bd cd 04 29 3e
       0.07347871 0.11146471 -0.1069154 0.16505738
0003b0 4e fd 20 bd 47 d7 c2 3c 58 18 b9 3c 0c 4d 99 3d
       -0.03930407 0.023784293 0.022594616 0.07485399
0003c0 95 91 60 3d a5 15 2b bd 81 83 ff 3d 94 87 ad 3d
       0.054826338 -0.04176869 0.12476254 0.08473125
0003d0 c8 bf 1e 3d 0d eb a2 bd cf 2f ca 3d c7 bd be 3b
       0.038757116 -0.07954989 0.098724 0.005820963
0003e0 b0 ef 19 bd 4c 88 30 3e ac b7 16 bd 73 87 89 3d
       -0.0375821 0.17239493 -0.036796257 0.06715288
0003f0 4d 84 f6 3d 66 0d d9 bd 97 3c 20 bd 3e 00 b7 bd
       0.12036953 -0.10598259 -0.039120283 -0.08935593

net.2.bias f4 [64]
000000 61 ef a3 bc c8 2b 71 3d 93 47 ee 3d 8b 0e 89 3c
       -0.020011606 0.058879644 0.116347454 0.016730567
000010 a6 88 0e 3e f5 15 ee 3d 54 7c 9d bd 54 58 c0 3c
       0.13919315 0.11625282 -0.07689729 0.023479618
000020 62 9e b5 3c 34 0d 78 3d 7b 32 0d 3e 62 37 3b 3d
       0.02217025 0.060559466 0.13788788 0.045707114
000030 ac 5f 8e bc 19 a1 82 bc cf 1f 9e bc db 78 a9 3d
       -0.017379604 -0.015945958 -0.019302277 0.082750045
000040 ac f4 d7 3d bf 16 9c 3d c5 6f 27 bd ad f8 a1 3d
       0.10544714 0.07621526 -0.040878076 0.07908759
000050 23 11 0d 3e bc 1d 01 bc e7 63 a7 3d 79 a6 14 bd
       0.13776068 -0.007880624 0.08173352 -0.036291573
000060 eb 09 21 3c dc 3e ff 3d 51 b6 85 3c 5c d0 e9 3c
       0.009829025 0.12463161 0.016322287 0.028541736
000070 de 37 a6 3d f9 2d 2a be a0 3d 03 3d 3b 85 85 3b
       0.081161246 -0.166191 0.032041192 0.00407472
000080 97 9a ed 3d e4 57 28 3d d4 c8 22 3e c2 be 1f 3c
       0.11601751 0.041099444 0.15896922 0.00975007
000090 05 08 d2 bd 2e b6 b0 3d 82 78 c5 3d f4 b9 2b be
       -0.10255436 0.08628498 0.09642126 -0.16770154
0000a0 bd fa 40 bd fa bd 56 3d 89 57 d5 3d ae ce e0 3d
       -0.047114123 0.05242727 0.10417087 0.10976921
0000b0 5a 5a 85 bd a6 97 81 bd 03 94 27 3e 48 e4 b3 bd
       -0.06511374 -0.06327753 0.16365056 -0.087837756
0000c0 cd 6d ec 3d 2b 83 52 bd 51 a7 55 3d 0c bf 98 3d
       0.1154438 -0.051394623 0.05216152 0.07458314
0000d0 5f 0d 0d 3e cb 21 21 bd 3b bb 49 bd 56 a3 4c bc
       0.13774632 -0.039338868 -0.049250823 -0.012490114
0000e0 0f 5f d6 3d 92 51 d3 bc 1d e1 99 bd e3 47 93 3c
       0.1046735 -0.025795732 -0.0751364 0.017978614
0000f0 28 f9 16 3e b9 8c 2f bd ed 99 50 3c 9f 70 2c 3e
       0.14743483 -0.042858813 0.012732011 0.16839837

net.4.weight f4 [64, 64]
000000 b6 04 6f 3d f5 36 0f 3e a3 92 8e bb 4e af 10 3e
       0.058354102 0.13985808 -0.0043509766 0.14129373
000010 f6 bf 37 bd c5 be f3 3d fc b3 f0 3d 5b 4f b3 3d
       -0.044860803 0.11901621 0.11753079 0.0875537
000020 a2 21 09 3e 81 38 0d 3e f2 78 11 3e 84 2c 70 bd
       0.13391736 0.13791086 0.14206293 -0.058636203
000030 05 ff ae 3d bb 53 ed bd c0 f7 b8 3d 56 da f9 bc
       0.08544735 -0.11588236 0.090316296 -0.030499619
000040 05 4d ce ba 52 6e 2c ba 09 0a 1d bd d0 28 c5 bd
       -0.0015739506 -0.00065777183 -0.03833965 -0.09626925
000050 2f a3 cd bd 82 f1 0f 3e 41 c7 ac 3d ee c7 9f 3d
       -0.100408904 0.14056972 0.08436442 0.078018054
000060 9b 4f 04 bc a9 ab fe 3d 76 40 fa bd 43 fb 5f 3d
       -0.00807562 0.12435085 -0.12219326 0.05468298
000070 38 f0 31 3e b5 a6 32 bd c1 51 1c 3c 51 80 9e 3d
       0.17376792 -0.043616015 0.009540976 0.07739318
000080 2e 26 86 bd f4 5f 0d be 9b 5c a8 bd ce ce bf 3d
       -0.06550251 -0.13806134 -0.08220788 0.09365617
000090 16 3b 07 be e7 6a f2 3d 52 8b 9d bb 55 84 12 be
       -0.13206133 0.11836796 -0.004807868 -0.14308293
0000a0 bb 48 fe bc 47 fc 08 3d ba 6f e0 3d bc f0 86 bd
       -0.03104054 0.033443715 0.1095881 -0.06588885
0000b0 92 f9 dd bd 3a ce 72 bb 54 83 3a 3e a9 0e 1c bd
       -0.108386174 -0.003704919 0.1821416 -0.03809992
0000c0 41 bf 6c 3d 30 11 c3 3d 9e 40 1e bd 96 2d 1a bd
       0.05779958 0.09524763 -0.038635843 -0.03764113
0000d0 65 c9 ed 3d f0 1b fc bb 77 8b 81 3d 41 60 26 3e
       0.116106786 -0.00769376 0.06325429 0.16247655
0000e0 f0 9e af 3d 14 72 ff 3d 80 df 1e 3e 96 40 90 bc
       0.08575237 0.124729306 0.15514946 -0.017608922
0000f0 73 89 43 3a 49 0a 67 3d 6f 71 82 bd 52 01 88 3d
       0.0007459141 0.056406293 -0.06369292 0.06640877
000100 7c c0 d6 bc 76 74 8f bd c0 76 8b bd fd 4a ea 3a
       -0.02621483 -0.07004635 -0.06809759 0.0017875131
000110 88 16 ea bd e1 aa 43 3d 82 a6 16 bd 39 e4 4e bd
       -0.11430079 0.047770385 -0.036779888 -0.05051062
000120 31 71 f2 bd 1c 4a 08 3d 9f 19 b8 bd 9d 0e c7 3d
       -0.11837996 0.0332738 -0.08989262 0.09719584
000130 c6 37 ed bc 08 18 84 bd c0 0f 94 3d 91 51 c8 3d
       -0.028957259 -0.06449896 0.072295666 0.097811826
000140 fb 3a 0a be 30 64 5a bb e3 eb 29 3c 03 89 92 bc
       -0.13499062 -0.0033323877 0.010371181 -0.017887598
000150 ad 81 05 3d e7 13 a2 bd b8 62 3c 3d a8 50 27 bd
       0.03259437 -0.07913952 0.045992583 -0.040848404
000160 e5 1c 01 be 9c 34 5f bb 53 06 2b 3d 9a 5e b0 3c
       -0.12608679 -0.0034058457 0.041754078 0.021529485
000170 71 ed 04 be 50 9b c3 3d 68 ed fa bd 3d 44 9c 3d
       -0.12981202 0.09551108 -0.12252313 0.07630203
000180 ce 95 f7 3d 71 4c c6 3d d0 af aa 3d d6 62 c0 bd
       0.1208912 0.09682549 0.08334315 -0.093938515
000190 4b 4f 23 3c 1f 2d af 3d d5 18 05 be e5 8c ac 3d
       0.009967635 0.08553528 -0.12997754 0.08425311
0001a0 af a8 9b bd 37 4d 95 3d a4 96 65 3d 82 f4 82 3d
       -0.07600533 0.07290118 0.056051865 0.063942924
0001b0 60 59 51 bd 69 45 45 bc ad cc 99 3c 42 a0 b7 bd
       -0.051110625 -0.012040474 0.018774355 -0.089661136
0001c0 0c d2 50 bd 17 f8 02 be 55 e8 29 3e 21 e4 0b be
       -0.050981566 -0.12789951 0.16592534 -0.13661243
0001d0 49 1d d1 bd cb d7 36 3d e8 f0 73 3d 27 5e bd 3d
       -0.10210664 0.04463939 0.059555918 0.09246474
0001e0 30 ee 8e 3d c0 51 c1 3d d3 c8 c0 bd 0e 1a 96 3d
       0.069790244 0.09439421 -0.09413304 0.07329188
0001f0 93 bd a1 3d 26 a5 2f bd ea a7 d3 3d b0 10 b1 3d
       0.078974865 -0.042882107 0.103347614 0.08645761
000200 f7 c2 fc 3d 5f f1 cc 3d 13 20 82 3d 44 e4 d7 bd
       0.12341874 0.100069754 0.06353774 -0.10541585
000210 58 d0 c4 3c 70 37 f8 bc 36 63 fb bd ee bd 54 3d
       0.024025127 -0.030299872 -0.12274782 0.051938944
000220 3a c9 2e bd a6 f6 40 bc 12 b1 39 3d 03 b9 b5 3d
       -0.042672373 -0.011777556 0.045334883 0.08873179
000230 66 b5 5b bd eb e2 80 3d 1e c6 df bc 7c f0 6b 3d
       -0.053639792 0.06293281 -0.02731615 0.05760239
000240 1a da a8 3b 9c f9 1d 3e 71 f1 2a 3d 01 cd d1 3c
       0.005152953 0.1542725 0.041734163 0.025610449
000250 12 2e 90 3d c0 10 4f 3d db 58 8f 3d a9 e5 a3 3c
       0.07040037 0.050553083 0.0699937 0.020006971
000260 c3 17 84 3d 6c 91 da 3d 08 d0 10 3e 49 5f e7 38
       0.06449845 0.10672268 0.14141858 0.000110326866
000270 e2 a3 82 bd 2b c9 df 3d cd 01 4e bb 5f c9 aa bd
       -0.063789144 0.109270416 -0.0031434179 -0.0833919
000280 1f 8c 25 3d 39 e3 41 3c d2 28 75 3c 30 db 7a 3d
       0.040416833 0.011833959 0.014963346 0.06124419
000290 6a 0c fe 3c 5e 4d f8 bd 1c b8 84 bd f5 1e 31 bd
       0.031011779 -0.121241316 -0.064804286 -0.043242414
0002a0 42 12 cb bd bd 16 6a bc 26 0d 5c 3d 05 ae 1c 3e
       -0.09915592 -0.014287648 0.053723477 0.15300758
0002b0 ac 9f 9d bc 80 d4 7a bd 35 4a 56 3d 0d 59 d4 bd
       -0.019241177 -0.061237812 0.052316863 -0.103685476
0002c0 b5 52 e9 3c d3 8c e2 bd 22 c5 ae bb a4 f3 21 3d
       0.02848182 -0.11062016 -0.0053335587 0.039538994
0002d0 82 e2 84 3d 97 67 c2 bd e3 ca 6c 3d 62 67 e5 bd
       0.064885154 -0.094924144 0.057810675 -0.11201359
0002e0 b9 54 80 bd 1c a2 f9 b9 61 ac 6a bd a0 c7 b1 3d
       -0.062661596 -0.00047613762 -0.0572933 0.086806536
0002f0 37 ff 31 3e f7 dc 25 3d 37 54 2d 3a ae 76 a4 3d
       0.17382513 0.04049393 0.0006611975 0.08030449
000300 0b 18 5c 3d 4f fb dd 3c 51 c6 b1 3d 61 9f 16 be
       0.053733867 0.027097372 0.08680404 -0.14709236
000310 70 14 fe bc aa 57 ba bd 9a 95 3a be a6 30 ac 3d
       -0.031015605 -0.09098752 -0.18221131 0.084077165
000320 45 3e db bd 90 79 83 bd 30 c8 cc 3d 54 50 54 bd
       -0.10705236 -0.064196706 0.0999912 -0.05183442
000330 ae 26 07 bd 29 d7 2f 3e 96 46 34 3d b5 a5 1d 3d
       -0.032995872 0.17171921 0.04401263 0.03848811
000340 b7 ab 93 3c 01 28 62 3d b7 3e 36 3e f4 d6 33 3e
       0.018026216 0.055213932 0.17797361 0.17562467
000350 45 25 7d 3d 82 35 28 bd e0 54 8f bd 58 02 ad 3d
       0.06180312 -0.041066654 -0.069986105 0.08447713
000360 25 aa f7 bd 72 d9 d8 bd 81 b4 a3 bd 01 09 90 3d
       -0.12092999 -0.105883494 -0.07993413 0.07032967
000370 ac df 27 bb 53 d4 88 3c 5e 1d 88 bc a5 5a 98 bd
       -0.0025615497 0.016702807 -0.016615566 -0.07439164
000380 71 ba 23 3d ae a8 3d 3d d3 b3 d5 3c 1f 43 57 3d
       0.039972726 0.046303444 0.026086723 0.052554246
000390 90 f8 b0 bd 4f 28 59 3c 62 87 9e bd 49 17 52 bd
       -0.086411595 0.013254239 -0.07740666 -0.051291738
0003a0 4f ff 18 bc 03 9f e5 bc 7a 04 70 3d d9 dc 04 3d
       -0.009338214 -0.028029924 0.05859802 0.03243718
0003b0 e9 56 8d bd 7b de 11 3e 29 96 39 bd 0e 07 d2 3d
       -0.069013424 0.14245026 -0.04530922 0.10255252
0003c0 fd 3e e0 3c 6d c1 9f 3d 86 20 15 bd 26 e3 35 bd
       0.027373785 0.07800565 -0.03640797 -0.04440608
0003d0 cb bf ef 3d bc 88 92 bc 74 8b 87 bd 64 49 c6 3c
       0.117065035 -0.017887466 -0.066183954 0.024204917
0003e0 3c 76 49 bd 5a b0 90 3d 34 35 98 bd 42 38 17 3e
       -0.049185023 0.070648864 -0.07432023 0.14767554
0003f0 c2 82 12 3e af ef 30 3e 6e fd b0 bc d2 57 e8 3c
       0.14307693 0.17278932 -0.02160522 0.028362188

net.4.bias f4 [64]
000000 78 85 bf 3d 06 2c b7 3d 37 6b 9a bd 0b 5f 48 3d
       0.09351629 0.08943944 -0.07539981 0.048918765
000010 9c 36 46 3c 25 ad 33 bd 6c 9d 6d 3d 3f c7 a7 bc
       0.012097981 -0.043866295 0.058011457 -0.02048075
000020 48 1d b3 bc 0a eb d4 3c e7 83 af bc 87 3e be 3b
       -0.021864548 0.025990982 -0.0214252 0.0058057937
000030 e4 71 06 3e b6 97 a0 3d b2 d6 d2 bb b2 51 e6 3d
       0.13129383 0.078414366 -0.006434285 0.11246051
000040 7a 1a 6b bd f2 27 e6 bc 30 ad b3 3d 32 a8 0e 3e
       -0.057398297 -0.02809522 0.08773267 0.13931349
000050 59 d3 6f 3d 6e b0 68 3c 8f c5 81 3d 78 de 84 3b
       0.058551166 0.01420222 0.063365094 0.0040548407
000060 de 16 46 3c 40 f2 2b bd 8a 06 bc 3d 3c d2 87 bd
       0.012090413 -0.041979074 0.09180935 -0.06631896
000070 04 a2 7e 3d 61 fe d0 bc dd 53 18 bd a7 d1 2c 3d
       0.06216623 -0.025511922 -0.037189353 0.042192128
000080 b9 77 a5 bd ca 01 f2 bc 9a 63 90 3d 45 82 ab bd
       -0.08079476 -0.029541869 0.070502475 -0.08374456
000090 cb e9 19 3e 50 b3 8d 3d f0 88 14 3e f5 9d 12 3c
       0.15030591 0.06918967 0.14505363 0.008948793
0000a0 17 1d 8c bc 08 08 31 bd 92 51 11 3d 8c 9c 4b 3d
       -0.017103715 -0.04322055 0.035478182 0.04970984
0000b0 fc a2 d1 3d f5 4e 70 bd 1d 39 a7 3d 66 86 77 3d
       0.10236165 -0.05866905 0.0816519 0.060430907
0000c0 5a 68 93 3d 8f 01 ac bc 08 1d 90 bd 1a 31 f7 bd
       0.07197638 -0.020996837 -0.07036787 -0.12069912
0000d0 88 ca 40 3d 2f c0 21 bd 78 be 6f bd 15 08 34 bd
       0.04706815 -0.03948992 -0.058531255 -0.04395302
0000e0 7a 9a e4 3c c7 ff c6 3a c6 47 6a 3d fc 98 fe bb
       0.027905691 0.0015182429 0.057197355 -0.007769702
0000f0 9c fd 36 bd bd 82 a9 bd 6e 4e a1 3d 9e b2 a1 3d
       -0.044675454 -0.082768895 0.078762874 0.07895397

net.6.weight f4 [1, 64]
000000 12 24 e5 3d 44 fd eb bd 68 77 bb bd 84 f6 21 be
       0.111885205 -0.11522916 -0.09153634 -0.15816694
000010 04 7b c1 bd 54 58 6c be 7e e2 22 be 43 b7 3b be
       -0.094472915 -0.2308057 -0.15906712 -0.18331628
000020 47 36 38 be 3d 70 21 be 98 9e 56 be 94 c1 c0 3d
       -0.17989455 -0.15765472 -0.20958936 0.09411922
000030 46 41 93 bd 07 3e 3c 3e 4e 0a 82 3d b0 cd 6a 3d
       -0.07190184 0.18383037 0.06349622 0.057325065
000040 6a de 14 3e 6d 52 31 be 37 d4 47 3e 39 b7 20 3e
       0.14537969 -0.17316599 0.19514547 0.15694894
000050 52 c9 14 be 6b b2 2a be 66 37 ee bd 14 65 8a 3e
       -0.14529923 -0.16669624 -0.1163166 0.2703024
000060 21 bd 34 3e c7 e2 07 3e 7a 17 14 be ae 5a 29 be
       0.17650272 0.13270102 -0.1446208 -0.16538498
000070 d6 45 d2 bd c7 4e a8 3d 6b 4a d9 3d 50 1a 21 be
       -0.102672264 0.082181506 0.10609897 -0.15732694
000080 d1 1c 11 3e 79 54 10 3e ac 39 36 be 08 94 1d 3e
       0.14171149 0.14094724 -0.17795438 0.153885
000090 31 f3 1e 3e 95 36 35 3e b8 e5 28 3e a3 aa cd bd
       0.15522458 0.17696603 0.16493881 -0.10042312
0000a0 21 10 27 3e 12 5d 00 3e 0e 15 f7 3d c5 a4 d9 bd
       0.16314746 0.12535504 0.12064563 -0.106271304
0000b0 0f 1a 8c 3d c0 49 e0 bd 42 42 ef 3d a7 27 79 be
       0.06840908 -0.10951567 0.116825595 -0.24331532
0000c0 be b9 e9 3d a8 b0 2a 3e 6c 1c 26 3e 33 be 30 3e
       0.11412381 0.16668952 0.1622178 0.17260055
0000d0 e4 bc 2e 3d bb 50 f8 3d 1b 58 02 3e 5d 81 aa 3d
       0.04266061 0.12124773 0.12728922 0.08325455
0000e0 11 b1 02 be 01 1d 3a be f8 9c dc 3d cc 01 42 3e
       -0.12762858 -0.18175127 0.10772127 0.18945998
0000f0 c5 d1 38 be 39 81 e3 3d 70 0a a5 bd 96 c5 cf 3d
       -0.1804877 0.11108632 -0.080586314 0.101451084
