cancer_iterative/cancer_models/10_train/tvae_combined_final_model.pt (torch, 45513 bytes, 7 tensors)

net.0.weight f4 [64, 30]
0.15750921 0.20559901 0.24108939 -0.24288975 -0.022464687 -0.1528269 -0.22758928 0.15487128
-0.27026227 0.1888428 0.043971565 -0.088103 0.17557439 0.07085716 0.19120407 -0.18821819
0.10855357 -0.16208476 0.074681014 0.25872117 0.19114624 0.17797375 -0.074849844 0.094462775
0.21256582 -0.10554001 -0.09723529 -0.31104326 -0.1413579 0.026957948 0.00893825 0.08590793
-0.07520953 0.11409989 0.005416139 -0.076131396 0.08885554 0.09970387 -0.14224875 -0.044781413
0.14590685 -0.056257743 -0.08642115 0.29200986 -0.13428596 0.06315426 -0.0038363705 0.10404943
0.0071404693 -0.1247189 0.23756371 0.09633415 0.2079388 0.04592836 0.1506436 0.14283596
0.08660749 -0.12399454 0.13912684 -0.161706 -0.11226379 -0.14621253 0.091056205 0.1389993
-0.2079917 0.20239018 0.0710934 0.13824615 -0.032511856 0.3154041 -0.31720614 0.10379944
-0.04342645 -0.1551278 0.12219751 0.14372389 0.026381785 -0.15712073 0.001134412 0.22261386
-0.33291093 0.005451878 0.17170121 0.07025799 0.057117682 0.14381866 0.02751589 0.11728886
0.11629615 -0.09065394 0.029009763 -0.060525086 -0.12985116 0.1045964 0.07009843 -0.10037847
0.2130955 -0.09599621 0.12290584 0.14824778 0.019459464 0.030051759 -0.10441714 0.20282793
0.13127558 -0.29092026 -0.1254042 0.043832656 0.1426876 0.080906615 -0.31047255 0.16447257
0.022634575 -0.050433837 0.011164165 -0.1744002 0.23612463 -0.30843133 0.28046927 -0.16459918
0.12114643 -0.26224852 -0.17372069 0.048682388 0.14453994 0.22417735 0.032464944 -0.21468972
-0.15366466 0.0966301 -0.040741056 -0.23831965 -0.13189583 0.05084742 -0.13034198 0.048330866
-0.08268684 -0.024246978 0.031453505 -0.30442634 0.071299985 -0.36068842 0.078037664 -0.03558964
-0.0752773 -0.1029805 0.14142193 -0.0075674495 -0.08635517 0.23462614 0.19509572 -0.13301134
-0.15855163 0.005188184 0.099717826 -0.07512051 0.18593898 -0.28112912 0.22470252 0.22485456
0.005266874 -0.0881981 0.1480734 0.34779194 0.14156787 0.0036420964 0.104487225 -0.03545439
0.24437767 -0.009924554 -0.32043606 0.12745082 -0.07321834 -0.3129991 0.1315798 0.06297174
-0.05660274 -0.1659328 0.055955913 -0.075306885 -0.07360769 0.06394025 0.16296063 -0.06301622
-0.19470887 -0.024503637 0.18124118 -0.01127101 0.1732124 -0.17878357 -0.14714399 -0.1658931
0.16619653 -0.040295642 -0.05277608 -0.14644535 -0.19330868 -0.025513327 -0.18303917 0.10898326
0.16691019 0.03282313 -0.3075848 -0.25820765 0.15341638 0.0388167 0.23272033 -0.3299663
0.025541484 -0.0900099 -0.15835732 -0.07297655 -0.20624608 -0.02513467 0.04295121 -0.04832223
-0.12360348 0.022596536 -0.10167041 -0.1317712 -0.052669615 0.22650452 0.06218608 -0.031158764
-0.17297201 0.045778595 0.31180143 -0.10406807 -0.18286069 -0.032027088 -0.29473758 -0.33957198
-0.008395099 -0.08503758 -0.006519234 0.001195537 0.11150668 0.18274464 0.07987228 -0.2100103
0.048108947 -0.26495776 -0.032296803 0.02618339 0.05486802 -0.004272313 0.12870315 0.022113714
0.056346074 -0.04073004 -0.15242116 0.18715747 -0.13165988 0.175264 0.15654814 0.15515746
00000000: 184a 213e 8c88 523e 23e0 763e 17b8 78be
00000010: dd07 b8bc a87e 1cbe 2a0d 69be 9496 1e3e
00000020: d15f 8abe 0260 413e 871b 343d 586f b4bd
00000030: c6c9 333e 8f1d 913d 00cb 433e 45bc 40be
00000040: 5651 de3d 8cf9 25be 5cf2 983d 1a77 843e
00000050: d7bb 433e c03e 363e e04a 99bd b375 c13d
00000060: dbaa 593e 5c25 d8bd 4c23 c7bd 1041 9fbe
00000070: 20c0 10be ead6 dc3c bd71 123c 7ff0 af3d
00000080: 7407 9abd 34ad e93d de79 b13b c7ea 9bbd
00000090: e5f9 b53d 8b31 cc3d a8a9 11be b76c 37bd
000000a0: 9b68 153e 856e 66bd 92fd b0bd 5182 953e
000000b0: 4282 09be 0557 813d 9e6b 7bbb de17 d53d
000000c0: 99fa e93b 9f6c ffbd e743 733e d74a c53d
000000d0: e9ed 543e 601f 3c3d 5142 1a3e 9743 123e
000000e0: 455f b13d d9f0 fdbd 4477 0e3e 4296 25be
000000f0: 8fea e5bd bdb8 15be ad7b ba3d d555 0e3e
00000100: c7fb 54be 5f3f 4f3e 6b99 913d 6690 0d3e
00000110: 272b 05bd a57c a13e d868 a2be cd94 d43d
00000120: efdf 31bd d2d9 1ebe b042 fa3d 5b2c 133e
00000130: 9d1e d83c 42e4 20be 8db0 943a e3f4 633e
00000140: 4d73 aabe aba5 b23b 71d2 2f3e 6ce3 8f3d
00000150: 3bf4 693d 3345 133e 0169 e13c 2435 f03d
00000160: ad2c ee3d c6a8 b9bd e2a5 ed3c 27e9 77bd
00000170: b4f7 04be a336 d63d c48f 8f3d 3a93 cdbd
00000180: b535 5a3e a999 c4bd 0fb6 fb3d 44ce 173e
00000190: 7469 9f3c 1b2f f63c a7d8 d5bd 20b2 4f3e
000001a0: 1b6d 063e 80f3 94be f569 00be df89 333d
000001b0: b31c 123e 5eb2 a53d 42f6 9ebe 7f6b 283e
000001c0: 256c b93c b693 4ebd e7e9 363c f795 32be
000001d0: a8ca 713e b6ea 9dbe ab99 8f3e b08c 28be
000001e0: 9f1b f83d 7045 86be d6e3 31be 2f67 473d
000001f0: 4702 143e bf8e 653e f6f9 043d 9fd7 5bbe
00000200: 455a 1dbe 00e6 c53d 18e0 26bd 110a 74be
00000210: b30f 07be 6245 503d 5e78 05be 96f6 453d
00000220: b857 a9bd 99a1 c6bc 64d5 003d c5dd 9bbe
00000230: ba05 923d 27ac b8be 36d2 9f3d 71c6 11bd
00000240: fc2a 9abd 71e7 d2bd e9d0 103e 5ef8 f7bb
00000250: fbda b0bd d641 703e 2cc7 473e 2034 08be
00000260: 5c5b 22be a401 aa3b dc38 cc3d c8d8 99bd
00000270: ca66 3e3e 28f0 8fbe 6b18 663e 4640 663e
00000280: be95 ac3b 35a1 b4bd 8ea0 173e c911 b23e
00000290: 2bf7 103e 3db0 6e3b 66fd d53d 9f38 11bd
000002a0: 243e 7a3e 999a 22bc 3210 a4be 7882 023e
000002b0: 7ff3 95bd 6b41 a0be dbbc 063e 54f7 803d
000002c0: 46d8 67bd 4aea 29be 0732 653d 7f3a 9abd
000002d0: a1bf 96bd 1bf3 823d 27df 263e a60e 81bd
000002e0: c361 47be dabb c8bc 4a97 393e 0baa 38bc
000002f0: 975e 313e 0a13 37be eaac 16be e1df 29be
00000300: 6c2f 2a3e 0b0d 25bd bb2b 58bd c5f5 15be
00000310: b6f2 45be 5301 d1bc 9f6e 3bbe 9e32 df3d
00000320: 81ea 2a3e 8c71 063d c17b 9dbe cb33 84be
00000330: 2f19 1d3e 43fe 1e3d 3d4e 6e3e 58f1 a8be
00000340: 603c d13c 1c57 b8bd 6c28 22be bb74 95bd
00000350: 2c32 53be 39e7 cdbc 9ced 2f3d 88ed 45bd
00000360: d223 fdbd 5f1c b93c 9338 d0bd 08ef 06be
00000370: 18bc 57bd cdf0 673e d5b6 7e3d aa40 ffbc
00000380: 931f 31be 5682 3b3d 70a4 9f3e a421 d5bd
00000390: d53f 3bbe d62e 03bd d8e7 96be 61dc adbe
000003a0: 998b 09bc 2f28 aebd 4c9f d5bb 91b3 9c3a
000003b0: 9d5d e43d 6921 3b3e 1494 a33d f10c 57be
000003c0: e30d 453d 8ba8 87be a749 04bd 8c7e d63c
000003d0: 4abd 603d c2fe 8bbb c2ca 033e d227 b53c
000003e0: 24cb 663d 8bd4 26bd 4b14 1cbe 35a6 3f3e
000003f0: d9d1 06be 6878 333e 284e 203e 99e1 1e3e

net.0.bias f4 [64]
-0.13213375 -0.07484971 -0.039964687 -0.012580889 -0.09207517 0.13669492 -0.11864392 -0.111264735
-0.21329927 -0.04722723 0.14446309 -0.14847028 -0.012147135 -0.25781116 -0.07064109 -0.2055682
0.048451517 0.18816797 -0.07416487 0.0063862577 0.05023166 0.038376387 0.07839546 0.08155587
-0.044604376 -0.31955737 -0.15718341 -0.12353977 0.011719331 -0.25208798 -0.21208611 -0.055480734
-0.2825949 0.03847999 -0.01793366 0.10973133 -0.12623021 -0.047679316 -0.25567332 0.05921471
-0.1836201 -0.10658692 0.028242692 -0.022819234 0.20813051 -0.016666159 -0.100783974 0.002736881
0.09298607 0.075608864 0.08118377 0.12535918 -0.05844232 -0.1587662 -0.057057813 -0.229563
-0.04000873 -0.0066673476 -0.17811422 0.12106198 -0.01240252 -0.12453381 -0.05626141 -0.23554891
00000000: 124e 07be ce4a 99bd 03b2 23bd 1320 4ebc
00000010: e891 bcbd c1f9 0b3e 95fb f2bd c4de e3bd
00000020: 206b 5abe 5771 41bd 22ee 133e 9808 18be
00000030: c704 47bc d3ff 83be 47ac 90bd 7880 52be
00000040: 1975 463d 1baf 403e c0e3 97bd d043 d13b
00000050: b7bf 4d3d 8f30 1d3d cd8d a03d c406 a73d
00000060: 14b3 36bd 069d a3be b0f4 20be 6b02 fdbd
00000070: 7002 403c ad11 81be 1a2d 59be c43f 63bd
00000080: 47b0 90be 329d 1d3d 9ce9 92bc d2ba e03d
00000090: 7e42 01be 634b 43bd 9de7 82be 208b 723d
000000a0: e806 3cbe 3e4a dabd 385d e73c 67ef babc
000000b0: 2a20 553e 7887 88bc d467 cebd 3e5d 333b
000000c0: 7b6f be3d d2d8 9a3d ad43 a63d 285e 003e
000000d0: 3761 6fbd 9b93 22be 74b5 69bd 9012 6bbe
000000e0: 32e0 23bd c479 dabb 9363 36be 58ef f73d
000000f0: f033 4bbc 950b ffbd 5d72 66bd bc33 71be

net.2.weight f4 [64, 64]
0.26394227 0.061057154 0.020956839 -0.20898795 0.14173062 -0.20869611 0.13419195 0.030705912
0.03764516 0.09592241 -0.066376895 -0.04633065 0.010115975 0.21067257 0.061842505 0.08663288
0.23293532 -0.008020236 0.09296701 0.1047535 -0.09930585 -0.08222207 -0.091989115 -0.10508076
-0.063173674 0.25119013 -0.10347463 0.10786307 0.10483897 0.2544753 0.02748718 0.00037828437
0.06962053 0.04745772 0.0055596433 0.058460157 0.0051631564 -0.12956324 0.053407222 -0.13851818
-0.108077146 -0.11204085 0.016689124 -0.19398582 -0.0030844617 -0.08019863 0.06251211 -0.0046788277
-0.054156534 -0.040090375 0.044756014 -0.1669527 0.01791624 -0.0722864 0.13990855 0.10181443
0.17883174 -0.15485987 -0.14095685 -0.36870867 0.06743073 0.0685143 0.046937592 -0.2377737
0.31899118 0.074705645 -0.10064269 0.0056432015 0.24069268 -0.07086978 0.02897759 0.12606852
0.027746104 0.09788594 0.1379895 -0.059164893 -0.05954523 0.05933654 0.1858513 0.123108774
0.06343472 0.08234066 0.11054783 0.058090422 -0.0058305166 -0.04916965 0.16646677 -0.25087675
-0.10572811 0.19265103 -0.043691445 0.14075159 0.1214224 0.19943774 0.014268447 -0.058138847
0.034762774 -0.05783444 -0.030262789 -0.14234804 0.14994806 -0.018373448 0.14598581 -0.0584439
-0.1236102 -0.061033744 -0.1530775 -0.025864044 -0.0634083 -0.21270701 -0.0056300135 -0.07464647
-0.03913049 -0.069350265 -0.032571223 -0.004707474 0.084819876 -0.21356298 0.09901686 0.13159114
0.18951717 0.08748499 0.037602812 -0.19324483 -0.041410144 0.004435443 -0.023717143 -0.2069969
0.10730281 -0.083255336 -0.019046359 0.12561698 0.013789009 -0.11531771 -0.17436247 0.046163004
0.008055549 -0.048948087 0.093661346 0.009678907 0.029041555 -0.16691913 0.029482005 -0.005037459
-0.0029300626 0.07709604 -0.025123168 -0.06935408 -0.048867714 0.05396769 0.053792387 -0.009253873
-0.028961115 0.0337735 0.11161032 0.0040144473 -0.0957876 0.18362229 -0.0005922325 -0.049265012
0.09104665 -0.12386703 -0.032687213 -0.14802948 0.0996869 -0.18756953 0.116218135 -0.053939488
-0.028696794 -0.11366558 -0.024717461 0.07453209 -0.16908397 -0.08561071 -0.12654695 0.011193013
-0.15860851 0.025872286 0.06263053 0.050139837 0.02743753 0.09083201 -0.08955386 0.022052478
-0.096586116 0.05069767 -0.021895083 0.003062755 -0.09358827 -0.10414232 -0.09236964 -0.08033784
-0.1777761 0.039406862 0.08252879 0.061121322 -0.07324609 0.19401969 0.13753523 -0.24725072
-0.00821784 0.132176 -0.08686337 0.15832542 -0.015052438 0.07532101 0.034226224 -0.11481452
-0.04245823 0.14296113 -0.059646342 -0.0008627786 0.06654144 0.012957169 0.15741056 -0.009423304
0.13433585 -0.116079085 -0.004818114 -0.17896737 -0.032345958 -0.074155524 0.038892858 0.21332498
0.058486167 0.06704189 0.038887866 0.40044436 -0.08186805 0.25178528 0.069758095 0.17351298
0.22208689 0.054011438 -0.07655424 0.108904116 0.3051716 0.16044861 0.093082696 -0.13255697
0.20076506 0.21675794 0.033642493 0.18519166 0.0544002 -0.0481848 0.13546707 -0.14436999
-0.18056227 -0.09130969 0.034305435 0.089198835 0.180552 -0.08616338 0.14499877 -0.06874557
00000000: 7123 873e 1117 7a3d adad ab3c f000 56be
00000010: d521 113e 6fb4 55be 9d69 093e f78a fb3c
00000020: d031 1a3d f872 c43d 9cf0 87bd 35c5 3dbd
00000030: 79bd 253c 8dba 573e 914e 7d3d 946c b13d
00000040: 9986 6e3e 4f67 03bc 7d65 be3d 0189 d63d
00000050: de60 cbbd 0b64 a8bd ca64 bcbd 9534 d7bd
00000060: 3361 81bd fe9b 803e 82ea d3bd 50e7 dc3d
00000070: d0b5 d63d 964a 823e cb2c e13c 7854 c639
00000080: 3595 8e3d 0763 423d ab2d b63b eb73 6f3d
00000090: b22f a93b 3aac 04be 88c1 5a3d b6d7 0dbe
000000a0: 8d57 ddbd ac75 e5bd a1b7 883c 38a4 46be
000000b0: ae24 4abb 2e3f a4bd 5906 803d da50 99bb
000000c0: 3ed3 5dbd ce35 24bd 1552 373d a6f5 2abe
000000d0: 14c5 923c e40a 94bd 3044 0f3e 1584 d03d
000000e0: ab1f 373e 9693 1ebe fe56 10be 62c7 bcbe
000000f0: 1f19 8a3d 3a51 8c3d a241 403d f37a 73be
00000100: d052 a33e 46ff 983d c11d cebd 9bea b83b
00000110: 2478 763e 2d24 91bd 6962 ed3c 1b18 013e
00000120: cc4b e33c 6c78 c83d 1f4d 0d3e e356 72bd
00000130: b3e5 73bd df0a 733d ce4f 3e3e 7420 fc3d
00000140: 10ea 813d 38a2 a83d e766 e23d 39f0 6d3d
00000150: eb0d bfbb 1d66 49bd 4476 2a3e eb72 80be
00000160: fb87 d8bd 5046 453e cdf5 32bd 2f21 103e
00000170: 4fac f83d 6839 4c3e 34c6 693c 0023 6ebd
00000180: 6963 0e3d cee3 6cbd abe9 f7bc afc3 11be
00000190: fc8b 193e ea83 96bc 4e7d 153e df62 6fbd
000001a0: 5827 fdbd 85fe 79bd 59c0 1cbe d5e0 d3bc
000001b0: 36dc 81bd decf 59be fa7b b8bb 40e0 98bd
000001c0: 4b47 20bd 8307 8ebd 6769 05bd 2741 9abb
000001d0: 0bb6 ad3d 41b0 5abe 5ac9 ca3d d4bf 063e
000001e0: ca10 423e 552b b33d 6805 1a3d f9e1 45be
000001f0: af9d 29bd 3157 913b 744a c2bc fff6 53be
00000200: 93c1 db3d c681 aabd 1c07 9cbc bda1 003e
00000210: 4ceb 613c b12b ecbd 138c 32be 6b15 3d3d
00000220: 6cfb 033c ca7d 48bd 85d1 bf3d 4794 1e3c
00000230: 8ee8 ed3c d9ec 2abe 3f84 f13c 4511 a5bb
00000240: 4b06 40bb 87e4 9d3d 1acf cdbc 8309 8ebd
00000250: 8329 48bd 390d 5d3d 6855 5c3d 8e9d 17bc
00000260: dc3f edbc 1556 0a3d f493 e43d a08b 833b
00000270: 4a2c c4bd 7b07 3c3e 0d40 1bba 1cca 49bd
00000280: ab76 ba3d ffad fdbd 07e3 05bd 0a95 17be
00000290: a528 cc3d 3a12 40be c603 ee3d a7ef 5cbd
000002a0: 8a15 ebbc 80c9 e8bd 467c cabc 48a4 983d
000002b0: 5924 2dbe ab54 afbd 8695 01be e662 373c
000002c0: 456a 22be 1ef2 d33c 6f44 803d 6e5f 4d3d
000002d0: acc4 e03c 2206 ba3d 0468 b7bd 66a7 b43c
000002e0: f1ce c5bd 5ca8 4f3d 515d b3bc 81b8 483b
000002f0: 35ab bfbd 9248 d5bd 4b2c bdbd 2a88 a4bd
00000300: f00a 36be 1769 213d db04 a93d 5a5a 7a3d
00000310: 0c02 96bd 19ad 463e 09d6 0c3e 4b2f 7dbe
00000320: 1fa4 06bc 2559 073e 6ce5 b1bd 0f20 223e
00000330: 809e 76bc e741 9a3d cc30 0c3d e023 ebbd
00000340: aee8 2dbd 6764 123e b94f 74bd 172c 62ba
00000350: e146 883d 4e4a 543c 3c30 213e 3464 1abc
00000360: 568f 093e dfba edbd 45e1 9dbb 3943 37be
00000370: 327d 04bd dade 97bd 1e4e 1f3d dd71 5a3e
00000380: 318f 6f3d 424d 893d e248 1f3d 0b07 cd3e
00000390: 70aa a7bd 00ea 803e 55dd 8e3d 63ad 313e
000003a0: bf6a 633e 193b 5d3d 78c8 9cbd 1f09 df3d
000003b0: 743f 9c3e a44c 243e 24a2 be3d 04bd 07be
000003c0: 5b95 4d3e cbf5 5d3e b6cc 093d e2a2 3d3e
000003d0: bed2 5e3d 6d5d 45bd e1b7 0a3e bad5 13be
000003e0: 51e5 38be 9300 bbbd db83 0c3d e1ad b63d
000003f0: a0e2 383e 6d76 b0bd 8f7a 143e 7aca 8cbd

net.2.bias f4 [64]
-0.00845098 -0.12260936 -0.12462802 0.117189914 -0.061649516 -0.0063235513 0.1380848 0.02991112
-0.028078645 0.055256553 -0.008776636 -0.04405222 0.050883904 -0.080480136 0.10151196 0.08431935
-0.07437433 -0.014274995 0.0981184 0.07137068 -0.057464916 -0.0057260715 0.14685377 0.069609515
0.12135377 0.13883291 0.13606934 0.05651807 0.08200635 0.09553736 0.058790892 -0.05530175
0.14352964 -0.11581213 -0.003299277 -0.068485186 -0.055394016 0.11140003 0.032061048 0.022940863
0.041276395 -0.016099269 0.104383424 0.051490024 0.0786945 -0.009505181 -0.029977838 -0.12695816
0.06993548 0.1316409 0.037547637 -0.17148367 0.051068913 0.07030333 0.09469745 0.056686625
0.060635887 0.070077166 -0.09557354 0.18653905 -0.10326507 0.109150425 -0.032545365 -0.11555621
00000000: fb75 0abc 9e1a fbbd fa3c ffbd 4401 f03d
00000010: 3484 7cbd cb35 cfbb 1a66 0d3e 2a08 f53c
00000020: 3005 e6bc b254 623d e1cb 0fbc 1a70 34bd
00000030: a46b 503d c5d2 a4bd 81e5 cf3d a0af ac3d
00000040: 9251 98bd abe1 69bc 4df2 c83d cb2a 923d
00000050: 5560 6bbd c5a1 bbbb d660 163e 6f8f 8e3d
00000060: 5388 f83d 372a 0e3e c355 0b3e 7e7f 673d
00000070: f2f2 a73d 17a9 c33d b8ce 703d 1684 62bd
00000080: 6ff9 123e e92e edbd af38 58bb f641 8cbd
00000090: d6e4 62bd b325 e43d 7252 033d 7aee bb3c
000000a0: 7011 293d 9de2 83bc fac6 d53d 34e7 523d
000000b0: 952a a13d 9ebb 1bbc 1594 f5bc 5201 02be
000000c0: 553a 8f3d dfcc 063e 8dcb 193d 6a99 2fbe
000000d0: a32d 513d 31fb 8f3d bdf0 c13d 3c30 683d
000000e0: 565d 783d 9e84 8f3d 0fbc c3bd 1804 3f3e
000000f0: a37c d3bd 428a df3d 4a4e 05bd bca8 ecbd

net.4.weight f4 [64, 64]
0.02628034 0.11900618 -0.027190425 -0.042265173 -0.10303754 0.124726295 -0.11228576 0.093653955
0.1459262 0.23811588 0.050156046 -0.15760915 -0.08793301 0.21198855 -0.14040683 0.28668314
0.11471565 0.073211275 0.27389568 0.043367997 0.28787717 -0.08922149 0.2076194 0.04788203
0.0501848 -0.11649681 0.19395657 -0.014715216 -0.090596415 0.060694337 -0.008323472 0.17213967
0.074578494 0.21461736 -0.04221434 0.04199692 -0.089545235 -0.16023137 -0.100703456 0.24188401
0.044499557 -0.074282624 0.16008887 -0.09470952 0.13916156 -0.15046301 0.13092443 -0.029336447
-0.16612293 -0.12536554 0.14049673 0.115489 -0.1217984 0.040431693 0.24072614 -0.14346188
0.02175083 0.068147376 0.16211545 -0.032146957 0.22120969 0.036990587 0.053743683 0.03277132
-0.023849653 -0.05169827 -0.04737059 0.20019047 0.15552622 -0.11352429 0.16529271 0.039131306
-0.121961646 -0.027637802 -0.15013319 0.099279545 0.010966275 -0.065495715 0.22282134 0.009883378
0.12073783 0.035630487 0.01351975 0.19048743 -0.33041257 0.10892981 -0.27893177 0.054192282
0.05071889 0.24933946 -0.11416008 0.18520834 0.13422725 0.1867124 0.25443015 -0.22479653
0.0050846944 0.067968346 0.09553397 -0.05122026 0.17979047 0.2530525 0.23857158 -0.10288188
0.14545472 0.14467633 -0.077109076 0.007606724 -0.0079336865 0.14495035 0.12055115 0.030922174
0.15817179 0.12503849 0.023274675 0.15127029 0.17686608 -0.15339814 -0.07197228 0.10876928
0.13955687 0.1213892 -0.21674661 0.18065499 -0.08958407 0.05961837 -0.021793552 0.054240726
-0.04324384 0.11799938 0.051396117 0.11527834 0.18700816 0.04735339 0.0065659853 -0.13996698
0.013729209 0.04415737 -0.17833306 0.044290606 -0.03324006 -0.040312834 0.20538062 0.018674407
-0.0055856924 -0.019287046 -0.06824357 0.122010894 -0.33476973 0.12552528 -0.1737046 0.17716338
0.18071501 0.2508325 0.0048156753 0.05928774 0.07188997 0.08336485 0.16865598 -0.084477715
0.10882527 -0.08434444 0.10280249 -0.09201587 0.2430504 0.051219486 0.055529974 -0.020441975
0.11117851 0.23457639 -0.111546874 -0.007226083 0.0064240913 0.23271765 0.09732052 0.02728969
0.18250223 0.11932763 0.008038446 0.15775292 0.0043192026 -0.118146606 -0.05842523 0.09030241
0.16132618 0.080550365 -0.22333978 0.10900596 -0.026715623 0.055956285 0.116245165 0.08265778
0.061011616 0.09107532 0.012487064 -0.012000174 -0.107285455 0.067704536 0.04153176 0.033764735
0.30087802 0.0389325 0.097461164 -0.13301562 -0.004081829 0.2025201 -0.07160772 0.24644285
-0.04323857 0.18765056 0.15228131 -0.0027726213 0.34861687 -0.1153613 0.26310292 0.037507877
-0.056595966 -0.19109605 0.19665913 -0.0054999646 -0.045827083 0.000100747704 -0.13363099 0.06944546
0.031430125 0.016736703 -0.004247904 0.099103555 0.0025275468 -0.0049545453 -0.10883191 0.20965147
-0.079990655 -0.13252757 0.33712834 -0.038013604 0.12333852 -0.055888902 -0.07268203 0.047579534
-0.1452907 -0.12705135 0.19508746 -0.08921176 0.01158784 0.2486628 0.08078074 -0.15946518
-0.12207899 0.025728442 0.19705217 0.08880624 0.20131691 -0.04775791 -0.014126254 -0.023148404
00000000: de49 d73c 83b9 f33d 74be debc 3f1e 2dbd
00000010: 5905 d3bd 8070 ff3d 14f6 e5bd a5cd bf3d
00000020: ae6d 153e a6d4 733e 6d70 4d3d 4b64 21be
00000030: 3916 b4bd 8713 593e cfc6 0fbe 22c8 923e
00000040: 0af0 ea3d cbef 953d 0e3c 8c3e a4a2 313d
00000050: a364 933e c2b9 b6bd 2e9a 543e f31f 443d
00000060: 948e 4d3d e195 eebd 8d9c 463e 1718 71bc
00000070: 9d8a b9bd a09a 783d 2c5f 08bc 6245 303e
00000080: 9cbc 983d a7c4 5b3e f2e8 2cbd f604 2c3d
00000090: 7e63 b7bd b113 24be 9d3d cebd 71b0 773e
000000a0: 2b45 363d 7d21 98bd 56ee 233e 11f7 c1bd
000000b0: 5e80 0e3e fa12 1abe 0e11 063e fd52 f0bc
000000c0: 211c 2abe d35f 00be 60de 0f3e 7f85 ec3d
000000d0: 7171 f9bd b49b 253d ea80 763e ace7 12be
000000e0: cc2e b23c da90 8b3d 9801 263e 87ac 03bd
000000f0: cb84 623e 7183 173d 5622 5c3d 383b 063d
00000100: 5960 c3bc 91c1 53bd aa07 42bd bbfe 4c3e
00000110: 4442 1f3e 6c7f e8bd 7e42 293e 2648 203d
00000120: 07c7 f9bd ac68 e2bc 84bc 19be 1353 cb3d
00000130: e4ab 333c 9e22 86bd 472b 643e e4ed 213c
00000140: 6545 f73d 46f1 113d f181 5d3c 230f 433e
00000150: d62b a9be 9816 df3d 25d0 8ebe baf8 5d3d
00000160: 9cbe 4f3d d852 7f3e c3cc e9bd 41a7 3d3e
00000170: de72 093e 8931 3f3e ab44 823e 1031 66be
00000180: 829d a63b fd32 8b3d 50a7 c33d 56cc 51bd
00000190: fe1a 383e 1990 813e 1c4c 743e bcb3 d2bd
000001a0: 15f2 143e 0826 143e 5deb 9dbd d341 f93b
000001b0: 4bfc 01bc dd6d 143e 85e3 f63d 8050 fd3c
000001c0: c9f7 213e 170a 003e 88aa be3c 99e6 1a3e
000001d0: 621c 353e 6714 1dbe 3466 93bd 6ec2 de3d
000001e0: ffe7 0e3e e79a f83d d3f2 5dbe 9ffd 383e
000001f0: da77 b7bd 6432 743d 6488 b2bc 862b 5e3d
00000200: 7420 31bd a9a9 f13d bc84 523d 0d17 ec3d
00000210: 117f 3f3e a1f5 413d 7a27 d73b 8153 0fbe
00000220: 7af0 603c 5cde 343d f19c 36be 116a 353d
00000230: bb26 08bd 121f 25bd 4c4f 523e 12fb 983c
00000240: 2f08 b7bb deff 9dbc 49c3 8bbd d9e0 f93d
00000250: f066 abbe b389 003e 9edf 31be 516a 353e
00000260: 5b0d 393e 1e6d 803e d0cc 9d3b b4d7 723d
00000270: 0c3b 933d 31bb aa3d 27b4 2c3e a702 adbd
00000280: c8df de3d c7bc acbd 1d8a d23d d172 bcbd
00000290: 34e2 783e 86cb 513d 6673 633d ee75 a7bc
000002a0: 8fb1 e33d cb34 703e b072 e4bd c7c8 ecbb
000002b0: 2f81 d23b 894d 6e3e fb4f c73d a18e df3c
000002c0: dde1 3a3e 0b62 f43d b0b3 033c fb89 213e
000002d0: 1988 8d3b d9f6 f1bd 4b4f 6fbd 78f0 b83d
000002e0: b132 253e 97f7 a43d 2fb3 64be 843e df3d
000002f0: b9da dabc 6b32 653d f211 ee3d 7b48 a93d
00000300: 51e7 793d b385 ba3d 8b96 4c3c 619c 44bc
00000310: 7ab8 dbbd ada8 8a3d 351d 2a3d e44c 0a3d
00000320: af0c 9a3e af77 1f3d b899 c73d 3f35 08be
00000330: ddc0 85bb 6e61 4f3e 11a7 92bd 845b 7c3e
00000340: ed1a 31bd 7827 403e a2ef 1b3e deb4 35bb
00000350: e97d b23e 8c42 ecbd 6db5 863e dca1 193d
00000360: 2cd1 67bd afae 43be 0361 493e 0c39 b4bb
00000370: 2eb5 3bbd 8348 d338 90d6 08be 6c39 8e3d
00000380: e0bc 003d 691b 893c 0032 8bbb cef6 ca3d
00000390: 33a5 253b bd59 a2bb 44e3 debd e0ae 563e
000003a0: 24d2 a3bd 4fb5 07be 169c ac3e 27b4 1bbd
000003b0: e898 fc3d c3eb 64bd 51da 94bd c2e2 423d
000003c0: 16c7 14be c019 02be 02c5 473e a8b4 b6bd
000003d0: ecda 3d3c 76a1 7e3e 5f70 a53d d74a 23be
000003e0: 8d04 fabd 74c4 d23c 0bc8 493e 0ce0 b53d
000003f0: 0526 4e3e cc9d 43bd ce71 67bc b9a1 bdbc

net.4.bias f4 [64]
0.022483483 0.1700959 0.043482136 0.14154424 -0.0630763 -0.002502849 -0.023564545 0.06779867
-0.004838129 -0.011462625 -0.015265561 0.09373658 0.13335271 0.14215015 0.14836799 0.030834582
0.019577608 0.16533482 -0.04112307 0.03741594 -0.0015333354 0.045520797 -0.023547532 -0.07107253
-0.02964701 0.16805463 0.18782605 -0.004166653 0.026235627 0.022427484 0.001973277 0.026843488
0.033336442 -0.038607694 0.15143473 0.17665803 0.0031066777 0.122087285 0.0092212735 0.006612311
0.14669338 -0.10982274 -0.04358961 0.09365946 0.040365316 0.08846041 0.12740631 -0.05567443
0.022379398 -0.09598449 0.15587547 -0.02876497 0.14883271 0.103732035 -0.05545057 0.06188458
0.08596462 0.050774086 -0.010482383 0.026111413 0.08023785 0.015849935 0.03808231 0.0032870246
00000000: 482f b83c 9f2d 2e3e 531a 323d f9f0 103e
00000010: 262e 81bd d706 24bb 6f0a c1bc 07da 8a3d
00000020: 2b89 9ebb bccd 3bbc 671c 7abc f7f8 bf3d
00000030: 9d8d 083e cf8f 113e c7ed 173e ce98 fc3c
00000040: 3861 a03c 884d 293e aa70 28bd 7541 193d
00000050: 33fa c8ba 0474 3a3d c1e6 c0bc 798e 91bd
00000060: 49de f2bc 8316 2c3e 7955 403e 6b88 88bb
00000070: 19ec d63c d8b9 b73c 1852 013b e0e6 db3c
00000080: cb8b 083d 1a23 1ebd b511 1b3e d8e5 343e
00000090: 6799 4b3b e608 fa3d d314 173c 16ac d83b
000000a0: ca36 163e bfea e0bd 058b 32bd 88d0 bf3d
000000b0: 1a56 253d bb2a b53d cd76 023e df0a 64bd
000000c0: 0055 b73c 8493 c4bd d29d 1f3e 84a4 ebbc
000000d0: 9a67 183e 7671 d43d 2320 63bd af7a 7d3d
000000e0: 380e b03d 7df8 4f3d 4dbe 2bbc 9ae7 d53c
000000f0: be53 a43d b9d7 813c 32fc 1b3d 1f6b 573b

net.6.weight f4 [1, 64]
-0.21538849 0.1963816 0.09081825 -0.22455502 -0.2443278 0.17302053 0.09334259 0.2079999
-0.25081515 0.23001859 0.07615383 0.16580985 -0.14321592 0.17978716 0.21797752 -0.23638965
0.20412086 -0.22112483 0.17876275 0.092326835 -0.19645697 -0.24943411 0.01141953 -0.22035865
0.11621348 0.24917148 0.1503919 -0.23158391 0.21035492 -0.19545324 0.15245822 0.11311925
0.1853356 -0.2086624 -0.17224899 0.17309387 0.13453898 -0.211839 -0.25590658 0.15398455
0.23881201 -0.05939831 -0.1642683 0.15992472 -0.23947641 0.19146256 0.16753303 0.0030151033
-0.25255737 0.14412582 -0.19270124 0.1772854 -0.24690239 0.15847626 -0.31057903 -0.2503618
0.27677056 0.17805721 0.21887892 0.2368529 -0.18738177 -0.19232674 -0.28558812 -0.29295942
00000000: cd8e 5cbe 4218 493e ebfe b93d c0f1 65be
00000010: 1131 7abe 4b2c 313e 662a bf3d edfd 543e
00000020: d86a 80be fe89 6b3e 8af6 9b3d 0fca 293e
00000030: 32a7 12be 201a 383e 8035 5f3e 2110 72be
00000040: 0f05 513e 8c6e 62be 950d 373e da15 bd3d
00000050: 042c 49be a86b 7fbe fb18 3b3c b3a5 61be
00000060: 5501 ee3d cf26 7f3e 5600 1a3e 5524 6dbe
00000070: 4867 573e e524 48be 021e 1c3e 11ab e73d
00000080: 9ec8 3d3e 99ab 55be 0a62 30be 853f 313e
00000090: 96c4 093e 53ec 58be 3006 83be 20ae 1d3e
000000a0: 238b 743e a44b 73bd f335 28be 4ec3 233e
000000b0: 4e39 75be c30e 443e c78d 2b3e 0a99 453b
000000c0: 334f 81be b895 133e 7953 45be 4e8a 353e
000000d0: fbd3 7cbe 9a47 223e 3704 9fbe 6c2f 80be
000000e0: dfb4 8d3e a154 363e cc21 603e 9189 723e
000000f0: 02e1 3fbe 4df1 44be 9b38 92be c7fe 95be
