cancer_iterative/cancer_models/40_train/gaussian_combined_final_model.pt (torch, 45569 bytes, 7 tensors)

net.0.weight f4 [64, 30]
0	0xbdb34980	-0.087542534
1	0xbe8c3e11	-0.27391103
2	0xbe310387	-0.17286502
3	0xbe02192c	-0.12704915
4	0xbe346533	-0.1761673
5	0xbc706868	-0.01467333
6	0x3da0428b	0.07825192
7	0x3de5b9bd	0.112170674
8	0xbe04b4f8	-0.12959659
9	0xbdb42190	-0.08795464
10	0xbb70754e	-0.0036691013
11	0x3dc7b23a	0.09750791
12	0xbe6d89c4	-0.23197085
13	0x3db984f6	0.090585634
14	0x3dc303f0	0.095222354
15	0xbdfa918e	-0.122347936
16	0x3c3c0b4e	0.011477305
17	0xbe90ad8f	-0.28257415
18	0xbee6ab52	-0.45052582
19	0x3e35423f	0.17701052
20	0x3e7936bf	0.2433729
21	0xbdc3e282	-0.09564687
22	0x3e074006	0.13208017
23	0xbdd123bd	-0.10211895
24	0x3e4ce3d1	0.2000878
25	0xbe788b35	-0.24271853
26	0x3db747e1	0.08949257
27	0xbea5e5d1	-0.32401899
28	0xbd363871	-0.04448742
29	0xbeafb2a4	-0.3431598
30	0x3bd91441	0.006624729
31	0x3e164e89	0.14678396
32	0x3cbe7000	0.023246765
33	0x3e64c3c1	0.22340299
34	0x3d6c798a	0.057733096
35	0xbe352169	-0.17688526
36	0x3e9e68b1	0.30939248
37	0x3da44b09	0.08022124
38	0xbc63bf69	-0.013900616
39	0x3dd40dfd	0.103542306
40	0x3d67bead	0.056578327
41	0xbe9151d8	-0.28382754
42	0x3e0138c5	0.12619312
43	0x3e95ced3	0.29259357
44	0x3e216e87	0.15764819
45	0x3d903f54	0.07043329
46	0x3df7e533	0.12104263
47	0xbd280316	-0.041018568
48	0xbd9750e2	-0.07388474
49	0xbedce4a8	-0.431432
50	0x3c0cc346	0.008591479
51	0x3dc95687	0.09830957
52	0xbe3fbfb0	-0.18725467
53	0xbdfabf65	-0.12243537
54	0x3e29d5f4	0.16585523
55	0xbd892575	-0.066965975
56	0x3e2da7c8	0.16958535
57	0xbea6313f	-0.32459447
58	0x3d06127f	0.032732483
59	0xbe542ce5	-0.20720251
60	0xbe2d675e	-0.16933963
61	0xbe72dc14	-0.23716766
62	0xbc19c511	-0.009385363
63	0xbdaa1293	-0.08304324
64	0xbdc16f32	-0.09445037
65	0x3e030855	0.12796147
66	0x3ec23875	0.37933698
67	0xbd159641	-0.036520246
68	0x3ec06f88	0.37585092
69	0xbdd5f5bc	-0.10447261
70	0xbc7f2db0	-0.015574858
71	0x3e335a57	0.1751493
72	0xbe8eda73	-0.2790104
73	0xbe77a8d9	-0.24185504
74	0x3e191192	0.14948109
75	0x3d7b60ed	0.061371733
76	0x3d82dc02	0.063896194
77	0xbd99e290	-0.075139165
78	0x3e472d5a	0.19450894
79	0x3e313d2d	0.17308493
80	0xbe0fa9c6	-0.14029607
81	0xbd88962f	-0.0666927
82	0x3dc281bb	0.094974004
83	0xbe800ea6	-0.25011176
84	0x3e02bdd6	0.12767729
85	0x3d2710d2	0.040787525
86	0x3dd00dc4	0.101588756
87	0xbea2138e	-0.31655544
88	0x3e589af0	0.21152854
89	0xbdea848b	-0.11451062
90	0x3bc78934	0.006089354
91	0x3e38fe6f	0.18065809
92	0x3e35899e	0.17728278
93	0xbe8552c0	-0.26039696
94	0xbe51d6be	-0.20492074
95	0x3e86d731	0.26336053
96	0xbe916778	-0.28399253
97	0xbdfbb148	-0.12289673
98	0x3eb1c886	0.347233
99	0x3dcb8f37	0.099394254
100	0xbd052ad5	-0.03251155
101	0x3e0de18e	0.13855574
102	0xbdbe2c9e	-0.09285854
103	0xbd71ae74	-0.059004262
104	0xbeb63bfe	-0.35592645
105	0xbdeef2ee	-0.11667429
106	0xbc5f46d6	-0.013627728
107	0x3d1b7d36	0.037961207
108	0xbc1c233f	-0.009529888
109	0x3e83ff54	0.25780737
110	0x3c6d9f3b	0.0145032955
111	0x3e9e906e	0.30969566
112	0xbc721b58	-0.014777027
113	0x3d843629	0.06455643
114	0xbe2977c4	-0.16549593
115	0x3e29cf21	0.1658292
116	0x3dd8ac86	0.10579781
117	0x3dd94e89	0.106106825
118	0x3e4817e6	0.19540367
119	0x3d2dada0	0.04240191
120	0x3d1d8942	0.038460977
121	0x3dfd0126	0.12353735
122	0xbe25dfd6	-0.16198668
123	0xbd398e24	-0.04530157
124	0xbdc894c8	-0.09794003
125	0xbea1e3d5	-0.31619135
126	0xbaf30046	-0.001853951
127	0x3dd10bd3	0.102073334
128	0x3ea7cf3f	0.32775304
129	0xbe11d32c	-0.14240712
130	0x3dccd2e0	0.10001159
131	0x3b343a72	0.0027500656
132	0xbdeba41f	-0.11505913
133	0xbe4d3968	-0.2004143
134	0xbe7663b7	-0.24061476
135	0xbe61084e	-0.21975824
136	0xbcb00f3f	-0.021491645
137	0xbde27f1e	-0.11059402
138	0xbea66050	-0.32495356
139	0x3f200b12	0.6251689
140	0xbe350676	-0.17678246
141	0x3d149664	0.036276236
142	0xbdb52495	-0.08844868
143	0x3d811535	0.06302873
144	0xbe638efe	-0.22222516
145	0xbe01adb5	-0.1266392
146	0xbd3fe351	-0.046847645
147	0xbd03b301	-0.032153133
148	0x3ddb2d6e	0.107020244
149	0x3e8ce96c	0.27521837
150	0x3da4cc79	0.080468126
151	0xbe4db178	-0.2008723
152	0xbd0166ea	-0.031592287
153	0x3e4f0889	0.202181
154	0xbda674b5	-0.08127729
155	0x3d3ed24f	0.046587285
156	0x3d95fa59	0.07323141
157	0xbdf6bdec	-0.120479435
158	0x3e6aa777	0.22915445
159	0x3e0bbdd4	0.13646632
160	0xbbf0c36f	-0.0073475162
161	0x3dcdd0f5	0.10049621
162	0xbbab7fe1	-0.00523375
163	0x3e2501e2	0.16114
164	0xbe69ba93	-0.22825079
165	0x3e24cce4	0.16093785
166	0x3dc54c9d	0.096337534
167	0x3de8e844	0.11372426
168	0x3c008907	0.00784517
169	0xbe420dc6	-0.18950567
170	0x3d502a4b	0.050821584
171	0xbd3b7a27	-0.04577079
172	0x3e8ce44d	0.2751793
173	0x3de9f488	0.11423594
174	0xbf03a4c0	-0.51423264
175	0xbe9e078e	-0.3086514
176	0xbdcccd21	-0.10000063
177	0xbe0df578	-0.1386317
178	0xbd34c0ab	-0.044129055
179	0xbe9ac7f3	-0.30230674
180	0x3e089b54	0.13340503
181	0x3d9385ef	0.0720328
182	0x3e3fc59e	0.18727729
183	0x3ddb071f	0.106947176
184	0xbcec9adb	-0.028882435
185	0xbcbd3b43	-0.023099547
186	0x3d345e1f	0.044035073
187	0xbbdc59b2	-0.0067245597
188	0x3d58e268	0.052950293
189	0xbe83d820	-0.25750828
190	0x3e2efb73	0.17088108
191	0x3e410259	0.18848552
192	0x3cfd0535	0.030886272
193	0xbdeab60e	-0.114605054
194	0x3c819231	0.01581678
195	0xbe77f646	-0.2421504
196	0xbee5eeef	-0.44908854
197	0x3d119ac0	0.03554797
198	0x3ef90aa4	0.4864093
199	0x3f308b3d	0.6896246
200	0x3ea6a127	0.32544824
201	0xbe80f4a4	-0.25186646
202	0x3d44fd6f	0.048093256
203	0x3e44bc1f	0.19212388
204	0xba9fbb64	-0.0012186584
205	0xbe82f8fa	-0.2558058
206	0xbe2864bc	-0.16444677
207	0x3cd77bf7	0.026304228
208	0xbc83d35b	-0.016091993
209	0xbe8420df	-0.2580633
210	0xbe595f07	-0.21227656
211	0xbd4d976c	-0.050193235
212	0xbe5446db	-0.20730154
213	0xbe17e556	-0.14833578
214	0x3ccbd96b	0.024883946
215	0xbdfe8b28	-0.12428886
216	0x3d0a1656	0.033712707
217	0xbdbc4364	-0.09192541
218	0xbe73f83a	-0.2382516
219	0x3caedcfa	0.021345604
220	0xbdfd23b0	-0.123603225
221	0xbe16f2c9	-0.14741053
222	0x3db12d8c	0.086512655
223	0xbe20f8a5	-0.1571985
224	0x3e58ad48	0.21159852
225	0xbbded461	-0.00680022
226	0xbdf57cd7	-0.11986702
227	0x3c181ef9	0.009284728
228	0xbeaa4e0b	-0.33262667
229	0x3e958fcf	0.2921128
230	0xbb7cdd51	-0.0038584063
231	0x3e3ae033	0.18249588
232	0xbcddd930	-0.027081102
233	0x3da7b07f	0.08187961
234	0xbc36602b	-0.011131327
235	0x3d6b76a7	0.057486203
236	0xbd33f701	-0.043936733
237	0x3da5de77	0.080990724
238	0x3ea37de2	0.31931978
239	0x3dc9e918	0.09858912
240	0xbc25adcf	-0.01011224
241	0xbec03f15	-0.37548128
242	0x3d02a782	0.03189803
243	0xbd85f3ba	-0.06540628
244	0x3e33bb45	0.17551906
245	0xbe8338c8	-0.25629258
246	0xbddfb5a6	-0.109233186
247	0xbb43e4ef	-0.0029891094
248	0xbe693849	-0.22775377
249	0xbd8ae8ef	-0.0678271
250	0x3e68ea2c	0.2274558
251	0x3e04996c	0.12949151
252	0xbd1e7bb8	-0.038692206
253	0x3eb601f0	0.35548353
254	0x3ce8b141	0.028404834
255	0x3d2ed5f6	0.042684518

net.0.bias f4 [64]
0	0xbdefd5c8	-0.117106974
1	0x3d9cfd11	0.07665456
2	0xbedb0f99	-0.42785338
3	0xbdd8b7f7	-0.105819635
4	0xbd47a462	-0.048740752
5	0x3c76bdb4	0.015059877
6	0xbe68ed2a	-0.22746721
7	0xbd961b8b	-0.07329472
8	0xbeb9afed	-0.36267033
9	0x3d6fbce3	0.058529746
10	0xbe7b397f	-0.24533652
11	0xbd6e819c	-0.058229074
12	0xbd041d20	-0.03225434
13	0xbe98d9b1	-0.29853585
14	0xbe1c50fd	-0.1526527
15	0xbe21968b	-0.15780084
16	0xbe04e8e7	-0.1297947
17	0xbdb95108	-0.090486586
18	0xbc8a15e3	-0.01685614
19	0x3e09b001	0.13446046
20	0x3e809a56	0.2511775
21	0xbe528e99	-0.20562209
22	0xbeddab69	-0.43294838
23	0xbc5027e1	-0.01270482
24	0xbee8df24	-0.45482743
25	0xbe20896c	-0.15677422
26	0xbe017010	-0.12640405
27	0xbe3104c1	-0.1728697
28	0xbe9ad8ae	-0.30243438
29	0xbd51cc7b	-0.0512204
30	0xbe81c9dd	-0.25349322
31	0x3e11e0a8	0.14245856
32	0xbe95a8b1	-0.29230264
33	0xbe54a9c4	-0.20767885
34	0x3e79f9b2	0.24411657
35	0x3cb32ca1	0.021871867
36	0xbe5b5f2e	-0.21423027
37	0xbe4551b1	-0.19269444
38	0xbe206c8e	-0.1566641
39	0xbca1d273	-0.01975367
40	0xbe8ca1a3	-0.2746707
41	0xbd65913f	-0.05604672
42	0xbe07208c	-0.1319601
43	0xbe91f4e0	-0.28507137
44	0xbb433140	-0.0029783994
45	0xbeb674fd	-0.3563613
46	0xbe083403	-0.13301091
47	0xbe41407c	-0.18872255
48	0x3da895bf	0.08231687
49	0xbe9b9174	-0.3038441
50	0xbe6b4e6c	-0.22979134
51	0xbe28c68d	-0.16481991
52	0xbe9d346f	-0.30704066
53	0x3e0f9692	0.14022282
54	0xbe9c910f	-0.3057942
55	0xbe5cdf12	-0.2156947
56	0xbec1520f	-0.37757918
57	0xbde7b354	-0.11313501
58	0xbd170b8a	-0.03687624
59	0xbdc7c2a8	-0.097539246
60	0xbeae4e89	-0.34044293
61	0xbd7640ea	-0.0601205
62	0xbe70f2da	-0.2353014
63	0xbdf39158	-0.118929565

net.2.weight f4 [64, 64]
0	0x3ba9e94f	0.0051852833
1	0xbc6037f8	-0.013685219
2	0xbe82ebf7	-0.25570652
3	0xbdc93327	-0.0982421
4	0x3df5ca02	0.120014206
5	0xbcb1e108	-0.021713749
6	0x3e11ea6d	0.14249583
7	0xbe31bd1b	-0.17357294
8	0xbeaea26e	-0.341083
9	0x3e324529	0.17409195
10	0xbe873be6	-0.26412886
11	0x3e344ab3	0.1760662
12	0x3ed4c7c9	0.41558674
13	0x3dc2a889	0.09504802
14	0xbe8f5a5f	-0.27998635
15	0xbe07e34f	-0.13270305
16	0xbe3b062a	-0.1826407
17	0xbecef5e7	-0.40421984
18	0xbefd7461	-0.49502853
19	0x3e15af50	0.14617658
20	0xbf0816d7	-0.5315985
21	0xbd5ac355	-0.05340894
22	0x3d7b583d	0.061363447
23	0xbae11998	-0.0017173765
24	0x3dd6f485	0.10495857
25	0x3c8f10a3	0.017463988
26	0x3e70cf75	0.23516639
27	0x3d86f4eb	0.06589683
28	0xbe8912e2	-0.2677222
29	0xbea266e9	-0.3171914
30	0xbea4bdca	-0.32176048
31	0x3d864e26	0.065578744
32	0x3e960570	0.29301023
33	0x3c979f67	0.018508626
34	0x3e2a8c90	0.16655183
35	0x3d0987e3	0.033576857
36	0x3e8e3f55	0.27782694
37	0xba3e68a7	-0.0007263519
38	0x3e1d4328	0.1535765
39	0x3db74e7b	0.08950516
40	0x3e2875d0	0.16451192
41	0x3d3f2171	0.04666275
42	0xbccddc5b	-0.025129488
43	0x3b19c654	0.002346416
44	0x3da3f30d	0.08005343
45	0xbd902431	-0.07038153
46	0x3d6532bb	0.055956583
47	0x3e1aa74d	0.15102883
48	0xbe998bfd	-0.29989615
49	0x3d765c58	0.06014666
50	0xbc77ccd7	-0.015124521
51	0x3e219bc1	0.15782072
52	0xbe81538a	-0.25259048
53	0x3dc57b03	0.09642603
54	0xbd63b944	-0.055596605
55	0x3e4ab7aa	0.19796625
56	0x3e2e764e	0.17037317
57	0x3d3e598f	0.04647213
58	0x3ed6838f	0.41897246
59	0xbe198a4c	-0.14994162
60	0xbe0f5342	-0.13996604
61	0x3c017620	0.007901698
62	0x3d3649c2	0.044503935
63	0xbe15f4f0	-0.14644217
64	0x3dd072d6	0.10178153
65	0x3e096a8b	0.13419549
66	0x3e097472	0.13423327
67	0xbe1d6dcd	-0.15373917
68	0x3d115d2d	0.03548925
69	0xbd8840b9	-0.0665297
70	0xbe414d79	-0.1887721
71	0x3c654626	0.0139937755
72	0xbe47d837	-0.19516073
73	0xbe73cb50	-0.23808026
74	0x3e288369	0.16456379
75	0x3e287440	0.16450596
76	0xbe2fc3fc	-0.17164606
77	0xbc875d1d	-0.016523892
78	0x3da959fe	0.08269118
79	0x3dfab50c	0.12241563
80	0xbd25a41e	-0.040439717
81	0xbdc5cd50	-0.09658301
82	0x3dabef28	0.08395225
83	0x3e31d8ca	0.17367855
84	0xbd0e26d6	-0.034705006
85	0x3c74ee88	0.014949448
86	0x3dcfad72	0.10140504
87	0x3ed46f24	0.41491044
88	0x3df79547	0.12089019
89	0x3deb0abd	0.114766575
90	0xbc8253f7	-0.015909178
91	0xbe387413	-0.18013029
92	0x3cd5de68	0.026107028
93	0xbe9e86f3	-0.30962333
94	0x3d0efbfd	0.034908284
95	0x3e85c9c8	0.2613051
96	0x3d37df53	0.044890713
97	0xbe6eb4ca	-0.23311153
98	0xbe1fbfbb	-0.15600483
99	0x3de141dd	0.109988905
100	0xbed01926	-0.40644187
101	0x3dc022cd	0.09381638
102	0xbdb9f064	-0.09079054
103	0xbe1bf119	-0.1522869
104	0xbd1d7258	-0.038439125
105	0xbdf8f27e	-0.12155627
106	0x3b3d440e	0.0028879675
107	0x3e22917e	0.15875813
108	0xbe5ce50f	-0.21571754
109	0xbead93f6	-0.33901948
110	0xbeb9ef87	-0.36315557
111	0x3e2f0577	0.17091928
112	0xbd82308f	-0.06356918
113	0xbd593075	-0.053024728
114	0xbe8d8ef2	-0.2764812
115	0x3e83f26e	0.25770897
116	0xbeadb1ba	-0.33924657
117	0xbdf0aaed	-0.117513515
118	0xbe8867fc	-0.26641834
119	0xbd8cc2b9	-0.06873078
120	0xbeb18f71	-0.3467975
121	0xbe9e8498	-0.30960536
122	0xbebbb299	-0.36659697
123	0x3e5a5724	0.21322304
124	0x3e58f657	0.21187721
125	0xbe39aff5	-0.18133529
126	0xbd85920c	-0.06521997
127	0xbd78a7f0	-0.060707033
128	0x3e2d3e22	0.16918233
129	0x3e8a8b9f	0.27059647
130	0x3e618c61	0.22026207
131	0xbea609af	-0.32429263
132	0xbdf1cfb9	-0.11807198
133	0xbc68c005	-0.014205937
134	0x3d073c90	0.03301674
135	0x3c57bdeb	0.013167839
136	0xbe23f1e3	-0.16010241
137	0xbe21721c	-0.15766186
138	0x3dbdb4c4	0.09262994
139	0xbe1e55b3	-0.15462379
140	0xbe503eed	-0.20336504
141	0xbe01cb61	-0.12675239
142	0x3e081ff8	0.13293445
143	0x3dca8cac	0.09890112
144	0x3dd4cadb	0.10390254
145	0xbda99d6d	-0.0828198
146	0x3ddb4e41	0.10708285
147	0xbe65c3fd	-0.22438045
148	0x3e27206a	0.16320959
149	0xbd25a343	-0.0404389
150	0x3c3b36d1	0.0114266435
151	0x3d66e275	0.05636831
152	0x3e852b04	0.2600938
153	0xbd08891f	-0.033333894
154	0x3ddace04	0.106838256
155	0x3dd1ab00	0.10237694
156	0xbe2a8480	-0.16652107
157	0xbc25767b	-0.010099049
158	0x3caf783a	0.021419633
159	0x3e4c5a0a	0.19956222
160	0xbbd36103	-0.0064507737
161	0xbed1eea0	-0.4100237
162	0x3e25d018	0.16192663
163	0x3e0da0a7	0.13830815
164	0xbe246e7d	-0.16057773
165	0xbb0ea11e	-0.0021763514
166	0xbeaa0b28	-0.33211637
167	0x3d9b46ce	0.07581864
168	0x3e9cb7a1	0.30608848
169	0xbd529fb5	-0.05142184
170	0x3c28b295	0.0102964835
171	0xbd45ab03	-0.048258793
172	0x3e16456f	0.14674924
173	0x3e3bdbad	0.18345518
174	0x3e549bd0	0.20762563
175	0x3e36c18c	0.1784727
176	0x3da988ea	0.082780674
177	0x3cdd489e	0.027012166
178	0xbde0f9ed	-0.109851696
179	0x3d1fb47e	0.03899049
180	0x3da12116	0.07867639
181	0xbe3371a4	-0.17523819
182	0xbeba1382	-0.36343008
183	0xbd7de02c	-0.061981365
184	0x3d24af9d	0.04020654
185	0xbcf94ed2	-0.030433092
186	0x3e8d203a	0.2756365
187	0xbdd2f4f7	-0.103006296
188	0x3e2c057b	0.16798966
189	0xbdf26d50	-0.11837256
190	0x3df8b04b	0.12143
191	0xbc8982a1	-0.016785922
192	0x3e543a44	0.20725352
193	0x3dbac172	0.09118928
194	0x3e473075	0.19452079
195	0xbe7505b6	-0.2392796
196	0xbd3b1968	-0.045678526
197	0xbd3fc6c0	-0.046820402
198	0x3d20cae2	0.039255984
199	0x3d6f6cbc	0.058453307
200	0x3c2f53da	0.010701144
201	0xbcc9eb01	-0.024648191
202	0xbd92a320	-0.0716002
203	0x3e215473	0.15754871
204	0x3db986ac	0.0905889
205	0xbdf3ab82	-0.11897947
206	0xbd1a9782	-0.037742145
207	0x3d3e6182	0.04647971
208	0xbe4b0778	-0.19827068
209	0x3d5a95ae	0.053365402
210	0x3d9a3f89	0.075316496
211	0xbdd13bc4	-0.102164775
212	0x3d859d49	0.065241404
213	0xbe883d08	-0.26609063
214	0x3e0bcdd0	0.1365273
215	0x3e4ff6b3	0.20308952
216	0x3e651a07	0.2237321
217	0x3eb53c37	0.35397503
218	0x3e7331d4	0.23749477
219	0x3e421d30	0.18956447
220	0x3de34859	0.110977836
221	0xbd8aa423	-0.06769588
222	0xbe95df07	-0.2927172
223	0xbf01005f	-0.5039119
224	0x3ddbad09	0.10726363
225	0xbf02008e	-0.50782096
226	0xbe29d6dc	-0.16585869
227	0x3e24d894	0.16098243
228	0xbe5fb615	-0.21846803
229	0xbeafe3db	-0.34353527
230	0xbda26754	-0.079298645
231	0x3e51b799	0.20480193
232	0x3eb4b3a4	0.35293305
233	0x3e3c4fe0	0.18389845
234	0x3e31aa7c	0.17350191
235	0xbe31ab40	-0.17350483
236	0x3cc8ba01	0.024502756
237	0x3dd744e5	0.105111875
238	0xbe096e79	-0.13421048
239	0xbdc523e6	-0.09625988
240	0x3de4506b	0.11148151
241	0xbb9e6558	-0.0048338585
242	0x3df4513c	0.11929557
243	0xbc98028a	-0.018555898
244	0x3e53efab	0.20696895
245	0xbec40cfe	-0.38291162
246	0xbe81dff1	-0.25366166
247	0x3d1d5307	0.03840926
248	0x3e50017f	0.2031307
249	0x3d249b4d	0.04018717
250	0x3d4b64ac	0.049656555
251	0xbed98756	-0.42486066
252	0xbd1138c9	-0.035454545
253	0x3dbc9da6	0.092097566
254	0x3d05405c	0.03253208
255	0x3ca6eef8	0.020377621

net.2.bias f4 [64]
0	0xbcffb027	-0.031211926
1	0x3e58bb55	0.21165211
2	0x3d7f49a4	0.06232609
3	0x3d3aee85	0.045637626
4	0xbe0f1a76	-0.13974938
5	0x3e19289c	0.14956897
6	0xbe0d2232	-0.13782576
7	0xbe7fc8a3	-0.2497888
8	0xbd416e9f	-0.047224637
9	0x3dcb0fc5	0.09915117
10	0x3e58c079	0.21167172
11	0x3e9beb0d	0.30452767
12	0xbe8810e3	-0.26575384
13	0x3dc085dc	0.09400532
14	0x3dee54dc	0.116372794
15	0xbe2b97df	-0.16757153
16	0xbe5d773e	-0.21627519
17	0x3d980bb5	0.07424108
18	0xbcf0ee29	-0.029410439
19	0xbe23ffa7	-0.16015492
20	0x3e150ffa	0.14556876
21	0xbdb25875	-0.08708278
22	0x3e8ff4ec	0.28116548
23	0x3e0033c6	0.1251975
24	0x3dd27857	0.10276859
25	0x3cf4ad80	0.029867887
26	0xbe0200c2	-0.12695602
27	0xbe767cbe	-0.24071023
28	0xbd629038	-0.05531332
29	0x3c03627c	0.008019086
30	0x3cd134f3	0.025537943
31	0xbdf1f99f	-0.118151896
32	0xbe6e2e11	-0.2325976
33	0xbce6655c	-0.028124504
34	0x3d04d4c4	0.03242947
35	0xbe5acb36	-0.21366581
36	0xbd2a8269	-0.041628275
37	0xbcd67add	-0.026181633
38	0x3dc9b33c	0.09848639
39	0x3e00cb5f	0.1257758
40	0x3da96606	0.082714126
41	0xbd96e322	-0.07367541
42	0xbd2fe6e2	-0.042944796
43	0x3e44940b	0.19197099
44	0x3e410086	0.18847856
45	0xbd86c9b6	-0.06581442
46	0xbdb5bd1e	-0.08873962
47	0xbe850729	-0.25982025
48	0xbd59e080	-0.053192616
49	0xbd90f54e	-0.07078038
50	0x3cd2a99d	0.025715644
51	0xbb05b404	-0.0020401487
52	0xbd349279	-0.044085
53	0xbe23fa35	-0.16013415
54	0x3ccb9c23	0.024854725
55	0xbe40872b	-0.18801562
56	0xbdd4415d	-0.103640296
57	0x3d7e9616	0.06215485
58	0xbc3d396b	-0.011549334
59	0xbe65813b	-0.22412579
60	0x3d996261	0.074894674
61	0xbe54377b	-0.20724289
62	0x3de23ac6	0.110463664
63	0xbe308f9c	-0.17242283

net.4.weight f4 [64, 64]
0	0x3d91d023	0.07119777
1	0x3ed32cf4	0.41245234
2	0xbdf24a65	-0.11830596
3	0x3e7e2175	0.2481745
4	0xbd2069fe	-0.039163582
5	0xbe0f1cb8	-0.13975799
6	0xbe179f50	-0.14806867
7	0x3dd9e95d	0.10640214
8	0xbe553d12	-0.20824078
9	0x3d596d57	0.05308279
10	0xbe0f9403	-0.14021306
11	0x3d39788f	0.04528099
12	0x3e400620	0.18752337
13	0x3d97ba45	0.07408575
14	0x3e71fd5c	0.23631805
15	0x3e3a006b	0.18164222
16	0xbe96db33	-0.2946411
17	0x3eae796d	0.34077016
18	0x3de1a402	0.1101761
19	0x3e05fc29	0.13084473
20	0xbe415003	-0.18878178
21	0xbcced801	-0.025249483
22	0x3db1c08e	0.08679305
23	0xbe52149a	-0.20515671
24	0xbea098a6	-0.31366462
25	0x3e112f82	0.14178279
26	0x3d4fb62f	0.050710853
27	0xbd3eddf4	-0.04659839
28	0xbde08031	-0.109619506
29	0xbd93b567	-0.07212334
30	0x3eb30375	0.34963575
31	0x3dba200b	0.09088143
32	0xbeb9bff5	-0.36279264
33	0xbe3f838f	-0.1870253
34	0x3e060f34	0.13091737
35	0xbe1edf1c	-0.15514797
36	0x3e351dbc	0.17687124
37	0xbe32dc6e	-0.174669
38	0x3d403fe8	0.046935946
39	0x3c1ad27e	0.009449599
40	0x3e679e11	0.22618891
41	0x3e3fde5e	0.1873717
42	0x3eb87b57	0.360316
43	0x3d878a70	0.06618202
44	0x3ee4c5fc	0.446823
45	0x3ef01e5e	0.46898168
46	0x3e0036a7	0.12520848
47	0xbe1a1b28	-0.15049422
48	0x3d8b1b71	0.067923434
49	0x3e9fb3c3	0.31191835
50	0xbe828c6f	-0.25497767
51	0x3df596cc	0.11991653
52	0x3e4ab55c	0.19795746
53	0xbe3047f9	-0.17214955
54	0x3ecf98a6	0.4054615
55	0xbd2af15e	-0.041734092
56	0x3db42063	0.0879524
57	0xbd6eb279	-0.058275674
58	0xbd85384c	-0.065048784
59	0xbdea6cef	-0.11446559
60	0x3e8e0319	0.27736738
61	0x3e5d8cb9	0.21635713
62	0x3eac214b	0.3361915
63	0xbe492aab	-0.19645183
64	0x3dd57233	0.104221724
65	0xbe2352a7	-0.15949498
66	0xbea72bf5	-0.32650724
67	0xbe1ac3bc	-0.15113729
68	0xbd4fca1a	-0.05072985
69	0x3f1fc035	0.6240266
70	0x3e930ce7	0.2872078
71	0xbe0c853b	-0.13722698
72	0x3ee211d2	0.4415422
73	0xbdca9ab0	-0.098927855
74	0x3e47a362	0.1949592
75	0x3dde4ed0	0.10854876
76	0xbdc00a6d	-0.093769886
77	0x3daf646a	0.08564074
78	0xbebaed93	-0.3650938
79	0x3dfd8600	0.12379074
80	0x3e901e7a	0.28148252
81	0xbe8eea63	-0.27913198
82	0x3da27528	0.07932502
83	0x3cba0a62	0.022710029
84	0x3d704195	0.058656294
85	0x3e3341fe	0.17505643
86	0x3dede97c	0.11616799
87	0xbd94eba5	-0.07271508
88	0x3ef70518	0.48246074
89	0x3e6138e0	0.21994352
90	0x3d011bfb	0.031520825
91	0xbe01a983	-0.1266232
92	0x3def3e96	0.11681859
93	0x3e3e8c1a	0.18608132
94	0x3dcfaa35	0.10139886
95	0x3c88fe7c	0.01672291
96	0x3eb0f344	0.34560597
97	0x3d209b78	0.039210767
98	0x3bee2445	0.0072675073
99	0x3e26fc1b	0.16307108
100	0xbd8484ad	-0.064706184
101	0x3e9e7fdf	0.30956933
102	0x3dcdc1a8	0.100467026
103	0x3d2dfb31	0.042475883
104	0x3dcd5468	0.10025865
105	0xbe7a4b5d	-0.24442811
106	0x3e4a9163	0.19782023
107	0xbc0af9e0	-0.008482426
108	0xbe13e480	-0.14442635
109	0xbdd7be09	-0.10534293
110	0xbc5be40e	-0.013421072
111	0xbebc7dbf	-0.36814687
112	0xbe35b196	-0.17743525
113	0xbb844c1f	-0.0040373947
114	0x3e648410	0.22316003
115	0x3bff8850	0.007798232
116	0x3e0bbeff	0.13647078
117	0xbe3d7eaf	-0.18505357
118	0xbe8cbd5c	-0.2748822
119	0xbebaeb97	-0.36507866
120	0xbe9ad156	-0.30237836
121	0x3e44cb26	0.1921812
122	0xbe497e14	-0.19677001
123	0xbddea2f3	-0.10870924
124	0xbd3f1a6a	-0.04665605
125	0xbed4ecde	-0.41586965
126	0xbe9d6da3	-0.3074771
127	0x3ed547b0	0.41656256
128	0xbb5b8e8b	-0.003350171
129	0x3e57c46d	0.21071024
130	0x3cadd538	0.021219835
131	0x3daed741	0.0853715
132	0xbe08428d	-0.13306637
133	0xbec3bc6f	-0.382297
134	0xbea1bdd3	-0.31590137
135	0x3e8a8939	0.27057818
136	0xbef574f6	-0.47940797
137	0x3dfba8d2	0.12288059
138	0x3e85f62f	0.26164386
139	0x3e5aedd5	0.21379788
140	0x3dbfa7e1	0.09358192
141	0x3de284c2	0.11060478
142	0x3dbbd617	0.09171694
143	0x3e21422e	0.15747902
144	0xbec247a0	-0.3794527
145	0x3e51da0e	0.20493338
146	0x3e26f280	0.16303444
147	0xbdefa88d	-0.117020704
148	0xbd335e2f	-0.043790992
149	0x3e7cceb9	0.24688233
150	0x3e51f7e2	0.20504716
151	0xbe04934d	-0.12946816
152	0xbf19dbbe	-0.60100925
153	0x3d408180	0.0469985
154	0x3d319737	0.0433571
155	0x3d097a28	0.033563763
156	0xbcb3482d	-0.021885002
157	0xbe8ad22b	-0.2711347
158	0x3d52ca2b	0.051462334
159	0xbd1925f8	-0.037389725
160	0xbe37437f	-0.17896841
161	0xbe3d0223	-0.18457846
162	0x3e0a21ec	0.13489503
163	0xbe5ddf3f	-0.21667193
164	0x3cca72bb	0.02471291
165	0xbe297217	-0.16547428
166	0xbdd9fb6b	-0.10643657
167	0x3e7a3f72	0.24438265
168	0x3d54d638	0.051962107
169	0xbdb8583e	-0.09001206
170	0x3e8117ad	0.25213376
171	0xbc8c593e	-0.017132398
172	0x3e5fa8be	0.21841714
173	0x3eb28837	0.3486955
174	0x3e0f5776	0.13998207
175	0x3eac4939	0.33649614
176	0x3d6a3828	0.05718246
177	0x3e62bfd4	0.22143489
178	0xbd8b976f	-0.06815993
179	0xbd828548	-0.06373078
180	0xbcd78783	-0.026309734
181	0x3e96c257	0.29445145
182	0x3eabce11	0.33555654
183	0xbe0ec809	-0.13943495
184	0xbe02e6d5	-0.12783368
185	0xbe392a00	-0.18082428
186	0xbebb254d	-0.36551896
187	0xbd01580f	-0.03157812
188	0x3e6f5bea	0.23374906
189	0x3e218cbf	0.15776347
190	0x3e969e47	0.2941763
191	0xbe8cae72	-0.2747684
192	0x3e5cf8bc	0.2157926
193	0xbdfa0a24	-0.122089654
194	0xbea97fde	-0.33105367
195	0xbdfeb958	-0.12437695
196	0x3c24b140	0.010052025
197	0x3f1a83f5	0.603576
198	0x3e202d6b	0.15642326
199	0xbd99aaa8	-0.07503253
200	0x3f0f1619	0.55893093
201	0xbe2725b5	-0.16322978
202	0x3e5771b0	0.21039462
203	0x3e2f8c00	0.1714325
204	0xbd45548d	-0.048176337
205	0x3e55b181	0.20868494
206	0xbe5734f5	-0.21016295
207	0x3d8c9536	0.06864397
208	0x3e907c38	0.2821977
209	0xbe96ec47	-0.2947714
210	0xbdb148d1	-0.08656467
211	0x3d86d49e	0.06583522
212	0x3e604449	0.21901049
213	0x3e1236af	0.14278673
214	0x3e7920f9	0.24328984
215	0xbe297f45	-0.16552456
216	0x3f43ce66	0.76486814
217	0x3e3f8c63	0.18705897
218	0x3e01c508	0.12672818
219	0xbe6b766e	-0.22994396
220	0x3d8f914b	0.07010134
221	0x3dfeb77f	0.12437343
222	0x3e83e6c2	0.25761992
223	0x3d1709f8	0.03687474
224	0x3e5e1ae5	0.21689947
225	0x3e11072e	0.14162895
226	0xbdbf3edd	-0.09338162
227	0x3e9d885a	0.3076809
228	0x3de9f147	0.11422973
229	0x3ebcbb67	0.36861727
230	0x3e0c8bff	0.1372528
231	0x3e057290	0.13031983
232	0x3dc0df29	0.094175644
233	0xbeed08d4	-0.46295798
234	0x3e03d3eb	0.12873809
235	0x3d8029d4	0.06257978
236	0xbe1e226c	-0.15442818
237	0xbe31f590	-0.17378831
238	0xbdab6859	-0.08369512
239	0xbe9f5bde	-0.31124777
240	0xbe65d52b	-0.22444598
241	0xbd8480f7	-0.064699106
242	0xbdc6b049	-0.097015925
243	0xbc3ab286	-0.011395102
244	0x3e347555	0.17622884
245	0x3dad7436	0.08469431
246	0xbebd6234	-0.36988986
247	0xbeca37a3	-0.39495572
248	0xbe678231	-0.22608258
249	0x3d9c4773	0.07630815
250	0xbe46ecb0	-0.19426227
251	0xbbb4df08	-0.0055197515
252	0xbe8c36a7	-0.27385446
253	0xbee1c0b7	-0.44092342
254	0xbea6bde7	-0.3256676
255	0x3edad5d1	0.42741254

net.4.bias f4 [64]
0	0x3dd3741c	0.103248805
1	0x3d2510b6	0.04029914
2	0x3e3dc9a1	0.18533947
3	0x3c223a34	0.009901572
4	0x3e638c93	0.22221594
5	0x3e072867	0.13199006
6	0x3d593986	0.053033374
7	0x3bb2c86a	0.00545602
8	0x3cd56bd3	0.026052391
9	0x3e02ff33	0.12792663
10	0x3d9a5e90	0.075375676
11	0x3d092c1d	0.033489335
12	0x3d4fd422	0.050739415
13	0x3e1fec8f	0.15617584
14	0x3d9fb802	0.077987686
15	0xbd1cb6c4	-0.038260236
16	0x3e47d101	0.19513322
17	0xbc908656	-0.017642181
18	0x3e67d668	0.22640383
19	0x3dfa3498	0.12217063
20	0x3e33fd0b	0.17576997
21	0x3da4e0f7	0.08050721
22	0x3e457084	0.19281203
23	0x3def93f4	0.11698142
24	0x3cac38df	0.021023212
25	0x3db15e2d	0.08660541
26	0x3e158ff2	0.14605692
27	0xbc309311	-0.010777251
28	0x3d1f8328	0.03894344
29	0x3e093c2c	0.1340186
30	0x3e4c8e77	0.19976221
31	0x3c6f1c8e	0.01459421
32	0x3ea98a0d	0.33113137
33	0x3e8b6fb5	0.27233663
34	0x3e6daaac	0.23209637
35	0x3e29931a	0.16560021
36	0x3d181ac9	0.03713492
37	0x3e2f3147	0.17108642
38	0x3e0a918e	0.13532087
39	0x3d28d44e	0.041218095
40	0x3d0eb5b8	0.03484127
41	0xbd533aa6	-0.051569603
42	0x3d1c7e92	0.038206644
43	0xbc8829e9	-0.016621547
44	0x3e265ec1	0.16247083
45	0xbd5b4364	-0.053531066
46	0x3dd10aaa	0.10207112
47	0xbe0a872e	-0.1352813
48	0xbd86c7a3	-0.065810464
49	0x3e7dbeba	0.24779788
50	0x3d6fd5f9	0.05855367
51	0x3d3b8053	0.045776676
52	0x3e656f9b	0.22405855
53	0x3d811d28	0.06304389
54	0x3deaa701	0.11457635
55	0x3d298dd1	0.041395012
56	0x3dc53925	0.0963004
57	0xbe88aa3d	-0.26692382
58	0x3e07544e	0.13215753
59	0x3e4d844d	0.2007
60	0x3dd58144	0.10425046
61	0x3e5dddad	0.21666594
62	0x3d024898	0.031807512
63	0x3e88d65c	0.26726043

net.6.weight f4 [1, 64]
0	0x3e728beb	0.23686187
1	0xbea7c18e	-0.32764858
2	0x3e4c8b7f	0.19975089
3	0xbebef5ce	-0.3729691
4	0x3e92b6f7	0.28655216
5	0x3e8dd513	0.27701625
6	0xbeaebf13	-0.34130153
7	0x3e37bcc2	0.17943099
8	0xbea6e875	-0.32599226
9	0xbe99cefc	-0.3004073
10	0xbeac050e	-0.33597606
11	0xbec67410	-0.38760424
12	0x3e81dd45	0.25364128
13	0x3e92c703	0.2866746
14	0xbe96d16b	-0.29456648
15	0xbebc2114	-0.36743987
16	0x3e9510a8	0.2911427
17	0xbecc2a65	-0.39876094
18	0xbf386560	-0.72029686
19	0xbed9d2c2	-0.42543608
20	0x3e7c0761	0.2461219
21	0x3e215ca7	0.15758
22	0x3eaa7b50	0.33297205
23	0x3eae409e	0.34033674
24	0xbebb8d9c	-0.36631477
25	0xbeaf1925	-0.3419887
26	0x3e466164	0.19373089
27	0xbed62bf0	-0.41830397
28	0x3e6881eb	0.2270581
29	0x3eae1970	0.34003782
30	0x3e8db343	0.27675828
31	0x3e876d7d	0.2645072
32	0x3ea37566	0.31925505
33	0xbf6905ea	-0.9102465
34	0x3eb8c03c	0.36084163
35	0xbeb097fd	-0.34490958
36	0x3e9409cb	0.2891372
37	0x3e58f3e0	0.21186781
38	0xbf50fa86	-0.8163227
39	0x3e74c73b	0.23904125
40	0x3e99d0ec	0.30042207
41	0x3e5adf39	0.21374215
42	0xbeb65af4	-0.35616267
43	0xbe84aa2a	-0.25911075
44	0x3e5f5401	0.21809389
45	0x3e2c4553	0.1682332
46	0x3e7e0dc6	0.24809942
47	0x3cc0c244	0.023530133
48	0x3e49fea9	0.19726051
49	0x3eb2d1df	0.34925744
50	0xbed80c0e	-0.42196697
51	0xbe9ecef7	-0.31017277
52	0x3e9373de	0.28799337
53	0xbef303fb	-0.47463974
54	0x3e26d740	0.16293049
55	0x3e99d7c6	0.30047435
56	0xbeb01a97	-0.34395286
57	0x3dc517d0	0.096236825
58	0xbed15a59	-0.40889242
59	0x3e925dd0	0.28587198
60	0x3e97e044	0.2966329
61	0x3e94ff07	0.2910082
62	0xbeb068f4	-0.34455073
63	0x3ef24e05	0.4732515
