cancer_iterative/cancer_models/40_train/tvae_combined_final_model.pt (torch, 45513 bytes, 7 tensors)

net.0.weight f4 [64, 30]
000000 8a 72 9b bd 14 5d 6e 3e 46 78 81 bd fe 67 06 be
       -0.07590206 0.23277694 -0.063217685 -0.13125607
000010 9c 72 b9 bc b3 ff 10 be cf 5c 25 3d c9 83 5d be
       -0.022637658 -0.14160042 0.040371712 -0.21632303
000020 82 7d 0e 3d 62 4f 73 3e 82 15 c3 be 00 db 35 bc
       0.034787662 0.23760751 -0.38102347 -0.011099577
000030 28 8c 7f be fb 1e 1b 3e 37 83 fd 3a d0 f6 f6 3d
       -0.24955809 0.15148537 0.0019341473 0.120587945
000040 32 9a 06 3e 24 2c 28 3d 58 e2 24 be 8c ae 0e 3e
       0.13144758 0.04105772 -0.16101968 0.13933772
000050 95 8e 91 3e 5e d8 fc bd 65 b0 20 be 62 84 83 be
       0.28429094 -0.12345956 -0.15692289 -0.25686938
000060 fd 91 0b be 0b 3b db 3d 90 21 95 3d e6 61 20 be
       -0.13629909 0.10704621 0.07281792 -0.15662345
000070 d0 af e5 3c 8f 75 92 be d8 97 37 3e 6d e2 a5 bd
       0.028037935 -0.28605315 0.17929018 -0.08099828
000080 92 bf eb bd 55 3d 2c 3e 6f 20 47 3d ff 86 09 3e
       -0.115111485 0.16820271 0.048614915 0.13430403
000090 2d a3 09 3c b3 d1 a8 bd 63 db 85 be 37 7e db bd
       0.008400721 -0.08243122 -0.2614394 -0.10717433
0000a0 f3 5a 77 3d 29 f6 11 bd 98 0d ad 3d a3 b9 d3 3c
       0.06038947 -0.035635147 0.084498584 0.025845354
0000b0 b4 36 22 3e ae 03 5f be 2a 2c 03 3d fa f3 2c be
       0.1584118 -0.21778747 0.03202454 -0.16889945
0000c0 64 10 46 be 80 43 23 be 50 a0 38 be 27 79 7e bd
       -0.1934219 -0.15943718 -0.18029904 -0.06212726
0000d0 c9 76 2a 3e c1 7f 4c be 8b 94 28 be 36 f4 35 3e
       0.16646875 -0.19970609 -0.16462915 0.1776894
0000e0 41 1f 21 be ea 4f c5 bc ac c0 5b bd 35 85 81 3e
       -0.15734579 -0.024085958 -0.053650543 0.2529694
0000f0 d0 41 15 bd 31 09 07 be 3f 0d 9f bc a6 27 59 bd
       -0.036439717 -0.131871 -0.019415496 -0.053016327
000100 38 6e 3d bc 9b 07 14 bd 24 e4 30 bd af 2a 77 3e
       -0.011561923 -0.036140066 -0.04318632 0.24137376
000110 75 30 02 be 7d 5c 20 be 61 2a f6 bb 81 b0 3e be
       -0.12713797 -0.15660281 -0.007512376 -0.18622018
000120 57 84 0d be 56 34 35 3e ab 64 43 be b8 e1 32 3e
       -0.13820015 0.17695746 -0.1908137 0.17468917
000130 f4 51 94 3d ce 71 13 3c e6 0e ed 3d 81 12 1b 3e
       0.07242194 0.008999301 0.11575107 0.15143777
000140 b2 13 33 bd 8b 1f 5f 3c 6d 7b 86 3e f9 d3 58 3d
       -0.043719955 0.01361836 0.2626604 0.052936528
000150 c1 94 32 3d bb 87 74 bd cb b5 02 be f8 9f 2d 3d
       0.043598894 -0.059699755 -0.12764661 0.042388886
000160 c8 7f 6e bc 59 2c 6f 3e 05 2a 09 3e 36 48 de 3c
       -0.014556833 0.23356761 0.13394935 0.027134042
000170 41 b8 27 bc b6 0b 98 3e 33 85 78 3e 1b b4 f5 3c
       -0.010236801 0.29696435 0.24269561 0.029993108
000180 b5 7e de 3c 10 2a 3d 3d fa 41 e7 bd c5 a6 80 3d
       0.027160028 0.046182692 -0.11291881 0.06281809
000190 f1 63 05 be 78 88 a5 bd 5b 73 59 3e ca 35 19 3c
       -0.13026406 -0.0808267 0.21235411 0.009351203
0001a0 46 cf d5 bc 95 e4 ee 3c c4 8c ff bd 5d 16 88 3e
       -0.026099812 0.02916173 -0.12478021 0.26579562
0001b0 90 18 18 3e e6 e7 98 bc 08 dc a5 3e 5a a8 ab be
       0.1485312 -0.018665265 0.32394433 -0.3352688
0001c0 7c b3 9c be 4b 77 37 3b 32 83 fe 3d 2d ee 64 bd
       -0.30605686 0.0027994688 0.12427367 -0.055891205
0001d0 04 9c 23 3c 81 4d 0f 3e 5a 13 1d be d8 8b 39 3e
       0.0099859275 0.13994409 -0.15339413 0.18119752
0001e0 e5 88 67 3e 60 41 c2 bd 71 60 67 bd 40 28 4d be
       0.22610815 -0.094851255 -0.056488458 -0.20034885
0001f0 fc 84 46 3e 19 e7 1c 3e 63 96 65 3e cc 58 0d 3e
       0.19386667 0.15322532 0.22420649 0.13803405
000200 0a e5 12 be 9e c2 8a 3d fa 0f ff 3d 62 09 73 bd
       -0.14345184 0.067754015 0.12454219 -0.05933512
000210 a5 69 0b 3e c1 f6 09 3d 65 cd 9b be 0a 3d 28 be
       0.13614519 0.03368259 -0.3043014 -0.16429535
000220 ed 5c 1a bd a7 1b 81 bb 4f d1 ac bc 31 a7 f3 3d
       -0.037686277 -0.003940064 -0.0210959 0.118971236
000230 8a d2 74 3e 9f 8c eb bd e1 1b 8b 3c 8f 45 17 bc
       0.2390844 -0.11501431 0.016981067 -0.009232893
000240 27 c9 ab 3d 0e a0 9b bc 7c 63 a9 3d 3f f1 e5 3d
       0.08387976 -0.018997218 0.08270928 0.11227655
000250 12 8e fb bd 2b 08 50 3e 22 14 8f 3c 16 7f a3 be
       -0.12282957 0.20315616 0.017465655 -0.31932896
000260 54 c0 7f bd b7 0e 19 bd fb f4 7d 3e 81 f8 3b 3e
       -0.062439278 -0.03736755 0.24800484 0.18356515
000270 57 ff 72 be a8 de b1 3c 9c 74 e0 bb 07 05 16 be
       -0.23730217 0.021712616 -0.0068498384 -0.14650355
000280 cf fc 69 3e 96 cb df bd 30 6f 09 3e 19 f4 78 be
       0.22850345 -0.10927503 0.13421321 -0.24311866
000290 1f 10 d7 bd 67 a9 91 bd cb a8 45 be ed 3e ef 3d
       -0.10501122 -0.07112389 -0.1930267 0.11681924
0002a0 94 c1 78 3e 14 03 fc bd aa 3f 17 bd ad b4 b4 3e
       0.24292594 -0.123052746 -0.03692595 0.35294095
0002b0 74 03 58 3d 79 0f cf bd f8 15 8f bd 53 6f 08 bd
       0.05273767 -0.10110373 -0.06986612 -0.033309292
0002c0 f2 c1 35 be 9e 6e 7f 3d 82 9b 3c 3d 25 5e 8d bd
       -0.17749766 0.062361352 0.04604674 -0.06902722
0002d0 92 95 1c bd b1 01 a2 3d 84 6d 52 be 2b 4b 9e 3e
       -0.03822858 0.07910479 -0.2054959 0.30916724
0002e0 bf 72 61 3d cb 4d d4 bd ab bb fe 3d 0c 8f f7 bd
       0.05504107 -0.103664 0.124381386 -0.12087831
0002f0 c7 c0 ec bd e1 9a e1 bc f3 59 ec 3d 46 de 76 3c
       -0.11560207 -0.027539672 0.11540594 0.015067643
000300 9c 5a 51 3e 1e b9 8f 3d f8 c8 52 3d a3 81 72 3e
       0.20444721 0.0701773 0.05146119 0.23682265
000310 67 1e 05 3e 5f 83 81 bd de 2f 9a bd 79 df 11 3e
       0.12999879 -0.06323885 -0.07528661 0.14245404
000320 3c 02 ba 3d 4d 4d 34 3d 35 cb e1 3c f9 44 28 3e
       0.090824574 0.044019032 0.027562717 0.16432561
000330 a1 d0 d8 bc b9 b9 d3 bc 52 57 64 be 61 0f 13 3d
       -0.02646667 -0.025845395 -0.22298935 0.03590334
000340 49 54 81 3e 51 19 3f be 5c 62 1b be 87 65 ba be
       0.25259617 -0.18662001 -0.1517424 -0.36405584
000350 c4 5e 68 be 02 88 16 bd be cf d0 bd ef 29 89 bd
       -0.226924 -0.0367508 -0.10195874 -0.06697451
000360 59 28 00 be b8 77 ce bc 4f 0a 03 3e 95 2a 1b 3e
       -0.12515391 -0.02520357 0.12796901 0.15152963
000370 88 76 7f 3e f3 13 7d 3d 24 52 39 3e ad bd 07 3e
       0.2494756 0.061786603 0.1809774 0.1325595
000380 57 d2 1d be 73 e0 aa 3d d6 e4 50 bd ea d4 d0 bd
       -0.1541227 0.083435915 -0.050999485 -0.1019686
000390 da 07 35 bb 17 a3 91 3c 9a a8 e5 be a4 55 1c 3e
       -0.0027623088 0.017777963 -0.44855195 0.15267044
0003a0 51 b5 96 3d 39 04 2a be 18 af 66 bd c2 d2 39 3e
       0.07358802 -0.16603173 -0.056319326 0.18146804
0003b0 03 ad 74 3d 2e bf 29 be 4f bb 53 be ec f7 0a 3d
       0.05973531 -0.16576836 -0.20676921 0.033927843
0003c0 70 78 23 3e a2 3b 72 3c f2 3a 7c bd cd 78 4d 3e
       0.15963912 0.014784725 -0.061579652 0.20065613
0003d0 30 d4 96 bd 75 a8 08 be 0e 94 9a 3e 40 ad 3b bd
       -0.0736469 -0.13345511 0.30191082 -0.04581952
0003e0 96 42 4e be 22 02 21 bc 8a 92 61 3e dd 51 3c 3e
       -0.20142588 -0.009827169 0.22028556 0.18390603
0003f0 2d 32 58 3e 92 1e 82 bc 2a a6 9b bd 5e bf 69 be
       0.2111289 -0.015883718 -0.07600053 -0.22826907

net.0.bias f4 [64]
000000 b4 6a 0c 3e 2a be ed bc 38 89 e3 b9 1b 4e 0f bc
       0.13712579 -0.029021341 -0.0004339905 -0.008746649
000010 27 0d 01 be 83 31 21 be 5b eb 80 be 02 db dc bd
       -0.12602673 -0.15741543 -0.25179562 -0.1078396
000020 a5 35 e4 3d af 11 b9 3c c5 aa 16 be af d5 8b bd
       0.111430444 0.02259144 -0.14713581 -0.06827866
000030 e7 f4 7d bc 9e 80 48 bd 68 76 0e be 16 81 a4 3d
       -0.015500284 -0.048950784 -0.13912356 0.08032434
000040 ae 5d 30 ba 2d e6 cc bd 7e a1 d6 bc 29 1b b9 3d
       -0.00067278265 -0.1000484 -0.026200052 0.090383835
000050 ca 93 03 be 10 7c 0c be 04 a4 54 bc ab 38 80 3d
       -0.12849346 -0.13719201 -0.0129785575 0.062608086
000060 ab 65 ac 3d be bf b8 bc f1 fe ae be aa 8d aa 3d
       0.08417829 -0.022552367 -0.3417888 0.083278015
000070 3c de cf 3d 5a f3 ba bd e2 08 1f 3d 05 59 8d bd
       0.1014981 -0.09128447 0.03882683 -0.06901745
000080 5c f8 3e be b5 e7 08 3c 0f c4 f1 bd 29 8c 20 be
       -0.18649429 0.0083560245 -0.11804973 -0.15678467
000090 c8 28 2d bc 6e 7c c5 3a f8 e4 6d be e2 d1 a3 bc
       -0.010568805 0.001506699 -0.23231876 -0.01999754
0000a0 0d 4b b5 bd 02 73 27 3e 95 ec cb bd bd b8 98 bd
       -0.088522054 0.16352466 -0.09957234 -0.07457111
0000b0 c8 8e a5 3d 45 96 80 bd 79 e7 23 3d 82 fb 7e be
       0.08083874 -0.06278662 0.04001567 -0.2490063
0000c0 53 08 26 be 8c d3 a4 bd 1d 9d 65 bd 90 eb 21 be
       -0.16214113 -0.08048162 -0.056058038 -0.15812516
0000d0 ed 74 02 be 14 c0 2e bd f0 eb fe 3d f8 73 87 bd
       -0.12739916 -0.04266365 0.12447345 -0.06613916
0000e0 d0 0e b4 bd ae 70 ce 3c 8e 98 35 bd 51 c9 39 be
       -0.08791888 0.025200214 -0.04433494 -0.18143202
0000f0 3c 98 ed bd 82 9f 2f bd 5d e5 d9 3d a4 c5 47 bd
       -0.11601302 -0.042876728 0.10639451 -0.04877247

net.2.weight f4 [64, 64]
000000 f0 8f 98 3e 4a 36 6d bd 08 3e c4 3c 27 41 97 bd
       0.29797316 -0.057913102 0.02395536 -0.07385474
000010 97 9c 2a bd 44 ec d4 3d a0 58 7b bd 82 0a 3c 3e
       -0.041653242 0.103966266 -0.061363816 0.18363383
000020 90 c1 e0 bd 2e e8 1c be 9b da 10 3d 48 85 8e bd
       -0.10974419 -0.15322945 0.03536473 -0.06959015
000030 a3 ef bc bd f5 1f 99 bd 8b 5a cf 3c a6 39 2c 3e
       -0.092253946 -0.074767984 0.025311729 0.16818866
000040 82 7b 2d be cc 12 26 3e c2 29 0d 3e b9 03 0b 3e
       -0.16941646 0.16218108 0.1378546 0.13575639
000050 09 0f 42 3e 0a 4b b5 bc 0d fe ad bd c5 a8 2b bd
       0.18951048 -0.022130508 -0.08495722 -0.041908998
000060 76 14 a2 be bc 8c b1 bd 6e 34 ef 3d 94 6f c1 3d
       -0.31656235 -0.08669421 0.11679922 0.0944511
000070 87 07 5c 3d 7b 5f a5 3d 34 47 b3 3d cb 1c 20 3e
       0.053718116 0.08074852 0.08753815 0.15635984
000080 02 1b 26 3e 33 bc 9c ba 5a 23 36 3d 2e 17 5a be
       0.1622124 -0.0011957943 0.044467308 -0.21297905
000090 33 fb 03 be 14 55 48 3d b9 5a 94 3b 49 7f 27 3e
       -0.12888794 0.04890926 0.0045274165 0.16357149
0000a0 25 46 49 bc 96 4a 9b 3e 26 19 22 3e 3c 68 a4 3d
       -0.01228479 0.30330342 0.15829906 0.08027694
0000b0 80 48 c7 bc ab ac 06 be 43 81 f1 3d 81 71 88 3c
       -0.024326563 -0.13151805 0.11792233 0.016655685
0000c0 79 49 7d bb 6d 82 02 be a0 e4 15 3c ae e5 cd bd
       -0.003864853 -0.12745066 0.009148747 -0.100535735
0000d0 79 b5 2e 3e 3e a3 cc 3c 08 18 f3 bd 6e 92 9e 3e
       0.17061414 0.024980184 -0.11869818 0.30971092
0000e0 74 f8 bc 3e 63 63 20 b6 a0 30 8b 3e fb 2a fe bc
       0.36908305 -2.3899709e-06 0.27185535 -0.031026354
0000f0 67 7f 10 3e 29 da df 3d bd 0a 4f 3e ab 88 32 3e
       0.141111 0.109302826 0.2021894 0.17434947
000100 46 5f a0 bd 39 d7 a6 3e 07 fe 87 bc ab 17 14 3e
       -0.07830672 0.32586077 -0.016600622 0.14462154
000110 47 37 53 3d 0b 70 f4 3d 73 87 89 3e 3d 8d c4 bd
       0.05156639 0.11935433 0.26861152 -0.095972516
000120 6a 2f 70 3c 68 8b 52 3e f6 66 a4 bc a8 ca 78 3e
       0.014659742 0.20560992 -0.020068627 0.24296057
000130 13 e1 69 bd 77 6e a6 3d fe 1a 0f be 39 f4 04 be
       -0.057099413 0.08126538 -0.1397514 -0.12983789
000140 65 c5 3c bd f4 cc 1c be 9c 5b ec 3d ec 2b f6 bd
       -0.046086688 -0.15312558 0.115409106 -0.12020096
000150 12 cb 48 bc e6 c7 c8 bd 92 1d 54 3d 59 48 4a 3d
       -0.012255447 -0.098037526 0.051786013 0.049385402
000160 08 57 f5 bd 55 13 ea 3d 04 93 57 be 31 2f 9f bd
       -0.119794905 0.114294685 -0.21052176 -0.07772673
000170 38 8a f0 bd 9c 83 18 bd 71 16 27 be 36 33 8e 3d
       -0.11745113 -0.037234887 -0.16317154 0.069433615
000180 cb b7 be 3d 72 9c 59 be c6 49 ff 3d 14 39 42 3d
       0.093123995 -0.21251085 0.12465243 0.047417715
000190 4e 3d ca 3b 8b 3c cf 3d f7 f4 92 3b 5c 99 08 bd
       0.006171859 0.101189695 0.0044847685 -0.03334938
0001a0 45 a5 3b 3d 80 d6 ce 3d 36 d1 c0 bd d9 3d ee 3c
       0.04581191 0.100995064 -0.09414904 0.029082226
0001b0 47 2e db bd 94 fc 1c 3d d9 66 eb bd f5 e7 4d bd
       -0.10702186 0.038326815 -0.11494226 -0.05027004
0001c0 0a 80 95 3d 94 78 5c 3d f0 dc 85 3d bf d5 d2 bc
       0.07299812 0.05382593 0.06536281 -0.025736688
0001d0 b5 a7 10 bd 69 a4 07 3e 1d 2d 21 3d 42 ff 07 bd
       -0.035316188 0.13246311 0.039349664 -0.033202417
0001e0 92 16 e0 3d 6d 72 3e 3d 9a ff 11 bc 7f 33 4b bd
       0.10941805 0.046495844 -0.008911038 -0.049609657
0001f0 af e3 14 3d 52 04 17 be 89 a2 ea bd d8 35 a5 3d
       0.03634995 -0.14747742 -0.11456782 0.080669105
000200 11 81 8d 3e f9 ac d4 bd 56 ad d2 bd 82 27 c3 bd
       0.27637532 -0.103845544 -0.102869675 -0.0952902
000210 b1 f0 9d bc 67 a9 08 3e f5 58 3a be 28 e7 22 3e
       -0.01927981 0.13345872 -0.18197997 0.15908492
000220 3f 54 88 bd 06 f2 33 be d0 95 25 be 76 94 99 bd
       -0.06656694 -0.17572793 -0.1617043 -0.0749902
000230 ef 29 37 3e 1a 61 39 be 56 61 36 bb 8f 8b 45 3e
       0.1788709 -0.18103448 -0.0027829013 0.19291519
000240 32 e4 31 bd f5 93 24 3e e7 1f 92 3c 8d 0d d4 3c
       -0.043430515 0.16072066 0.017837478 0.025885368
000250 4e 76 9c 3d 8d 66 9f 3d eb 32 be 3d 2b 92 22 bb
       0.07639752 0.07783232 0.092870556 -0.0024806361
000260 cf c3 08 bd f9 b9 78 bb 9e 92 bc 3d 0c c8 c3 bc
       -0.033389863 -0.0037952645 0.092076525 -0.0238991
000270 32 7b 9d 3d 35 40 55 3d 74 3b 3f 3e 3f eb 85 3e
       0.07689513 0.052063186 0.18675023 0.2615604
000280 a1 f4 09 3e be c6 dc 3b 8b d1 15 bd 46 ec 54 3e
       0.13472225 0.006737559 -0.03657679 0.20793256
000290 cd 0b 1d be 43 e1 a0 3d d3 de a0 bb 59 b9 9e 3d
       -0.15336533 0.07855465 -0.004909375 0.07750196
0002a0 4b 68 48 3d be 44 b4 3d f1 a9 87 3e 9e ed 11 3e
       0.048927587 0.08802174 0.26496843 0.142508
0002b0 29 6c 07 3d f4 98 d9 3c 90 7d 3a 3e f0 ef 98 bd
       0.033062134 0.026562192 0.18211961 -0.074676394
0002c0 cd e3 cc 3c 15 11 b8 3c 34 ae 03 be 7b f9 2f bd
       0.025010968 0.022469083 -0.12859422 -0.042962532
0002d0 76 0d 48 3c 5c 8b 06 be f9 b2 26 3d 45 b4 1c 3d
       0.012210241 -0.13139099 0.040698025 0.038257856
0002e0 c0 b8 b1 3e e6 10 51 bd 39 e0 f3 3d fa 4f 11 bc
       0.34711266 -0.051041506 0.119080015 -0.008869166
0002f0 5d 33 1a 3d 80 7e ed b9 22 f0 26 bc a3 cb 84 3e
       0.03764664 -0.00045298412 -0.010189088 0.25936612
000300 9d 5f 3e be 87 3a ef 3d fc 6e 1b 3e 66 4b 5f be
       -0.18591161 0.11681085 0.15179056 -0.21806106
000310 57 83 99 bd 25 1f 8a bd ad da 8e 3c cf 25 8d bd
       -0.07495754 -0.067442216 0.017438257 -0.06891977
000320 64 c8 07 3e 82 1d 68 3e c5 a4 ce 3c ed 21 99 3d
       0.13260037 0.22667506 0.025225053 0.07477174
000330 e4 7e 15 be a5 b7 6f 3e ec f9 95 bd a3 dd a4 bd
       -0.14599186 0.23409899 -0.073230594 -0.08050086
000340 af 41 3f 3d c0 0d 0a bc 04 89 41 bd e4 80 ce bd
       0.0466935 -0.00842613 -0.04724981 -0.10083178
000350 30 ea 4f 3b a8 14 94 be 6f 17 b0 bb e8 06 50 bd
       0.003172528 -0.2892201 -0.0053738873 -0.050787836
000360 43 ab 96 3c 81 dd 26 bb cd 9f 18 be ca 94 f2 3b
       0.01839221 -0.0025461616 -0.14904709 0.007402991
000370 e6 8a 3a 3c 6d cc 25 be 07 a3 5c 3d f5 7f 9c bd
       0.011385655 -0.16191263 0.053866412 -0.07641593
000380 ca b3 3e 3d c2 81 75 be 87 61 d6 3d f2 8c 25 be
       0.04655818 -0.2397528 0.104678206 -0.16167048
000390 c2 32 71 bd ad a8 13 3d 37 fa c8 bd 0f 3b 06 be
       -0.058886297 0.036049534 -0.0981335 -0.13108467
0003a0 ee 6a f4 3d 41 06 2b bc fc b2 97 3d 10 3c 69 3d
       0.11934458 -0.010438503 0.074071854 0.056942046
0003b0 df 3c d5 bd ef b8 d8 3d 74 0e 0e be 9c 78 11 bc
       -0.10412001 0.10582148 -0.13872701 -0.008878853
0003c0 f8 39 f3 3d a7 54 a4 3d 10 6a 09 bd 3e 27 34 3e
       0.11876291 0.08023959 -0.033548415 0.17593095
0003d0 11 cb 93 3d 66 a3 25 3e 9c 4f 10 3e e8 67 81 be
       0.07216466 0.16175613 0.14092869 -0.25274587
0003e0 17 b7 ac bd c3 9c 79 3d 1f c3 20 3b 0c fd 19 be
       -0.08433359 0.060940515 0.0024530364 -0.15037936
0003f0 75 92 18 3d 95 59 e0 3d 35 15 2e be e8 2b 43 be
       0.037249047 0.109545864 -0.17000277 -0.19059718

net.2.bias f4 [64]
000000 3e a1 e9 3c ef 67 2b 3c d0 80 74 3d 2a d6 19 3d
       0.02851927 0.010461791 0.059693158 0.03755776
000010 a1 ad 9f bd 1b 8a 28 3e e5 90 9b 3a 10 ba ff 3c
       -0.07796789 0.16458933 0.0011868743 0.031216651
000020 37 ff 23 bd 59 42 9e 3d 91 5e 5e bc c4 f6 9e 3b
       -0.040038314 0.077274986 -0.013572351 0.004851194
000030 71 d2 f8 bd 00 05 97 3c ca a3 af bd c8 e9 20 bd
       -0.121495135 0.018435001 -0.08576162 -0.03928545
000040 f4 a4 1b bd b6 40 4f 3c 64 6c 5d bd b6 1b 2c be
       -0.03799911 0.012649706 -0.054058447 -0.16807446
000050 3c 4b 15 3d 4f 05 b7 bd 49 24 70 3d 7a a0 85 bd
       0.036448702 -0.089365594 0.058628354 -0.06524749
000060 33 cc e9 3d e9 ea f7 bd 7f 3c 8d bd 6c 91 ea bc
       0.11415901 -0.121053524 -0.06896304 -0.028633796
000070 56 71 50 bd 89 fe e1 3d f7 6a 78 bd 7f 22 53 bc
       -0.050889336 0.11034877 -0.060648885 -0.0128866425
000080 4b fa 2d 3f 0b 35 84 bd 60 45 01 bd 67 25 3e 3d
       0.6796004 -0.0645543 -0.0315603 0.04642239
000090 93 1b 16 bd 8e 54 d6 3c 1f 72 8e bc b8 f2 45 bd
       -0.03664739 0.026163366 -0.017388402 -0.048327178
0000a0 b5 46 05 3e 6e 11 a9 bd 74 25 16 3d 98 3b 04 3e
       0.13015254 -0.082552776 0.03665681 0.12913358
0000b0 25 f1 4b bd ff cb 3d bd cc 16 b0 3d b2 b5 a4 3d
       -0.04979052 -0.046337124 0.08598098 0.08042468
0000c0 9a 1f 5b 3d 7b 74 2a 3b 99 75 ba bc 1c 63 be bd
       0.053496934 0.002600937 -0.022761153 -0.09296247
0000d0 79 09 cd bd f1 7a 3a 3d f4 8b 43 bd c8 b7 71 bd
       -0.100115724 0.045527402 -0.04774089 -0.059013158
0000e0 7c c0 af 3c 19 00 95 bd b6 bf d7 3d 3e 71 c0 bd
       0.021454088 -0.07275409 0.10534613 -0.09396599
0000f0 d1 6d 77 3d 91 d5 b9 3d a3 21 47 bc e9 86 b7 3d
       0.060407463 0.09073938 -0.012154016 0.08961279

net.4.weight f4 [64, 64]
000000 9b af c4 bd d6 b9 c4 3d 49 03 2e bc 3e 6b 6e 3e
       -0.096038066 0.09605758 -0.0106209 0.23283097
000010 14 3e db 3c d7 97 0c 3e 82 b5 3a be 8f 61 d0 bd
       0.026763 0.13729797 -0.18233302 -0.10174858
000020 eb 19 91 bd 90 69 c4 3d 6a ac 2a 3d 01 97 07 3d
       -0.070850216 0.09590447 0.041668333 0.033102993
000030 ae 26 38 3e fb a1 25 3d 6e eb b5 bc 00 6a 1a be
       0.17983505 0.04043768 -0.022206988 -0.15079498
000040 69 fe 4b 3e 91 d2 57 3e f6 73 75 3e f9 78 0f 3e
       0.19921269 0.21076418 0.23970017 0.14010991
000050 83 4b 40 3e 87 bc 0b be 36 9f 05 be 09 c0 0e be
       0.18778805 -0.13646136 -0.13049015 -0.13940443
000060 7d ea 07 be e7 40 7f 3e 76 7a 2a bd f6 71 d2 3c
       -0.13273044 0.24927102 -0.041620694 0.025689106
000070 c5 05 fb bd 9d 8a 28 3e af 46 5f 3e 8e 53 0f 3d
       -0.1225696 0.16459127 0.21804307 0.034991793
000080 1b 30 47 3e f5 d7 87 3c 4f b1 37 3d 0c 48 06 bb
       0.19451945 0.016582469 0.04484683 -0.002048972
000090 7e 0b 42 bd 7a 36 a8 bd 6e cf 06 be 0b 83 97 3e
       -0.04737424 -0.082135156 -0.13165066 0.29592165
0000a0 dd 5f 6c bd 30 8b e7 bd 05 cb 2d 3e 33 95 b9 3c
       -0.05770861 -0.11305845 0.16971977 0.022654152
0000b0 78 d0 07 3b f7 57 98 3d a9 d5 e5 3d 72 68 37 3e
       0.0020723622 0.07438653 0.11222393 0.17910936
0000c0 38 24 69 bd 92 ac 86 3b c7 0b 33 be 8d 49 42 3e
       -0.056919307 0.0041099275 -0.17484961 0.1897337
0000d0 be 5e 0c bc f9 b4 84 3d 92 3f 14 3e 2d d6 41 be
       -0.00856751 0.0647983 0.14477375 -0.18929358
0000e0 0f 77 83 3d ae cb 9a bd 98 30 1d 3d 39 8b 38 3b
       0.06419193 -0.0755838 0.03837642 0.0028159155
0000f0 bd 4a 72 3e ae a5 5a 3e 3d 51 34 3b c6 4c b2 3c
       0.23661323 0.21352264 0.0027514242 0.021765124
000100 a9 d1 c0 bd d1 fc 0f 3e 38 e1 e8 bd 94 69 1a 3e
       -0.094149895 0.14061286 -0.11371082 0.15079337
000110 b4 ae f6 3d e5 f0 ca 3d d1 14 5a be b3 88 20 be
       0.12045041 0.09909228 -0.21297003 -0.15677147
000120 35 e7 23 be e3 72 46 3e 70 ed fc 3d 4d 07 bf bd
       -0.16006167 0.19379763 0.12349975 -0.093275644
000130 06 9d 1b 3e 34 b3 16 bc cd d7 8f bd 17 ce 5f bd
       0.15196618 -0.009197999 -0.070235826 -0.054639902
000140 f6 13 da 3d 9d f8 14 3e 03 96 43 3e 1d 4b e2 3d
       0.106483385 0.14547963 0.19100194 0.11049483
000150 4d df 3c 3e 4a 84 be bd f4 a4 8d 3d 51 c3 a8 bd
       0.18444557 -0.09302576 0.06916228 -0.08240379
000160 69 94 a9 bd ef dd 73 3e b4 d1 04 3e bc 4c 26 bb
       -0.0828026 0.2381513 0.1297062 -0.0025375327
000170 5a fe ec bd 12 3a 8b 3e 65 90 1d 3e 40 1b a7 bd
       -0.11571951 0.27192742 0.15387113 -0.081594944
000180 0b c8 4c 3e 25 8d 56 3e 17 80 45 3e b1 f3 8f 3c
       0.19998185 0.2095228 0.19287144 0.017572256
000190 39 f4 55 bd 8a d6 af bb ce 9d e9 bd 91 70 4d 3e
       -0.052234862 -0.005366151 -0.11407052 0.20062472
0001a0 02 48 37 bd dd 80 4d be 5c fd 46 3e 46 39 4c 3d
       -0.044746406 -0.20068689 0.19432586 0.049859308
0001b0 57 52 42 3d d2 f9 52 3d 1a 6e 8e 3d 75 f1 94 bb
       0.047441807 0.05150778 0.06954594 -0.0045453855
0001c0 d5 92 a8 3d ed 19 27 3e 4c 26 c7 bd 20 59 27 3e
       0.08231131 0.16318484 -0.097241014 0.16342592
0001d0 ae ef f8 3b 66 a9 0b 3e 49 bd c6 3d 80 76 2d be
       0.0075969314 0.13638839 0.09704072 -0.16939735
0001e0 a5 ee d7 bc 7c bf 20 be db f5 85 3d bc d5 5b 3e
       -0.026358912 -0.15698045 0.06541034 0.21468252
0001f0 7e 49 30 3d 4d 96 20 3d 0c bc 51 3e c2 79 fe 3c
       0.043038838 0.039205838 0.2048189 0.031063918
000200 d2 5c a0 3e 24 44 1b 3e f1 d0 e7 3d 59 e2 c6 bd
       0.31320816 0.15162712 0.11319149 -0.09711141
000210 e5 16 44 3c 59 20 16 be c2 45 09 3e 43 82 16 3d
       0.011968349 -0.14660777 0.13405517 0.03674532
000220 2f 6f 63 3e c7 c9 5b bd f8 e8 e4 bc ee f1 33 3d
       0.22210382 -0.053659227 -0.02794312 0.043931894
000230 e7 cb a1 bd b0 5d b1 3d 49 99 ec 3d 5c 8b 95 3d
       -0.079002194 0.086604476 0.11552674 0.07301971
000240 d0 bf 06 be 27 1b 9e 3c 18 df 3f be 08 e1 a0 bc
       -0.13159108 0.019300057 -0.18737447 -0.019638553
000250 71 a4 14 be 0c ba 11 3e af 41 a1 3c a6 b4 bf 3d
       -0.14515854 0.14231128 0.01968464 0.09360628
000260 88 41 f3 3c 69 12 47 bd f5 7e cc 3d 17 3f 4f be
       0.029694334 -0.04860154 0.09985153 -0.2023891
000270 29 98 53 3e 12 40 f9 bd 8c b7 2a be bc bf 75 3d
       0.20663513 -0.121704236 -0.1667158 0.059997305
000280 d6 5d a0 3e 67 ae f9 3d b7 e5 2d bd cd 74 d7 bd
       0.3132159 0.12191468 -0.0424554 -0.10520325
000290 33 95 31 3e 15 81 21 3d b7 61 88 3e 3a 1d 66 be
       0.17342071 0.039429743 0.2663705 -0.22472087
0002a0 0d 9b fc 3c 2c 99 15 3e 37 a2 1e 3c 94 33 31 3e
       0.030835653 0.14609212 0.00968223 0.17304832
0002b0 a5 7e cf bd a6 a3 06 be b2 b9 6e bc 63 d4 19 be
       -0.101315774 -0.13148364 -0.01457064 -0.15022425
0002c0 1c 82 04 3e 67 f4 3f be 9b f5 45 3e 44 d8 70 be
       0.12940258 -0.18745576 0.19331972 -0.23519999
0002d0 16 d1 4c 3d c0 fb 66 be c2 38 a8 bd e8 70 92 3d
       0.050004087 -0.22556973 -0.08213951 0.071504414
0002e0 8f ef 3a bc d6 27 00 3e 73 69 e0 bd 47 9b ec bd
       -0.011409654 0.12515196 -0.10957613 -0.11553054
0002f0 8c 0f 40 be 93 44 a5 3d 03 5f 39 be 06 d8 03 3e
       -0.1875593 0.0806972 -0.1810265 0.12875375
000300 c1 34 38 3d 77 1f 93 3d 1a ab 4b 3d f0 72 0b bd
       0.044972185 0.07183736 0.049723722 -0.03404516
000310 18 72 5a bd 06 b1 19 be 9c 50 94 3e 87 59 01 3d
       -0.053331465 -0.15008935 0.2896775 0.03157952
000320 5b 38 25 3d 51 c7 bc bd c4 f9 5b be 4e 47 6b 3d
       0.040336948 -0.09217704 -0.21481997 0.05744105
000330 5b 77 84 bc f7 83 3b bd d5 7c 84 3d 00 2e bb 3d
       -0.016170194 -0.04578015 0.06469122 0.09139633
000340 c0 b4 6e bc ed d7 c5 bd e3 cc 30 bd 0b 3a 0d bd
       -0.014569461 -0.09660325 -0.043164145 -0.034479182
000350 c9 3f d2 bd 71 da 00 3d c6 30 7b 3e ef 98 52 3e
       -0.10266072 0.031458322 0.24530324 0.20566152
000360 f1 2f 1f 3e 71 29 09 be 4d a0 8f bd 61 b4 08 be
       0.15545632 -0.13394715 -0.07012997 -0.13350059
000370 04 aa 60 3e 0b 05 14 bd d1 d2 eb bd 6b 93 5c 3e
       0.21939856 -0.03613762 -0.115148194 0.2154061
000380 67 a1 71 3e 96 4c 4a bd 71 5c da bd 35 44 04 3d
       0.23596726 -0.049389444 -0.10662163 0.03229161
000390 93 a5 5c 3d 3a 66 20 3e 5b d6 5c 3e 71 58 1d be
       0.05386884 0.15663996 0.21566145 -0.15365769
0003a0 5d e2 40 3d 9a 4c a9 3d fe 70 0b be b4 45 38 3e
       0.047090877 0.08266564 -0.13617322 0.1799534
0003b0 d9 19 57 bc 57 33 c8 bc 2d a4 45 3e 62 52 7c bd
       -0.013128721 -0.024438543 0.1930091 -0.061602004
0003c0 aa e8 9e 3d 57 53 39 be 7d 64 aa 3d 23 bd 5c be
       0.07759221 -0.18098198 0.08319948 -0.21556525
0003d0 36 2f ed bd 59 c7 94 bd 35 2b 4f be 2b 57 90 3d
       -0.115812704 -0.07264585 -0.20231326 0.07047876
0003e0 49 57 e6 3d 48 28 a7 bb 42 58 2d 3d f6 6d 8e bd
       0.11247117 -0.0051012374 0.042320497 -0.06954567
0003f0 5a 93 de bd 9a 96 03 be f9 e4 36 3d 44 2d 3d 3d
       -0.10867949 -0.12850419 0.04465196 0.046185747

net.4.bias f4 [64]
000000 dc bc 23 3d 56 09 23 3d 37 e5 d2 3d 7c 9e 96 3d
       0.039975032 0.039803825 0.102976255 0.07354447
000010 c2 e0 0d 3e 64 37 b3 bd 17 d0 b6 3b 5b df 89 3d
       0.1385527 -0.08750799 0.0055790055 0.06732055
000020 92 d3 93 3d f8 f8 95 3d 10 ff 6c bd b0 b7 ce 3d
       0.07218088 0.07322878 -0.057860434 0.10093629
000030 10 9d 5c 3d 49 06 02 bb 13 f4 39 bd 62 9a 8c 3d
       0.053860724 -0.0019840172 -0.045398783 0.06865384
000040 6a 23 37 3d 6d f8 cf 3d 2f 8f 96 3d 4d ca fe 3d
       0.044711508 0.10154805 0.07351529 0.124409296
000050 d7 e2 f9 bc ef 9a a3 3d 09 80 61 bb 20 22 02 3e
       -0.030503673 0.079885356 -0.003440859 0.1270833
000060 01 e6 04 3e 3f 20 e3 bc 0d 07 bd 3d 57 e6 42 3c
       0.12978365 -0.027725337 0.092298605 0.011895738
000070 14 77 89 39 fd 68 28 3e f0 c7 9c bd 81 14 96 bb
       0.00026219396 0.164463 -0.076553226 -0.004580081
000080 ea 56 09 3e 48 ea 89 3d 36 32 9d bd f3 4a 09 3d
       0.13412061 0.06734139 -0.076755926 0.033518743
000090 13 85 8d 3d 81 c7 b6 3d 9d 91 f7 3d a7 d8 01 3e
       0.069101475 0.08924771 0.120883204 0.12680303
0000a0 f3 e2 a7 bd dd 94 71 3d 4b de 08 bd 99 96 03 3e
       -0.08197584 0.058979858 -0.03341512 0.12850417
0000b0 e5 fa 22 3d a9 e9 d0 3d 80 ab da 3d b4 27 ec 3b
       0.039790053 0.10200817 0.10677242 0.0072068814
0000c0 da 0a b3 bc 9b ed fa 3d b7 b0 99 3b 33 03 55 3d
       -0.02185576 0.12252351 0.0046902555 0.052005004
0000d0 81 0c 60 3d 81 61 54 3d e4 15 81 3c 51 3a 17 bd
       0.054699425 0.0518508 0.015757509 -0.03692085
0000e0 bc 29 06 3d c2 37 b6 3d 8f e7 fe 3d e0 cc a2 bc
       0.032754645 0.08897354 0.1244651 -0.019873083
0000f0 c3 2e d7 3d 1e a6 d9 3d 4b 50 a6 3d c5 f2 84 bc
       0.10506966 0.106273875 0.081207834 -0.016229043

net.6.weight f4 [1, 64]
000000 64 a6 42 be 3e 28 84 be 4c a6 42 3e f6 35 16 3e
       -0.19008785 -0.25811952 0.1900875 0.14669022
000010 12 a2 2b 3e e6 15 06 be f0 bd 1b 3e ba 66 51 be
       0.16761044 -0.13094291 0.15209174 -0.20449343
000020 43 b4 32 be b8 f8 50 3e 92 75 57 3e 82 25 11 3e
       -0.17451577 0.20407379 0.21040943 0.14174464
000030 dd 82 49 3e 5f 00 33 be 71 ad 72 3e 8c 7c 63 3e
       0.19678827 -0.1748061 0.23698975 0.2221548
000040 c7 28 60 3e 90 89 da bd 8d fe 12 be 5e 06 05 be
       0.21890555 -0.10670769 -0.14354916 -0.1299071
000050 7a 63 88 be 9a a6 23 3e d2 ce 91 be 8e 82 5f be
       -0.26638395 0.15981522 -0.28478104 -0.21827146
000060 8c c1 01 be 7d 60 a2 be 09 27 44 3e 33 3c 2f 3e
       -0.12671489 -0.3171424 0.19155516 0.17112808
000070 e8 c4 41 3e 97 9f 81 be 33 9b 9b 3e cc 71 b7 3d
       0.1892277 -0.2531707 0.30391845 0.08957252
000080 87 de 57 3e b1 5f 7a 3e 5e 4f 18 3e 61 8f 07 be
       0.21080981 0.24450566 0.14874026 -0.13238288
000090 d5 14 9f 3d e9 64 0d be 61 e2 29 be cc ae 2c be
       0.07767645 -0.13808025 -0.16590263 -0.16863555
0000a0 94 f9 88 3e f0 1f 18 3e bb 3e 3e 3e 00 f4 70 be
       0.26752913 0.14855933 0.18578617 -0.23530579
0000b0 cb bc 2d 3e 97 2f 13 bf 79 82 49 be 20 14 72 be
       0.1696655 -0.5749449 -0.19678678 -0.2364049
0000c0 27 e1 54 be bb be 22 be 4e c1 0c be d5 b1 4a 3e
       -0.20789014 -0.1589307 -0.13745615 0.197944
0000d0 76 2d a4 3d ca a1 30 be 9b b9 b1 3d 07 ee 63 3e
       0.080164835 -0.17249218 0.086779796 0.22258769
0000e0 be b7 78 be d7 21 6e be f8 92 63 3e c1 37 38 3e
       -0.24288842 -0.23255096 0.22224033 0.17990018
0000f0 f1 69 6b 3e ea da 23 be f7 70 29 be 72 95 57 3e
       0.22989632 -0.16001478 -0.16546999 0.21053103
