wine_iterative/wine_models/90_train/tvae_combined_final_model.pt (torch, 41161 bytes, 7 tensors)

net.0.weight f4 [64, 13]
00000000: 0850 b93d 9b86 d13d bc4f 14be 935e 3a3d
00000010: c303 cf3e e65d a83e a5f8 9dbe 8a00 343e
00000020: 3f5e 563d 5731 58be 2a53 39be 8691 943d
00000030: 75e7 e93c 064b 84bd 5ce5 44bd 332e ce3d
00000040: edb3 273c d704 fb3c e504 eabc d3f1 80be
00000050: 2330 a6be 665b d13d 29aa 6cbd b268 2e3e
00000060: 1d0f 66bd f59d dcbd 5b88 0abf 75f8 ad3d
00000070: 4722 3abe e523 4abe 9d9e d43d 84f3 c93d
00000080: 7b78 783e 5a8f 0bbe b5d8 00be 03ef f1be
00000090: af17 a93e 4536 cc3d b562 b6be 23a9 c2be
000000a0: 6279 d93c ea3a a3be 6435 ffbc 742c efbe
000000b0: 114a f33e 6b24 8dbe e1fa a0be 05b5 ad3d
000000c0: 4ded 1bbe 1557 1ebc e1c3 373e aaa7 a33c
000000d0: c603 453e 203a 153e 7656 b73e c788 3c3e
000000e0: a1ef c6be a811 43be 7006 423c 22bd 67be
000000f0: 64f3 cf3e 0534 983d 644c 20bd aa42 d83d
00000100: dd9a 953e cab0 b1be 5933 2abd d61b 8e3d
00000110: ed61 813e cbfc 363e 45fc 4abe 28a3 68be
00000120: 1e37 a0bd 0b5b 3a3e 1501 2fbe 5857 58bd
00000130: adaf 21be 6e21 b13e ef7a 07be 94d1 fbbd
00000140: 8f42 75be 6d80 a73c 7737 cbbe 7db0 183e
00000150: 24cf 973e d909 8a3e ea23 223e 01aa 69be
00000160: c315 5a3d 615d 563c 6a2a 80bd 5d0f b63e
00000170: 52d2 303e 2eac 843e 2ca3 aabe c2e9 05bd
00000180: e4c4 993e 8a7c dabd a94d 9e3d 3d23 c4bd
00000190: eae0 5ebc fdf4 79bd 4e78 e03e fadc 633e
000001a0: d72b 073e 65f8 06be 2d01 d0be c56c 7d3e
000001b0: d990 983e 6662 9c3e e15d abbc 389c 813d
000001c0: 472b adbd f2ec 31be 9b83 06be 81d0 5b3e
000001d0: 7858 b9bd b241 263e e4e5 4c3e 1422 08bc
000001e0: 1fa3 433e d0cf c93e 39f3 9abe 4abf 8d3e
000001f0: 6e4d 57be 3ee2 403e fc05 c43b a4e8 16bd
00000200: 5cf4 333e 8d06 58be efb3 efbe 935d a0be
00000210: 4d5f b1be c198 ac3e 3d6e debd a960 323e
00000220: 8f97 3a3d b5fa a1bc ff8d 49bc e0b3 78be
00000230: d550 82be 2bd7 aa3e 10aa ad3d 021e c1be
00000240: 34f3 b83c 386d 16bd e995 15be 2410 ed3d
00000250: f3d0 9f3c 26df 87be 889e 84be 3d54 ae3d
00000260: 0623 a1bd a1dd a83e f472 9fbe b508 44be
00000270: 7821 8fbe aa9b c6be e36d afbe 291e 563e
00000280: 0207 903e 8961 11bd 1476 1c3e 4cc0 123e
00000290: e629 913c 2652 c9be ce89 6e3e e777 c7bc
000002a0: 27a9 9bbe 6910 40be 3355 02bf 3a15 84bd
000002b0: 1963 0bbc 8335 1cbe 6592 35bd 83ac 12bc
000002c0: d1b4 7ebe 5ee1 a13e 3cbc e53d 3d61 f1bd
000002d0: 03af 4ebe f843 a1be e5f2 89bd 714f b13e
000002e0: 6b75 88be 3d8d d6bd 9647 953e 9e19 07bd
000002f0: 8c99 7d3e af4a 213e f999 863e 3949 183e
00000300: b8bf 503e f912 633d f73c b5be 540f 613d
00000310: 67ba 163c 0f0b 533e bbd9 f73c eb42 e13b
00000320: e8d9 0a3e 1803 4bbe 0644 9d3d 0adb 38be
00000330: 996c 703e f5dd 4bbc bba6 503e a120 2ebe
00000340: c914 cabe 2531 bbbd 995a 3ebe 2cc2 9abc
00000350: bd33 5a3e 635d e23b c0da 4cbd ae2b a43e
00000360: 16f8 493d 6f9d 083e 615a 1b3c 981b 583d
00000370: 9eb7 4a3e d00d 44be 9c04 1f3e 8a2d 8f3e
00000380: ec7b 7e3e 0736 583c e660 3e3e 2f92 4abe
00000390: 6279 fa3d 4e04 00be 1ac1 12be f51d 4fbe
000003a0: b571 23be 4ff3 02be 77fc 373e 5e84 c63d
000003b0: 9d84 6f3d 18ef 18be 74f6 843e 716a 973e
000003c0: 101a 4dbd 36e4 a5bb d3fa d9bd 0482 a13e
000003d0: 692f 4e3d 3eb5 ec3e 1dec 98bc 207b ce3c
000003e0: bce3 96bd 98f2 92be c594 83be 6923 a7be
000003f0: a736 2abe 3016 3c3e 1383 04bd bbf2 3fbd
0.09048468 0.10230752 -0.14483541 0.04550035 0.40432557 0.3288414 -0.30853763 0.1757833
0.052335974 -0.21112572 -0.18098131 0.07254319 0.02855275 -0.06459622 -0.048070297 0.100674056
0.010235769 0.030641956 -0.028566787 -0.25184497 -0.324586 0.10222511 -0.057779465 0.17032126
-0.056166757 -0.107723154 -0.5411431 0.08494655 -0.18177138 -0.19740255 0.103818156 0.098609
0.2426471 -0.13628903 -0.12582667 -0.47252664 0.33025882 0.099712886 -0.35622182 -0.38019666
0.026547138 -0.31880885 -0.031153388 -0.46713603 0.47517446 -0.27566847 -0.31441405 0.08481792
-0.15227242 -0.009664317 0.17945816 0.01997741 0.1923972 0.14572954 0.35808152 0.18411551
-0.38854697 -0.19049704 0.011842355 -0.22630742 0.4061538 0.07431797 -0.03913535 0.1055959
0.29219714 -0.34705192 -0.041552875 0.06938903 0.25270024 0.1786987 -0.19822796 -0.22718489
-0.07823013 0.18198793 -0.17090257 -0.052817672 -0.15789671 0.34595817 -0.13230489 -0.12295833
-0.23951171 0.02044698 -0.39690754 0.14911075 0.29650223 0.26960638 0.15834013 -0.22818758
0.05324341 0.013083787 -0.0625809 0.35558596 0.17267731 0.25912613 -0.33327615 -0.032693632
0.30033028 -0.10668285 0.07729656 -0.09577034 -0.013603428 -0.061024655 0.43841785 0.22252265
0.13200317 -0.13180692 -0.40625897 0.24748524 0.2979801 0.30543822 -0.020918788 0.063286245
-0.0845552 -0.17375544 -0.13136141 0.21466257 -0.09050077 0.16235998 0.20009571 -0.008308906
0.19105195 0.3941636 -0.3026369 0.27685004 -0.21025631 0.18836305 0.0059821587 -0.036842957
0.17573684 -0.21096249 -0.46816966 -0.3132139 -0.3464302 0.33710292 -0.1086087 0.17419685
0.045554694 -0.019772867 -0.012301921 -0.24287367 -0.25452295 0.33367285 0.084797025 -0.37718207
0.022576906 -0.036725253 -0.14607967 0.11575344 0.019508814 -0.26537436 -0.259022 0.08512161
-0.07868008 0.3298159 -0.3114239 -0.19143946 -0.27955222 -0.38790637 -0.34263524 0.20909943
0.28130347 -0.035493407 0.15279418 0.14331168 0.017720174 -0.39320487 0.23294756 -0.024349166
-0.3040249 -0.1875626 -0.50911254 -0.06449361 -0.008507513 -0.15254788 -0.044329066 -0.008952263
-0.24873663 0.31617254 0.112175435 -0.11786125 -0.20183949 -0.3149717 -0.067357816 0.3463092
-0.26652083 -0.10476158 0.29156178 -0.032983415 0.24765605 0.15751146 0.26289347 0.14871682
0.20385635 0.055438016 -0.35398075 0.05494626 0.009199715 0.20609687 0.03025519 0.0068744323
0.13559687 -0.19825399 0.0767899 -0.18052307 0.23478927 -0.012443055 0.20376103 -0.17004634
-0.39468983 -0.09140233 -0.18589248 -0.018891416 0.21308799 0.006908105 -0.050013304 0.32064575
0.04930886 0.13341306 0.009481997 0.05276069 0.19796607 -0.19145894 0.15529102 0.2796443
0.2485196 0.013196475 0.18591651 -0.19782327 0.12230183 -0.12501642 -0.14331475 -0.20226271
-0.15961345 -0.12788127 0.17967401 0.09693216 0.05847608 -0.14934957 0.2596928 0.29573396
-0.050073683 -0.0050626053 -0.10643544 0.31544507 0.050338183 0.46232027 -0.018667275 0.025205195
-0.07367656 -0.2870071 -0.2569944 -0.32644203 -0.1662241 0.18367839 -0.032351565 -0.046862345

net.0.bias f4 [64]
00000000: 839d 5ebe e059 143e 9c5f ae3e 5e3c dfbe
00000010: 68fc a3be 81aa 8bbd f7be 503d 363c 86be
00000020: fdc8 50be 266b a6bd 7e7f 73be 51ca 413e
00000030: 3aeb 13be 1c0d 743d 17ef 36be a2a4 d13d
00000040: b843 433d 7587 59be 7a5a 74bd 7cc5 b63e
00000050: 52ef 83be 1dbf 2b3d 97e2 e8bd a416 b8be
00000060: f0ad 06be 728d 3cbe be4d 2abe efde 4f3d
00000070: b3d3 bf3a ff42 5b3c da22 113c 8e02 17be
00000080: dc17 153e 8505 cfbe 8d01 4a3e 976b f3bd
00000090: fb45 4f3e f644 68bd 7587 6b3d d10f a0be
000000a0: 0a52 cebe 8b2c 5bbe d573 413e eb78 5cbd
000000b0: 0135 febd 2bff 553c 3375 e5bd 9d24 8dbe
000000c0: 7bed afbd 3da3 81be e851 3a3e a48a 27ba
000000d0: 4db9 cebd 2228 debd e269 a4bd 2c45 223c
000000e0: 0106 7bbd 68ed 033e 0f3d 98bd 28b4 e3bd
000000f0: 1a84 523d 73b4 d5bc 3b14 89be ee68 dfbd
-0.21739773 0.1448741 0.3405732 -0.43600744 -0.32028508 -0.068196304 0.05096337 -0.26217812
-0.20389171 -0.08125906 -0.23779103 0.18924834 -0.144452 0.059582815 -0.17864643 0.10236479
0.047672004 -0.21243079 -0.059656598 0.35697544 -0.25768524 0.041930307 -0.113713436 -0.35954773
-0.1315229 -0.18413332 -0.16631219 0.050749715 0.0014635235 0.013382672 0.008858407 -0.14747068
0.14559883 -0.404339 0.19727154 -0.118857555 0.20241539 -0.05670639 0.05750223 -0.31262067
-0.40296966 -0.2140371 0.18891843 -0.053826254 -0.124124534 0.013061325 -0.112039946 -0.27566996
-0.08590218 -0.25319853 0.18195307 -0.00063912035 -0.10093937 -0.108474985 -0.08028008 0.009904187
-0.061285023 0.12883532 -0.07433521 -0.111183465 0.051395513 -0.026087021 -0.26773247 -0.109086856

net.2.weight f4 [64, 64]
00000000: e88e 53be eeb0 14be a90d 51be b073 adbe
00000010: 6adc ddbd 42bd 97be c8c4 143c 5b28 4abd
00000020: 4a55 30bd eb28 63bd dee9 833d 3521 653b
00000030: b04d dbba c839 9b3d 0afd 37be 38f4 8cbd
00000040: a2cb 8bbd c4d0 58be 24b2 87be 0db2 263d
00000050: 9ae4 80be aaf4 8ebe b21c 95be 86d4 14be
00000060: 8be9 c5bd 0a74 823b 4633 d8bd 2108 f53d
00000070: 4015 6cbb 6578 0cbe 3821 33bc 9384 6dbd
00000080: 32da d1bd f52e d13d 3256 183e 0073 e73d
00000090: 03d2 4cbc fa26 3cbc acf4 bb3d 118d 10be
000000a0: 7fd2 43be f211 88bb e17d e7bd aa8b 99bd
000000b0: 443b 1bbe 681c 463c ec0e 3ebe 1ba7 16be
000000c0: a319 8fbd 3945 8d3d 6dad f43b f5d1 75be
000000d0: dece 11bd 44a7 173d ac08 bd3d 173b 453d
000000e0: 232e bfbb 1fb2 e03d 8c7b 82be 323a 35be
000000f0: e61e 2d3e c2f9 a13d 1516 7f3c 6f00 213d
00000100: 4587 24be 4ecd 313d e207 b5bd 4d02 84be
00000110: 62f4 073e 2c28 76be 438a bbbe b362 363e
00000120: 4630 aabb 88f5 b83d 4d0d 70be 20a5 cabe
00000130: d353 a8be 654a 0fbe 54f0 bc3d 9881 3d3d
00000140: 97d5 6fb9 28af 7cbe 71bd 8d3e c340 ef3d
00000150: da1d 723e 1090 323e 5087 7fbe 9dcd c8bc
00000160: 9813 b03d 6ae3 1e3e 9e36 51be 8a4b 18bd
00000170: 3c85 95bd 5c19 893d 9453 d83c 07de 4d3e
00000180: 5889 33be 022e 04be e8f3 463e 908b a13d
00000190: a2f3 8dbd 557c 69bd dc98 cabe 776a 613e
000001a0: 2940 213e dd61 34be 5ea9 d4bd ea9c b33d
000001b0: 57e5 653d e07e ed3d 2b06 adbe b99f 00be
000001c0: d0c3 1a3d 60b8 7fbc 08c2 c73c f2a7 fb3d
000001d0: a0aa 433e 482d 963e 68be 86bc 263b 273d
000001e0: 9996 4d3e f68e 153d cc21 8fbe 7d75 3abc
000001f0: af63 983d e4a9 e1bc 5f59 913d 6ba5 e43c
00000200: da3a 11b8 5600 073e 6081 933d 23d2 d13c
00000210: 6c7c 2a3b e57b 10bd 7072 6abe 1aee 1dbe
00000220: 0a7b a13d 1b47 9bbe 8004 223d f161 8e3e
00000230: 6a98 30bf 2271 f93d 16b7 12bc 04ae 06be
00000240: 90c7 37bd 2445 0abc b60c d9be 9255 aabe
00000250: d9c4 78bd 4836 ddbe 2cc0 f13d 1e54 41bd
00000260: 4e28 0cbf 4a93 11be d0c6 d63d 833e 82bc
00000270: d8d4 a4bc b7c9 15be 5c71 0cbd cf39 c3bd
00000280: 7575 b5bd 8919 a73d b9d0 283e 4a18 573d
00000290: 4108 1c3e 0b7f 3d3e 8fcf 503e e0ae 99be
000002a0: 1cd4 0c3d a2e7 29bd e066 a4bc dbdb 173d
000002b0: ca16 2a3d 29f4 91bd 38fc ac3d 972a 483d
000002c0: 85ab c9be 2920 46be f1c4 32bc f809 8cbd
000002d0: 21e7 46be 29a7 1bbe 4aef 443e 271a d9be
000002e0: 0c98 6bbe efed 053e 14bf 5e3e e1bf 74bd
000002f0: ffab bebe 34a7 c6bd 68b0 233e e1a8 07be
00000300: 7a5a e43c 057d 15be 986d 3ebe 4162 94bd
00000310: 42d6 b1bc 3a03 013c 3b87 bebd 1e2f 89be
00000320: df1e 3cbe 50fc e7bd 0d66 1fbd 5940 83bd
00000330: 7b36 6cbe 9ad5 483d 81fb 7a3d a7ec 90bd
00000340: 90eb f23c 0d6f 17bd 5579 85bd 653a 8abd
00000350: 670b 46be 2d78 37be 45f1 24be 9351 53bd
00000360: 98b1 91bd e349 983d f0bd 11be d318 6f3d
00000370: f12d 11be dda6 493d 41fc eabd 1966 48be
00000380: 0e38 3d3d 4f14 18be c9fb d43b afb2 a0bd
00000390: bd1a 8c3d 6876 0cbe 6825 abbd 7540 9b3d
000003a0: f77a e3bd 0c57 253d cd35 753d 490f 623d
000003b0: b950 2b3d fbae ae3d 7041 473d d700 2d3c
000003c0: b5fe abbd e9fa 88bc 2e8c a63d df9d 4bbd
000003d0: 317e 3e3d bb98 42be 8e60 2ebd c503 60be
000003e0: 27b8 a0bc 2670 803c dc09 78bd edbc d33d
000003f0: 91de ba3d 6421 eebd 4f23 46bd ca54 eb3c
-0.20659983 -0.14520618 -0.20415367 -0.33877325 -0.10833056 -0.2963658 0.009080119 -0.049354892
-0.043050088 -0.055458944 0.06441091 0.003496242 -0.0016731527 0.0757938 -0.1796762 -0.068825185
-0.06825949 -0.21173388 -0.26503098 0.040697146 -0.2517441 -0.2792104 -0.29123455 -0.14534196
-0.096636854 0.003981118 -0.10556655 0.11964441 -0.0036023408 -0.13717802 -0.010933213 -0.05798776
-0.102466956 0.102140345 0.14876631 0.113012314 -0.012501243 -0.011483902 0.09177527 -0.14116313
-0.19123267 -0.00415253 -0.11303306 -0.07497342 -0.15159327 0.0120917335 -0.1856038 -0.14712183
-0.06987312 0.06897969 0.007466963 -0.24005874 -0.035597675 0.03702475 0.0923017 0.048152056
-0.0058343573 0.10971474 -0.25484884 -0.17697981 0.16906318 0.07908966 0.01556923 0.039307054
-0.16067226 0.043408684 -0.08839394 -0.25783005 0.13276818 -0.24038762 -0.36628923 0.17811088
-0.005193743 0.09031206 -0.23442574 -0.39579105 -0.32876453 -0.13993223 0.092255265 0.04626617
-0.00022872385 -0.24676192 0.27683595 0.11682274 0.236442 0.17437768 -0.24953961 -0.024512107
0.08597487 0.15516439 -0.20430991 -0.037181415 -0.07300803 0.0669429 0.02640704 0.20104228
-0.17532861 -0.12908176 0.1942898 0.078879476 -0.06931235 -0.057003338 -0.39569747 0.2201327
0.15747131 -0.17615457 -0.10383867 0.08770163 0.05612692 0.11596465 -0.33793768 -0.1256093
0.037784398 -0.015607923 0.024384513 0.122878924 0.19108057 0.29331422 -0.016448215 0.040827893
0.2007698 0.03651329 -0.27955472 -0.01138055 0.07440888 -0.02754683 0.07097124 0.027910909
-3.4625504e-05 0.13183722 0.07202411 0.025612896 0.0026014103 -0.035274405 -0.22895217 -0.1542286
0.07884796 -0.30327687 0.039555073 0.27809098 -0.68982565 0.121797815 -0.008954784 -0.13152319
-0.044868052 -0.008439336 -0.4239251 -0.3326841 -0.060734604 -0.43205476 0.11804232 -0.04719936
-0.54749 -0.14216343 0.10487139 -0.015898949 -0.020121023 -0.1462773 -0.034287795 -0.095325105
-0.08860294 0.08159167 0.16485871 0.0525134 0.15237524 0.18505494 0.20391677 -0.30016232
0.03438197 -0.041480668 -0.020068586 0.037074905 0.04152564 -0.07126648 0.084465444 0.04886874
-0.39388672 -0.19348206 -0.010911212 -0.06837839 -0.19424106 -0.15200485 0.19231907 -0.42402765
-0.2300722 0.13079046 0.21752578 -0.059753302 -0.37240598 -0.0969986 0.15985262 -0.13248016
0.027875174 -0.14598472 -0.18596494 -0.07245303 -0.021708611 0.007874304 -0.09303137 -0.2679376
-0.18371151 -0.11327422 -0.038915683 -0.06408758 -0.23067658 0.04903183 0.06127501 -0.07076388
0.02965334 -0.03697114 -0.06517283 -0.06749419 -0.19340287 -0.17916937 -0.16107662 -0.051591467
-0.071139514 0.07435968 -0.14232612 0.058373284 -0.14177682 0.0492314 -0.11473895 -0.19570197
0.046196036 -0.14851497 0.0064997417 -0.07846581 0.068410374 -0.13717043 -0.08356744 0.075806536
-0.11107438 0.040366217 0.05986576 0.05519036 0.04182503 0.085294686 0.04864639 0.010559282
-0.08398191 -0.016721206 0.08132206 -0.049711104 0.046507064 -0.19003575 -0.04257255 -0.21876438
-0.01961906 0.015678477 -0.060556278 0.10338769 0.091244824 -0.116274625 -0.048373517 0.028726954

net.2.bias f4 [64]
00000000: 0989 4a3d 2d32 d93d 564e 6bbe 7645 6ebc
00000010: f28d 22be f95d 083e b21a d63d 9c2e 623e
00000020: 70b3 f03c 0f13 5bbd cdb8 923d ad57 cdbd
00000030: cdfa 46be 8c4a 23be c865 8f3d f81e a4bd
00000040: 9ac1 2e3b a261 123e 3d58 5a3e cfde 173e
00000050: 0ff4 a83d 6389 fabd 068f 233d f041 06bd
00000060: 636d 843d dd42 e5bd 7ef1 113e dc28 cbbc
00000070: e4b3 533d 5f12 173e a065 663d 31a9 da3c
00000080: 58f3 6e3e 0be5 73bd 73a5 46bd f326 4cbc
00000090: 3a25 f23d 09d6 b4bc a9a1 aabd 04ff 7e3e
000000a0: 4fd0 af3c 6d22 84bd 95f1 023e 2656 89be
000000b0: 2b2b a43d 7863 533e 2158 30be ceb8 983d
000000c0: ab47 903d 7e45 81bd 8f5a fa3d c802 c13d
000000d0: a953 22be 652a 243e 8ba2 003e b7e0 88bb
000000e0: 9a34 fbbc ba0a 013e 9357 a8bd db68 033d
000000f0: 068e 3e3e 7381 603e e341 db3d 9f0f 923c
0.049447093 0.106052734 -0.22979102 -0.014542928 -0.1587446 0.13317098 0.104543105 0.22088093
0.029382437 -0.053484973 0.07164154 -0.100264885 -0.1943161 -0.15946406 0.07001835 -0.08013719
0.0026665688 0.14295056 0.21322723 0.14831088 0.082496755 -0.12233236 0.03993132 -0.032777727
0.06466176 -0.11194394 0.14252278 -0.024799757 0.05168523 0.14753102 0.05624926 0.026692005
0.23335016 -0.059544604 -0.04849763 -0.012460458 0.11823507 -0.022074716 -0.083316155 0.24901968
0.021461634 -0.06451879 0.12787469 -0.2682354 0.08016046 0.20643413 -0.17221119 0.07457124
0.070449196 -0.06312083 0.12224304 0.094243586 -0.15852226 0.16031797 0.12562005 -0.0041771787
-0.03066473 0.12601748 -0.082198285 0.03208242 0.18608865 0.21924381 0.10705926 0.017829714

net.4.weight f4 [64, 64]
00000000: c56d a1bd b047 87be a647 3abd fd95 083e
00000010: befe 843d 8a1a 9c3d 9527 6b3d da34 193e
00000020: 9b4e 843c 6736 64bd 2fbe febb bc8b d3bd
00000030: cde9 37bc 4acd 3abd a3f0 99bb f25f 033d
00000040: 0536 28be 047a bf3d 9fbb 21bd 5994 583b
00000050: ffc6 53be 5a06 83be 7437 e93d c099 68bd
00000060: a7b6 163e 4334 293e e607 a0bc 3998 5abe
00000070: 2d2b a83d ea7a 4bbd 353a 4cbe 4880 14be
00000080: 07c2 d53d 4c0b 0bbe b84b 5bbc 1458 4e3d
00000090: 9698 d23d 0f73 903d 2b97 0e3e 33d7 b43d
000000a0: 1a1c 03bc 49c2 d63d 42eb cf3d e2b7 e9bd
000000b0: 2baa ac3d e903 853d 87f4 68bc 2f97 7ebd
000000c0: 9828 663d 8f09 9f3d efdc 153e 92cb dabc
000000d0: 7e97 bbbc ce5f 59be 5b3d edba ed3c 133b
000000e0: 8755 20be 4b52 e33d f2f1 27be 4cc1 e5bd
000000f0: e982 7dbc d8d3 4dbe e047 2f3d 3109 88bd
00000100: 6b76 d23d b0bd d2be c820 65bd c69a 193d
00000110: 56ab 5fbd 4652 5f3a 78d8 a0bd dee6 f23d
00000120: 6ed5 28be e8b0 503d cca8 f53a 0251 253d
00000130: c562 863d 848b 48be 9103 dc3c dc3f c73d
00000140: e90d 24be 9b7f 08be 01bd 10be 8899 b53c
00000150: 6a94 cdbe ac91 bebe d2d7 4a3d cce9 72bc
00000160: 5735 efbc 32ed 0f3b ef57 e3bd be9e 63be
00000170: 4dd3 423e 1111 dd3c 9c6e 95be 7d7c b4be
00000180: 843d b03d 7fd5 4f3d d590 923c 6629 a9bd
00000190: 3ee6 fb3d 4117 b6bc 67af 0a3e 97fc c53d
000001a0: b154 063e 1972 b93d f5f0 0a3e 69f5 b0bd
000001b0: 5535 833e caf9 fcbd a940 b43d 0eff cbbc
000001c0: 983c 9d3d b4f4 103e 7d8f c53c 26c6 063e
000001d0: d1f6 02be a0c3 65be 2875 553c 0e6a 773d
000001e0: 9bce 9cbd bba5 033e c2d3 bfbe 9189 50bd
000001f0: d6a1 2f3d c7d8 f7be a1da 8a3d 1759 a13d
00000200: 62cd 8cbc bcf7 69be a3cc 9e3c 86cb ca3d
00000210: afd5 3dbc d769 553d c9e2 c5bd 0564 173e
00000220: ab1c 103d 7de6 593d f703 c8bd 3f5b 103d
00000230: fa7c 19bd 5c29 3bbe eca1 063e d464 963d
00000240: 0eaa 81be 3e75 39bd 6a3e 61bd eb0f eb3d
00000250: 09ba ddbe 0acb c5be bf13 2bbd 8260 4abc
00000260: bc57 083d c259 6a3c 037b ad3c a10e b5be
00000270: 9783 0c3d d518 d63c 47ed acbe 29f4 9fbd
00000280: d5f7 d1bc 8c4d d3bd 37b6 ef3c 6a58 e5bb
00000290: f925 423e e92b 113d 6832 173e 6ead 52bc
000002a0: cf85 d33d ad37 543e 5c80 8d3d 44fe a3bd
000002b0: e312 353e 7738 40bd fd11 813d 6196 c33b
000002c0: 22b9 f0bc 500e 2f3e 9146 963d b736 523e
000002d0: b8d9 10bd bd2e 9fbe 02d2 7c3c 8430 b83c
000002e0: 3955 f0bd b72d 013e 6580 abbe 2b2e 1c3d
000002f0: b805 1c3e 0055 9abe 2ff6 6a3d 2fb8 cf3d
00000300: 826b a73d e393 a03c c651 1abd 10a5 e1bc
00000310: d8a3 5fbd a6d7 acbe f313 22be 09f9 f03d
00000320: 425f 393c 3ffa cbbd 9fc9 37be 63d2 4abd
00000330: fff8 1cbe ea84 873d cb33 e4be 25e6 c7bb
00000340: 72b1 41be 60df 423d 4178 9ebd ac4b 65be
00000350: 5801 ed3d a175 eabd e551 32be 1495 cebd
00000360: 9051 003e baf9 b4bd 96fb bebe ffce 01be
00000370: 8a41 37be c896 27be 2099 533e 5328 d03d
00000380: 6124 683e c7d5 4dbd 65a0 8b3d bc09 3a3d
00000390: 0663 f33d 1d87 a23d 6b67 b13c fbce 963d
000003a0: 8683 0a3d 3c03 d6bd 96c4 dcbd eab8 afbd
000003b0: 5482 b43d 40bc 6b3b 7735 a23d dc3b 553e
000003c0: b14a 71be 77ee e63c b46d 8abe 642a 20be
000003d0: 972f 033c 1334 41be d2b4 23be da37 a73c
000003e0: 214b 83be 77ef abbd d817 f63d f5b7 21be
000003f0: f6bb babd d943 7b3d d420 a0bd c50b aa3d
-0.07882265 -0.2642188 -0.045478486 0.13338466 0.06493901 0.076222494 0.057410795 0.14961568
0.016150763 -0.055715945 -0.0077741365 -0.103293866 -0.011225176 -0.045605935 -0.0046978756 0.032073922
-0.16426857 0.093494445 -0.03948557 0.0033047406 -0.2068138 -0.25590783 0.1138753 -0.056787252
0.14718114 0.16523843 -0.019535016 -0.21347131 0.0821136 -0.049677767 -0.19944079 -0.1450206
0.104373984 -0.13578528 -0.013384752 0.050376967 0.1028301 0.07053196 0.13924854 0.088301085
-0.008002305 0.10486276 0.10152294 -0.11412026 0.084308945 0.064948864 -0.014218456 -0.0621559
0.056191057 0.07765495 0.1463506 -0.026708398 -0.022899386 -0.21227953 -0.001809995 0.0022466735
-0.15657626 0.110996805 -0.16400889 -0.11218509 -0.015473106 -0.20100343 0.042793155 -0.06642378
0.10276493 -0.41160345 -0.055939466 0.03750112 -0.054606758 0.00085190346 -0.07853788 0.11860441
-0.16487667 0.05094996 0.0018742322 0.04036046 0.065618075 -0.19584471 0.02685717 0.09728977
-0.16020931 -0.13329928 -0.141346 0.022167936 -0.40152293 -0.37220514 0.04952223 -0.014826249
-0.02920024 0.0021961448 -0.111007564 -0.22228524 0.19025917 0.026985677 -0.2918595 -0.35251227
0.08605483 0.050740715 0.017891327 -0.08259849 0.122997746 -0.022227885 0.13543473 0.09667318
0.13118245 0.090549655 0.1356848 -0.08640558 0.25626627 -0.12352331 0.088013954 -0.024901893
0.07677573 0.14155847 0.024116272 0.13161525 -0.12789465 -0.22437906 0.0130284205 0.060403876
-0.07656594 0.1285619 -0.37466246 -0.050912444 0.04287895 -0.48407575 0.067799814 0.07878321
-0.017187778 -0.2284841 0.019384688 0.099021 -0.011586591 0.05210289 -0.096623965 0.14784248
0.03518359 0.053198326 -0.09766381 0.03524327 -0.037472703 -0.18277496 0.13147706 0.0734345
-0.25325054 -0.045277826 -0.054991163 0.114776455 -0.43305996 -0.3863147 -0.04176688 -0.012352111
0.033286795 0.0143036265 0.02117682 -0.35362723 0.03430518 0.026134888 -0.33774778 -0.07810242
-0.02563087 -0.10317525 0.029261691 -0.006999065 0.18959798 0.035442267 0.14765322 -0.012858732
0.10328256 0.20724364 0.06909248 -0.08007482 0.17682986 -0.04692885 0.06302259 0.0059688543
-0.029385153 0.17095304 0.07337678 0.20528685 -0.035363883 -0.31090346 0.015430929 0.022484072
-0.11735005 0.12615095 -0.33496395 0.038129967 0.15236557 -0.30142975 0.057363685 0.10142552
0.08174802 0.019601768 -0.03767564 -0.027544528 -0.054599613 -0.33758277 -0.15827923 0.1176625
0.011314215 -0.0995984 -0.17948006 -0.049517047 -0.1532936 0.06617148 -0.44570765 -0.0061004334
-0.18915346 0.04757631 -0.0773778 -0.22392148 0.11572522 -0.11448217 -0.17414053 -0.10087028
0.12531114 -0.08836694 -0.3730132 -0.12676619 -0.17896095 -0.16366112 0.20663881 0.10163941
0.22670127 -0.050252702 0.06817702 0.04541944 0.118841216 0.07935927 0.021655759 0.07363697
0.033816837 -0.10449836 -0.10779683 -0.085801914 0.088139206 0.003597036 0.07920354 0.20823616
-0.23563649 0.02818988 -0.27036822 -0.1564117 0.008006952 -0.18867521 -0.15986946 0.020412374
-0.25643256 -0.08395284 0.120162666 -0.1579283 -0.09117882 0.061344 -0.078187615 0.08303026

net.4.bias f4 [64]
00000000: f183 263e d097 9f3e 84da 4f3e 79a3 4b3e
00000010: 81d4 79be 62a2 29bd 989d a03e dd5f 663e
00000020: 3efb e7bd 5e3a 7abd 1474 433e cff9 553e
00000030: b71f 443e 3850 f23d 3873 073e dde8 5a3e
00000040: 80f4 ddbd f220 4dbe eafc 523e 3fb5 e0bc
00000050: 246f 633d a215 a93c 3847 b6be 8b85 593d
00000060: 684b 873e e51b 8c3e 16a5 5d3e fa5c 2c3e
00000070: c45c 373e e6ab dabc f0c6 2dbe 353e b0bc
00000080: ac74 453e fc3f e53d 2fd0 2ebe 61f3 4a3e
00000090: 3111 9a3e d3c0 763e 9706 90be 23d2 50bd
000000a0: 8321 983e ee6d 953e ee1e f33d 2a90 923e
000000b0: 6da4 7bbc 59ca 8c3d 244f 8c3e 11a1 07bd
000000c0: 411f 173d 4b60 933e 41a7 333e 239f 313e
000000d0: 8d5c 00be 8f28 553e 07ae 3d3e 0686 cb3c
000000e0: 5983 4f3e a7b1 8ebe 0db8 a93e 8bd0 3cbd
000000f0: 925f 023d 0426 21be 3797 edbd 73aa 00bf
0.16261269 0.3117051 0.20298201 0.19886579 -0.2439747 -0.041414626 0.31370234 0.22497506
-0.113272175 -0.06109082 0.19087249 0.20896076 0.19152723 0.11831707 0.13227546 0.21377893
-0.1083765 -0.20032099 0.20604292 -0.027430175 0.055525914 0.020640198 -0.3560121 0.053105872
0.26424718 0.27365032 0.21645007 0.16832343 0.17906481 -0.026693296 -0.1697042 -0.021514038
0.19282788 0.11193845 -0.17071603 0.19819404 0.3009124 0.24096994 -0.28130028 -0.050981652
0.29713067 0.29185432 0.11871134 0.28625613 -0.015359026 0.06874532 0.2740413 -0.03311259
0.03689504 0.28784403 0.17544271 0.17345862 -0.12535305 0.20816253 0.18523417 0.02484418
0.20264949 -0.27869913 0.33148232 -0.04609732 0.031829424 -0.15737158 -0.116011076 -0.50260085

net.6.weight f4 [1, 64]
00000000: 0e14 5d3d 9363 3e3e 11a6 2d3e 07ab 42be
00000010: d85c 15be 80d4 0f3d 9ece 2b3e 0fd8 40be
00000020: 6913 203e 55e0 c03c da3a 63be b7e9 a03d
00000030: 0888 ad3d edde b43e ebda 7cbe 026e 95be
00000040: 988d fdbd 124f 79bb 9670 3c3e 1d1d 713e
00000050: 31f1 663b 7d18 e9bd be13 87be 4b14 c7be
00000060: e43f 903d 4128 0a3e 9431 2ebe e5c2 3fbe
00000070: b9bc dd3d 7169 c53e 9867 e4bb b5fe c5be
00000080: 6412 bdbd a2ad 553e 69df a1bd fb05 133e
00000090: 5275 2e3e ce2c fd3d 4cbd aabd 1642 183b
000000a0: 2210 c83d a5ed 2d3e d73e 84be 0c34 a83d
000000b0: 9cfc 363d d1f6 5f3c 574f 2a3e 00d8 903d
000000c0: 4825 58be b2c7 3a3e e2ca d73d dcc7 81be
000000d0: 3adb 46be 89d9 283e 993f ff3d f8c2 123c
000000e0: e9de fc3d ebdb 0cbe d887 463e 523a e5ba
000000f0: ced7 b9ba 25bf 8ebd e09c ab3c cc49 1bbf
0.053974204 0.18592672 0.1695788 -0.19010554 -0.14586198 0.035114765 0.16778037 -0.1883242
0.15632404 0.02354447 -0.22190419 0.078570776 0.084732115 0.3532633 -0.24692886 -0.29185492
-0.123805225 -0.0038041514 0.18402323 0.23546262 0.0035238976 -0.11381624 -0.2638225 -0.3888267
0.07043436 0.13491918 -0.170111 -0.1872669 0.108270116 0.38557008 -0.006970357 -0.3867089
-0.09232023 0.20867017 -0.0790394 0.1435775 0.17036942 0.123620614 -0.08336887 0.002323275
0.09768702 0.16985185 -0.25829193 0.08213052 0.0446745 0.013669685 0.16631828 0.07072449
-0.21107972 0.1824024 0.10536744 -0.25347793 -0.19419566 0.16489233 0.12463302 0.008957617
0.12347204 -0.13755767 0.19387758 -0.0017488694 -0.0014178695 -0.06970052 0.020948827 -0.6065948
