wine_iterative/wine_models/80_train/copula_combined_final_model.pt (torch, 41189 bytes, 7 tensors)

net.0.weight f4 [64, 13]
000000 df 85 76 be 9c ef 4d be b8 ea 20 bd 5d e1 bb 3c
       -0.24074505 -0.20110935 -0.039286345 0.02293461
000010 70 b9 68 3d 48 26 ed 3d 2f c4 fa bd f2 78 5c be
       0.056817472 0.11579567 -0.1224445 -0.21530512
000020 8a 5d 12 3d 5c d1 ce bd e7 5c e7 3d f1 4f bc 3e
       0.035733737 -0.10098526 0.112970166 0.3677974
000030 19 5d c9 be f7 89 59 be 3a 57 a9 bd c8 da 79 3e
       -0.3932884 -0.21244036 -0.0826859 0.24399865
000040 1a b1 77 be 47 8c 58 be 24 e0 46 3e 66 ad 3f be
       -0.24188653 -0.21147262 0.1942144 -0.1871849
000050 3e 28 7c be bd 34 ee bd 9e 3c bd bd 58 ff d7 bd
       -0.24624726 -0.11631153 -0.092400774 -0.1054675
000060 a0 0f 54 3d 5f 95 46 3e c3 a7 08 3f b4 6e 85 be
       0.051772714 0.19392918 0.53380984 -0.26061022
000070 0c 34 25 bd 41 2c 63 be 7d c6 f0 3d 0a d6 f9 3d
       -0.04033284 -0.2218485 0.11756609 0.12199028
000080 ac 9e 32 3d 7d 71 81 be 73 c1 81 bd 70 51 c7 bd
       0.043608353 -0.25281897 -0.06335726 -0.0973233
000090 a8 03 87 bd 00 04 cc bb 67 5f be 3e 82 63 7f bd
       -0.06592494 -0.006226063 0.3718216 -0.062350757
0000a0 bc 62 e7 3d 76 2b 01 bd 68 b7 b6 3d 97 fe 1a 3e
       0.11298129 -0.03153559 0.08921701 0.15136181
0000b0 67 3d bd 3d 30 d5 93 bc 03 be e7 bd 87 2b a2 be
       0.09240227 -0.018045992 -0.11315539 -0.31673834
0000c0 8a b2 a8 bd b5 77 4d bd a5 b2 3a be 23 15 31 3e
       -0.082371786 -0.05016299 -0.1823221 0.1729322
0000d0 e3 22 f2 3e e5 0d be be 76 7f 4f bd c6 c3 6c be
       0.4729224 -0.37119976 -0.050658666 -0.23121557
0000e0 f7 cf fa bc bc 04 f4 bd e7 ba 29 3e 05 5f ed bd
       -0.030616743 -0.119149655 0.16575204 -0.11590389
0000f0 68 40 19 be 0c 8a 61 be 0e a0 a1 3e 8d ba e7 bd
       -0.14965975 -0.22025317 0.31567425 -0.113148786
000100 65 04 62 3d 68 1d d8 bd 5b 91 15 3d fd c9 97 bb
       0.055179972 -0.10552484 0.036515575 -0.004632233
000110 32 26 17 3d 47 67 47 3e 55 05 42 3d b0 98 5f be
       0.03690166 0.19472991 0.047368366 -0.2183559
000120 ff e6 e8 bd 97 16 91 bc 40 12 5e 3e c7 54 5d bd
       -0.11372184 -0.017710967 0.2168665 -0.054035928
000130 fa 65 93 be 83 69 a6 3c 23 1b 37 be 8b 01 86 be
       -0.2878874 0.020313984 -0.17881446 -0.26173052
000140 04 b0 d4 bd f6 7b 77 bd b6 94 f2 3d 47 c8 ee bc
       -0.10385135 -0.060420953 0.118447706 -0.029148234
000150 eb fe 40 bd 5d 8e 31 be 80 62 18 3e f5 09 66 bd
       -0.04711811 -0.17339464 0.14881325 -0.05616184
000160 17 be 02 b9 18 10 2e be b1 8d 92 be 05 93 78 3d
       -0.0001246858 -0.16998327 -0.28623727 0.060687084
000170 da 2e 39 be 01 25 2f bb 0c 34 7b bc b9 3e d6 3d
       -0.18084279 -0.0026724937 -0.015332233 0.10461182
000180 36 da dd 3d 93 af 6a 3e ad c1 ae be 50 28 e6 3d
       0.10832636 0.22918539 -0.34132138 0.11238158
000190 9d 29 0b be 58 67 94 3d 9d 26 83 be 84 01 40 3e
       -0.13590093 0.07246274 -0.25615397 0.18750578
0001a0 ac 73 40 3e 1f 14 1d 3e b0 ad 90 3d ef e9 92 3e
       0.18794125 0.15339707 0.07064378 0.28694102
0001b0 b4 67 09 3e a4 bb 16 3e 7c 40 4f 3e b4 c5 f2 3b
       0.13418466 0.14720017 0.20239443 0.007408822
0001c0 de 73 39 3e 71 57 2c 3e 0e 0c 08 be 65 aa ed bc
       0.18110606 0.16830231 -0.13285848 -0.029011915
0001d0 93 6c e1 3e 23 5b 10 be f3 e6 fd 3d 41 04 93 be
       0.44028148 -0.14097266 0.12397566 -0.28714183
0001e0 8d f6 94 be 62 ca 2d bd dd e2 dc 3c bd be 15 3e
       -0.29094353 -0.042429335 0.026963646 0.14623542
0001f0 22 a9 c5 3d 82 4e 46 be 5e 15 b6 3d d4 d7 06 3e
       0.096514 -0.19365886 0.08890794 0.1316827
000200 29 dc 4b 3e 9c 9a b1 3c a4 f7 18 3d 18 e9 16 3e
       0.19908203 0.021680169 0.037345544 0.14737356
000210 d4 46 2e 3e aa 81 ad be 7b 39 17 be 49 b9 42 be
       0.17019206 -0.33887988 -0.14768021 -0.19015993
000220 e3 b3 44 3e e4 36 18 3d 53 c1 84 be 20 27 76 bd
       0.19209246 0.037161723 -0.25928745 -0.060095906
000230 d3 fa 12 bd 6c d1 42 bd e7 b3 3c 3e e6 b5 58 be
       -0.035883736 -0.047563 0.18428002 -0.21163139
000240 bf a3 03 bc a5 27 d8 bd eb a6 58 3e 87 c6 7e be
       -0.008034646 -0.105544366 0.21157424 -0.2488042
000250 c7 a9 f6 3d cc 66 4c bd 0f 46 ed bd 9f 9e 86 be
       0.12044101 -0.049902722 -0.11585628 -0.26292893
000260 9d 7d eb bc e1 29 bb 3d ca 2d f2 3e 09 24 35 be
       -0.02874642 0.09138847 0.4730056 -0.17689528
000270 ec bf 62 be d1 f4 26 be d6 07 24 be d0 21 81 3d
       -0.22143525 -0.16304328 -0.16018614 0.06305277
000280 7c 68 aa 3d 54 eb 83 bc 97 72 13 be 44 de 11 3e
       0.0832071 -0.016103424 -0.14399181 0.14244944
000290 67 75 dd 3d dc 4d ec 3c cc 23 1d be 83 5c 64 3e
       0.10813408 0.02884572 -0.15345687 0.22300915
0002a0 b5 f3 27 3b d1 db e5 bd 5b 15 2e 3e 5a 56 95 bd
       0.0025627438 -0.11223567 0.17000334 -0.07291861
0002b0 5a 3d 5b 3d 5c f8 8c be b5 63 42 3e e2 3f 36 be
       0.053525306 -0.27533233 0.18983348 -0.17797807
0002c0 a5 12 11 be 2a 4e ed 3d 5c 50 fd be 7c 40 ca 3d
       -0.14167269 0.11587174 -0.49475372 0.09875581
0002d0 54 4e e6 3d 04 6f 42 3e d6 85 eb bd 77 6c 69 bd
       0.11245409 0.18987662 -0.115001366 -0.056988206
0002e0 54 49 9a be 56 a0 3b 3e 9a 11 d0 3c e9 7a 14 be
       -0.3013407 0.18322882 0.025399018 -0.14500012
0002f0 07 42 36 3e e8 e1 07 be f5 31 d5 3d 3a 80 a9 be
       0.17798625 -0.1326977 0.10409919 -0.33105642
000300 03 3a be 3d 28 12 c1 3e 3c c6 5e 3c e2 1c 1e be
       0.092884086 0.37709165 0.013597067 -0.15440705
000310 f7 72 17 3e 55 bd 89 bd 78 db c8 3d 9c 59 50 3d
       0.1478995 -0.06725565 0.09807485 0.05086671
000320 68 9d 59 bb f7 08 d2 3e 15 a8 d4 be b3 60 68 3e
       -0.0033205394 0.41022465 -0.41534486 0.22693138
000330 93 60 99 be 42 ff a8 3e 0d dc d1 3d 63 46 cd be
       -0.29956493 0.33007246 0.102470495 -0.40092763
000340 63 14 50 3e ce 6b a1 be 6f 1f 15 be f9 13 38 bc
       0.20320277 -0.3152756 -0.14562772 -0.011235231
000350 65 fc 14 3e d5 7d 05 3e 46 5c eb bc 71 4f 33 be
       0.14549406 0.13036282 -0.028730523 -0.17510773
000360 29 76 40 3e 8e 38 0a be e0 be 07 bc 1a df 00 3e
       0.18795075 -0.13498136 -0.008285254 0.12585106
000370 1d 3b c3 bd 38 54 95 3d ba 86 85 be 2a cf 11 3e
       -0.09532759 0.07291454 -0.2607935 0.14239183
000380 1f fe 3d 3d ce 72 ce bd 8d 46 1e bd 67 21 63 3e
       0.046384927 -0.10080491 -0.0386415 0.2218071
000390 fa ae 92 3d b0 57 c7 bd 43 e6 49 bd 6b c6 33 3e
       0.071622804 -0.09733522 -0.04929186 0.17556159
0003a0 ac 13 0e bd 1e 68 b1 3e a7 46 27 3e 72 18 ab 3d
       -0.03468673 0.34649748 0.16335545 0.08354272
0003b0 6d 8f 2f be 26 8f 8e 3d 8d a2 77 3e 2f 3f a6 3d
       -0.17144556 0.06960897 0.24183102 0.0811752
0003c0 9d f2 80 3e 3f 10 49 be dc 02 a3 bd 02 95 c0 bd
       0.251851 -0.19635104 -0.0795953 -0.09403421
0003d0 4f a7 87 be 73 04 40 3e aa e8 22 3e b9 60 3a be
       -0.26494834 0.18751697 0.15909067 -0.1820096
0003e0 7d 21 3a 3e 61 53 d2 bc 0b b5 be 3d c1 c0 12 3d
       0.18176837 -0.025674524 0.09311875 0.035828356
0003f0 90 21 9d 3d dc 10 ca 3d bf 60 01 be 24 f0 29 3e
       0.07672417 0.09866497 -0.12634562 0.16595513

net.0.bias f4 [64]
000000 9f 2c ca bd 17 78 91 be d5 61 1b 3d 2d d1 d1 3d
       -0.09871792 -0.28411934 0.037935097 0.10244975
000010 f3 09 70 be f9 47 3a 3e 1a 1b 92 3e ff 7c bf bd
       -0.23441295 0.18191518 0.28536302 -0.09350013
000020 41 bd 24 be 7a 10 2c 3e ec 8b 7e be ed e3 94 b9
       -0.1608782 0.1680316 -0.24858063 -0.00028398578
000030 f4 02 57 3e 2a 87 f3 bd 64 1b 1e 3c db 6c 45 be
       0.2099722 -0.11891015 0.009650085 -0.19279806
000040 e8 0d 61 be 42 a5 bc 3e a1 b9 94 be e0 a2 bb 3d
       -0.21977961 0.36844832 -0.29047874 0.09161925
000050 fe 72 0d be 79 38 0e be 63 c9 19 3e 71 75 74 bd
       -0.13813397 -0.1388873 0.15018229 -0.059682313
000060 c1 8e c8 be 16 43 47 3d 12 dd 50 be ca 3e 9e be
       -0.39171413 0.048647963 -0.20396832 -0.3090728
000070 d3 5f a9 bd b8 ee 09 3e 70 85 7d be 8d 54 4a 3c
       -0.0827023 0.1346997 -0.24757934 0.01234926
000080 79 b3 5b be f3 1d 0c 3e 10 19 26 bd dd bd d3 be
       -0.21455182 0.136833 -0.040551245 -0.41355792
000090 33 94 ba bd 33 1c 2a bd b1 ac af 3e e6 65 d0 be
       -0.09110298 -0.0415308 0.3431144 -0.40702742
0000a0 00 0a 0e be 48 69 49 bd 1f 76 9f bc f4 55 4e 3e
       -0.13871002 -0.04917267 -0.019465504 0.20149976
0000b0 12 c4 ae be 03 42 d7 3e 46 e6 51 3e 7a 81 e2 3c
       -0.34133965 0.4204255 0.20497999 0.02764963
0000c0 b4 95 07 bd 2d 12 49 be 9d be 8b be a2 a2 0d bd
       -0.033101752 -0.1963584 -0.27293864 -0.034578927
0000d0 88 0a 2a be 6e 05 ac 3e 8f 75 a9 be 6f a9 b7 bd
       -0.1660558 0.33597893 -0.33097503 -0.08967864
0000e0 c0 02 7c be d4 31 90 be 5f 70 92 3d 12 06 7c be
       -0.24610424 -0.28163016 0.07150339 -0.2461169
0000f0 48 f2 56 3e d8 68 23 be 2e d6 2d be 53 75 7f 3e
       0.2099086 -0.15957963 -0.16976234 0.249471

net.2.weight f4 [64, 64]
000000 7e 5b 63 bd a6 50 69 bc df 8b 22 be 45 e0 60 be
       -0.055507176 -0.0142404195 -0.15873669 -0.21960552
000010 36 c6 71 be f7 58 4d be 68 e3 5c be f5 49 b5 bd
       -0.23610768 -0.20053469 -0.21571124 -0.08851997
000020 6d 24 d8 bd d0 b0 18 3e 47 83 3b bd 91 6e af 3d
       -0.10553823 0.14911199 -0.045779493 0.08566011
000030 d9 73 4d bd 95 ae 11 3e 23 18 01 bd f6 82 db bc
       -0.05015931 0.14226754 -0.03151716 -0.026795845
000040 4d 5a e0 bd 9d db 7c bc ef 4b c7 bd 8e 2d ae bd
       -0.109547235 -0.015433219 -0.0973128 -0.085047826
000050 48 9f d1 bd f5 05 09 be 61 e6 a4 3d ec ab 14 3d
       -0.102354586 -0.13381179 0.08051754 0.03629677
000060 81 1f 4d bc bb c5 31 be 91 19 b6 3d e0 99 ee 3b
       -0.012519718 -0.17360584 0.08891595 0.007281527
000070 12 69 66 bc 80 40 e7 3d 6a 39 a1 3d 5d 4c 0c bd
       -0.014063137 0.11291599 0.07872279 -0.034252513
000080 82 f3 e2 3c 24 01 93 bd 8c 20 52 be b9 b3 09 be
       0.027704004 -0.07177952 -0.20520228 -0.13447465
000090 11 79 7d 3d 27 f0 bc 3c 75 26 e3 bd da 34 6d be
       0.061883036 0.023063732 -0.110913195 -0.23164693
0000a0 fc 03 43 3c d1 be 46 be 56 c9 b2 3d f5 ff 7d 3e
       0.011902805 -0.19408728 0.08729808 0.24804671
0000b0 34 b3 48 be bb a4 92 bd 47 97 7d be ff 0d 02 3d
       -0.1959961 -0.07160326 -0.24764739 0.03175163
0000c0 3a af d8 bd 94 fd 38 bd 61 f5 09 3e 58 39 06 3e
       -0.10580297 -0.045163706 0.13472511 0.13107812
0000d0 7b 8b 2b be 92 b3 22 be 04 aa 5f be 47 fb 04 bd
       -0.16752426 -0.15888813 -0.218422 -0.0324662
0000e0 a3 9d c2 bd 2f 3f 34 bd 9b 84 28 3d ad 65 d5 3d
       -0.09502723 -0.04400557 0.041142087 0.10419784
0000f0 eb 92 4e 3d f8 3a 96 be 76 42 81 be 45 ed 08 bd
       0.05043308 -0.29341865 -0.25246018 -0.033429403
000100 8a a8 41 be a3 c8 5b 3d a7 81 73 be c3 42 35 b9
       -0.18911949 0.05365814 -0.23779927 -0.00017286376
000110 76 8c 13 be 23 e0 fb 3d ed b6 02 3d 52 7f 8a be
       -0.1440905 0.1229861 0.031912733 -0.27050263
000120 db d9 c7 bc 85 4e cf 3d 40 05 5e 3d 90 5d 0a 3e
       -0.024395874 0.10122398 0.054204226 0.13512254
000130 7c 83 ef bd 9c 9b 35 bd c8 c9 5b 3d 89 7a 77 be
       -0.116950005 -0.044337854 0.05365923 -0.24167837
000140 58 43 22 3d f9 ff e3 bd 16 2d 77 3d 68 23 8e bd
       0.039615005 -0.11132807 0.06034573 -0.06940347
000150 18 8e 0b 3e 0e e4 b2 3c b0 f8 0c be ee 72 4e bd
       0.13628423 0.02183726 -0.13766742 -0.050402574
000160 11 79 b5 bd 33 9d f2 bd c8 89 d3 bd 57 1d 0d 3d
       -0.08860982 -0.118463896 -0.10329014 0.03445181
000170 1a bf dc 3b 23 7c fc bc 70 8c a1 3d 29 6a c1 bc
       0.0067366483 -0.030820912 0.078881145 -0.023610191
000180 3e e9 39 bd 3a 1b 1b be a4 b5 12 3d 12 45 8e 3d
       -0.045388453 -0.15147105 0.035817757 0.06946768
000190 e3 38 90 bd e7 ca b2 be 1d 6a 60 3d 14 eb 96 bd
       -0.070421 -0.34920427 0.054788698 -0.07369056
0001a0 5c b3 6b be a3 ac 69 bd 4e bf 58 be 3a 62 8a 3c
       -0.23017639 -0.057049405 -0.21166727 0.016892541
0001b0 b2 b2 99 bd 2f bb 94 3d 83 4c 2c 3d 7b 29 07 be
       -0.075047866 0.07262265 0.042065155 -0.13199417
0001c0 03 ce 1a 3d 8e d4 99 be 4e a5 22 bb ab 5f 83 bd
       0.037794124 -0.3004498 -0.0024817768 -0.064147316
0001d0 3d bc 17 be 9c 6e 5d bc 4c 0b 1e 3d 22 eb b4 be
       -0.14817901 -0.013515141 0.038584992 -0.35335642
0001e0 fe 58 2e bd 31 ce 03 bd 14 e6 bd bc 1e 0b 20 bc
       -0.04256534 -0.03217906 -0.023180999 -0.009768276
0001f0 3e 44 a3 bd 87 30 88 bd 9f 59 89 3e f4 a0 ad 3d
       -0.079720005 -0.06649881 0.26826188 0.08477965
000200 e6 25 05 bc 1e c5 98 3d 55 97 b3 bd b9 0e aa bc
       -0.0081267115 0.07459472 -0.08769099 -0.020758973
000210 05 00 39 be fa 0b 29 be ec 4f a3 bc 3c 56 de bd
       -0.18066414 -0.16508475 -0.01993557 -0.10856292
000220 d4 23 74 bd bd 84 30 bc 1d b9 1b 3c 3b f6 e3 3c
       -0.05960448 -0.010773835 0.009504584 0.027827373
000230 3a 0d 05 be 77 a4 38 3e 84 38 bb bd 9a b5 ec bd
       -0.12993327 0.18031488 -0.09141639 -0.11558075
000240 ec 0a d1 3d 85 55 4b bd cb 3c ca 3c 48 0c 3f 3d
       0.10207161 -0.049642105 0.024687191 0.04664257
000250 73 00 ba bd f0 11 d9 bd e9 e5 e6 bd 41 d5 21 3d
       -0.09082117 -0.105991244 -0.11274321 0.039510015
000260 2b 8e a4 be 84 32 0c be af 6b 91 bd 9a 5c cd 3d
       -0.32139716 -0.13691145 -0.07100617 0.10027428
000270 c0 2f d4 bd 42 f2 93 bd 60 97 08 be 7d df e8 bd
       -0.1036067 -0.072239414 -0.13338995 -0.11370752
000280 a8 b4 7b 3d b9 94 11 be 3d 9f 3c be d4 df 92 bd
       0.061451584 -0.1421689 -0.1842012 -0.07171598
000290 43 f9 92 bd b3 c7 cc bc 22 9e c1 bd ce df 3c be
       -0.07176449 -0.024997568 -0.094539896 -0.1844475
0002a0 e7 68 46 bd fa 91 bd 3b 79 e3 e0 bd 2c ce bf 3d
       -0.048439886 0.005785224 -0.10980887 0.09365496
0002b0 a4 56 8f bc b5 5a f6 bd 6e 2d 11 3c 07 a7 f2 bc
       -0.017497368 -0.1202902 0.008860929 -0.02962066
0002c0 f3 aa 8e bd 38 74 70 be 23 51 a7 bd cf ac e9 bc
       -0.069662 -0.23481834 -0.081697725 -0.028524784
0002d0 8c 45 82 bb 14 5d ac 3d 61 8e 91 bd 9f 03 f9 bc
       -0.003975576 0.08416191 -0.07107235 -0.030397234
0002e0 5d 5d 91 bd 35 0b 45 bc 24 66 c7 bc ef e2 2b be
       -0.07097886 -0.012026598 -0.024340697 -0.16785787
0002f0 59 1f a1 3d 6b 5c 6e be 4f 20 aa bd 98 2c 16 be
       0.07867307 -0.23277442 -0.083069436 -0.14665449
000300 bc 70 07 be f3 6d 8a bd db 11 12 be 28 fc 9b 3b
       -0.13226599 -0.067592524 -0.14264624 0.004760284
000310 81 23 16 be 23 11 07 be 50 32 57 bd bd 9f f4 3c
       -0.14661981 -0.13190131 -0.052538216 0.029861325
000320 93 9e 12 bc f0 0d a1 3d 1c fd dc 3d 31 f5 07 3d
       -0.00894894 0.078639865 0.10790464 0.033192817
000330 7e 52 dc bd a7 8e 4f 3d 49 4b cc 3d 9b 7a fc bd
       -0.10757922 0.050673153 0.09975297 -0.12328073
000340 d9 05 42 3d 07 3c 3d be bf af 82 bd 7a 00 a8 3d
       0.047368858 -0.1847993 -0.06381177 0.08203216
000350 bf f5 db bd 14 59 56 3d b1 3b 8b bd 39 f4 be bd
       -0.10740232 0.052331045 -0.067984946 -0.093239255
000360 bf ad 1c be b3 9c f2 bb ed 9a 35 bd ae 73 69 3d
       -0.15300654 -0.007403934 -0.044337202 0.056995086
000370 c3 ea 87 bd 64 9a 34 3d 17 e7 5d bc 29 5b 4d bd
       -0.06636574 0.04409255 -0.013543866 -0.050135765
000380 08 8e 6f bd fc fd 1e be 89 6c 56 be ec b9 49 be
       -0.05848506 -0.15526575 -0.2093984 -0.1969983
000390 a0 bd 34 bd 36 5b 53 bd c2 fb 0a bd c7 3b 5a 3c
       -0.044126153 -0.051600657 -0.0339315 0.013319916
0003a0 a0 3f 18 bd 5f 67 2d be f6 bc 35 be c0 58 9b bd
       -0.037170053 -0.16933964 -0.17747864 -0.07585287
0003b0 dc 11 b8 3c af 63 0e be aa 46 8d bd 2a b9 95 bd
       0.022469454 -0.13905214 -0.06898244 -0.07310708
0003c0 d6 52 b1 bd cc 33 28 bd 56 87 88 3d 2d 77 db 3d
       -0.08658378 -0.041065022 0.06666438 0.1071609
0003d0 0b bd b2 3c 19 a4 51 bc ed d4 4a bd 1a aa 26 be
       0.021818658 -0.012795472 -0.049519468 -0.16275826
0003e0 bb 0a bb 3c 8c b8 1e bd 06 3f 24 3d e0 33 da bb
       0.022832265 -0.038750216 0.040099166 -0.006659016
0003f0 63 07 7d 3d 0d 02 ef bc 66 db cb bc 7e 6e 5a 3d
       0.061774623 -0.029175783 -0.02488489 0.05332803

net.2.bias f4 [64]
000000 10 c1 bf 3c da 44 90 3e e3 60 dc 3d b3 a9 3d 3c
       0.023407489 0.2817753 0.10760667 0.011576104
000010 fd 1a e3 bd 39 58 19 3e 17 cb 55 3e 7b 3a 96 bd
       -0.11089132 0.1497506 0.20878254 -0.07335373
000020 57 48 b8 3d d2 a5 5b 3e 40 95 b9 be d0 49 97 be
       0.08998173 0.21449974 -0.3624668 -0.29548502
000030 a1 31 f9 bd 62 ae 8c 3e 5a 31 8b 3e 9c 05 c2 3d
       -0.12167669 0.27476794 0.2718609 0.09473726
000040 f2 93 5d 3d 22 d6 2c be 59 f0 0d be ce 04 5e 3c
       0.05409617 -0.1687856 -0.13861217 0.01355095
000050 63 e1 bb 3d dc 01 85 3e c2 a3 a1 3d c2 da 83 3d
       0.091738485 0.2597798 0.078925624 0.06438209
000060 83 e9 12 be 85 4c 42 be a7 d6 47 be 89 ad 3b 3e
       -0.1434689 -0.18974502 -0.19515477 0.18327917
000070 f5 42 96 be 26 52 8d 3b 5e c6 6e 3e 98 c4 b2 3e
       -0.2934796 0.0043127714 0.23317859 0.34915614
000080 09 ef 64 3e 1f b9 17 3e 81 2d 0f 3d 92 bf 72 3d
       0.2235681 0.14816712 0.034955505 0.059264727
000090 18 44 b0 3d d2 08 e4 3d 9f 6c 61 bd 2f fa 17 be
       0.08606738 0.11134495 -0.05503523 -0.14841531
0000a0 ad 80 11 3e ee fb 5b bd 02 e6 9e 3e de bf 20 3b
       0.14209242 -0.053707056 0.31034857 0.0024528424
0000b0 48 78 1e bd 19 00 de bc de 90 7a 3e b3 ef 85 bd
       -0.038688928 -0.027099656 0.24469325 -0.065398596
0000c0 ce 77 cf 3d c8 ed 9a 3d 7c 90 c1 3c 39 ca 00 3e
       0.10130273 0.075648844 0.023628466 0.12577142
0000d0 a4 11 56 bd 79 e0 2e be 55 73 51 3b 9c 5a 56 3e
       -0.052262917 -0.17077817 0.0031959612 0.20933002
0000e0 54 05 82 bd 6c 80 a6 3d ef 84 72 3d c1 42 3d be
       -0.063486725 0.08129963 0.059208807 -0.18482496
0000f0 60 5c 81 3d e9 44 99 3e 8d 88 02 be 66 a5 8f 3e
       0.06316447 0.29935387 -0.12747402 0.28055876

net.4.weight f4 [64, 64]
000000 d3 dd 2e bc 67 32 1b bd d7 d6 65 be d5 a9 6b be
       -0.010673004 -0.037889864 -0.22445236 -0.23014005
000010 69 2a 60 bc 84 d8 35 3d 7a 4f 15 be 4e db 0a be
       -0.013681986 0.04439594 -0.14581099 -0.1356022
000020 8c a4 76 be 1e 40 a6 bd 7c 9f ff bc 56 a1 1c 3d
       -0.24086207 -0.08117698 -0.031203978 0.0382398
000030 4a cb 37 3d e4 df 9e bd 2d ab 43 be be 97 60 bb
       0.044871606 -0.077575475 -0.19108267 -0.0034270133
000040 6b 04 a8 3c f5 c7 06 be 20 99 55 3d e5 8f 97 bd
       0.02050992 -0.13162215 0.052147985 -0.074004926
000050 72 75 35 bd 17 b7 24 be d5 76 1b bd 77 63 9f bd
       -0.044301458 -0.16085468 -0.037955124 -0.07782643
000060 4b 4a 2e 3d 13 7d 7b bc 6e dd b6 bb 90 e2 90 bc
       0.04255132 -0.015349644 -0.0055805957 -0.017686158
000070 7d e8 0b 3d 3a 45 2d be e7 93 06 be 1e a9 39 bd
       0.034157265 -0.16920939 -0.13142358 -0.0453273
000080 72 02 e8 3b 9e a8 5b 3c ea 2c c1 3d 1c a9 c1 3d
       0.0070803696 0.013406901 0.09432395 0.09456083
000090 33 55 da bc 0c 68 8d bd 3e bf 82 3d 3b 1b 1c 3e
       -0.026651954 -0.06904611 0.06384133 0.15244763
0000a0 73 26 03 bc f8 7b 2c 3e 70 53 91 3c de 80 0d 3d
       -0.0080047725 0.16844165 0.017739981 0.034546725
0000b0 bc 14 83 3b 21 f8 4f 3d 91 c8 cc 3d fc 41 aa bb
       0.0040002745 0.050773744 0.099991925 -0.005195854
0000c0 fd e5 91 bd ef 5b 2f 3c 3d 08 03 bd b0 48 c3 bd
       -0.07123945 0.010703071 -0.03199028 -0.095353484
0000d0 cb 20 b6 be b2 0c 14 3d 1e 25 91 3d 36 40 74 3c
       -0.35571894 0.03614492 0.07087158 0.014907887
0000e0 8b 9e ae bd 42 28 d5 bc 46 08 d6 bd 2c 8e d5 3d
       -0.085263334 -0.026020173 -0.10450797 0.10427508
0000f0 d1 12 42 bd 1a f5 de bc 7f 44 27 bc 15 29 f4 bc
       -0.047381226 -0.027216483 -0.010209202 -0.029804746
000100 dc 3d b7 bc f8 2c 4f be 0e 69 1c 3d 5f 4f ce bd
       -0.022368364 -0.20231998 0.038186125 -0.100737326
000110 87 6f ca be 11 46 6b bd db 8c f5 3c f9 fe 4a 3d
       -0.39538214 -0.057439867 0.029974392 0.049559567
000120 a6 60 7c be 88 ca 90 3d ff bb 92 3d b7 c8 96 bd
       -0.24646243 0.0706988 0.07164764 -0.07362502
000130 5f d5 3c bd fb e2 5f bd 0f 3f a5 3d fe 56 c5 bd
       -0.046101924 -0.054659825 0.08068668 -0.09635733
000140 18 b3 b0 bd bf df fc bd 1e 0e 17 be b4 22 9c bd
       -0.086279094 -0.12347364 -0.14751479 -0.076238066
000150 20 25 b3 bd 2a 9d b7 bd 20 c7 07 be 7f ca 67 3d
       -0.087473154 -0.089655235 -0.13259554 0.0565896
000160 f6 ec 0a 3e 6f a4 4c bc 53 08 ac bd bb a5 e7 bd
       0.13566956 -0.012490376 -0.08400025 -0.113109075
000170 e0 8d d9 bc 68 3c 8c be a3 ed 6c be 0a 99 03 be
       -0.02655691 -0.27389836 -0.23137526 -0.12851349
000180 4c 4b e0 3c be 0b 06 3d 02 29 b4 3c 89 c5 8c bd
       0.027379654 0.032726042 0.02199221 -0.06873614
000190 d8 33 23 3c d6 69 31 3d ee b7 a7 ba d4 ef 9d 3d
       0.009961091 0.043313824 -0.0012795904 0.07711759
0001a0 d3 46 f6 3d 52 76 a8 ba 93 57 ec bd 27 e8 9b bb
       0.120252274 -0.0012852645 -0.11540141 -0.0047578993
0001b0 cf 8f 86 bc 99 e8 9e bd 08 1f aa 3d 60 40 4c 3d
       -0.016425995 -0.07759208 0.083067 0.04986608
0001c0 51 07 95 3d b5 60 28 bd 4e 40 54 3b e9 41 b1 bd
       0.07276786 -0.041107852 0.0032386961 -0.086551495
0001d0 9c 4b 96 be 03 79 36 3d e2 c8 01 bd b2 8a 4b 3b
       -0.2935456 0.044549 -0.031685717 0.003105801
0001e0 f8 54 e7 bd ff 01 e8 bd 42 b3 2b 3e 27 84 5f 3d
       -0.112955034 -0.11328506 0.167676 0.05456939
0001f0 fd c2 6b 3d 68 00 b4 39 a0 94 ea 3c 24 84 c9 bd
       0.057559002 0.00034332578 0.028635323 -0.09839657
000200 7a 0f 0f 3e e2 6a 8f bc 5b ab 08 3e 67 b9 98 3c
       0.13970748 -0.01750702 0.13346617 0.018643094
000210 c9 e6 02 bd ad c8 a4 3d a7 bf ce 3d 73 22 2c be
       -0.031958375 0.08046088 0.100951485 -0.16810016
000220 77 73 8e bd 0e 54 15 3d 2f 51 e5 bd e0 2f 91 3d
       -0.06955617 0.036457114 -0.11197125 0.070892096
000230 aa 06 cc 3d 81 cd 48 3d 0d 1f 9e 3d d0 71 0b bd
       0.099622086 0.04902411 0.07720766 -0.034044087
000240 1a dc 4f bc c9 02 c6 3d c9 4c c3 bc 56 2d fe 3c
       -0.012686754 0.096685 -0.023840325 0.031027477
000250 2c 1a da 3d a4 7a a3 3c 46 67 6d 3d 04 60 99 bd
       0.10649523 0.01995594 0.057959817 -0.07489017
000260 24 eb f6 bb 9d 61 aa 3c 7d eb ce 3d df 14 00 3e
       -0.007535355 0.020798499 0.101035096 0.12507962
000270 91 c6 c8 bb c3 58 02 be 55 1d b9 3d 48 c6 ef 3d
       -0.0061271866 -0.12729172 0.09038798 0.11707741
000280 7a df f0 bd 58 c7 ed 3d 0d 49 f8 bd 4b 03 38 3c
       -0.11761375 0.116102874 -0.12123308 0.011231254
000290 28 6f 5f be 6c 68 98 be c2 70 a9 3d d5 e9 d2 bd
       -0.21819746 -0.29767168 0.0827346 -0.10298506
0002a0 10 a1 69 3d 1f 02 8b ba 79 35 64 bd 7e f3 26 be
       0.057038367 -0.001060549 -0.055715058 -0.16303822
0002b0 96 0c fb bb 8a 90 02 3d aa a9 50 bb 3d 1b da 3d
       -0.0076614125 0.031876124 -0.003183941 0.106497265
0002c0 94 94 84 be 87 3c e8 3d 4e 74 2f bd 97 39 6b bd
       -0.25894606 0.1133967 -0.042835526 -0.05742797
0002d0 2a 0c c3 3c 42 c2 a9 bd 79 69 c6 bb d7 e9 b7 bb
       0.023809511 -0.08289005 -0.006055054 -0.0056125927
0002e0 c1 16 2a 3e b0 3a b6 bc 10 16 52 be b6 71 76 3c
       0.16610242 -0.022244781 -0.20516229 0.015041759
0002f0 03 a5 72 be 0a a5 3d 3d 97 4b 88 bd 35 39 32 3e
       -0.2369576 0.04629997 -0.066550426 0.17404635
000300 35 fd f5 3d b5 f4 35 3e 30 df 30 bc e7 a0 14 3e
       0.12011186 0.1776913 -0.0107954 0.14514504
000310 21 c8 6f be d8 0e 44 3e e1 7e 77 3d 47 14 54 be
       -0.23416187 0.19146287 0.060423736 -0.2071086
000320 57 8c 93 3e b9 9d 55 3d 9d 62 e5 3d 47 89 ef bd
       0.28818008 0.05215237 0.112004496 -0.116961055
000330 48 45 e7 bd ae 97 c4 3d 24 aa e5 3d 80 6f bb bd
       -0.11292511 0.09599243 0.112140924 -0.09152126
000340 c6 89 b2 3d 2b 02 c6 3d c9 60 81 3d de 20 42 bd
       0.087176844 0.09668382 0.063172884 -0.047394626
000350 37 f2 36 3e b2 a9 57 3e 5b eb 4a 3d d3 2e e8 bd
       0.17865835 0.21060827 0.04954086 -0.11337056
000360 83 9a 97 3c fc 2a 2a 3d 72 f5 8c bd 1d 8c e3 3b
       0.018506294 0.0415449 -0.068827525 0.006944193
000370 a3 19 50 3c e6 1e 2b 3e 0f 63 dd 3d 0a 58 45 3e
       0.012701425 0.16711006 0.108099096 0.19271865
000380 99 2b d3 3c d1 16 6f 3c 1a 6e ba bb 32 20 30 3d
       0.025777625 0.014592842 -0.0056893947 0.042999454
000390 7c 6d ff bd 09 26 72 be ea 81 ca 3c 9d 6c a5 3d
       -0.12472054 -0.23647322 0.024720151 0.08077357
0003a0 63 b6 0a 3d 5b a5 fd bd b7 b0 4c 3d d4 74 8a be
       0.033865344 -0.12385055 0.049973216 -0.27042258
0003b0 bb 66 c7 3c 22 0b 32 3d b1 92 31 3d ac 0b 9e 3d
       0.024340978 0.04346765 0.043352786 0.0771707
0003c0 a9 69 8c be af 0c 12 3e 6e e4 1b 3e d7 3a 07 3e
       -0.27424362 0.14262651 0.15223858 0.1320604
0003d0 11 44 b4 bd 7e 54 2f be b5 65 97 bb 38 c4 62 3d
       -0.08802045 -0.17122075 -0.0046202787 0.05536291
0003e0 7b f0 18 3e e8 cc 3d 3e 5d 37 bd be 1f ed 99 3c
       0.14935486 0.18535197 -0.369563 0.018789826
0003f0 61 af 9a be c6 21 a0 3d 8d 0a a1 3b 06 0c 4e 3d
       -0.30211928 0.07818942 0.004914588 0.050304435

net.4.bias f4 [64]
000000 44 0f 13 3e 4c f9 69 3e c2 98 c7 3e fd 19 c7 be
       0.14361292 0.22849005 0.38983732 -0.38887015
000010 0e a2 58 3e 32 7b 91 be 75 20 8d be 77 76 c4 3d
       0.21155569 -0.28414303 -0.27563825 0.09592908
000020 14 0d a0 3e a4 4b 71 3e d9 1b c6 3e 0d 27 1a be
       0.31259978 0.23564011 0.3869312 -0.15053959
000030 15 26 89 3e e2 64 a2 be 35 6c b6 3e 3c 78 90 be
       0.26786867 -0.31717592 0.3562943 -0.28216732
000040 0c fe 24 bd 59 8c 81 be da c7 18 3e f6 e3 a1 bd
       -0.04028134 -0.2530239 0.14919987 -0.07904808
000050 37 be a7 bd d6 44 6d 3e 26 87 61 3e 84 b7 80 3e
       -0.081905775 0.2317079 0.22024211 0.2514001
000060 7a c5 87 bd 66 d2 72 3e 58 5d 38 3e 2d 58 7a 3e
       -0.066294625 0.23713073 0.18004358 0.24447699
000070 fb f4 5c 3e a8 03 8d 3e 99 ba ba 3d 44 d9 be 3e
       0.21577828 0.27541852 0.09117622 0.37275136
000080 eb 3f b5 be 27 70 25 3e 83 7f 0d 3e b9 e3 13 be
       -0.35400328 0.16156064 0.13818173 -0.14442338
000090 2d 5f 8a 3e 66 cd 73 3e 04 b9 82 be d4 89 c5 3e
       0.27025738 0.23808822 -0.2553178 0.38581717
0000a0 38 6c 97 3e a2 ec 19 3e 02 cb 85 be 1b 0f a1 be
       0.29574752 0.15031675 -0.26131445 -0.31456837
0000b0 fa 75 33 3e d3 70 7b 3e d3 b3 1f 3e c8 c5 94 3e
       0.17525473 0.24554758 0.15595941 0.29057145
0000c0 55 d1 c7 3e 7d cc b3 3e 07 50 97 be bb 64 f1 bb
       0.39026895 0.3511695 -0.29553244 -0.0073667443
0000d0 9d ee 86 bd 70 b8 a9 3e d8 64 8c be 8d 10 73 3d
       -0.065884806 0.33148527 -0.27420688 0.059341956
0000e0 22 8a 75 3e 36 f1 93 3e d9 17 10 3e ad 80 a1 3e
       0.23978475 0.28894967 0.14071597 0.31543484
0000f0 b1 5a 96 bd 4b 13 66 3d 5e 12 94 3e 52 36 83 3c
       -0.07341517 0.056170743 0.28920263 0.016017113

net.6.weight f4 [1, 64]
000000 b6 dc e6 bd 8f cb f1 bd 8d 76 13 3e ab 04 d7 be
       -0.11272566 -0.11806404 0.14400692 -0.4199575
000010 58 3a 24 be 44 9d 9b be 54 f6 bf 3d e9 a1 91 be
       -0.16037881 -0.30393422 0.09373155 -0.2844384
000020 b5 3c 26 3e b8 f1 b9 3d 94 07 fe 3d 45 78 68 bb
       0.16234095 0.09079307 0.12403789 -0.0035472077
000030 fd f6 2a be 49 d0 fb bc 38 2c 36 3e ec e0 bb bd
       -0.16695781 -0.030738967 0.17790306 -0.0917376
000040 be 21 8f bb 30 75 89 bd f6 27 17 be 81 88 34 bc
       -0.004368036 -0.06711805 -0.14761338 -0.011018873
000050 26 3a 71 bb c7 0f 06 3e 26 58 01 3e 76 2c e8 bd
       -0.003680834 0.13091956 0.12631282 -0.11336605
000060 c2 c7 8c bc 40 f4 2f be 1e f6 30 3e a5 8f 5d 3d
       -0.017185096 -0.17183018 0.17281386 0.05409207
000070 e5 e2 8d 3d c9 aa f9 3d 17 55 aa bd f7 e0 36 3e
       0.06928042 0.12190778 -0.08317011 0.17859255
000080 a2 9a 8f bd e9 1c 80 bd a3 0e 83 bc c1 e7 93 bc
       -0.07011916 -0.06255514 -0.01599819 -0.018054845
000090 1f 2f 3c 3e 4a 49 d9 bd ae 92 55 bd 9f c1 1c 3e
       0.1837735 -0.10609682 -0.052141838 0.15308236
0000a0 5e 94 ce 3d 0a a3 a3 3d 85 97 12 3e e9 f7 60 be
       0.100868925 0.079900816 0.14315613 -0.2196957
0000b0 e5 f8 d3 3c b3 83 08 3e 9e b6 84 bd 68 b0 c7 3d
       0.025875518 0.1333149 -0.06480144 0.09750444
0000c0 36 09 05 3e 0c 47 26 3e c0 a3 a4 bc ff 92 e0 3a
       0.12991795 0.1623804 -0.020097613 0.0017133652
0000d0 8e 00 bf ba d7 89 d4 3d 88 a8 00 3e 05 da 89 b9
       -0.0014572309 0.10377853 0.1256429 -0.00026293113
0000e0 2d fe 0a 3e 10 ca c3 3d c0 5f b3 bc ac 46 7e 3e
       0.13573523 0.09560025 -0.021896243 0.24831647
0000f0 f5 13 f4 3c 26 d6 92 bb 97 f8 34 3e de da 03 3d
       0.029794673 -0.004481095 0.17672954 0.03219115
