wine_iterative/wine_models/80_train/gaussian_final_model.pt (torch, 41027 bytes, 7 tensors)

net.0.weight f4 [64, 13]
00000000: d92f b23e b966 203e dde3 b23c 28dc bf3d
00000010: 8d10 97be f895 5cbc ff3e e7be d058 af3e
00000020: d540 86bd 1ef0 67be edad 05be acac b73e
00000030: 2b00 433e 5997 abbe 85ae 423c 4597 30be
00000040: 1d4b 2c3e 11a5 333e 0147 1ebe 583b 8cbd
00000050: 0e50 883e fa40 2dbc 3673 ecbd 38d2 eb3d
00000060: 964c 013f a35a e23e 47f9 023e f501 91bd
00000070: 69bf 0abe f9ac a1bd c90c 0fbd 0b3e d6bd
00000080: d3e6 fe3d aac9 0f3e cb39 4ebe 8fbe 14bd
00000090: 08f1 be3d e74d 4fbe 0978 b0be 0c7e a53e
000000a0: 95d1 84be 2b8e 183e f260 31be 2d79 69be
000000b0: b906 e43e 9bff 74be 56bf 793e 88af d3bd
000000c0: 91b4 4fbe 090c ff3d 77f9 94bd 35a4 1fbe
000000d0: de64 8cbc 26ea 78be 6788 8cbe e042 703e
000000e0: 1ee9 673e d0a1 8e3e 5016 a53e 1968 f03d
000000f0: 0db6 603d d93f 8fbd bc20 7dbe 53bb c73d
00000100: aed1 7abe 46da 44be 8ab5 2abe 4920 c5bd
00000110: b3ca b33e ad57 8bbc 1fb3 123c ffb8 0fbe
00000120: 37d1 733e 1625 cd3e b14b 35bd a0e1 33bc
00000130: e250 83be c62f 0cbd 69ac ae3e 96b0 9a3c
00000140: 48ad 853e 936e 78be 8b31 a3be 1744 1bbe
00000150: a03c 69bd 3a66 003e d46f e73c 8bc3 913d
00000160: 0d94 893e bf78 9b3d 2fbb 80be ae05 07be
00000170: f9e4 c5be 151f 4b3e 4744 ad3d 7528 c43e
00000180: 9f3f 93bd 66ce 0e3e b99a 99be aaba 2fbd
00000190: 8207 ae3e b686 5a3e 16f8 c4be 4613 9d3e
000001a0: 3cb9 4a3e 601b 663e 4add 913e be76 74bd
000001b0: 7cdd 6f3e f483 c7bd 6540 e1bc 89dc 263e
000001c0: 9a39 ca3c 6e80 1e3e f33b 023e efdf cc3d
000001d0: 13b1 473e 6991 36be e0da 67be 6a3e b73e
000001e0: b0ac bf3d e460 0e3e 7f8d 46be 1feb 1abe
000001f0: fe77 893e d7e6 c13e e8ec 9cbe 0005 fe3d
00000200: daa7 0ebe b367 a03e c24d 253d d224 223d
00000210: ba36 88be 31f5 073e 065f 843e 1d0c 703e
00000220: 6a9d 1bbe 666b 5ebe f22d 5fbe 2032 323e
00000230: 0b4f dbbd 90fa 1bbc c1cd 6e3d 15d5 57be
00000240: a991 9dbe 3d29 313d 49b9 91be 7f94 023e
00000250: eba9 083e a0d2 a8be 2d66 513c bff0 7f3e
00000260: 9a76 2abe 4cc8 e8be 323d 9c3e ecab b5be
00000270: bc74 393e 76af d4be 5de9 0e3e 7d4f 82bc
00000280: ec23 10be 4c5a fcbd 1283 0bbd db88 9fbc
00000290: d772 213e af33 273d eb04 b5be 0ddb 453e
000002a0: 045e 493d 54fd 3b3e 23fa 46be 311c ebbe
000002b0: abf1 1f3e f173 7a3e e738 e4be 7b23 373e
000002c0: 53a3 30bd 771e 56be bbe8 c8bb 229e 29be
000002d0: c529 a03d b6e9 a53e 633a 143d 12c7 963d
000002e0: 7ce2 653e a619 213e 13c0 933e 41ef 4abe
000002f0: daf5 a03e 6125 47bd 994a a7be cee8 89be
00000300: 97e5 84be afdb 57be 6dd5 d83d 70dc 913e
00000310: 8ac6 a23d 020c bfbc f0d5 d2bd a802 1cbd
00000320: be63 0e3d 3c72 dc3e e036 823e 5f40 82bd
00000330: db5e b63d 8928 cebe 9f30 573e 2567 873d
00000340: ac71 823e 20f4 5dbd e92f 233e e2c8 523e
00000350: ba18 34be 11bc 62be da22 033d 488a cd3d
00000360: 159a 4abe 4ac2 b63d 166e ae3e 16f4 313d
00000370: 7f3c 82be 732c 92be d3f4 103e 9e8d d83d
00000380: f89f aabe e651 083e 4704 97be 5b1e df3d
00000390: 91a3 603e df51 10bd d980 c9bd 1ef6 4c3e
000003a0: a4b4 8e3d 8bdb 943d aefc 9abe 406a d3bd
000003b0: f508 e4be f949 873d e812 0a3d 40b6 efbd
000003c0: b73b 4cbe e264 8b3d 8f59 23bd 0748 923e
000003d0: 9b24 ae3e c6fe 213e 44a6 39be ce2a 8abe
000003e0: 6fd4 1abe 197a cc3c d496 f1bd c4db 98bd
000003f0: 2fea 9e3e 57ad aabc 5d3c ae3e c2ac 86be
0.3480213 0.15664186 0.02183717 0.09368163 -0.29504815 -0.01346349 -0.4516525 0.34247446
-0.065553345 -0.22650191 -0.13054629 0.35873926 0.19043033 -0.33513907 0.011882429 -0.17245205
0.16825528 0.17543437 -0.15456773 -0.068472564 0.26623577 -0.010574574 -0.11545412 0.115147054
0.50507486 0.44209775 0.12790404 -0.070804514 -0.1354958 -0.0789432 -0.034924302 -0.104610525
0.1244637 0.14041772 -0.20139234 -0.036314543 0.09323317 -0.20244561 -0.3446658 0.3232273
-0.25941148 0.14897983 -0.17322138 -0.22800131 0.4453638 -0.23925631 0.24389395 -0.10336214
-0.20283724 0.124534674 -0.07274144 -0.15589984 -0.017137941 -0.2430807 -0.27447817 0.23463011
0.22647521 0.27857828 0.32243586 0.11738605 0.054861117 -0.069946 -0.24719518 0.09752526
-0.24494049 -0.1922389 -0.16670814 -0.096252985 0.35115585 -0.01700958 0.008953839 -0.14035414
0.23810278 0.40067357 -0.044261638 -0.010979086 -0.25647646 -0.034225248 0.34115914 0.01888303
0.26108766 -0.2426093 -0.31873736 -0.15162693 -0.056942582 0.12538996 0.028251566 0.07117375
0.26870766 0.0759139 -0.2514281 -0.1318576 -0.38651255 0.19836076 0.084602885 0.38312116
-0.07189869 0.13945922 -0.30000857 -0.042902626 0.33990103 0.2134045 -0.38470525 0.30678767
0.19797224 0.2247138 0.28489143 -0.059683554 0.23424333 -0.09741965 -0.027496526 0.16295065
0.02468567 0.1547868 0.12718181 0.100036494 0.19501142 -0.17828907 -0.22642088 0.35789806
0.093591094 0.13904148 -0.19389914 -0.15128754 0.2684936 0.3787143 -0.30649495 0.124032974
-0.13931218 0.31329116 0.04035736 0.039585896 -0.26604253 0.13277127 0.25853747 0.23442121
-0.15196767 -0.21720657 -0.2179487 0.17401934 -0.107084356 -0.009520188 0.05830169 -0.21077378
-0.30775192 0.04325222 -0.28461674 0.1275196 0.13346069 -0.32973194 0.012780708 0.24994181
-0.16646805 -0.45465314 0.30515438 -0.35482728 0.18110937 -0.41540116 0.13956209 -0.015907044
-0.14076203 -0.1232191 -0.034060545 -0.019474437 0.15766464 0.040820774 -0.35355315 0.19321842
0.049161926 0.18358356 -0.19431357 -0.45919946 0.15619533 0.2445829 -0.44574663 0.17884628
-0.043124508 -0.20910059 -0.0061312593 -0.16564229 0.07820467 0.3240487 0.036188494 0.073621884
0.22449678 0.1573244 0.28857478 -0.1981783 0.3143757 -0.04861963 -0.326741 -0.26935428
-0.25956413 -0.21079896 0.10587583 0.28488493 0.079480246 -0.023321155 -0.102947116 -0.03808847
0.03476309 0.43055904 0.2543249 -0.06359934 0.08904811 -0.402653 0.21014641 0.0661147
0.2547735 -0.054187894 0.15936245 0.20584443 -0.17587557 -0.22142054 0.03201566 0.10036141
-0.1978534 0.089237764 0.34068364 0.04344567 -0.2543678 -0.28549537 0.14155893 0.10573886
-0.3332517 0.13312492 -0.2949545 0.10894462 0.21937396 -0.03523433 -0.09839029 0.20015761
0.06968048 0.07268437 -0.30270904 -0.10323 -0.44538084 0.06605906 0.033709437 -0.11704683
-0.19944654 0.06806351 -0.03988033 0.28570578 0.34012303 0.15819845 -0.18129832 -0.26985782
-0.151201 0.024960564 -0.11796346 -0.07463792 0.31038043 -0.020834608 0.3403043 -0.2630368

net.0.bias f4 [64]
00000000: 7173 8bbe db46 a3be dc85 ef3d 6457 853d
00000010: f570 0c3e 233f cebc fdd5 87bd 8652 68be
00000020: 779a 0abe 6d00 0abe 833e 4b3e 2bb7 693c
00000030: 9de5 c0bd df1a 86be c658 29be ed0f 9cbe
00000040: 4834 5abd 71f9 1a3e f739 71be 30df 063e
00000050: 3974 b9bd 46f6 e03d 31bf d33c dd1b 943d
00000060: 554b 4dbe eed6 e5bd adcb 2f3d bb66 11be
00000070: 6a62 6cbd 3352 0dbe 1f28 5cbe 86d8 92be
00000080: f5c1 d73d 517b 7dbe bf6e b73d d0d0 d3bd
00000090: eeaa 153d b322 033d 96f1 38be c06d a2be
000000a0: e438 153e a62c f0bb 7ec3 c5bd 469f 19be
000000b0: 3f65 62bd c62e 16bd 0eda bbbe 2354 18be
000000c0: 9345 afbd 3d86 3dbd ce5b 3fbd 380c 1a3e
000000d0: 6c1a a93d 7462 92bd 944f 173e 7db9 f7bd
000000e0: 889d 35bd 8b96 69be b71f 80bd 87e4 90be
000000f0: a8d9 373e 92b5 98bd 8b3b 87be f6e6 07be
-0.27236512 -0.31889996 0.116954535 0.06510809 0.13714965 -0.02517659 -0.06632612 -0.2268773
-0.13535486 -0.13476725 0.19848065 0.014264862 -0.09418795 -0.26192376 -0.1653777 -0.304809
-0.053272516 0.15134217 -0.23557268 0.13171077 -0.09055371 0.10984473 0.025848003 0.07231877
-0.20048268 -0.11222635 0.04291885 -0.14199345 -0.057711042 -0.13800888 -0.2149968 -0.2868082
0.10535041 -0.24754073 0.0895667 -0.10342562 0.036539964 0.032015514 -0.18060908 -0.31724358
0.14572483 -0.0073295413 -0.09656428 -0.15002164 -0.055272337 -0.0366657 -0.366898 -0.14875846
-0.08558192 -0.046270598 -0.04671841 0.15043724 0.08256993 -0.07147685 0.1477645 -0.12095926
-0.044339687 -0.22811334 -0.06256049 -0.28299353 0.17954123 -0.07456507 -0.26412615 -0.13271698

net.2.weight f4 [64, 64]
00000000: 0e79 c8bd 7431 f3bd 45f0 f03d 2b9b ae3d
00000010: 1b0f 973d f4c2 4ebd 5841 0dbe 9e5b 29bd
00000020: c6b0 1cbe 6b87 153e 2c37 223e 12d1 1cbe
00000030: 9f55 debe cb38 d3be f5d3 52be 3ef6 7d3d
00000040: e426 3cbe 7294 393e 6438 b93d 5e86 8bbe
00000050: 48f6 8d3d 2ba8 03bf 666e d2bd 7997 50bd
00000060: 6b11 2fbe 5c9a a6be 199a 1cbe c3e3 15bc
00000070: 28a3 59be 7fa9 183e a21e f5bc 131b a2be
00000080: fe78 40be cd1a 403d 2612 2c3d 39c3 3cbe
00000090: d274 b53e 2f6a b0bd d892 34bd e85d 1dbe
000000a0: ccc4 8abe 0150 75be 8407 22be 1a26 b3be
000000b0: 14b2 8cbd 9a8e 803d 2239 013d ea22 bd3c
000000c0: 373b abbd e2b9 30be cbda 27be d1b1 1dbe
000000d0: 26de 033e b694 acbe fbdb 703d e4f6 27be
000000e0: 8fb3 783d 24dc 84bd f381 0bbe ca7d 98be
000000f0: e244 3a3e d1a5 53be b926 92be 78df 81be
00000100: 0ee9 dfbb 2fb9 bcbe af6c 963c 69e7 f43c
00000110: de0c 8dbd cb7a ab3c 1b6c 7abd aaea e13a
00000120: fffe 27be 0551 0cbc ce54 16be 4dfe 60be
00000130: af31 1f3e 4563 73be e05b c4be 959d 853d
00000140: 340e 16be a8d1 74bc c0d1 2abe b4ab c1bc
00000150: 62d3 343d 3783 2dbd 801f 003d d5bc 943a
00000160: aaab a9bd 62de fa3d a6da a83d c6eb c5bd
00000170: 8759 583d 4b1d 1dbe b02d 4dbe b986 91bc
00000180: 8680 cc3a 0f22 9ebd 6686 c63b dbff 1bbe
00000190: 5e7d 94bc 9ca8 ddbd 4b54 00be 73c1 6d3d
000001a0: 0787 efbd f1b2 9d3c 2b86 823c 89e0 753d
000001b0: 9310 2fbe 338d ed3c fd69 b43d c9f4 ecbd
000001c0: 6c05 343d dff2 83be 3947 fdbd 2d61 d63c
000001d0: 652c cabd 0b81 1b3e 9565 19be c5c6 1abe
000001e0: f70a 023e ea9a 17be 4384 dfbd 7b3e 80be
000001f0: 5f73 c13d 5035 e9bd 47f7 a9bc db96 c93d
00000200: 2c40 22be cbfb 483d 6196 4d3d 30fa 343e
00000210: 4c88 023c 7c3c 9f3d f433 0abd 0dcc bbbe
00000220: 047b 103d 8386 9abd fe72 7a3e c523 c0be
00000230: bb09 813d 100a d03c 142a 46be a540 c9bd
00000240: 4461 49be 52e4 80be ff06 72be 3d7b 7dbc
00000250: 276a adbe 75af 2d3e 6b3f cabd 703a 303e
00000260: 4410 39be 0cb5 c23d 4ad2 69be 45f0 6e3e
00000270: 1556 c13d fa4f a4bd 86a7 923e da97 a0be
00000280: 78a8 97bd eb0e 243e 2861 afbc 86e2 7dbc
00000290: cb76 98be cd48 9abd 85e3 97be 2bef e03c
000002a0: c714 13be 54d2 113d 834b 29be 3b44 d23b
000002b0: fd40 97bd 7a4b 45bd 13d0 40bd d97f c83d
000002c0: 04cb 4d3d a64e 13bf af46 d7be 218f fcba
000002d0: c57f 3eb9 8331 833e 0eb1 2c3d 30a9 203d
000002e0: e736 243d b173 7bba 976b 2d3e 9840 cc3c
000002f0: 6fd7 01be c457 0ebe dd16 67be 1bf6 ba3c
00000300: cfe6 1dbf 48cd 03bf ccb5 063d 6710 a2be
00000310: 21d8 93bd f29a 55be bf97 03bf ad0b e03c
00000320: d418 81bd ff57 0ebd 0273 b0bc 4e51 023c
00000330: aa1b 923e ec68 003f 2fbe 08be 91d2 013e
00000340: ce94 16bf 95af 83be dcbf 85bc 579d b13d
00000350: cbce 8cbe b5f1 1c3e fd1c bb3d 40e1 9fbd
00000360: 1f50 463d f147 f0be 65a7 48bd 32aa ffbd
00000370: d5ab 05be 4d61 a739 223b cf3d 2b14 82be
00000380: ed63 fbbd 0346 dcbe 8169 cbbd 6051 d43d
00000390: 44f5 32bc 8145 7c3e 7bba 04bd 716e bc3d
000003a0: 93eb 483e a5ef 1cbd 3a47 c3be fe1d dc3d
000003b0: 17ba 043e 4693 fbbd 2658 f33c 8f16 9ebc
000003c0: ea6b 6a3d 1cbd b43d a984 15bd eb9e 18bd
000003d0: 30f3 7b3d d38a 9fbe 0ac3 363e 6541 033e
000003e0: b3a6 0cbc dc09 94be 7832 abbe 704b 56be
000003f0: e3ec 41be 4ab5 243e 1153 413e 2388 96bc
-0.09788714 -0.11874667 0.11764578 0.0852569 0.07375928 -0.05047889 -0.13794458 -0.04134714
-0.15301809 0.14602439 0.15841359 -0.15314129 -0.434247 -0.41254267 -0.20588668 0.062002413
-0.1837421 0.18123034 0.09043959 -0.27250952 0.0693174 -0.5142848 -0.10274963 -0.050925706
-0.17096488 -0.32539642 -0.15293159 -0.009148541 -0.21253645 0.14908408 -0.029921833 -0.3166128
-0.18796155 0.04690056 0.042009495 -0.18433847 0.3544069 -0.08614003 -0.044085354 -0.15367854
-0.2710327 -0.239563 -0.1582318 -0.34990007 -0.06869903 0.06277199 0.031548627 0.023087937
-0.08360904 -0.17258409 -0.16392057 -0.15399863 0.12877712 -0.33707207 0.05880354 -0.16402775
0.060718115 -0.06487301 -0.1362379 -0.2978347 0.18190339 -0.20668723 -0.28545168 -0.25365806
-0.006833202 -0.36860034 0.018362371 0.029895501 -0.0688722 0.020932576 -0.061138254 0.0017236073
-0.16405867 -0.008564238 -0.14680788 -0.21972008 0.15546297 -0.23768337 -0.38351345 0.06524197
-0.14653856 -0.014942564 -0.16681576 -0.023641445 0.044146903 -0.042361464 0.03128004 0.001134778
-0.082846954 0.122494474 0.08244829 -0.09664111 0.052819755 -0.15343206 -0.2003696 -0.017764436
0.0015602268 -0.0772134 0.006058502 -0.1523432 -0.018126186 -0.10823175 -0.12532155 0.058045816
-0.11695676 0.019250365 0.015933117 0.060028587 -0.17096166 0.028997993 0.08809278 -0.115701266
0.043950483 -0.25771233 -0.123671 0.026169384 -0.09871749 0.15185945 -0.14980157 -0.15114887
0.12699495 -0.14805189 -0.10913899 -0.2504767 0.094458334 -0.11387122 -0.020747794 0.098432265
-0.15844792 0.049068253 0.05019224 0.17673564 0.007967066 0.07775208 -0.033740953 -0.36679116
0.035273567 -0.07545187 0.24457929 -0.3752729 0.06300684 0.025395423 -0.19351989 -0.09826783
-0.1966601 -0.25174195 -0.23635481 -0.015471277 -0.3387005 0.16961463 -0.09875377 0.17209792
-0.18072611 0.09507188 -0.22834125 0.23333843 0.09440247 -0.08023067 0.28643435 -0.31365854
-0.0740518 0.16021316 -0.021408632 -0.015495902 -0.29778132 -0.07533417 -0.2966577 0.027457794
-0.14363395 0.035600975 -0.16532712 0.006416825 -0.073854424 -0.048167683 -0.047073435 0.0979001
0.05024244 -0.57541883 -0.42046115 -0.001926873 -0.0001816741 0.25623712 0.04216104 0.03922385
0.04009142 -0.00095921295 0.16935574 0.024933144 -0.12679838 -0.13900667 -0.22567315 0.02282243
-0.6168031 -0.5148511 0.03288822 -0.3165314 -0.07218958 -0.20859888 -0.5140342 0.027349317
-0.06303564 -0.03475189 -0.021539215 0.007953955 0.2853673 0.501601 -0.133538 0.12677981
-0.5882081 -0.25719896 -0.016326837 0.08672588 -0.2750152 0.15326579 0.091363885 -0.07806635
0.048416253 -0.46929887 -0.048987765 -0.12483634 -0.1305383 0.00031925217 0.101187006 -0.25406012
-0.12274919 -0.43022165 -0.09932233 0.103670835 -0.010922734 0.24635889 -0.032404404 0.092007525
0.19621114 -0.03831448 -0.3814028 0.10747908 0.12961613 -0.122839496 0.029705118 -0.019297866
0.05723182 0.08825132 -0.036503468 -0.03726093 0.06151122 -0.31160602 0.17847839 0.12817915
-0.008584666 -0.28913772 -0.33436942 -0.20927215 -0.18938021 0.16084781 0.18879344 -0.018375462

net.2.bias f4 [64]
00000000: 960e 1e3e bf42 e43d 9140 033e 6c15 d2bd
00000010: ec9d f8bd e878 a3bd 2b3a 063e 88c3 edbd
00000020: 5639 f83d 50e9 5d3c dbe5 83bd 26b7 6d3e
00000030: 7ac1 163e bbe8 eabd 1c3b dbbc 01c2 f93d
00000040: c1a6 59be 05d5 32be a063 98bd c306 f7bc
00000050: 3f8c 723e cd70 20be b5b7 46be df4a 963d
00000060: 474c cf3b e7da ccbd 421f 86bd 9522 92bd
00000070: 2b9a 083b a95b 883d af83 92bd be16 443d
00000080: 7e02 0bbe fe5f af3d 74f5 05be fcb2 f03d
00000090: d1ca 1cbe dc8c b2bd f703 31bc 0611 b23d
000000a0: 5f2f 243d afa2 103d dd37 173c 9452 2b3c
000000b0: ed6d 94bd 5838 773c 7bac e3bd fe46 213e
000000c0: 559b f13d ab1c 3c3e 7452 c9bc 6027 afbd
000000d0: 7262 9abe 6d35 b13d 8e84 393e 6aa4 1bbe
000000e0: b94c 8ebd eec7 673e 970e 09be a17f f5bb
000000f0: 0a2f f5bb 4da2 1abc d4c2 243e ca0c 253e
0.15435252 0.11145543 0.12817599 -0.10257992 -0.12139496 -0.079820454 0.13108127 -0.1160956
0.12120311 0.013544396 -0.06440326 0.23214397 0.14722243 -0.11470171 -0.026761584 0.121952064
-0.21255018 -0.17464073 -0.07440877 -0.030154591 0.23686312 -0.1566803 -0.19406016 0.07338499
0.0063262316 -0.1000269 -0.06548931 -0.07135502 0.0020843844 0.06658108 -0.07154023 0.04787325
-0.1357517 0.08563231 -0.13081914 0.117528886 -0.15311743 -0.08718273 -0.010804168 0.08694653
0.04008424 0.035311397 0.009229627 0.0104567 -0.07247529 0.015089117 -0.111168824 0.15749738
0.11797205 0.18370311 -0.02457545 -0.08552432 -0.30153233 0.08652768 0.18116972 -0.15199438
-0.069482274 0.22634861 -0.13384472 -0.007492021 -0.007482414 -0.00943811 0.16089946 0.1611816

net.4.weight f4 [64, 64]
00000000: c88d debc 0f6d b8bd 8cd4 a03d 9652 633d
00000010: 2a7e e63d f57a 6dbe d6a9 193a 5080 16be
00000020: 3146 f53d 0c03 39bc 54c1 1abe eff7 84be
00000030: 42b6 13bd 0276 493e 5525 34be 4eeb 82bb
00000040: 4a50 70bb a5f8 adbc a76b 8fbc 0541 273e
00000050: bb9f 093e 574c 7dbe 9c45 163c f04e 14be
00000060: 81a0 893e 2a9b b2bb 1d34 643c ba32 053d
00000070: ee49 6fbe 4295 f0bd 56e5 0b3e 78cd 9bbe
00000080: cd2a 6ebd e2f9 d5bd b5a4 853e b6bc 9abe
00000090: 89f8 2ebe 58bc 92bd 1d8f b83d 3af1 31be
000000a0: ca41 773d 2e02 b2be 142a 15be 41be 823e
000000b0: f2ad a0be 5b4f b4bd cb59 da3e 9478 94bc
000000c0: 0313 653e 55cf 233e b9fd b13e f6ed 70be
000000d0: f605 3cbc 9572 a4be de06 0cbe 3361 94bd
000000e0: 3cc8 b43d f2bb 4b3e a224 65bd d09f 333e
000000f0: a6dc 3ebe e4a6 a73d 565d 05be 83ea 54bd
00000100: 9593 433c 92b5 9abd dee1 31be 683f 8ebc
00000110: 0fe0 723d e67b 79be 154c b83d f199 adb8
00000120: 2605 d8bd 73fd 73be 6eb2 7bbe fb9f 72be
00000130: 7fb9 8ebd 0496 e7bd e983 2f3e b4b6 01bc
00000140: 10d4 f63d 5319 af3d 97d0 7d3c dad0 07be
00000150: d92c 83bd 1510 f2bd 4665 a6bd d088 033e
00000160: 2d6b 613b e740 113d 3a63 bcbd 449b c63c
00000170: d898 98bb ef7b cabd a170 0a3e 3b7e 743c
00000180: 8566 d2bd 9144 21be 8a8d 8dbc c8ed 7a3d
00000190: f8f3 72bc 49be 0ebe e2ad 11be af91 c2bc
000001a0: 71f1 5dbe f6a7 85bd e5ad 073c fa6e 40be
000001b0: b9a6 1cbe 3eb2 6cbd fa0f 56be 1bc0 9a3c
000001c0: 6c99 9d3d a837 86be cc6c eabd 1fa7 a3bd
000001d0: 21c3 9e3d 6168 1a3e 694c 09be 6fcf 4f3c
000001e0: 4001 5dbd 16f0 c2bd 3684 49bd 5475 323e
000001f0: cc4a c2bc 10e8 dbbc 0516 e2bd 5248 fdbc
00000200: c3cf 633d 2e2e 46bd d367 5cbd ddde f33c
00000210: 3184 afbd 6bc4 19bd c61e c2bd 962d b9bd
00000220: 49e4 a83c 0909 b73c a2d4 183d e0cc 643c
00000230: 683d aebc 587e e93c 5af2 383c 6fa2 26be
00000240: 8bc7 eabd 6987 12bd 8769 2fbe 5a29 863d
00000250: d28d ae3d 32ff 293d cc72 2c3c 748f 2e3c
00000260: 8a60 ff3c ef9b 38bb 1592 c13b fc28 07be
00000270: 4950 afbc 2768 cc3d 087c cf3c 53c1 0a3c
00000280: 4ced b23c f544 c838 fe4f 233d 826e a13c
00000290: d241 69bd 0e20 9dbc 8dd6 9ebc da81 98bc
000002a0: 69d2 12be 9083 ce3b b7e1 8abd 188c 07bc
000002b0: 78cd 473d 0404 df3d 1a0b 2d3d 7aa7 88bd
000002c0: 8ff7 fdbb d8b3 a43d 36f3 0fba eaf3 1e3e
000002d0: e3fd 4e3d ca2f f83c 3c8a 02be 777a 0a3e
000002e0: 2462 973d 3313 12bd ba9e 363e 9124 823d
000002f0: 882b eebd c1b6 1ebe b165 3dbd d9d8 dcbb
00000300: 7dcb 58be 0938 853d cbc9 66bc be4b 1f3e
00000310: 375e e6bd 8851 f43b 77f9 40bd 031d d33d
00000320: ad55 2c3c 4b5f 1d3c e045 adbd 425e 21bc
00000330: f2d1 68bb 443b ae3d d056 803e 504d b43c
00000340: 98ab 743d 69ba 03bd b675 273e 33ac 02bd
00000350: 35aa f93d bf75 3cbe 2e7b 85be 6863 323e
00000360: 5ae7 463d 71fc 1a3c 84e2 003d e8f5 083d
00000370: b62c 9cbd 68c0 543d cda1 20bd 6aae 513d
00000380: a696 503c 97de d03c 8ab4 033d 3e7c 19be
00000390: f7ee 81bb a55b 8c3d 109e f63b 4b1c 14bd
000003a0: 6364 fa3d 659e 4d3e b223 133e bb44 84bd
000003b0: 63ed f0bd 86fe a93e b117 28be e0a8 753e
000003c0: 3589 433e 9c33 74bd 1d45 16be 9d74 3d3d
000003d0: 02e8 a63d fb7b e4bd 9c29 1f3e dfcb 60be
000003e0: 1b71 cebd 345e 60bd 6520 4d3d 9b4d d13d
000003f0: 6548 cd3d 1e57 fe3d 073c e23c 0c34 923c
-0.027167216 -0.09005176 0.0785304 0.055498682 0.11254533 -0.23191436 0.00058617943 -0.14697385
0.119762786 -0.01129223 -0.15112811 -0.25970408 -0.036062486 0.19673923 -0.17592366 -0.0039953357
-0.003666895 -0.021236727 -0.017507387 0.16333397 0.13439839 -0.24736153 0.00917187 -0.14483237
0.26880267 -0.005450626 0.01392844 0.03251908 -0.23368046 -0.11747219 0.13661703 -0.30430198
-0.058146287 -0.10448052 0.26102224 -0.302221 -0.17086996 -0.0716483 0.09011672 -0.17377177
0.060365476 -0.34767288 -0.14566833 0.25535777 -0.3138271 -0.08804198 0.42646632 -0.018123902
0.22370534 0.1599706 0.34763888 -0.23528275 -0.011476031 -0.3211867 -0.13674495 -0.07245102
0.08827254 0.19895914 -0.05594314 0.17541432 -0.18638858 0.08186129 -0.13023886 -0.05198146
0.011937042 -0.07554163 -0.17371318 -0.017364219 0.05929571 -0.2436367 0.089988865 -8.277957e-05
-0.10547857 -0.23827152 -0.24579784 -0.2369384 -0.06968974 -0.1130791 0.17140163 -0.007917095
0.120521665 0.08549752 0.015491626 -0.13263264 -0.064050384 -0.11819474 -0.08124785 0.12845159
0.0034396157 0.035462286 -0.091986135 0.024243958 -0.0046568923 -0.0988692 0.13519527 0.014922674
-0.1027346 -0.15748812 -0.017279405 0.061261922 -0.0148286745 -0.13939776 -0.14226487 -0.023751108
-0.21674134 -0.06526177 0.008281206 -0.18792334 -0.15297975 -0.057787172 -0.20904532 0.018890431
0.076952785 -0.26214337 -0.114465326 -0.0799086 0.07752062 0.1507888 -0.13408054 0.012683733
-0.05395627 -0.09518449 -0.04919835 0.1742757 -0.023717307 -0.026844054 -0.11039356 -0.030918274
0.05561806 -0.048383884 -0.053809952 0.029769355 -0.085701354 -0.037540834 -0.09478526 -0.09041898
0.020616667 0.022343175 0.037312157 0.013964862 -0.021269515 0.028502628 0.01128825 -0.16272901
-0.11463841 -0.03577367 -0.17130099 0.06550856 0.08523144 0.04150314 0.010525417 0.010654319
0.031173963 -0.0028169116 0.005907307 -0.13199228 -0.021400588 0.09980803 0.025327697 0.008468944
0.021841668 9.5495874e-05 0.03987121 0.019706015 -0.056947537 -0.019180324 -0.019389415 -0.018616606
-0.14338078 0.0063023046 -0.06781333 -0.008273147 0.048779935 0.10889438 0.042246915 -0.066725686
-0.0077504585 0.08042115 -0.00054912583 0.15522733 0.050535094 0.030296225 -0.12748045 0.13523279
0.07391766 -0.03566284 0.17833987 0.06354631 -0.11629397 -0.15499403 -0.04623956 -0.0067397174
-0.21171375 0.065048285 -0.014086197 0.15556237 -0.11248439 0.0074560083 -0.04711291 0.10308268
0.010518474 0.009605239 -0.08460593 -0.009849133 -0.0035525528 0.08507398 0.25066233 0.022009522
0.059733957 -0.032160196 0.16353497 -0.031902503 0.121906675 -0.18404292 -0.2607054 0.17420733
0.048560478 0.009459601 0.031466022 0.03343764 -0.076257154 0.051941305 -0.039216805 0.051191725
0.01273123 0.025496764 0.032154597 -0.14988801 -0.0039652544 0.06853417 0.0075261667 -0.036159795
0.122261785 0.20079954 0.14369085 -0.06458422 -0.11764028 0.33201998 -0.16415288 0.23990202
0.19095309 -0.05961953 -0.14674802 0.04625379 0.08149721 -0.1115646 0.15543216 -0.2195277
-0.10080167 -0.05477734 0.050079722 0.1021988 0.10023574 0.1241896 0.027616514 0.017847084

net.4.bias f4 [64]
00000000: cc70 36bd 06eb 87bd 9fce 1cbe faac 633e
00000010: 2d1f e3bd 288e 4abd 86c2 71be 8f83 353e
00000020: 12b7 a1bd e378 963d 55d9 4d3e 87db 953d
00000030: eb21 b53c ce9c 253e fb33 683e f2a2 5c3e
00000040: 102f 143d 4565 a4be 5b1e 353e 1ba6 3b3e
00000050: 8368 02bd 08fc abbe 056e 72be 5004 6d3e
00000060: b600 633d 8f7d 4abd 0929 4d3e 5ab8 be3d
00000070: 565a 9ebe f8ce 1cbe 181a 273e 2aca 193e
00000080: fa57 313e 6279 183e 2b1e df3d c95d 8cbe
00000090: 4417 6b3d ae86 c23d 3d64 443e 3e90 7d3d
000000a0: 46f2 013e e923 263e 4420 0d3e b80a f2bd
000000b0: 6877 9bbe d167 a03d 24e6 573d 5d4f 273e
000000c0: 3cb4 66be b8b4 363e c3ff 903d 6f76 0d3e
000000d0: 168f 36be d1f6 4abe 9aad 61be de1f eabd
000000e0: e7f9 213e 2662 61be bb45 433d c212 203e
000000f0: 6a49 863d f052 0cbe cd0b debd 8ff3 71bc
-0.044541165 -0.06636624 -0.15313195 0.22233954 -0.11089931 -0.049451977 -0.23609361 0.17725967
-0.07896246 0.07347276 0.20102437 0.07317262 0.0221109 0.16173097 0.22676079 0.21546534
0.036177695 -0.32108513 0.17687361 0.18325083 -0.03183795 -0.33590722 -0.23674782 0.23146176
0.0554206 -0.04943615 0.20035185 0.09312506 -0.30928296 -0.15313327 0.16318548 0.15018526
0.17318717 0.14890054 0.10894426 -0.27415302 0.057395235 0.09498344 0.19178863 0.06190514
0.12690076 0.16224636 0.1378184 -0.11818451 -0.30364537 0.078323014 0.052709714 0.16338868
-0.22529691 0.17842376 0.07080033 0.1381471 -0.1782802 -0.19820715 -0.2203888 -0.114318594
0.15817986 -0.22010097 0.047673922 0.15632156 0.06556971 -0.13703513 -0.108420946 -0.014767542

net.6.weight f4 [1, 64]
00000000: aeff 8b3e 951b 8e3d c7c2 74bc 6148 f33c
00000010: 86e2 d1be 41f9 acbe 6169 17bd b2cc 3a3e
00000020: 1985 f2ba d144 a63e 1485 a2be 1425 d73d
00000030: a73a e13d 1a6b 0b3e e4de 813e 092f 9e3d
00000040: 2a44 35be e3cf 2dbe aaca 723e 0845 4e3e
00000050: 1616 823e 0b3e 91bd 3ab6 a5be 1f07 1e3e
00000060: b979 813e 8891 8dbb 3c90 cabe 8e88 953d
00000070: 6801 36be a8fa 74be 19a1 233e 9c20 083e
00000080: 6c4a b5be c57e 0b3e cbc5 953e 3e42 9dbd
00000090: 346d 6f3d c0a6 e33d 509b 51be f4c3 123d
000000a0: b3db e53e ead0 d33d b946 5c3e 76a8 63bd
000000b0: 5ca2 f6bc 5ac4 eb3d 15ff 843e 99c4 563e
000000c0: a46b e1bd e2a2 1cbf f690 143e e37d b3be
000000d0: d378 66bd 40b8 f13e e2ff 39be 8188 02bc
000000e0: 0001 b23d 7d6c 20be 6955 37be 9e8a 7c3e
000000f0: 65b4 d03d 6774 32be bb7d bdbe 57bc b43e
0.27343506 0.069388546 -0.014939017 0.029697599 -0.40993136 -0.33783916 -0.03696573 0.18242148
-0.0018502801 0.32474378 -0.31742156 0.10505119 0.10997515 0.13615075 0.25365365 0.07723815
-0.17701784 -0.16973834 0.23710123 0.20143521 0.25407475 -0.07091912 -0.3236559 0.15432404
0.2528818 -0.004320327 -0.39563167 0.07301436 -0.17773974 -0.23923743 0.15979423 0.1329369
-0.35408342 0.13622577 0.29252467 -0.0767865 0.058453754 0.111157894 -0.20469403 0.035831407
0.4489418 0.103425816 0.21511354 -0.05558058 -0.030106716 0.115120605 0.25975862 0.20973434
-0.11006859 -0.6118604 0.14508423 -0.3505698 -0.05626757 0.47210884 -0.18164018 -0.007967115
0.08691597 -0.15666385 -0.17903675 0.24662253 0.101906575 -0.17427216 -0.37009987 0.35299942
