wine_iterative/wine_models/80_train/gaussian_combined_final_model.pt (torch, 41217 bytes, 7 tensors)

net.0.weight f4 [64, 13]
00000000: 7cbf a23c c904 b0be c2f4 6f3e ab98 b7be
00000010: ddf1 e0bd 4279 d13a 0edf c93d 5af2 053e
00000020: a19d 35bd 83bc 703e af71 423e 7687 e4be
00000030: 2dc4 60be 664b d63e 7997 4d3d ca26 b43d
00000040: ca5a 9c3e c2ea 50be 6950 4b3e 6a61 9f3d
00000050: b96a 52be 4f1f debd 8289 2ebd 0866 d4bd
00000060: 238c 8d3d 5eb1 d73d e03e 06be d6c1 673e
00000070: e48e 99bd f726 3d3c b4e9 7a3e 1f39 3c3e
00000080: 3994 d9be 60c7 353d d611 91be 4512 e2bd
00000090: 88fd 98be 95f8 3ebd 8a9a b23e cec7 28be
000000a0: 19cf c63d d1de babe 85f3 8d3e 0e7f 91be
000000b0: ca8c babe bd6e e13e 845c 91be 5156 9b3e
000000c0: 976d 25bd 860a 153e 0dba 6f3d 976a ae3e
000000d0: 0efa f1bd e66d 33bc db5e 383d 50a0 b93e
000000e0: 3484 cc3d 3cf1 65be d01d 983e 46ac 26be
000000f0: 773c 1abc 9f88 c8bb 09b7 063e 0630 133c
00000100: 7bf3 153e 07b8 b23e c36c f3bc 1f73 043e
00000110: e923 f33c d375 dcbd 27e3 00bf 4517 36be
00000120: 6d72 3bbe 27b4 09be 087e 9ebe b5f4 693e
00000130: 0cf6 5b3e 30a2 a23e a846 de3c 884f 163e
00000140: 4f5b cc3d fb38 b2be c8c8 863e 0c76 cf3d
00000150: ca50 bbbd ba22 ca3d 5f3a 21be 3a6f a0be
00000160: b102 13bd 8a3d 04be a602 5c3d 4db0 8d3e
00000170: 148d 81be 8a21 243e 2127 2c3e a1a6 86bc
00000180: bb1c c6bd e2d3 c1bd 1b86 8fbe d598 aebd
00000190: 299a 893e 2a0b b73d 4299 883e e478 663c
000001a0: 96f4 363d 7ac7 793e 4ddc b43e 4b81 82be
000001b0: 6e69 d4bd c567 843e a637 883d 2f7d 8f3e
000001c0: 75fa 83be 78e0 0dbf 461c 5c3e 01af b5bd
000001d0: 9c8c db3d 8657 ea3d 6407 1a3d a05c ac3e
000001e0: 8be4 bf3d c492 fa3d d41b 9a3d f279 183d
000001f0: f6c8 44be 4d44 8b3e aa63 94bd 1d65 a5be
00000200: c218 553e 9ab0 b13e 381e c83e 5f8a d33d
00000210: 0eea 843e 8b49 9dbe 6b41 623d 0813 853e
00000220: 6515 3cbe fa7b b43e 7523 373e aa17 313e
00000230: db5a 88be e036 37be f5a9 abbe b388 3c3e
00000240: b5ef ffbd e275 c03d 0e1c 5f3e bbe4 c7be
00000250: 4531 92be 9653 85bd d5ad a23c 4764 853e
00000260: 170a c83e 7cb3 be3e 0dd7 74bc e4c7 41be
00000270: 54c7 423e 10e4 093e 665a 913e 7332 8fbe
00000280: 1192 9abe 2dbc 27be e9b6 063d 4691 593e
00000290: 1da6 953e bb68 a0be c9c2 9cbe cf70 ac3e
000002a0: 1cc0 913e 9aa0 583e c302 e43d 6190 773e
000002b0: 6fd5 25be 5ac2 833d 32c4 91bc 613e 623e
000002c0: 1e43 9abd a08e 12bf 75e7 c0bd eb0a dcbc
000002d0: c39f 2a3e 86cd b1be 5fa7 143e 863e 9e3e
000002e0: 293a 77bd 6fbe bc3e 9905 c33d 95c7 e9bd
000002f0: d342 f3bc 51b7 a13d ccf1 1dbd a2dc 2a3e
00000300: cd09 373e 1ca7 0bbe d7f2 383d 134a 63be
00000310: d1a6 26bd 3411 173e c199 8fbe 8ce6 c83e
00000320: e927 833e cb4d 913e bbed df3e ba4b 6a3e
00000330: da83 ea3d 1cfb dfbd b23a e7bd 5ac8 f83d
00000340: 6777 67be ce9a a4be 6abe 323e 1a5e 843e
00000350: df47 89bd 7e8a 9fbd 60d2 2a3e 1b5e cebe
00000360: 9d83 f9bc e072 00bd 7936 48be 47f8 51be
00000370: 727a a438 1033 4e3e a456 b0bd ee34 d9bd
00000380: c235 893e 8d6d a3be 7d14 bb3d 3e5b debd
00000390: ccf8 8bbe 3cbd 6b3e f2a7 cd3d 777e 9bbe
000003a0: 4300 b8be e91b 623e 7d42 14bb 0a29 60be
000003b0: 3945 0bbe 0350 ccbd e590 963e 96a0 623e
000003c0: 1b06 633d 8250 573c e515 543e eb7b a9bd
000003d0: 16ed 84bd 895b 883d 033b c03e c268 c8be
000003e0: 17ff 3abe 3cbf 24bd 46e2 aa3e 2e6a 2d3d
000003f0: 37e7 8a3e 3b64 b1be a5b5 103e b7bb e03e
0.019866697 -0.3437865 0.23433211 -0.35858664 -0.10983632 0.0015981572 0.098569974 0.13080731
-0.04433978 0.23509412 0.1898868 -0.44634598 -0.21949835 0.418544 0.050193284 0.08796461
0.30538017 -0.20402053 0.19854893 0.07782252 -0.20548524 -0.108458154 -0.042611606 -0.103710234
0.069114946 0.10531877 -0.13109922 0.22632536 -0.07497957 0.0115449345 0.24503213 0.18381165
-0.42495897 0.044379592 -0.2833392 -0.11038641 -0.2988093 -0.046623785 0.3488353 -0.1648247
0.097074695 -0.3649812 0.27724853 -0.28417248 -0.3643554 0.440298 -0.28390896 0.30339292
-0.040387716 0.14554796 0.05852704 0.34065697 -0.11815272 -0.010951495 0.045012336 0.3625512
0.09986153 -0.22455305 0.29710245 -0.16276655 -0.00941383 -0.006119802 0.1315576 0.008983618
0.14643662 0.34906027 -0.029714948 0.1293454 0.02968021 -0.10764661 -0.50346607 -0.17782314
-0.18305369 -0.13447629 -0.3095553 0.22847255 0.21480578 0.31764364 0.0271333 0.14678776
0.09978353 -0.34809098 0.2632506 0.101299375 -0.09146269 0.09869905 -0.15744923 -0.3133486
-0.03589124 -0.129141 0.053713463 0.2767357 -0.25302947 0.16028419 0.16811801 -0.016436877
-0.09673449 -0.094642416 -0.28032002 -0.08525244 0.26875427 0.08937676 0.26679426 0.0140669085
0.04466685 0.243925 0.35324326 -0.25489268 -0.103716716 0.2586042 0.06651239 0.28025195
-0.2577702 -0.5542064 0.2149516 -0.0887127 0.107201785 0.11442475 0.037604704 0.33664417
0.09369763 0.122350246 0.07524839 0.03722567 -0.19217286 0.27200547 -0.07245572 -0.32303706
0.20810226 0.3470505 0.39085555 0.103291266 0.2595982 -0.3072017 0.05523817 0.25991082
-0.18367536 0.35250837 0.1788462 0.17294183 -0.26631817 -0.17892027 -0.33528104 0.18411522
-0.12496892 0.09397484 0.21788046 -0.39041695 -0.28553215 -0.065100834 0.01985828 0.26053068
0.39070198 0.3724631 -0.01494385 -0.18923908 0.1902135 0.13465905 0.2838928 -0.27968177
-0.30189565 -0.16380377 0.03288928 0.21246824 0.29228297 -0.31329903 -0.3061736 0.33679816
0.2846688 0.21155015 0.11133339 0.2417617 -0.161947 0.06433554 -0.017793749 0.22094108
-0.07532333 -0.5724888 -0.09419147 -0.026860675 0.16662507 -0.34727114 0.14516972 0.30907077
-0.0603582 0.3686404 0.09522552 -0.114150204 -0.02969495 0.07896293 -0.038560674 0.16685727
0.17874832 -0.13637966 0.045153465 -0.22196226 -0.040686432 0.14752656 -0.28046992 0.39238393
0.25616387 0.28379664 0.4373606 0.2288045 0.1145093 -0.10936567 -0.11290492 0.12147589
-0.22604142 -0.32149357 0.1745545 0.25853044 -0.067031614 -0.07790087 0.16681814 -0.40306172
-0.030458266 -0.031359553 -0.1955203 -0.20504867 7.8429366e-05 0.20136666 -0.086102754 -0.10605799
0.26798826 -0.31919518 0.09134767 -0.10857247 -0.27338254 0.23021406 0.10041799 -0.30369923
-0.359377 0.2208096 -0.0022622638 -0.21890655 -0.13600625 -0.099761985 0.2940742 0.22131571
0.055425745 0.013141753 0.20711477 -0.082755886 -0.06490533 0.06658084 0.37545022 -0.39142424
-0.18261372 -0.040221438 0.33375758 0.04233759 0.27129528 -0.34646782 0.14131792 0.43893215

net.0.bias f4 [64]
00000000: dad5 43be 64b1 35be 838c 2ebe b69c 813d
00000010: 63c1 cf3b d5fd a43c 04a6 933d 02b8 11be
00000020: c278 363e cbee bebd fd70 0cbe 5895 b6be
00000030: 8873 86bd 4309 d8bd bc38 86be 961d b8be
00000040: bd67 06be 1a9e 083d 3432 09be afb9 32be
00000050: b70c abbe b107 ebbd 8d92 ebbe a742 0fbe
00000060: e904 25be 9b59 823c 9396 073e 91eb 1dbd
00000070: 3937 6bbe 3a9c 02be 6667 50bd 4095 553e
00000080: 6e0a 4bbc 787f b6be 102b 08bd 3f7b 3abe
00000090: 338e 17be fa5c 58bc 90f9 4b3e bf0c 58be
000000a0: 9b13 6ebe 722f 8abe bd9b f73d 51bf 86be
000000b0: abf7 90bd 7f75 42be 700c bfbd 231c e33d
000000c0: 2cdb 893d 4b8a 95be 23bf 78be 3aa6 b8be
000000d0: db5a 0bbe e0e4 9fbe 132c e9bd 14cb 9dbc
000000e0: abf9 8839 c337 b4be 7557 21be 2085 e4be
000000f0: f404 7bbe c954 7fbe 2f59 5fbe a9c5 c93b
-0.19124547 -0.1774345 -0.17045788 0.06328718 0.006340192 0.020140568 0.07209399 -0.1423035
0.17819503 -0.0932289 -0.13714977 -0.35660815 -0.065650046 -0.105486415 -0.2621516 -0.35960072
-0.1312551 0.033353902 -0.13398057 -0.17453645 -0.33408138 -0.114760764 -0.46010247 -0.1399027
-0.16115154 0.015911868 0.13241033 -0.03855473 -0.22970285 -0.12754908 -0.05087986 0.20857716
-0.012392623 -0.35644126 -0.033244193 -0.18211077 -0.14800338 -0.013205761 0.1991942 -0.21098612
-0.23249666 -0.26989323 0.120902516 -0.26317838 -0.07078489 -0.18990134 -0.09328544 0.11089351
0.06731257 -0.29207072 -0.24291663 -0.3606432 -0.13608877 -0.31229305 -0.113853596 -0.019261874
0.00026125959 -0.35198793 -0.15756018 -0.44632816 -0.24513608 -0.24934687 -0.21811365 0.006157596

net.2.weight f4 [64, 64]
00000000: 36c3 e93c e998 d3bd 0e97 92bc f389 b9be
00000010: eebc 50be 8c4f a0bd cb2d 843d 3962 703e
00000020: 451d b9be 1102 e73d 0e1c 4e3d 04a7 213e
00000030: 9c88 bfbe 80ea fabd f9c4 aebc e998 023e
00000040: ceb1 dbbd 90a1 ecbd 757e 8e3d 76f4 11be
00000050: 5665 0dbe 8fcf 1bbe f60f 223e 1346 c73d
00000060: 7d12 86be 0bae c63d 9986 93bd a383 fe3d
00000070: 0185 20be dee0 2c3e bbd3 11bd 8bf1 d3bd
00000080: 4682 2dbd fd4a 80be e4df 063e c29e 193e
00000090: df7c f9bc a9ce 1cbd a6b1 4abe 1952 733e
000000a0: 0f66 93be 8bbc 973d d2ed e73d 8fb7 5cbe
000000b0: f3a8 02be 79b5 68be 5f27 963c 82ac 14be
000000c0: a00b 433d 54e5 f4bc d1df a1bd 1f84 db3d
000000d0: 9909 b43d f942 96be 8895 01be 4391 00bf
000000e0: ecb6 02be 867a c3bc 6162 d5bb dc46 d5ba
000000f0: 85c3 28bd 53b8 04bd 88ee 53be e1f4 bcbe
00000100: e3ea 8abe 92a7 d3bd a246 5d3d 0251 13be
00000110: efd7 ddbd e646 49bd d031 bebd b4fd 183e
00000120: d6c4 a73d e831 97bd 9dc2 bd3d 7851 06be
00000130: 0496 9fbc c792 08be 2d53 c13d f5d8 f7bd
00000140: 722e 38be 006c 183d ce31 57bd 4f4e 37bd
00000150: 7b01 fe3b 0479 bdbd bc0a babd 4a6a 263d
00000160: 5bc4 033c 1579 3c3d c1e3 6bbe 900b 6ebe
00000170: 8ad9 04be d189 0cbe c166 a13d 45f2 a2bd
00000180: 49cc 3bbe 47d5 f1bd 29bd 873c 7e6b 023c
00000190: 324a 0bbe 6e66 45bd 8835 01be bb0f 453d
000001a0: d18a 2b3d 77a2 773d e0aa b2bd 7aa1 673c
000001b0: 29c8 8cbd 08e5 9c3d 3944 28bc 0ecc 72bd
000001c0: 9d85 57be 13e0 5f3e f45c 953d 1c2d 88bd
000001d0: 114a 8f3c 81be 65be b14e 9cbd 5ef6 e83c
000001e0: cfeb 0fbe 7f75 8fbd 4f18 5d3c 5e89 803c
000001f0: 4b05 a63d c42a 77be 3666 243e cd36 ae3c
00000200: 456e 23bc ae3f 0c3e f8c7 2cbe dbc5 71ba
00000210: fc51 8a3d 734e 913d a18e 10be c402 623e
00000220: 0741 82be 62d2 99ba b4a1 8b3d 7a61 2b3e
00000230: 992f 893e 164f 53bd fb58 18bd a94b 19bd
00000240: 1edb cfbe 0e6f 39be f58f 0c3d afa4 dfbe
00000250: 8af5 9abe 54ba 16be a257 78be d852 9a3d
00000260: cab0 bd3e e353 6cbe a3af 9f3d 48ee a93c
00000270: 612f 89be d29e 313d a660 15be 5f92 95bd
00000280: f88c 943d 7b5e 77bd b091 4ebd d057 89be
00000290: 604c 80be 117c 03bc b8f2 94be 9d83 ffbd
000002a0: 2588 09be e00a 84bc d350 9fbc 42e8 cd3d
000002b0: 299b 413d 5908 47be be15 86bc 1fcb 813d
000002c0: c816 653c 6286 543d 6778 023e 4754 463e
000002d0: 65b6 70bd 74d8 56be 90e2 ba3c 1ea2 ebbc
000002e0: 9094 153e b113 d93e 5c6d 08bc 1f3f 9abe
000002f0: 3d7f 0a3e dffc 873d ac99 5cbe 5297 073c
00000300: 84c1 c5bb ec4d a1bd 371c 16bd 96e8 80bd
00000310: 5b1d 0cbe 496b dbbd 4f4c 953d cf21 d4bd
00000320: cb55 4b3e 5aba 5dbe 9720 e4bd 78be afbd
00000330: 306b 88be 45c4 83bd c7bd a3bd a8e2 0fbe
00000340: 29a5 a73d 8aec 0abe d3da 1bbe 8209 d1be
00000350: 5165 023d 3ec6 f13d 40c2 51bd 8274 84bd
00000360: f746 6a3e 4ace 1ebe 312f a03d 07ce 26bd
00000370: b700 1fbe 09c8 95be b677 cdbd 1c11 64be
00000380: 95d6 4fbe d33d 67bd f918 c5bd b660 91bc
00000390: 49d1 18be ca88 d5bd 52b0 523c e6e3 20be
000003a0: 4f82 a6bd a3cf c5bc c336 003d 832a f9bd
000003b0: 13eb a83c 13ed 0ebe 4c02 29be 0924 b1bd
000003c0: 4232 87bc e00e c8be ff7a b03d 4b7d 32bd
000003d0: d3c7 c2bd 4d4c 2fbe a545 40be b279 463e
000003e0: 8d1a 52be 0a06 9abe 08c4 c2be ae62 90bd
000003f0: f7a9 223d 91a8 79bb 983e 093e 2dad 133e
0.028535467 -0.103319 -0.017894294 -0.3623806 -0.20384571 -0.07827672 0.06454047 0.23474969
-0.36155143 0.11279691 0.050319724 0.15786368 -0.37408912 -0.122517586 -0.021334158 0.12753643
-0.10727273 -0.11554253 0.069577135 -0.1425341 -0.13808188 -0.15215896 0.15826401 0.097301625
-0.2618598 0.09701165 -0.07203407 0.124274515 -0.15675737 0.16882655 -0.035602313 -0.10348805
-0.042360567 -0.25057212 0.13171345 0.15001968 -0.030455051 -0.038283024 -0.1979433 0.23761787
-0.28788802 0.074090086 0.113246575 -0.21554397 -0.12759762 -0.22725476 0.01832932 -0.14518932
0.04761851 -0.029894508 -0.07904018 0.107185595 0.08790893 -0.2934797 -0.12654698 -0.5022165
-0.12765092 -0.023862135 -0.006511972 -0.0016271728 -0.041202087 -0.032402348 -0.20696461 -0.36905578
-0.2713233 -0.10334696 0.05402244 -0.14386371 -0.10832202 -0.04913988 -0.09286845 0.1494053
0.0819184 -0.07382566 0.09265635 -0.13117015 -0.019480713 -0.13337241 0.09439693 -0.12101928
-0.17986467 0.03721237 -0.05253773 -0.044752415 0.0077516413 -0.092515975 -0.09084079 0.04062871
0.00804242 0.04601391 -0.230361 -0.23246598 -0.1297361 -0.13724448 0.07880927 -0.079563655
-0.18339647 -0.118082576 0.01656969 0.007960198 -0.13602522 -0.048193388 -0.12618077 0.048110705
0.041880433 0.060457673 -0.08723998 0.01413762 -0.06874115 0.07660872 -0.010270172 -0.059276633
-0.21047063 0.21862821 0.0729312 -0.06649229 0.017491372 -0.22435953 -0.07632197 0.02843779
-0.14054798 -0.070048325 0.013494565 0.015690502 0.08106478 -0.24137408 0.16054615 0.021266365
-0.009975021 0.13696167 -0.16873157 -0.0009222903 0.067539185 0.07095041 -0.14116909 0.22071368
-0.25440237 -0.0011735673 0.06817952 0.16736403 0.26794127 -0.051589094 -0.037194233 -0.03742567
-0.4059686 -0.1810877 0.034316976 -0.4368033 -0.30265456 -0.14719516 -0.2425218 0.075353324
0.37048942 -0.23078875 0.07797172 0.020743504 -0.2679396 0.043364353 -0.1458765 -0.07303309
0.0725345 -0.060392838 -0.050431907 -0.26824808 -0.2505827 -0.008025185 -0.2909143 -0.12476275
-0.13430841 -0.016118467 -0.01944772 0.10054065 0.047267113 -0.19436778 -0.01636779 0.063375704
0.013982482 0.05188597 0.12741242 0.19368087 -0.058767695 -0.20981008 0.022813112 -0.028763827
0.14607453 0.42397836 -0.008326855 -0.30126283 0.135251 0.06640028 -0.21542996 0.008275824
-0.0060350318 -0.078761905 -0.036648 -0.06294362 -0.13683073 -0.107138224 0.07289945 -0.10358011
0.19856946 -0.21653119 -0.111390285 -0.08581251 -0.26644278 -0.0643392 -0.079951815 -0.14051306
0.08185799 -0.13566795 -0.15220194 -0.40827566 0.031834904 0.1180539 -0.05121064 -0.064675346
0.22878633 -0.1550838 0.07821501 -0.040723827 -0.15527616 -0.29254177 -0.10032599 -0.22272152
-0.202967 -0.056455445 -0.09623904 -0.01774631 -0.14923586 -0.10426481 0.012859421 -0.15711936
-0.08130323 -0.02414686 0.031302225 -0.121663116 0.020619905 -0.13957624 -0.16504782 -0.08649451
-0.016503457 -0.3907385 0.0861721 -0.04357652 -0.0951077 -0.1711895 -0.18776567 0.1938236
-0.20517941 -0.30082732 -0.38040185 -0.07050072 0.039712872 -0.0038094858 0.13402784 0.1442153

net.2.bias f4 [64]
00000000: 51ef 29be 19c7 0cbe ce9f 90bd e833 ffbd
00000010: 75b6 3e3d 449f ee3c 0307 92bd 1dbd 0c3e
00000020: 890b 993c a4e5 ccbd db32 3dbe 84b7 1f3e
00000030: 8ead 63bc fbdc 4b3d 17c5 2d3e a960 43bd
00000040: 0e5c 00be 2861 debd 6cba ffbd 3bb0 50be
00000050: ee25 523e 78b9 87be 14f7 4e3d a85f 233d
00000060: c443 fb3d b35c 27be c612 9abc 7143 75be
00000070: 613f 743c b92a 30bd d9ed bcbd 31ec a73d
00000080: dd27 0abe dee9 25be 2a2d babd e57e ddbd
00000090: 4493 d33c 070f ccbc 66bd 16be ef47 9b3e
000000a0: 7d64 53bd 353e b33d 2eeb dc3d 6e72 fbbd
000000b0: d921 5b3d 646a 94be eee8 ae3d 7174 6b3d
000000c0: d21f c83d c23e dc3b 1fda 4e3c 56bc c8bd
000000d0: 0cac 023e 5250 6d3e 646b 2bbe 0742 15be
000000e0: d580 12be b919 7f3d bd62 d9bd 6cbc 8d3e
000000f0: 303c d83d 7e9e 883d ebe4 67bd aeb2 113e
-0.16595198 -0.13747825 -0.0706173 -0.12461072 0.046560723 0.029128678 -0.07130244 0.13744016
0.018682258 -0.10004738 -0.18476431 0.1559735 -0.013896359 0.04977129 0.16969715 -0.047699604
-0.12535116 -0.10858375 -0.12486729 -0.20379727 0.20522282 -0.2650869 0.0505286 0.039886147
0.12268785 -0.16343956 -0.01880778 -0.23951508 0.014907689 -0.043009493 -0.09225053 0.08199347
-0.13491769 -0.16202495 -0.090906456 -0.10815219 0.025827058 -0.02490951 -0.14720687 0.30328318
-0.051609505 0.087520994 0.107870445 -0.12277685 0.053499077 -0.2898742 0.085405216 0.057484094
0.09771694 0.0067213485 0.012625246 -0.09801547 0.12760943 0.23175171 -0.16740185 -0.14575969
-0.14306958 0.06228039 -0.10614536 0.27682817 0.10558355 0.06670855 -0.056614798 0.14228317

net.4.weight f4 [64, 64]
00000000: 092f 0e3c aaf4 2dbe 7cd1 43be 9e82 15be
00000010: daf7 12be 13e3 d0bd 4b44 773c 5073 02be
00000020: a420 c53d e91c 1f3d 85c5 bb3c cb2d 1abd
00000030: a576 ea3c eb9f 98bd 013a d0bd 5f42 59be
00000040: 8118 f23c f6ac c6be 6d48 4cbd cf24 6a3e
00000050: 6060 9fbc f19b 963d 8a7f 27bd b382 3fbd
00000060: fca8 04bd 87e2 07bc a8ef 25be 36b6 2cbe
00000070: bc01 d5bd c7c8 6b3b 030e af3c 47c2 923d
00000080: b2c2 ad3c 20b4 ca3d f86a 5e3d e4ca bd3d
00000090: 30f0 1ebd 0710 d03d bad4 073e 6d60 d53c
000000a0: 3314 f33d b0c4 3dbe a609 61bc 5a85 343e
000000b0: 3672 e3bd 350f 69bd ec21 31be de29 103c
000000c0: bb67 1d3d cbf4 dd3d b1e2 a13c ea68 4dbd
000000d0: 43d6 8fbd b8c9 613b e8d5 5f3d 7f90 b13d
000000e0: fd97 14be f0b6 22be fd87 79be 5ed2 9fbe
000000f0: 6b07 353d e61e b2bd a636 0abe 8b3f b9be
00000100: cffc 7cbe c0ff 753d 0d60 9c3e e950 033e
00000110: 3d09 cabe 1cc2 d03c e865 433e 6b47 f5bd
00000120: bba9 41bf d99f 14be b962 b63d d9be c4bd
00000130: fe3c 2abe 6ac6 07bf 5655 5b3d a360 4d3e
00000140: aa79 50be 1c7a b43e c79b 073e 27be 5fbd
00000150: 00f3 b7be 25bc de3d 1590 ecbe 2a6b 6ebe
00000160: 31b8 0dbe b5da ee3d 269e 983e 7b2a 953d
00000170: 4f8e 0f3e d9eb f8be f4bd 9b3d 97b3 d5bd
00000180: 23f9 b8bd 8fc1 47be 10b1 e23d 535a 6f3d
00000190: f525 2d3e 73b9 fb3d ddc5 2bbe 1f3c 51be
000001a0: 62e6 6cbe 441e 13be 08ea 84be f52c 75be
000001b0: 27b9 23be 94c1 823e 5a5f a73d ee95 0ebe
000001c0: 8887 13be 9e0f 92bc 566c 14be f3f0 173e
000001d0: 721e baba c565 30be 9533 403e dfee 8d3d
000001e0: beb4 303e 2f87 693d 5693 813e d3f7 eebe
000001f0: 0189 12be bd7e bcbe 8377 26be 74ce d33e
00000200: bdc9 02be c6ca 343e 37e0 343e ef81 143e
00000210: a7da 963d 0c99 23be 06ee 4f3e 5d18 94bb
00000220: 3915 a23d dd43 3dbe 8fa8 f9be 2753 613d
00000230: c42b debd 131e b3bd 2b43 103e 4bd9 b13e
00000240: c0e2 04be c056 eb3e 8a39 89bd 8bf0 8fbe
00000250: 2231 31bc d9b0 f5bd 41ce 293e c19e a6bc
00000260: 0556 553e 4af7 06be 39b8 58be 36cd b6be
00000270: 09f6 173d 8fc8 163d d150 c0bd 12c0 11bd
00000280: 0aea 6e3e a78c a4be 10a5 74be 1909 013e
00000290: d81d ec3d 5950 81be bb8c a0be 1482 a03d
000002a0: 3360 e73b cb9f babd 6299 e53d fca2 ddbe
000002b0: d32a 293e bfc2 30be fc99 c73e 2496 10be
000002c0: 7b95 333c 69fd 68bc c63f c53d 2910 973d
000002d0: 25b5 9c3a e282 25bd ced0 aebe 3668 f73b
000002e0: 3dda 00be 783c 663e 22d5 983e 08a6 d63e
000002f0: 6a41 473e d824 843e a19b 2cbd bfe6 c13e
00000300: 163a 653e 8064 7bbd 3ae2 e9bd 8be6 b23c
00000310: d63d 183e 2cca 14be e9f3 903e 2dfb eb3d
00000320: 8e76 5d3e 7e17 59be 1086 08bf 7c0a 573d
00000330: b663 10bd b0b5 6fbc 8584 9dba cd58 78be
00000340: d96c bcbd 0962 cc3e 6d6e fcbd 6a36 89be
00000350: d063 9b3d 8381 adbd cea2 283e 682b 97bd
00000360: 6f80 e73d 1c53 193d d68b 1bbe e9e4 8cbe
00000370: 127a a9bd bca4 2a3e 3706 a9bd 96ff 82bd
00000380: 1a87 b2bc d853 c7be b720 a1be 320e 25bd
00000390: a3b1 013d 40cd e1be 0ec3 57be e30c 833d
000003a0: 54c2 3ebe 3a4a 4cbc 08c2 3a3b c4ec 02bf
000003b0: 03fc 5c3e 8512 c4be 0d8d 873e a036 15bd
000003c0: 946b 063e f7e9 1fbc 9db4 223e 8f12 4bbe
000003d0: b52d e43c b123 d5bc 552b b3be 440d 8b3d
000003e0: 6382 21be 2c76 1a3e 10c4 883e 6be6 d33e
000003f0: c71b 893d 17ae ac3e deb4 8bbc 81d8 a53e
0.008678206 -0.16987863 -0.1912288 -0.14600608 -0.1435236 -0.10199561 0.015091966 -0.127393
0.09625366 0.03884593 0.022921333 -0.037641328 0.028621027 -0.07452377 -0.10167313 -0.21216725
0.0295527 -0.38803834 -0.049873758 0.22865604 -0.019455135 0.07353962 -0.040893115 -0.046755504
-0.03238772 -0.008293754 -0.16204703 -0.16866383 -0.104007214 0.0035977827 0.021368986 0.07165962
0.021211002 0.09897637 0.054301232 0.09267214 -0.03880328 0.10159307 0.13264742 0.026046956
0.11869087 -0.18532062 -0.0137352105 0.17628995 -0.111057684 -0.05689927 -0.17298096 0.008799044
0.038429003 0.10837706 0.019761415 -0.050148882 -0.07023289 0.003445251 0.054647356 0.086701386
-0.14511104 -0.15890098 -0.24368282 -0.31215185 0.044196527 -0.086973 -0.13497409 -0.36181292
-0.24705814 0.060058355 0.3054203 0.12823834 -0.39460173 0.025483184 0.19081843 -0.119765125
-0.75649613 -0.14514102 0.089055486 -0.09606714 -0.16624829 -0.5303713 0.05354818 0.20056395
-0.20358911 0.35249412 0.13243018 -0.054624703 -0.35927582 0.108757295 -0.46203676 -0.23283067
-0.13839795 0.11662809 0.29808158 0.07283493 0.1401913 -0.48617437 0.0760459 -0.10434645
-0.09031894 -0.1950743 0.11068928 0.05843575 0.1690901 0.12291231 -0.16774698 -0.2043309
-0.23134759 -0.14367014 -0.25959802 -0.23942931 -0.15988599 0.25538313 0.08172484 -0.13924381
-0.1440717 -0.017829712 -0.14494452 0.14838009 -0.0014199747 -0.17226322 0.18769677 0.06930327
0.17256448 0.057013687 0.2530772 -0.4667345 -0.14310075 -0.36815444 -0.16256528 0.4136845
-0.1277227 0.17655477 0.17663656 0.1450269 0.073659234 -0.15976351 0.20305642 -0.004519506
0.07914204 -0.18482919 -0.48761413 0.05501094 -0.108481914 -0.087459706 0.14088123 0.34736094
-0.12977123 0.45964622 -0.06700428 -0.28113207 -0.010814937 -0.11996622 0.16582586 -0.020339372
0.20833595 -0.13180271 -0.21164025 -0.3570344 0.03709987 0.03681236 -0.093904145 -0.035583563
0.23331466 -0.3213856 -0.23891091 0.12601127 0.1152913 -0.25256613 -0.3135737 0.078373104
0.0070610284 -0.09112509 0.11210896 -0.4328841 0.16520242 -0.1726179 0.38984668 -0.14119774
0.010960932 -0.014220574 0.096313044 0.07376129 0.0011955841 -0.040408023 -0.3414368 0.0075502647
-0.12583251 0.22484004 0.29850107 0.41923547 0.19458547 0.2580936 -0.042140607 0.37871358
0.2238544 -0.06137514 -0.114201024 0.021838447 0.14867339 -0.14530247 0.2831109 0.11522517
0.21627256 -0.21200368 -0.53329563 0.052500233 -0.03525134 -0.01463072 -0.0012017643 -0.24252625
-0.092004485 0.39918545 -0.123257495 -0.26799327 0.07587397 -0.08471968 0.16468355 -0.07381326
0.11303794 0.037432775 -0.15190062 -0.27518395 -0.08275236 0.16664404 -0.082531385 -0.063964054
-0.021792937 -0.38931155 -0.31470272 -0.04029674 0.03166355 -0.44101906 -0.21070501 0.06398942
-0.18628818 -0.012468869 0.0028497 -0.51142526 0.2158051 -0.3829538 0.264748 -0.036429048
0.13126975 -0.009760371 0.15889211 -0.19831298 0.027853826 -0.026017996 -0.34993997 0.067896396
-0.15772395 0.15084141 0.26712084 0.41386732 0.06694751 0.3372657 -0.017054018 0.32391742

net.4.bias f4 [64]
00000000: 1179 96be 35ba bdbd 0dac bd3d 254c c33d
00000010: 3150 8cbd aeb7 1ebe aa6a eb3d 1525 68be
00000020: 60c8 fcbd da93 02bb 8133 d73d 8573 323e
00000030: 8bbb 653d 6e58 b63c 4c00 613e 33dd 6dbe
00000040: a3f0 bcbd fec9 503e 3b1e 143e e057 6b3e
00000050: 0836 a5bd b146 163e f96c db3d f1a0 edbd
00000060: 7d6c 7fbd d7b4 0a3e dfcc 1b3e b03f 8f3e
00000070: 6f81 073e fff7 71be 0b9d e03d 19ed 2bbe
00000080: eea4 8ebd 3e27 493d a6ba 5a3e cab7 8d3d
00000090: 7d0c b53d 7867 0bbe 6f35 023e 2049 15be
000000a0: a3b7 513e 589a 2abc ed21 2bbe 45b4 78be
000000b0: f013 dd3c d451 843d 3004 003e 99af fe3d
000000c0: 62d7 45be 3d20 343e f9a2 453e 4e7c 87be
000000d0: 206c 2abe b8bf 613e 5de6 4d3e c6ce 5abe
000000e0: d8bd 5bbe 1f96 7dbe e785 773e 413a 83be
000000f0: 5543 883d 8226 703c 1049 68bd e7f3 243e
-0.2938924 -0.09264032 0.09261332 0.09536008 -0.06851233 -0.15499756 0.11494954 -0.22670396
-0.12342906 -0.0019924552 0.105078705 0.1742688 0.056087058 0.022258963 0.2197277 -0.23228912
-0.09225585 0.20389554 0.14464657 0.2298274 -0.08066946 0.14675404 0.10714144 -0.11602963
-0.06235932 0.13545547 0.15214871 0.27978277 0.13232969 -0.23629759 0.109674536 -0.16789664
-0.069650516 0.04910969 0.21360263 0.069198206 0.088402726 -0.13613689 0.12715696 -0.14578676
0.20480208 -0.010412775 -0.1671216 -0.24287517 0.026987046 0.0646092 0.12501597 0.12435836
-0.19320443 0.17590423 0.1930045 -0.26462024 -0.16642809 0.22045791 0.20107408 -0.2136794
-0.21459138 -0.24764298 0.24172173 -0.25630382 0.066534676 0.0146576185 -0.056710303 0.16108666

net.6.weight f4 [1, 64]
00000000: 51b8 cdbd ba58 a53e 0b0a 163e 6390 003e
00000010: 51f9 843e 4f76 54be 8dcc 723e 1945 b4bc
00000020: 6b27 043e 8dd2 fb3d 45ca da3e 0279 c5be
00000030: 45ae 6ebe 1ba9 abbd afd0 383e 0547 c2bb
00000040: 38a0 363e cc88 583e 5f03 98be 61fd 623e
00000050: ecbb cabb 54b7 29be bd91 033e 47c1 0abe
00000060: b491 5ebe 38c4 7abe db91 253e 3689 983e
00000070: ee74 8dbe 87a0 19be ca8a bdbe 7596 bf3c
00000080: 2e64 9f3b f692 85be fa72 3e3e 9529 37be
00000090: a835 ef3d ca7b 45be 5ab2 e4be 73b5 56be
000000a0: 9776 5b3e 7e91 843d c023 973e 9b55 83bd
000000b0: 64e2 53be fc47 3b3e 7c33 123e ce95 533e
000000c0: 54fe efbe 8d06 91be e863 2c3e 3b56 2fbd
000000d0: fb7f c63e f1aa 4bbe b67d 6e3e 7ed1 4bbd
000000e0: 35ec 9cbe f961 a0bd eb22 733e 7c8d 17bd
000000f0: b38b df3d 4660 353e ac3d 7e3e 0680 b4be
-0.10044921 0.32294255 0.14652269 0.12555079 0.25971463 -0.20748256 0.23710842 -0.022005605
0.12905662 0.12296019 0.42732444 -0.38568884 -0.23308666 -0.08381864 0.18048356 -0.0059288763
0.17834556 0.21145934 -0.29690072 0.22166969 -0.006186953 -0.1657384 0.12848563 -0.13550292
-0.21735269 -0.24488914 0.1616892 0.29792184 -0.27628273 -0.15002643 -0.3701995 0.023387173
0.0048642373 -0.26088685 0.18598548 -0.17886956 0.11680156 -0.19285503 -0.4466732 -0.20967655
0.21431957 0.06473063 0.29519463 -0.06412812 -0.2069183 0.18289179 0.14277452 0.20662615
-0.46873724 -0.2832531 0.16834986 -0.042806845 0.38769516 -0.19889428 0.23290142 -0.049760334
-0.30648962 -0.07831187 0.23743789 -0.037000164 0.109153174 0.17712507 0.24828213 -0.35253924
