wine_iterative/wine_models/50_train/ctgan_combined_final_model.pt (torch, 41175 bytes, 7 tensors)

net.0.weight f4 [64, 13]
0	0x3e91891f	0.28424928
1	0x3d0fcc36	0.03510686
2	0x3e2d5eea	0.16930738
3	0xbe2bbcee	-0.1677129
4	0x3e19ee7c	0.15032381
5	0x3eb56085	0.354252
6	0x3dd5b46b	0.104348026
7	0x3c0511dd	0.008121935
8	0x3c302944	0.010752026
9	0x3beb1e2e	0.0071752286
10	0x3ebf06f6	0.37309998
11	0x3e3ccd98	0.18437803
12	0x3eaab6e1	0.3334265
13	0xbe701bfb	-0.23448174
14	0xbe8cf5b5	-0.2753121
15	0x397c3b5c	0.00024054706
16	0xbc7a1d3c	-0.015265759
17	0xbe9f17c0	-0.31072807
18	0x3eba7bb6	0.3642251
19	0x3e15b55a	0.14619961
20	0xbe05d111	-0.13068034
21	0x3e366c85	0.17814834
22	0xbed6815e	-0.41895574
23	0xbd168ba0	-0.03675425
24	0xbe0151a8	-0.12628806
25	0xbeaebe7b	-0.341297
26	0x3ecf252a	0.4045804
27	0xbe39c7c9	-0.18142618
28	0xbd85d294	-0.06534305
29	0xbea1e38e	-0.31618923
30	0x3e10d849	0.14145006
31	0x3e442658	0.19155252
32	0x3e6e068f	0.2324469
33	0xbe24af49	-0.16082491
34	0xbd390c6f	-0.045177873
35	0x3df1e5de	0.11811422
36	0x3e9ffabc	0.31245983
37	0x3dceb846	0.10093741
38	0x3ee19d11	0.44065145
39	0xbe0bb84d	-0.13644524
40	0x3e06bab2	0.13157156
41	0xbdb16634	-0.08662072
42	0xbd49a7af	-0.04923218
43	0xbbf343e3	-0.007423864
44	0xbd066692	-0.032812662
45	0xbe3ea38b	-0.18617074
46	0xbdf7b058	-0.12094182
47	0xbe06cbf1	-0.13163735
48	0x3db06ef3	0.08614912
49	0x3de7a547	0.11310821
50	0xbcd8bca6	-0.026457142
51	0x3e243e2f	0.16039346
52	0x3dead09d	0.11465571
53	0xbe0dd1f2	-0.13849619
54	0xbd517649	-0.051138196
55	0xbdea8c67	-0.11452561
56	0x3d2fa84d	0.042885114
57	0xbe4af5f4	-0.19820386
58	0x3e8e49df	0.27790734
59	0xbdf6cc8f	-0.12050735
60	0x3e00a8c9	0.12564386
61	0x3e3ba0c5	0.18323047
62	0xbe136307	-0.14393245
63	0xbde67b1d	-0.11253951
64	0x3e1a73a6	0.15083179
65	0xbe5884cc	-0.21144408
66	0x3cfcb4dd	0.030847961
67	0xbe45d66f	-0.19320081
68	0x3d87ca02	0.06630327
69	0x3e766e56	0.24065527
70	0x3e1dc79e	0.15408179
71	0x3dd446f9	0.103650995
72	0x3df5e30c	0.120061964
73	0x3c0d2946	0.008615797
74	0xbe4d01a5	-0.20020159
75	0x3e9eefa1	0.31042197
76	0xbe716b27	-0.23576032
77	0x3d963c24	0.0733569
78	0xbc017242	-0.007900776
79	0xbe1c0413	-0.15235929
80	0xbd3d2389	-0.046176467
81	0xbd94b4c8	-0.07261044
82	0x3e3b70c3	0.18304734
83	0x3bf3231b	0.0074199564
84	0xbc8cc09c	-0.017181687
85	0xbbb81d82	-0.005618752
86	0x3befef2e	0.0073222136
87	0x3cd42a53	0.025899088
88	0x3e06a3fd	0.13148494
89	0xbddcd7ea	-0.1078337
90	0xba91316c	-0.0011077351
91	0x3dc7b4e8	0.09751302
92	0x3e4beaa9	0.19913734
93	0xbdd06dd3	-0.10177197
94	0x3da90b7e	0.08254145
95	0xbd834d7b	-0.064112626
96	0x3e6aa974	0.22916204
97	0x3ea9d5be	0.33170885
98	0x3dcc7b16	0.09984414
99	0x3dd7400a	0.10510261
100	0x3d7e7400	0.062122345
101	0x3e29d8df	0.16586636
102	0xbe230c5b	-0.15922682
103	0xbc0349cf	-0.008013203
104	0xbce86a74	-0.028371073
105	0x3ce35b28	0.027753428
106	0x3d37c5d7	0.04486641
107	0x3dc7a9b2	0.09749164
108	0x3e4fc94a	0.2029163
109	0xbbb56755	-0.005536
110	0x3e0fd4fa	0.14046088
111	0xbdb57710	-0.088606
112	0xbe03deb0	-0.12877917
113	0xbe90ca18	-0.28279185
114	0x3e960a37	0.29304668
115	0x3e783b64	0.24241406
116	0xbdaab24c	-0.08334789
117	0xbe872a67	-0.26399538
118	0xbde483f5	-0.11157981
119	0x3c2e0e9d	0.010623601
120	0x3e29aa29	0.16568817
121	0x3cc31874	0.023815371
122	0x3cb64fb9	0.022254812
123	0x3dee2bc6	0.11629443
124	0x3d3decd9	0.046368454
125	0xbe281ad1	-0.1641648
126	0x3d737317	0.05943593
127	0x3d9b75e0	0.07590842
128	0xbdaea11c	-0.08526823
129	0x3cb56f33	0.02214775
130	0x3d425ffa	0.04745481
131	0x3d7475bc	0.059682593
132	0x3ce6c339	0.028169261
133	0xbcec812c	-0.028870188
134	0x3d2d1a65	0.0422615
135	0x3e18dffb	0.14929192
136	0x3e367d3e	0.17821214
137	0x3c38d9e2	0.011282416
138	0x3b5a9849	0.003335493
139	0x3da84927	0.08217078
140	0x3df23959	0.118273444
141	0xbd9bd09b	-0.07608148
142	0xbe1995c8	-0.14998543
143	0xbe313d96	-0.1730865
144	0xbec7df80	-0.39037704
145	0xbd3bd2df	-0.0458554
146	0xbd8153b9	-0.06314797
147	0x3c4ad2a6	0.012379324
148	0xbdd7203f	-0.10504197
149	0x3d1ecded	0.038770605
150	0x3e4158f9	0.18881597
151	0x3e344242	0.176034
152	0xbef3b328	-0.47597623
153	0x3ea4a85c	0.32159698
154	0x3e57c1a5	0.21069963
155	0xbec31317	-0.38100502
156	0xbe7badc4	-0.24578005
157	0x3c50d254	0.012745459
158	0xbd6673dd	-0.05626284
159	0xbe4a25ae	-0.19740936
160	0xbe8a206e	-0.26977867
161	0xbe81a9f5	-0.2532498
162	0x3e7da150	0.24768567
163	0x3d71a883	0.058998596
164	0x3e559f4f	0.20861553
165	0xbe911275	-0.28334394
166	0x3e015ebb	0.12633793
167	0x3ec17e1d	0.3779153
168	0xbe9433c1	-0.28945735
169	0xbece5cb0	-0.4030509
170	0xbb34b3e9	-0.0027573055
171	0xbd265694	-0.04060991
172	0xbe9fba41	-0.31196788
173	0xbe6e1dcb	-0.23253553
174	0xbe6373e6	-0.2221218
175	0xbd98ae38	-0.074551046
176	0xbe2987bd	-0.16555686
177	0x3e2ec3de	0.17066905
178	0x3cd4d40b	0.025980016
179	0x3cfe1ea9	0.03102048
180	0x3e2c97a1	0.16854717
181	0xbe8d2761	-0.27569106
182	0xbd8c1cca	-0.068414286
183	0x3d82ab78	0.06380361
184	0xbe3eb9e1	-0.18625595
185	0x3e455283	0.19269757
186	0x3db3f2f1	0.08786572
187	0xbda285c7	-0.07935672
188	0x3e6e2759	0.23257197
189	0xbd9ee23c	-0.077579945
190	0xbc1fc781	-0.009752155
191	0xbde19570	-0.11014831
192	0xbd341918	-0.043969244
193	0xbc3c52ac	-0.01149432
194	0x3d5e1f2f	0.054228958
195	0xbe90720b	-0.28212008
196	0x3c5750f3	0.013141858
197	0x3d8b6ca4	0.06807831
198	0xbda446c1	-0.08021308
199	0xbe01c442	-0.12672523
200	0x3e8d0d82	0.27549368
201	0xbd55f859	-0.052238796
202	0x3d8c09fc	0.06837842
203	0xbdd1fa20	-0.10252786
204	0xbe3ec582	-0.18630031
205	0xbe072d9d	-0.13200994
206	0xbe683163	-0.2267509
207	0x3a899bc9	0.0010498698
208	0x3a8788e4	0.0010340479
209	0xbe65787a	-0.2240924
210	0x3c701cd7	0.014655313
211	0xbdd135d6	-0.102153465
212	0x3c239e04	0.009986404
213	0x3edf07df	0.43560693
214	0x3e4ad5de	0.19808146
215	0xbe4ef48b	-0.20210473
216	0x3d462eb8	0.0483844
217	0xbd95e6a2	-0.0731938
218	0x3df71bec	0.120658726
219	0xbd49a70d	-0.049231578
220	0xbda27737	-0.07932895
221	0xbd1961dd	-0.037446845
222	0xbc83fd53	-0.016112005
223	0x3d6e78b3	0.058220576
224	0xbd737128	-0.059434086
225	0x3d4c20a6	0.049835823
226	0x3e04c5c2	0.12966064
227	0x3e8f56ff	0.2799606
228	0xbd4c544d	-0.049885083
229	0xbdc783de	-0.097419485
230	0x3c00dea6	0.0078655835
231	0xbdddd4f3	-0.108316325
232	0x3e867649	0.2626212
233	0xbc453980	-0.012037635
234	0xbe34e862	-0.17666772
235	0xbd869b2b	-0.06572565
236	0x3d947db2	0.07250537
237	0xbe51bed7	-0.20482956
238	0x3d110ae5	0.03541078
239	0xbd36a049	-0.044586454
240	0xbe3825ab	-0.17983119
241	0x3d3f761e	0.046743505
242	0x3e44c0be	0.1921415
243	0xbddac79c	-0.10682604
244	0xbe42e2a5	-0.1903177
245	0xbe62c0d7	-0.22143875
246	0xbd9115ac	-0.07084212
247	0xbe7492e8	-0.23884165
248	0x3d39f433	0.045398902
249	0xbe2ae244	-0.16687876
250	0xbd961982	-0.07329084
251	0xbd3565de	-0.0442866
252	0x3e3155cb	0.17317884
253	0x3d8f1b6e	0.06987654
254	0xbe4bd6a3	-0.19906096
255	0xbd877eea	-0.06616004

net.0.bias f4 [64]
0	0xbc0f7cd7	-0.0087577915
1	0xbe122528	-0.14271986
2	0xbe41f249	-0.1894008
3	0x3dc8be05	0.09801868
4	0x3ecc3b5c	0.39889038
5	0xbe4f5929	-0.20248856
6	0xbe7d91d7	-0.24762665
7	0xbdbe35cf	-0.09287607
8	0xbe83b160	-0.25721264
9	0xbe292dce	-0.1652138
10	0xbe40e020	-0.18835497
11	0xbde81f73	-0.113341235
12	0xbe1caaf7	-0.15299593
13	0xbe961713	-0.2931448
14	0xbe8e5760	-0.27801037
15	0x3c16ee0f	0.009212031
16	0x3e1fa5f3	0.15590648
17	0x3e5b8854	0.21438724
18	0x3e2bbfff	0.1677246
19	0xbdf47208	-0.11935812
20	0xbe8f8781	-0.2803307
21	0xbe8efc64	-0.27926934
22	0xbe36b3ec	-0.17842072
23	0xbe490288	-0.19629872
24	0x3deb3491	0.114846356
25	0x3c174c5c	0.009234514
26	0x3eb0a0cf	0.34497687
27	0x3db171e3	0.086643
28	0xbe1467b6	-0.14492688
29	0x3e7fa7ea	0.24966398
30	0xbe65de46	-0.22448072
31	0x3e8b8fbe	0.27258104
32	0x3d7faaae	0.062418632
33	0x3e866327	0.26247522
34	0x3eff7017	0.49890205
35	0xbebecc10	-0.37265062
36	0xbe6f891b	-0.23392145
37	0xbe2f312c	-0.17108601
38	0x3de4369c	0.111432284
39	0xbdf858dd	-0.12126324
40	0x3de117d1	0.10990871
41	0x3d4accee	0.049511842
42	0x3e0132cf	0.12617038
43	0x3ea4c851	0.3218408
44	0xbed78048	-0.42090058
45	0xbed0da45	-0.40791526
46	0x3df843e5	0.12122325
47	0xbe807bab	-0.2509435
48	0xbeae713f	-0.34070775
49	0xbddee799	-0.108840175
50	0xbdc2bd40	-0.09508753
51	0xbe9a5cee	-0.30149025
52	0xbe96dc34	-0.29464877
53	0xbe1ead45	-0.15495785
54	0xbc8e5e30	-0.017378896
55	0x3e729f12	0.23693493
56	0xbeb0aac3	-0.3450528
57	0xbe09b64b	-0.13448445
58	0xbe52c6cb	-0.20583646
59	0x3e81137d	0.2521018
60	0x3ef4a620	0.47782993
61	0x3c422973	0.011850703
62	0x3ed41e47	0.4142935
63	0xbe84efed	-0.259643

net.2.weight f4 [64, 64]
0	0xbcbebfe2	-0.023284856
1	0xbd2db2d3	-0.04240687
2	0xbe380b8c	-0.17973155
3	0xbd86df85	-0.06585602
4	0xbdf05afc	-0.11736104
5	0xbd6d5ee7	-0.057951834
6	0x3c1ff909	0.009763964
7	0xbda6f6b7	-0.08152526
8	0x3b68eb93	0.0035540804
9	0xbd980317	-0.07422464
10	0xbd0bc7f4	-0.034126237
11	0x3c4b051c	0.012391355
12	0xbde9604d	-0.11395321
13	0xbca2a834	-0.019855596
14	0x3ba527c8	0.0050401427
15	0xbdad7433	-0.08469429
16	0xbddc7584	-0.10764602
17	0xbd50d854	-0.050987557
18	0xbd1afc80	-0.03783846
19	0xbdff833f	-0.12476205
20	0xbd694b19	-0.056956384
21	0xbc976413	-0.018480336
22	0x3dbcecd3	0.09224858
23	0xbdde0642	-0.10841037
24	0x3c8199d2	0.015820418
25	0x3c751d4e	0.0149606
26	0xbb82f004	-0.0039958972
27	0xbd5adb6a	-0.053431906
28	0x3d2023c5	0.039096612
29	0xbdeb6a83	-0.11494925
30	0x3c64afb8	0.01395791
31	0x3e2ade5b	0.16686384
32	0x3d452273	0.048128556
33	0xbdb2af4f	-0.08724844
34	0xbc43ccb4	-0.0119506605
35	0xbda75a76	-0.08171551
36	0xbd9b2bd7	-0.07576721
37	0xbe115a9f	-0.14194725
38	0xbd4db395	-0.05022009
39	0x3d10695d	0.035256732
40	0xbde1695e	-0.11006425
41	0xbe2f313e	-0.17108628
42	0xbdce5003	-0.10073855
43	0xbdd3c28f	-0.103398435
44	0xbe3aba74	-0.18235189
45	0xbb6f9fcc	-0.0036563752
46	0x3d992c00	0.074790955
47	0x3d79a14f	0.06094485
48	0xbe2798bc	-0.16366857
49	0xbc5a73c2	-0.013333263
50	0x3df524ba	0.11969896
51	0xbd235940	-0.039880037
52	0x3d0987e6	0.03357687
53	0xbe03c690	-0.12868714
54	0x3d6ffd3e	0.05859112
55	0xbcac547c	-0.021036379
56	0xbcaa5fbb	-0.020797601
57	0x3d60b17a	0.054856755
58	0xbc9ad419	-0.018899964
59	0x3d69ddb3	0.057096194
60	0xbe1ca75e	-0.1529822
61	0x3cf4e612	0.029894862
62	0x3d259648	0.040426522
63	0xbd0af023	-0.03392042
64	0x3d3c8b9f	0.04603159
65	0xbd8b2fb5	-0.06796209
66	0xbe01797a	-0.12643996
67	0xbcf0784d	-0.029354239
68	0x3ce8eb1b	0.02843242
69	0x3dfe53e9	0.12418348
70	0xbc98ed3d	-0.018667812
71	0x3c039a74	0.00803243
72	0xbcd4cc33	-0.025976276
73	0xbdb1caea	-0.08681281
74	0x3d6109ac	0.054940864
75	0xbd6c6e35	-0.05772229
76	0x3c7b2485	0.015328531
77	0x3c850ffe	0.016242977
78	0xbe0d58f0	-0.13803458
79	0xbdecd953	-0.11564889
80	0x3d50d3c0	0.05098319
81	0xbcb3c2df	-0.021943508
82	0xbdab1f75	-0.08355609
83	0xbd42352e	-0.047413997
84	0x3daea5de	0.085277304
85	0x3cb7be31	0.022429558
86	0x3aa49211	0.0012555738
87	0x3cc77f72	0.024352763
88	0xbd1b3150	-0.037888825
89	0xbdd40737	-0.103529386
90	0x3dd512e1	0.104039915
91	0x3d2b651f	0.041844483
92	0xbd8ae964	-0.06782797
93	0xbe2414f1	-0.16023614
94	0x3d376d8b	0.044782203
95	0xbc64adee	-0.013957484
96	0x3c222042	0.009895386
97	0xbd165f7c	-0.036712155
98	0xbdea968e	-0.11454497
99	0x3d8b8701	0.06812859
100	0xbdaa72fe	-0.08322714
101	0x3d01fc13	0.031734537
102	0x3dadf8e3	0.08494737
103	0x3dba3e97	0.09093969
104	0xbdf9d36b	-0.12198528
105	0xbd835ce1	-0.064141996
106	0xbe0184e5	-0.12648351
107	0xbe0e9277	-0.1392306
108	0x3d22822c	0.039674923
109	0x3e0e1ecc	0.13878936
110	0x3d94f030	0.07272375
111	0x3d0e6183	0.034760963
112	0x3c210b7e	0.0098294
113	0x3cc5a676	0.024127226
114	0x3d8e1f78	0.06939596
115	0x3b19b051	0.002345104
116	0x3d2212da	0.03956876
117	0x3dd12b5b	0.102133475
118	0xbd90c38d	-0.07068548
119	0x3dbdec4e	0.09273587
120	0x3de02613	0.10944762
121	0x3dd418ca	0.10356291
122	0x3d1e5199	0.038652036
123	0xbc11bb79	-0.008894795
124	0xbcea15c4	-0.028574832
125	0xbc7633d5	-0.015027006
126	0xbd29bb7c	-0.041438565
127	0x3e1475fd	0.14498134
128	0x3d3945e1	0.045232657
129	0xbd8f6e92	-0.070035115
130	0xbdb32dd3	-0.08748975
131	0xbdfae13b	-0.122499906
132	0x3bd2fa3c	0.0064385217
133	0x3b75a8bc	0.0037484607
134	0x3afff78b	0.001952873
135	0xbd4ab463	-0.049488436
136	0xbc16a504	-0.009194616
137	0x3cfe4d8f	0.031042842
138	0xbde69342	-0.11258556
139	0x3b652159	0.0034962504
140	0xbe043d21	-0.12913944
141	0x3c38399e	0.011244206
142	0x3b204d34	0.002446008
143	0xbccb39e2	-0.024807874
144	0x3cfad280	0.030617952
145	0xbdd16824	-0.102249414
146	0xbdbd563e	-0.09244965
147	0xbcda5b49	-0.026654856
148	0x3dc41c0f	0.09575664
149	0xbdec34e0	-0.115335226
150	0x3c8366e7	0.016040279
151	0xbe2a234a	-0.16615024
152	0x3dcf2027	0.101135544
153	0x3d047d18	0.03234586
154	0x3ce41cbf	0.027845738
155	0xbde3173e	-0.110884175
156	0xbe12a1e3	-0.14319567
157	0xbda3bce9	-0.07995016
158	0xbc35ca28	-0.011095561
159	0xbdbb1d08	-0.09136397
160	0xbc6141d8	-0.0137486085
161	0xbce5de9e	-0.028060254
162	0x3cc14b19	0.02359538
163	0x3e03e464	0.12880093
164	0xbcc37315	-0.023858586
165	0x3cbbfd7e	0.022948023
166	0xbc248b94	-0.010043044
167	0xbe020f11	-0.1270106
168	0x3b1d4c11	0.0024001638
169	0xbd9011db	-0.07034656
170	0xbda861c0	-0.08221769
171	0xbdaa5686	-0.08317284
172	0xbdc562bb	-0.09637972
173	0x3dd0fc93	0.10204425
174	0xbb41bb3c	-0.0029561063
175	0x3d74853f	0.059697386
176	0x3db5cd88	0.088770926
177	0xbe068554	-0.13136798
178	0x3dfb3929	0.12266762
179	0xbcf858b3	-0.030315733
180	0xbe236b2f	-0.15958856
181	0xbda84180	-0.08215618
182	0x3ce0070a	0.027347106
183	0x3cfbb72c	0.030726992
184	0xbd97bd45	-0.07409147
185	0xbe7f1d94	-0.24913627
186	0xbe40095e	-0.18753573
187	0xbdaafe12	-0.08349241
188	0xbd5c76ff	-0.05382442
189	0x3cd82e75	0.02638934
190	0xbdeb21e7	-0.11481076
191	0x3a71da0f	0.00092259137
192	0xbc574e87	-0.013141281
193	0xbef186f2	-0.47173268
194	0x3e03a444	0.12855631
195	0xbdc35e12	-0.09539427
196	0x3dbb35ae	0.09141098
197	0xbcf6a1df	-0.030106483
198	0x3d03217b	0.03201435
199	0xbd147c81	-0.03625155
200	0xbe1e85db	-0.1548075
201	0xbd367363	-0.044543635
202	0xbe10340a	-0.14082351
203	0xbef81742	-0.48455244
204	0xbe8de9aa	-0.27717334
205	0xbd34275f	-0.04398286
206	0xbb2eca96	-0.0026671044
207	0x3d9c9702	0.0764599
208	0xbebfb422	-0.37442118
209	0x3ca0140c	0.01954081
210	0xbd7636b1	-0.06011075
211	0xbe9448e7	-0.2896187
212	0x3c586a59	0.013208949
213	0xbde028ca	-0.1094528
214	0xbb5ae788	-0.0033402164
215	0xbd9452b5	-0.072423376
216	0x3e0b185b	0.1358351
217	0x3d8ee602	0.06977464
218	0x3d721be7	0.05910864
219	0xbcd211bf	-0.025643228
220	0xbcc96672	-0.024584983
221	0x3dac7923	0.084215425
222	0xbc77cdfb	-0.015124793
223	0x3db7a99f	0.089678995
224	0xbba4e61c	-0.005032314
225	0x3cf2dc6d	0.029646123
226	0x3e1ae0fc	0.15124887
227	0xbe345c14	-0.1761325
228	0x3d17a0ba	0.037018515
229	0xbdb67f53	-0.08911004
230	0x3de7dea9	0.11321766
231	0x3ccd7b5e	0.02508324
232	0xbe91a9aa	-0.28449756
233	0x3de5df04	0.112241775
234	0x3dc2fbb1	0.095206626
235	0xbe954016	-0.29150456
236	0x3d8a81c5	0.06763033
237	0xbd22b3ea	-0.03972236
238	0x3de25219	0.11050815
239	0xbe0c35b8	-0.13692367
240	0x3d42903c	0.047500834
241	0xbe500311	-0.2031367
242	0xbc83d26b	-0.016091546
243	0x3d418e29	0.047254715
244	0xbdc849f1	-0.09779728
245	0xbda947e8	-0.08265668
246	0xbd5e7b5c	-0.054316863
247	0x3db5a6fb	0.088697396
248	0xbcb66973	-0.022267079
249	0xbd6568cc	-0.056008145
250	0x3cb9f802	0.022701267
251	0x3e1f2fa2	0.15545514
252	0x3de81555	0.11332194
253	0xbc21077a	-0.009828443
254	0x3d57053f	0.052495237
255	0xbd598898	-0.05310878

net.2.bias f4 [64]
0	0x3e2543fb	0.16139214
1	0xbdbac381	-0.09119321
2	0x3cf97f7a	0.030456293
3	0x3e988d21	0.29795173
4	0xbd8970b4	-0.067109495
5	0xbe950515	-0.2910544
6	0x3e76279c	0.24038547
7	0xbe445f30	-0.19176936
8	0x3d8a4acb	0.06752547
9	0xbe6a6f51	-0.22894026
10	0x3e572be6	0.2101284
11	0x3bdbccef	0.0067077796
12	0x3d8322b8	0.064031065
13	0xbe527937	-0.20554052
14	0xbd40a396	-0.047031008
15	0xbd5fdb41	-0.054652456
16	0x3c8088c6	0.015690219
17	0x3ea0ce63	0.3140746
18	0x3e7fe205	0.24988563
19	0xbe457829	-0.19284119
20	0x3ebdfac2	0.37105376
21	0xbd8444f6	-0.06458466
22	0xbe96c6ce	-0.2944855
23	0xbdadb134	-0.084810644
24	0x3c0e3360	0.008679241
25	0xbcb7378f	-0.02236536
26	0x3aebde13	0.001799526
27	0x3ea53247	0.3226492
28	0x3d3109b9	0.043222163
29	0xbc375d7d	-0.011191723
30	0xbe264b58	-0.16239679
31	0xbe21a912	-0.15787151
32	0xbcb7d03a	-0.022438157
33	0xbe92e3c7	-0.28689405
34	0xbd9fe036	-0.07806437
35	0x3dbf6798	0.09345931
36	0x3e617744	0.22018152
37	0xbeb467b3	-0.35235366
38	0x3e14ae16	0.14519534
39	0xbddf0f59	-0.10891599
40	0xbd4e0825	-0.050300736
41	0x3ba12815	0.004918108
42	0x3da6f9a6	0.081530854
43	0x3e061883	0.13095288
44	0x3df657b2	0.12028445
45	0xbe0d9ee6	-0.13830146
46	0xbea28345	-0.31740776
47	0x3de31190	0.11087334
48	0x3ec8696a	0.39142925
49	0x3e16f8cc	0.14743346
50	0x3e8e6090	0.27808046
51	0x3e62abb9	0.2213582
52	0xbca147de	-0.01968759
53	0x3e22cd55	0.1589864
54	0xbdd9e434	-0.106392294
55	0xbe8119ed	-0.25215092
56	0x3e104345	0.14088161
57	0x3ec46366	0.38357085
58	0x3e870ee1	0.2637854
59	0xbd3cda5a	-0.046106674
60	0xbea43921	-0.32074836
61	0x3e97565f	0.29558083
62	0xbd8c58e0	-0.06852889
63	0xbe32a728	-0.17446578

net.4.weight f4 [64, 64]
0	0x3e05bfb7	0.13061415
1	0x3d04d52b	0.032429855
2	0xbd0c677c	-0.034278378
3	0xbca08da2	-0.019598786
4	0xbc1f14ae	-0.00970952
5	0xbdf4aea1	-0.1194737
6	0xbcb5bf14	-0.02218584
7	0x3d3ade4a	0.045622148
8	0xbe198d31	-0.14995266
9	0x3da04dd7	0.07827347
10	0xbd16523e	-0.036699526
11	0x3d77fbe1	0.060542945
12	0x3deaff2e	0.11474453
13	0xbd9a9eb8	-0.075498044
14	0x3d1f9500	0.038960457
15	0xbbaf2a00	-0.005345583
16	0x3ddef576	0.10886662
17	0x3da6cd02	0.08144571
18	0xbd7095a2	-0.05873645
19	0x3cc9cbba	0.024633277
20	0xbd1d9c88	-0.038479358
21	0x3d040643	0.032232534
22	0x3cf81c6a	0.030286986
23	0xbe34668b	-0.17617242
24	0x3de30d38	0.11086506
25	0x3c6dd414	0.014515895
26	0x3d9c37e5	0.076278485
27	0x3d4896e8	0.04897204
28	0x3dcb29b5	0.09920064
29	0x3d8750ba	0.06607194
30	0x3dbfc82f	0.09364354
31	0xbd41ae40	-0.04728532
32	0x3d794ef4	0.06086631
33	0x3d2bbfd6	0.041930996
34	0x3d90f5e6	0.070781514
35	0xbd20eb2a	-0.03928677
36	0x3d0213a1	0.031757
37	0xbe07e817	-0.13272129
38	0x3d3160aa	0.043305077
39	0x3dc36c0d	0.095420934
40	0xbc49ab41	-0.0123088965
41	0xba6a09e2	-0.0008927864
42	0xbca5827a	-0.020203818
43	0x3e2c647a	0.16835204
44	0xbdaf247a	-0.08551879
45	0x3d85b941	0.06529475
46	0xbdfba067	-0.12286454
47	0x3d6e9cb6	0.05825492
48	0x3d94908f	0.07254135
49	0x3d913350	0.07089865
50	0xbc2e822c	-0.010651153
51	0xbdaeb629	-0.08530838
52	0xbceb39bf	-0.028714059
53	0xbd6c1467	-0.057636645
54	0x3da9b761	0.0828693
55	0xbb39f8a9	-0.0028376973
56	0xbd1fdd58	-0.03902945
57	0xbe0b2e2f	-0.13591836
58	0x3adc9f31	0.0016832111
59	0xbd9c273d	-0.076246716
60	0x3d5b8343	0.053591978
61	0xbdf498df	-0.1194322
62	0xbd78a6cb	-0.06070594
63	0xbcf3bab6	-0.029752117
64	0x3da9d3be	0.0829234
65	0x3d8b7c9e	0.06810878
66	0x3d2e7b14	0.042597845
67	0xbc679ca0	-0.014136463
68	0x3cfe6476	0.031053763
69	0xbe04581f	-0.1292424
70	0xbdaa3b95	-0.083121456
71	0x3d794816	0.060859762
72	0x3d9dc39d	0.07703326
73	0x3cf04fac	0.029334866
74	0xbcbf59fd	-0.02335834
75	0xbde71d38	-0.1128487
76	0x3dee51cb	0.116366945
77	0xbc805b3c	-0.015668504
78	0x3dffa630	0.124828696
79	0xbb3a6d9f	-0.0028446687
80	0x3e0fad77	0.14031015
81	0x3db611e6	0.088901326
82	0x3cd678e1	0.026180686
83	0x3dd45111	0.10367025
84	0xbdaa1026	-0.08303861
85	0xbd2c304b	-0.042038243
86	0x3c07039b	0.008240606
87	0x3e038d53	0.1284688
88	0x3c2b0195	0.010437389
89	0x3dc353aa	0.09537442
90	0xbd11334c	-0.03544931
91	0x3bd6a3e0	0.006550297
92	0xbd26b608	-0.040700942
93	0x3d966f9a	0.07345505
94	0xbdb63269	-0.08896334
95	0x3d27aef8	0.040938348
96	0x3dcb2dde	0.09920858
97	0xbcf90f10	-0.03040269
98	0x3d64ee8a	0.05589155
99	0xbcb1c840	-0.021701932
100	0x3d69ebcc	0.05710964
101	0xbe20f6cf	-0.1571915
102	0xbc07fd30	-0.008300111
103	0x3df11cd8	0.1177308
104	0x3df7a4f8	0.12092012
105	0xbda96d63	-0.08272817
106	0x3c1e24e0	0.009652346
107	0xbd9f8e8f	-0.07790863
108	0x3d9d1132	0.07669295
109	0x3e28fdf9	0.16503133
110	0x3e1dcba6	0.15409717
111	0x3d096002	0.033538826
112	0xbd868eb1	-0.06570185
113	0xbb930c8f	-0.004487581
114	0xbc794667	-0.015214539
115	0xbdc2a42e	-0.09503971
116	0x3d425f93	0.047454428
117	0x3d8eb2fc	0.06967732
118	0x3c03879c	0.008027937
119	0x3e028dd2	0.12749413
120	0xbcd9277b	-0.026508084
121	0x3dbe51d9	0.09292955
122	0x3d939618	0.072063625
123	0x3d5dc4ce	0.054142766
124	0x3ddbf811	0.10740674
125	0xbd55c2d3	-0.052187752
126	0xbd83a7d3	-0.06428494
127	0xbccb3705	-0.024806509
128	0x3d17d5a0	0.037068963
129	0x3ca60295	0.020264903
130	0x3e06cdfc	0.13164514
131	0x3d696119	0.056977365
132	0xbc9d40fb	-0.019196024
133	0xbd9bfa41	-0.076160915
134	0xbd18aaf1	-0.037272397
135	0x3d7d1d91	0.061795775
136	0x3d9b466b	0.075817905
137	0x3b83b4d1	0.0040193577
138	0x3d2777c8	0.040885717
139	0xbbdda7d5	-0.006764392
140	0xbd5cc806	-0.053901695
141	0x3c91c229	0.017792778
142	0xbd9bf161	-0.07614399
143	0x3cacdd50	0.021101624
144	0xbd9d742e	-0.07688175
145	0x3dcf8220	0.10132241
146	0xbd17546a	-0.036945738
147	0x3dcf0312	0.101080075
148	0x3d2740f4	0.04083343
149	0xbdc58d7e	-0.09646128
150	0xbd3e3659	-0.04643855
151	0xbd84df84	-0.06487945
152	0xbe198ada	-0.14994374
153	0xbdcd0136	-0.100099966
154	0x3da4b90c	0.080431074
155	0x3e18ce05	0.1492234
156	0x3d731c98	0.05935344
157	0xbbf6af55	-0.0075282254
158	0xbda59d58	-0.080866516
159	0x3d8c6df4	0.068569094
160	0x3d60df1b	0.05490027
161	0x3ddee350	0.108832
162	0x3dcd4f19	0.10024852
163	0xbdb6a55d	-0.08918259
164	0xbddcaab2	-0.10774745
165	0xbc83ee0e	-0.016104724
166	0x3d63ef9b	0.055648427
167	0xbdc53ec5	-0.09631113
168	0xbd410180	-0.04712057
169	0xbb601e80	-0.0034197867
170	0x3b2765a2	0.0025542756
171	0xbd100e95	-0.035170157
172	0xbd2e84e4	-0.042607203
173	0xbdb235b4	-0.08701649
174	0xbd457b5d	-0.04821335
175	0xbc68b383	-0.014202955
176	0x3e44ac57	0.19206367
177	0xbdb09f08	-0.08624083
178	0x3e05df79	0.1307353
179	0x3c8e52e6	0.017373513
180	0xbc134717	-0.008989117
181	0xbd12a57f	-0.03580236
182	0xbd76a9ad	-0.06022041
183	0xbd49c6ea	-0.049261965
184	0xbe081df1	-0.13292672
185	0x3e12a298	0.14319837
186	0xbda8ff06	-0.08251767
187	0x3dbd6bef	0.09249102
188	0xbca04b17	-0.019567056
189	0xbca2e514	-0.019884624
190	0x3c8dbf20	0.01730305
191	0x3c68554d	0.014180494
192	0x3e179c34	0.1480568
193	0x3d072168	0.032990843
194	0x3d3defc3	0.046371233
195	0x3e0c241d	0.13685651
196	0x3dee4780	0.11634731
197	0x3d05d1bc	0.03267072
198	0xbd3d25d6	-0.04617866
199	0xbd3e922d	-0.046526123
200	0xbdd4e285	-0.10394768
201	0xbde05a1e	-0.109546885
202	0x3e4db143	0.20087151
203	0x3dd6120c	0.10452661
204	0xbd88f27c	-0.06686875
205	0xbd6669d6	-0.056253277
206	0xbc6414dd	-0.01392099
207	0x3da46d2d	0.08028636
208	0x3d88cab0	0.066792846
209	0x3e5120aa	0.20422617
210	0xbcc2ac30	-0.023763746
211	0x39aaa1ac	0.00032545382
212	0x3d2e472f	0.042548355
213	0x3c2ef5db	0.010678734
214	0xbc3eed08	-0.011653192
215	0x3cd8d69b	0.02646952
216	0x3dc10b36	0.094259664
217	0x3d7c6f49	0.061629567
218	0xbe3d99f3	-0.18515758
219	0x3e1adebd	0.1512403
220	0xbe290903	-0.16507344
221	0x3ce816d2	0.028331194
222	0xbe0b84a1	-0.13624813
223	0xbcae0e4c	-0.021247052
224	0xbdd4c0bf	-0.10388326
225	0xbe0736d8	-0.13204515
226	0xbda1e091	-0.07904161
227	0x3c4d5d26	0.012534415
228	0xbc34b1e8	-0.011028744
229	0x3d2eedec	0.04270737
230	0xbe875714	-0.26433623
231	0x3cd2dd0d	0.02574017
232	0xbcd6d5a7	-0.026224924
233	0x3cf0c248	0.029389516
234	0xbdfa301e	-0.12216209
235	0x3ac8df46	0.001532533
236	0x3e1a2239	0.15052117
237	0xba9e8e2c	-0.0012096814
238	0x3c43bed0	0.011947349
239	0xbb02b0ea	-0.0019941875
240	0x3dbb5380	0.09146786
241	0x3e062068	0.130983
242	0xbc468afa	-0.0121180955
243	0x3ca12665	0.019671628
244	0xbe531a28	-0.20615447
245	0x3dcda300	0.100408554
246	0x3d968fad	0.07351623
247	0x3de62988	0.1123839
248	0x3de364e6	0.11103229
249	0x3d95ac0b	0.07308205
250	0xbc0ceabc	-0.008600887
251	0xbd348d63	-0.04408015
252	0x3c1b0e45	0.009463851
253	0x3d0b12e0	0.033953547
254	0xbdbfa28d	-0.09357176
255	0xbd023951	-0.031792942

net.4.bias f4 [64]
0	0xbd9ced71	-0.07662476
1	0x3e345f99	0.17614593
2	0x3e8b117b	0.27161774
3	0xbeac7cfd	-0.33689108
4	0xbe31d6e0	-0.17367125
5	0x3b8f75d3	0.0043780594
6	0xbcf3aff0	-0.02974698
7	0x3e8ca069	0.27466133
8	0x3be1f230	0.006895326
9	0xbea07463	-0.31338796
10	0x3ec7d15a	0.3902691
11	0x3ebd82d9	0.3701389
12	0xbada7fbf	-0.0016670151
13	0xbe4c3446	-0.19941816
14	0xbea32905	-0.31867233
15	0x3e0b02bc	0.13575262
16	0x3d3c8156	0.04602178
17	0x3e39e399	0.18153228
18	0x3dc1752e	0.094461784
19	0xbe8accd8	-0.27109408
20	0xbd176ffd	-0.036972035
21	0x3e90ce65	0.28282467
22	0x3e8f5978	0.27997947
23	0x3d76d1dc	0.06025873
24	0x3e830464	0.25589287
25	0xbdadc13f	-0.084841244
26	0x3d24d68a	0.040243663
27	0x3d0febec	0.035137102
28	0x3e982106	0.29712695
29	0xbe8a7326	-0.27040976
30	0x3baaec79	0.005216178
31	0x3e6d25b1	0.2315891
32	0xbd66bc17	-0.05633172
33	0x3ea60e0f	0.324326
34	0x3e9b7fcf	0.30370948
35	0xbe0ac745	-0.13552578
36	0x3e51926f	0.20466016
37	0x3e430b1b	0.19047205
38	0x3ea2172a	0.31658298
39	0x3ebc366f	0.3676028
40	0xbd4abbfc	-0.049495682
41	0xbe825db8	-0.25462127
42	0xbe8ae94e	-0.27131122
43	0x3eabfb0c	0.3358997
44	0x3e8e21c8	0.27760148
45	0x3ea04862	0.31305224
46	0x3e80ce2a	0.2515729
47	0x3e5d6781	0.21621515
48	0x3e8968f5	0.26837888
49	0xbd5c9561	-0.053853396
50	0x3e4105da	0.18849888
51	0x3e60459e	0.21901557
52	0x3e8b0055	0.2714869
53	0x3d18b95f	0.03728616
54	0xbe040345	-0.12891872
55	0x3ec97154	0.39344275
56	0x3e90db3d	0.28292266
57	0x3ea23eda	0.31688577
58	0x3e57178f	0.2100508
59	0x3ea9245c	0.33035553
60	0xbd0d5ee4	-0.034514323
61	0x3da52c25	0.080650605
62	0x3e83ac52	0.25717407
63	0x3d305d55	0.04305776

net.6.weight f4 [1, 64]
0	0xbb0eb320	-0.0021774247
1	0x3c3318d9	0.010931217
2	0x3d99b854	0.07505861
3	0xbe8f6df8	-0.28013587
4	0xbd66ee31	-0.0563795
5	0x3ba5a05f	0.005054518
6	0x3c76e6f1	0.015069709
7	0x3dda2455	0.10651461
8	0xbe5019b4	-0.20322305
9	0xbe14a686	-0.14516649
10	0x3e136212	0.1439288
11	0x3dfcfa57	0.12352436
12	0xb9b21dab	-0.0003397291
13	0xbc0c4d0c	-0.008563291
14	0xbe0f3ba7	-0.139876
15	0x3dde4025	0.10852078
16	0xbd2256a8	-0.039633423
17	0x3d92d850	0.071701646
18	0x3d873986	0.066027686
19	0xbd8d5ac9	-0.069020815
20	0xbac38782	-0.0014917704
21	0x3e0617e7	0.13095056
22	0x3d8c8f96	0.06863324
23	0xbd0a41f1	-0.033754293
24	0x3dd04576	0.101694986
25	0xbb51bccb	-0.0032003399
26	0x3c15fe89	0.009154924
27	0xbc836c1d	-0.016042763
28	0x3e28bcb2	0.16478232
29	0x3e18aeb9	0.14910401
30	0x3ba974c4	0.0051713903
31	0xbe0a95b7	-0.13533674
32	0x3cf18ba4	0.029485531
33	0x3e3fad5e	0.18718478
34	0x3e372525	0.17885263
35	0xbb9bc49d	-0.0047536627
36	0xbe5e7466	-0.2172409
37	0xbe35f63e	-0.17769715
38	0x3de040a2	0.10949828
39	0x3e3d11f1	0.18463875
40	0x3b97af0a	0.0046290206
41	0xbd720b4c	-0.059092805
42	0xbdcb0e44	-0.0991483
43	0x3ded916a	0.11600001
44	0x3da645cf	0.08118784
45	0x3e417c05	0.18894966
46	0x3deca68a	0.11555202
47	0xbda7ce73	-0.08193674
48	0x3d9c06ae	0.076184615
49	0xbe34868e	-0.17629454
50	0xbdeef58c	-0.11667928
51	0x3d4db6b2	0.05022306
52	0x3e010a69	0.12601627
53	0xbc043e26	-0.008071458
54	0x39700b42	0.00022892377
55	0x3e72ef80	0.23724174
56	0x3d97f697	0.0742008
57	0x3e3f804e	0.18701288
58	0xbdb046cc	-0.086072534
59	0x3e382068	0.17981112
60	0xbd9f412d	-0.07776103
61	0xbd86587f	-0.06559848
62	0x3d757f48	0.059935838
63	0x3ccbf56b	0.024897298
