wine_iterative/wine_models/50_train/gaussian_final_model.pt (torch, 41027 bytes, 7 tensors)

net.0.weight f4 [64, 13]
0.01195973 -0.5244723 -0.039654657 -0.0035843241 0.06767184 0.0119034955 0.065270245 0.05372193
0.1861951 -0.34996474 -0.31065083 0.0742122 -0.34015554 0.29065832 -0.22504778 0.22106798
0.18010467 -0.2761651 -0.081675805 -0.12995319 -0.26572838 -0.074728094 0.14752515 0.16239083
0.1776045 0.2616224 -0.19722769 0.22878942 -0.19067226 0.05095946 -0.046820305 0.22506522
0.11489795 0.33654398 -0.03550053 0.288409 0.1290916 -0.25477222 0.34062552 0.17831235
0.10804246 0.18748893 0.019133218 0.09880731 0.12881552 -0.1200736 -0.10236982 0.033904437
0.0017642388 0.01874725 0.08791345 -0.04242553 -0.19232075 -0.24017058 0.08352458 0.23075965
0.06501028 -0.33563492 0.3387288 0.14474145 0.09217364 -0.46217936 -0.26521447 -0.0911595
0.3156766 -0.010734301 -0.043236848 -0.17813757 -0.3476464 -0.16959736 -0.124822125 -0.38867968
-0.013698746 -0.12907597 -0.028309593 -0.0112625025 0.32625905 -0.24122025 0.040233243 -0.4991512
-0.12154619 -0.16700019 0.11254812 0.17224155 -0.14827144 0.11591522 -0.30757615 0.3589176
0.019302437 0.18162613 0.081349455 -0.26661447 0.21333694 -0.12774462 -0.27968165 0.15524673
0.086795144 0.0672628 0.22213148 0.31684682 -0.051473796 0.2463136 0.08178005 -0.07629857
0.1177511 0.023314014 0.056381162 0.06512366 0.095333114 -0.016138636 -0.114114165 0.33510032
0.2705486 0.23556738 -0.01182427 -0.2475651 -0.28486007 -0.046873722 0.25507316 -0.047951676
-0.1467967 -0.008960258 0.2846651 0.27261922 0.38183835 0.1892323 0.18683995 0.14743008
-0.08057925 0.06744261 -0.089766726 0.16766812 0.013814042 -0.041208062 0.258322 0.3431127
-0.33764115 0.21018109 -0.03684193 -0.4992095 0.13942263 0.10899528 -0.17659889 0.032287616
0.003872801 0.36749718 -0.30003312 -0.11367164 -0.31767258 -0.22360885 0.16975082 0.4910999
0.076116 -0.087260455 0.21801673 -0.11160384 0.34442273 0.20819479 -0.19359209 0.16552597
-0.08608139 -0.07731762 0.23039609 -0.0202573 0.009110045 -0.071083836 0.23549342 0.21636969
0.3757029 0.039593875 -0.16564395 0.13364118 -0.06809857 0.16673735 0.13140656 0.158997
-0.016853957 -0.30596906 -0.21919198 -0.21155946 0.02521443 -0.03269082 0.5030927 0.04139315
-0.4216137 -0.05500643 -0.06232231 -0.15677792 0.28573123 0.010686342 -0.016088057 -0.28941214
0.39749873 -0.33791298 -0.31247783 -0.1287981 0.08252111 -0.23417848 0.26886848 0.2443784
-0.058247622 -0.17986104 -0.03774846 -0.084755056 0.17528327 0.24995044 -0.16304623 0.18292578
-0.38704678 -0.065400906 0.06931523 -0.031796575 0.21994959 0.27198353 -0.1787294 -0.0039173258
0.1950397 -0.015747586 0.015285153 0.12046083 0.25794804 -0.16995938 0.28118756 0.16476926
-0.3741533 -0.2671807 -0.21493407 0.03706873 0.38545308 -0.13296524 -0.16838443 -0.01587393
-0.16687612 0.22654031 -0.39528853 -0.0035143544 -0.14397354 0.47824335 -0.22664097 -0.015395744
0.3128387 0.089258365 -0.07479131 -0.22356324 0.18729189 0.08923194 -0.37328118 0.06800009
0.029709145 -0.22158869 -0.0968232 -0.26314843 0.098874904 0.011758058 0.13551609 -0.18192506
00000000: bef2 433c d143 06bf ec6c 22bd fbe6 6abb
00000010: 8997 8a3d e106 433c 68ac 853d 870b 5c3d
00000020: eea9 3e3e 942e b3be a00d 9fbe 91fc 973d
00000030: de28 aebe 2bd1 943e ed72 66be a55f 623e
00000040: 5c6d 383e 8365 8dbe a545 a7bd 7312 05be
00000050: 8d0d 88be 0b0b 99bd d510 173e c849 263e
00000060: f4dd 353e 5ff3 853e 0ef6 49be c647 6a3e
00000070: 973f 43be deba 503d a6c6 3fbd 7f77 663e
00000080: 9e4f eb3d 7e4f ac3e 0169 11bd 58aa 933e
00000090: 9730 043e 8171 82be 7866 ae3e 8397 363e
000000a0: 5e45 dd3d 19fd 3f3e 44bd 9c3c 7d5b ca3d
000000b0: 37e8 033e 26e9 f5bd 45a7 d1bd 61df 0a3d
000000c0: 083e e73a d593 993c f80b b43d 64c6 2dbd
000000d0: bbef 44be 47ef 75be ef0e ab3d 424c 6c3e
000000e0: 1c24 853d 57d8 abbe dc6d ad3e 1a37 143e
000000f0: 89c5 bc3d c6a2 ecbe 31ca 87be d5b1 babd
00000100: 5da0 a13e ecde 2fbc 1f19 31bd b269 36be
00000110: b5fe b1be eeaa 2dbe bea2 ffbd 0601 c7be
00000120: b570 60bc 7e2c 04be 85e9 e7bc 5c86 38bc
00000130: 6d0b a73e 7102 77be 9dcb 243d bf90 ffbe
00000140: 35ed f8bd 1902 2bbe a17f e63d 1760 303e
00000150: 78d4 17be f564 ed3d 9f7a 9dbe 0cc4 b73e
00000160: 2520 9e3c 33fc 393e 8b9a a63d b181 88be
00000170: 0075 5a3e 7ccf 02be 6f32 8fbe 00f9 1e3e
00000180: a7c1 b13d 14c1 893d 6f76 633e bf39 a23e
00000190: 30d6 52bd a239 7c3e 4d7c a73d 6d42 9cbd
000001a0: 7d27 f13d 08fd be3c efef 663d 8e5f 853d
000001b0: 023e c33d 2c35 84bc b0b4 e9bd 4592 ab3e
000001c0: 5985 8a3e 9338 713e 95ba 41bc b581 7dbe
000001d0: 2ed9 91be a9fe 3fbd f398 823e fa68 44bd
000001e0: e051 16be 0cce 12bc a0bf 913e bf94 8b3e
000001f0: 5180 c33e 1dc6 413e f952 3f3e e9f7 163e
00000200: bc06 a5bd 5a1f 8a3d 9ed7 b7bd 31b1 2b3e
00000210: 4b54 623c c9c9 28bd c842 843e 78ac af3e
00000220: 4ddf acbe b639 573e 90e7 16bd 6398 ffbe
00000230: cec4 0e3e eb38 df3d 57d6 34be 0540 043d
00000240: d2ce 7d3b 9728 bc3e f19d 99be adcc e8bd
00000250: fba5 a2be b8f9 64be 29d3 2d3e 7271 fb3e
00000260: b5e2 9b3d 9cb5 b2bd c73f 5f3e 8e90 e4bd
00000270: 2d58 b03e 0431 553e 013d 46be a47f 293e
00000280: 714b b0bd b358 9ebd f4ec 6b3e a3f2 a5bc
00000290: 4c42 153c 6794 91bd 3025 713e 0490 5d3e
000002a0: 215c c03e 302d 223d 919e 29be 3cd9 083e
000002b0: 4377 8bbd 32bd 2a3e 718f 063e 1cd0 223e
000002c0: 4f11 8abc faa7 9cbe dd73 60be 0ba3 58be
000002d0: 7e8e ce3c cfe6 05bd afca 003f dd8b 293d
000002e0: c0dd d7be 6c4e 61bd ae45 7fbd 648a 20be
000002f0: 5d4b 923e c415 2f3c 1acb 83bc d42d 94be
00000300: f484 cb3e ee02 adbe 18fd 9fbe a6e3 03be
00000310: d400 a93d 7ccc 6fbe 21a9 893e 553e 7a3e
00000320: 0f95 6ebd 7e2d 38be 219e 1abd 0f94 adbd
00000330: 757d 333e 02f3 7f3e 97f5 26be e550 3b3e
00000340: ff2a c6be e9f0 85bd 25f5 8d3d 203d 02bd
00000350: 773a 613e 6d41 8b3e d704 37be e95c 80bb
00000360: 7db8 473e 1501 81bc 946e 7a3c 2bb4 f63d
00000370: c411 843e d509 2ebe d1f7 8f3e 46b9 283e
00000380: 0591 bfbe e9cb 88be ad17 5cbe 61d5 173d
00000390: 1b5a c53e 0a28 08be f86c 2cbe 0b0a 82bc
000003a0: 93e1 2abe 2ffa 673e 4263 cabe 1551 66bb
000003b0: cd6d 13be 50dc f43e 9214 68be 6e3e 7cbc
000003c0: 652c a03e 17cd b63d 302c 99bd c3ed 64be
000003d0: 72c9 3f3e 3cbf b63d b61e bfbe a243 8b3d
000003e0: 9860 f33c 25e8 62be 3e4b c6bd 64bb 86be
000003f0: ed7e ca3d dfa4 403c bbc4 0a3e 904a 3abe

net.0.bias f4 [64]
0.049759652 -0.10716943 -0.123546176 -0.07509507 -0.29162157 -0.07411652 0.051114142 0.15065555
-0.02013782 -0.3693017 -0.04529128 0.0827343 -0.34268057 0.06754057 -0.29197723 -0.037140775
0.1932401 -0.26070344 0.26640216 -0.2333776 0.09425981 0.17495501 0.04843909 -0.16057646
-0.04462967 -0.19159858 -0.35064223 -0.44145417 0.047336698 0.12718381 -0.3779549 0.00031972353
-0.48358878 -0.15161689 -0.43913937 -0.16887891 -0.0055653416 -0.2931605 -0.25994682 0.18156697
0.18039325 0.020689769 0.15259579 -0.29664016 -0.2695631 -0.09404475 -0.1956197 0.12191314
-0.068113975 -0.1476282 -0.42565134 -0.4849379 -0.19389325 -0.17643392 0.17368229 0.20232482
-0.24341324 -0.14501022 0.003125331 0.098602906 -0.14865535 -0.19810149 -0.21025659 -0.36393192
00000000: c7d0 4b3d a57b dbbd c705 fdbd 72cb 99bd
00000010: 6c4f 95be 67ca 97bd 105d 513d 7345 1a3e
00000020: 12f8 a4bc 1d15 bdbe 5983 39bd 9a70 a93d
00000030: d473 afbe b652 8a3d 0a7e 95be ed20 18bd
00000040: bce0 453e ec7a 85be dd65 883e 8afa 6ebe
00000050: 4a0b c13d 6827 333e 1168 463d 286e 24be
00000060: 9acd 36bd 6b32 44be 6187 b3be 4806 e2be
00000070: 20e4 413d 793c 023e 4e83 c1be 91a0 a739
00000080: f398 f7be 7541 1bbe e0d6 e0be 98ee 2cbe
00000090: 785d b6bb 2219 96be c017 85be b1ec 393e
000000a0: 02b9 383e 977d a93c 1242 1c3e 38e1 97be
000000b0: 2d04 8abe 899a c0bd 8850 48be 99ad f93d
000000c0: 577f 8bbd d92b 17be f9ee d9be c849 f8be
000000d0: f48b 46be 18ab 34be c5d9 313e 3d2e 4f3e
000000e0: 5241 79be 8f7d 14be 5ad2 4c3b 52f0 c93d
000000f0: 1c39 18be 1edb 4abe 814d 57be 4955 babe

net.2.weight f4 [64, 64]
-0.23470426 0.18498549 0.00944349 0.0219216 -0.04884621 0.046503775 0.16306868 0.010727784
-0.041048307 -0.16137296 -0.06585747 -0.43585202 0.17721662 0.15389608 0.15779647 0.07289648
-0.4576335 -0.053859167 -0.52453136 -0.06972859 -0.16038056 -0.14928374 0.1349002 0.07606583
0.17596905 -0.13601683 -0.043116283 0.10676701 -0.07287587 -0.15321685 0.15025748 -0.023125261
0.22364895 0.029767454 -0.31217363 -0.47497427 0.005191008 0.13295713 0.059030656 -0.10739357
0.27086884 -0.25641614 0.08106925 -0.10869742 -0.03135696 -0.26001182 -0.06268063 -0.1361302
-0.05877906 -0.19886853 -0.3316531 0.25878072 -0.1746669 0.1167778 0.024761228 -0.1494751
0.112998955 -0.33139712 -0.5039269 -0.17549612 -0.06664312 0.009713105 -0.07525827 -0.1395619
-0.021088986 -0.06522856 0.22463463 -0.012542779 0.007899166 -0.105252855 -0.28785345 -0.042161223
-0.120204195 0.13124412 0.09821094 0.15807764 0.02065539 -0.24359168 -0.023175577 0.0014029695
-0.18340889 0.08266717 0.020439206 0.10757054 0.07667818 -0.10700167 -0.23824067 -0.47320992
0.099495225 -0.322312 0.0006511982 0.044595018 0.35932848 0.07596616 0.16509707 -0.45016947
0.15577744 0.1094799 -0.33808774 -0.074420355 -0.21773054 -0.21284379 0.2957489 0.047369737
-0.26384497 -0.12115051 -0.2470769 -0.07291706 0.026446238 0.3475663 0.15117429 0.035941496
-0.25216162 -0.06086308 -0.2311994 -0.05597121 -0.032790165 0.2509606 0.021794856 -0.03563396
-0.06602528 0.017808711 -0.11831779 -0.056381695 0.081244394 -0.020113397 -0.2786358 0.13138637
0.07097257 -0.1813877 0.0729249 0.04945519 -0.088692054 0.0793811 -0.108030364 -0.014600487
0.03515096 -0.16302973 -0.029054804 0.083691545 -0.1477631 0.034003153 0.0009162246 -0.15048204
-0.10432136 -0.08086798 0.06929296 -0.069608934 0.097511366 0.08801728 0.16091909 -0.121913254
0.10553151 0.0645184 0.022964114 0.25095373 -0.16060251 0.11450025 -0.11815929 0.16339184
-0.058497176 0.08254099 -0.10091793 -0.17421734 0.06074195 -0.017811732 0.08188927 -0.13074899
0.12746151 0.008241717 0.0526952 0.02868017 0.18698625 0.0030773378 -0.09414476 -0.28821865
0.085322924 0.03437822 0.10735336 -0.113916636 0.09148672 -0.26761994 -0.13936406 0.103482805
0.15511848 0.116578646 0.040209934 0.07000724 0.08902912 0.18004733 -0.11592661 -0.21530701
-0.05338717 0.046837684 -0.048779376 -0.11884045 0.06504671 -0.010789334 0.08323925 -0.02888998
-0.07592141 -0.17936969 0.058438018 -0.120700926 -0.007751348 -0.040738516 0.08322872 0.07026143
-0.011414777 0.042353082 -0.13089383 -0.025109928 -0.12536494 0.013660688 -0.19336691 -0.18162785
-0.10101488 -0.104570545 -0.0073829778 -0.18757923 -0.22892283 -0.0076491227 -0.24003474 -0.0017646427
-0.37143832 0.09857061 0.07466378 0.15921146 0.02743152 0.2016428 -0.07286545 -0.07244244
-0.092351876 -0.0007036732 -0.0030990704 0.14667726 -0.2207176 -0.2499904 -0.19662039 0.15152977
0.23023245 -0.124754556 0.107553795 -0.0036606994 0.009887254 -0.05837867 -0.0131997755 0.09676334
-0.21112478 0.0654088 0.09764493 0.04955987 -0.09740049 -0.015001373 0.058440186 -0.2728913
00000000: 5056 70be d66c 3d3e deb8 1a3c ed94 b33c
00000010: f712 48bd be7a 3e3d 7afb 263e 96c3 2f3c
00000020: 4522 28bd f43e 25be 48e0 86bd ff27 dfbe
00000030: 4678 353e ef96 1d3e 6695 213e c04a 953d
00000040: f04e eabe 6e9b 5cbd b047 06bf ddcd 8ebd
00000050: cd3a 24be d6dd 18be 4723 0a3e 67c8 9b3d
00000060: 3b31 343e ff47 0bbe b39a 30bd aaa8 da3d
00000070: f23f 95bd e1e4 1cbe 19dd 193e 3071 bdbc
00000080: 3b04 653e e0da f33c 39d5 9fbe d42f f3be
00000090: 5519 aa3b ea25 083e 21ca 713d 29f1 dbbd
000000a0: 52af 8a3e fa48 83be a307 a63d c19c debd
000000b0: 2870 00bd 4520 85be b45e 80bd b765 0bbe
000000c0: 50c2 70bd 31a4 4bbe 6fce a9be e87e 843e
000000d0: e1db 32be 3329 ef3d 0fd8 ca3c 0010 19be
000000e0: ff6b e73d e2ac a9be 5a01 01bf 41b5 33be
000000f0: 307c 88bd b723 1f3c 0221 9abd 51e9 0ebe
00000100: cfc2 acbc 8d96 85bd 9f06 663e 3a80 4dbc
00000110: 816b 013c cf8e d7bd 8761 93be 3fb1 2cbd
00000120: 9e2d f6bd dc64 063e d122 c93d 1bdf 213e
00000130: 7e35 a93c 1970 79be b5da bdbc d8e3 b73a
00000140: 8acf 3bbe 684d a93d 1f70 a73c f14d dc3d
00000150: 7309 9d3d b123 dbbd 5df5 73be 9248 f2be
00000160: 27c4 cb3d 1406 a5be 2cb5 2a3a 44a9 363d
00000170: e7f9 b73e 2594 9b3d 350f 293e 9d7c e6be
00000180: 1f84 1f3e ff36 e03d d619 adbe b369 98bd
00000190: c1f4 5ebe b9f3 59be 666c 973e c506 423d
000001a0: b016 87be c21d f8bd ba01 7dbe 8a55 95bd
000001b0: c8a5 d83c 36f4 b13e 6fcd 1a3e 6437 133d
000001c0: 541b 81be 914b 79bd 89bf 6cbe 1142 65bd
000001d0: fb4e 06bd e87d 803e 208b b23c eaf4 11bd
000001e0: 4338 87bd 93e3 913c 9950 f2bd 7ef0 66bd
000001f0: 7663 a63d dac4 a4bc 5aa9 8ebe 268a 063e
00000200: 115a 913d b2bd 39be a659 953d 8691 4a3d
00000210: 2ea4 b5bd 8f92 a23d 063f ddbd e236 6fbc
00000220: 74fa 0f3d 44f1 26be 5704 eebc 7966 ab3d
00000230: 364f 17be e446 0b3d cb2e 703a f717 1abe
00000240: 70a6 d5bd 1d9e a5bd 78e9 8d3d 218f 8ebd
00000250: 0ab4 c73d 6742 b43d f9c7 243e a8ad f9bd
00000260: e820 d83d 3922 843d 3d1f bc3c 027d 803e
00000270: fc74 24be 1b7f ea3d 7ffd f1bd 3150 273e
00000280: bc9a 6fbd 400b a93d 0fae cebd 0866 32be
00000290: 8dcc 783d e9e9 91bc 90b5 a73d 10e3 05be
000002a0: 4585 023e 4408 073c ecd6 573d adf2 ea3c
000002b0: 5379 3f3e 29ad 493b f8ce c0bd 6591 93be
000002c0: c9bd ae3d 2dd0 0c3d 14dc db3d 204d e9bd
000002d0: 645d bb3d 7b05 89be 74b5 0ebe cbee d33d
000002e0: 61d7 1e3e c9c0 ee3d 2cb3 243d f55f 8f3d
000002f0: e654 b63d 545e 383e ee6a edbd 7179 5cbe
00000300: 81ac 5abd dfd8 3f3d e2cc 47bd 9f62 f3bd
00000310: 3637 853d bfc5 30bc 5779 aa3d aeaa ecbc
00000320: af7c 9bbd b0ac 37be b45c 6f3d 0c32 f7bd
00000330: 05ff fdbb 6edd 26bd d273 aa3d 3ae5 8f3d
00000340: 0b05 3bbc 6d7a 2d3d 0809 06be 56b3 cdbc
00000350: ab5f 00be 14d1 5f3c fa01 46be a7fc 39be
00000360: e4e0 cebd 1529 d6bd e8ec f1bb c514 40be
00000370: bf6a 6abe 7ea5 fabb abcb 75be 954b e7ba
00000380: 2a2d bebe 63df c93d 53e9 983d 5408 233e
00000390: 11b8 e03c 737b 4e3e 7b3a 95bd b45c 94bd
000003a0: fb22 bdbd b676 38ba c619 4bbb 9032 163e
000003b0: cb03 62be 7cfd 7fbe db56 49be 9f2a 1b3e
000003c0: 0ec2 6b3e 517f ffbd 2a45 dc3d 58e8 6fbb
000003d0: 26fe 213c 791e 6fbd df43 58bc dc2b c63d
000003e0: 1831 58be 0df5 853d 11fa c73d 4aff 4a3d
000003f0: e879 c7bd 52c8 75bc fa5e 6f3d 69b8 8bbe

net.2.bias f4 [64]
-0.059016075 0.04818588 -0.0091603985 -0.1306649 -0.25808007 0.027746914 -0.116220005 0.084453054
-0.123134986 0.17846657 0.15434293 -0.16665961 0.042928007 0.040265437 0.08582649 0.10499376
-0.015176809 0.052911676 -0.2653121 -0.11832061 -0.0006539004 0.12936607 0.02819921 -0.04356419
0.005569175 -0.08256812 0.026924146 -0.13198434 0.14112367 -0.02168971 -0.07793709 -0.033468008
-0.041606203 -0.15152332 -0.019131996 -0.030999782 0.041931737 0.03690399 -0.10948265 0.029975815
0.08496412 -0.05996522 0.07385278 0.11218394 0.042261247 -0.15127523 0.11461926 0.050581586
0.20108323 0.1179622 0.17554942 -0.081869744 -0.1358082 0.19743778 -0.078369506 -0.16843991
0.095139824 -0.13039887 -0.09592695 -0.1008567 -0.058739156 -0.020737229 -0.086188085 0.078142434
00000000: d7ba 71bd 8f5e 453d 7f15 16bc 05cd 05be
00000010: 1223 84be 7f4d e33c c104 eebd b9f5 ac3d
00000020: 322e fcbd f1bf 363e 130c 1e3e d1a8 2abe
00000030: 47d5 2f3d 5fed 243d ccc5 af3d f806 d73d
00000040: 27a8 78bc eab9 583d fdd6 87be 1352 f2bd
00000050: 836a 2bba 8a78 043e 0802 e73c 5d70 32bd
00000060: a07d b63b 7919 a9bd 0790 dc3c e726 07be
00000070: b982 103e 9eae b1bc 7b9d 9fbd c015 09bd
00000080: 446b 2abd ee28 1bbe b4ba 9cbc 41f3 fdbc
00000090: 9dc0 2b3d a328 173d 7138 e0bd d78f f53c
000000a0: ab01 ae3d 179e 75bd 2040 973d b2c0 e53d
000000b0: 211a 2d3d e5e7 1abe 81bd ea3d a32e 4f3d
000000c0: c3e8 4d3e 2a96 f13d 3ac3 333e 53ab a7bd
000000d0: 4e11 0bbe 212d 4a3e 3180 a0bd 837b 2cbe
000000e0: abd8 c23d 4887 05be 5975 c4bd f58d cebd
000000f0: 7898 70bd 1fe1 a9bc 6183 b0bd 2409 a03d

net.4.weight f4 [64, 64]
0.37717685 0.062874764 -0.2168208 0.13352075 0.077427015 0.062972575 -0.11600907 0.15655164
0.03085246 0.0020605114 -0.14702557 0.003006871 0.08241182 -0.006445664 0.078104034 -0.015073877
-0.017361818 0.16352966 -0.1139622 -0.17857344 0.025863301 -0.23423764 0.006593756 0.23548113
-0.1379923 -0.2670295 -0.04640508 -0.03422889 -0.122283295 -0.16982791 0.29448512 0.10917475
-0.37006843 0.28097966 -0.0657224 -0.2550751 -0.44968677 -0.10092177 0.1407996 -0.17297249
-0.15767045 0.22698295 0.10495346 -0.2035718 -0.10685427 -0.071468525 -0.09297897 0.025743343
0.021032056 -0.18336685 0.047201272 -0.27020407 0.19717503 0.0108675575 0.16107509 -0.06395408
0.26184872 0.09814025 0.1028694 0.10411734 0.09189479 0.06101703 0.073499106 0.17671844
0.08098203 0.002575606 -0.15027791 0.066188544 -0.07749011 0.25454295 0.038413744 -0.048508924
-0.041715384 0.119384535 -0.07228007 -0.24987206 -0.05584894 -0.0076323384 -0.015905665 -0.056898817
0.0898077 -0.15332693 -0.06675678 0.059951644 -0.078762315 -0.013107454 -0.053554077 -0.007806745
0.04220575 -0.13439657 -0.06411388 -0.10629905 -0.07080667 0.013201762 -0.097262844 0.1109059
-0.08101321 -0.02134854 -0.15905629 -0.059421565 -0.15540862 -0.23824225 -0.020091936 0.06784784
0.26781005 -0.002035971 0.14696099 -0.079745255 0.25606415 0.123772785 -0.1889085 -0.005284742
-0.2176351 -0.08165144 0.02382422 -0.19457802 -0.048504747 -0.066108614 0.08889579 0.049475156
0.120991826 -0.0498941 0.055738654 0.0056614513 -0.0497869 -0.17064793 -0.04573528 -0.13211887
-0.20035574 -0.2268756 -0.0028019103 0.1627731 -0.2283488 -0.044285703 -0.046585523 -0.038419552
0.048446413 -0.27583334 -0.111544676 -0.38271677 0.024141487 0.16809204 -0.16309138 0.03568026
0.15795742 -0.42551455 -0.29236016 -0.3117707 0.116257645 0.038328517 -0.44469112 0.1792845
-0.15858671 -0.20480722 -0.14312229 -0.03449805 0.18542548 0.091739506 0.15105323 0.2720919
0.23325303 -0.07740108 -0.3896449 -0.32616603 -0.08076367 -0.21641125 0.004186977 -0.044918917
0.31201318 0.074280165 -0.0969417 -0.23543893 -0.1256291 -0.03690418 0.03838212 -0.08821483
-0.117259026 -0.23227687 0.031994876 0.19785328 -0.018440241 -0.022663698 0.04470434 0.010987075
-0.15954964 0.033556625 0.19499363 -0.12122726 0.092330165 -0.2775867 -0.03904787 0.14613259
-0.428005 -0.07260548 0.055101246 -0.07663299 0.2131777 -0.26444635 -0.0721596 0.06736805
0.019485233 -0.080601744 0.15535685 0.11748033 -0.064648576 -0.26089963 0.03186597 -0.27196458
-0.3033229 0.11131213 -0.043517165 0.12720479 0.19113882 0.13203646 0.2622031 -0.09603494
-0.07382478 0.1361296 0.022490315 0.068397135 -0.007930909 0.08449261 -0.076969095 -0.16640887
-0.117222555 -0.3444561 0.4108427 -0.011839415 0.06123647 0.20349409 -0.27958953 -0.37821284
-0.14142674 -0.2596194 -0.24171728 0.16168904 -0.29165548 -0.026971519 0.2414879 -0.025475381
0.26402193 0.069777936 0.1317533 0.11763507 -0.2274312 -0.0054685026 -0.052305803 -0.006882975
-0.18248789 0.12947364 -0.2514788 -0.25644284 -0.30629978 0.12326011 -0.21101198 -0.116006725
00000000: 531d c13e 7cc4 803d 4606 5ebe aab9 083e
00000010: 0e92 9e3d c4f7 803d 2a96 edbd 134f 203e
00000020: 4cbe fc3c a509 073b df8d 16be ed0e 453b
00000030: 87c7 a83d 2636 d3bb 02f5 9f3d 6cf8 76bc
00000040: 5f3a 8ebc 5274 273e 0465 e9bd f5db 36be
00000050: 46df d33c fedb 6fbe 6f10 d83b f721 713e
00000060: da4d 0dbe 17b8 88be 4113 3ebd 9833 0cbd
00000070: aa6f fabd 5ee7 2dbe c1c6 963e 0397 df3d
00000080: 9c79 bdbe 91dc 8f3e 7799 86bd 3499 82be
00000090: 583d e6be 13b0 cebd c52d 103e b31f 31be
000000a0: 5d74 21be 386e 683e d7f1 d63d 2075 50be
000000b0: 69d6 dabd 175e 92bd c26b bebd b4e3 d23c
000000c0: 6b4b ac3c 85c4 3bbe 1f56 413d 3058 8abe
000000d0: 40e8 493e d70d 323c def0 243e 5bfa 82bd
000000e0: 0911 863e c1fd c83d 31ad d23d 793b d53d
000000f0: 5633 bc3d feec 793d b386 963d aef5 343e
00000100: e8d9 a53d 80cb 283b 74e2 19be dc8d 873d
00000110: 23b3 9ebd 7453 823e bb57 1d3d 4bb1 46bd
00000120: c0dd 2abd e17f f43d 9307 94bd 76de 7fbe
00000130: dcc1 64bd b218 fabb 994c 82bc bc0e 69bd
00000140: 19ed b73d bc01 1dbe c7b7 88bd db8f 753d
00000150: 234e a1bd a6c0 56bc 855b 5bbd b9cf ffbb
00000160: f0df 2c3d 419f 09be 234e 83bd 51b3 d9bd
00000170: 1603 91bd 344c 583c be31 c7bd a222 e33d
00000180: 41ea a5bd 22e3 aebc a7df 22be 0764 73bd
00000190: 7023 1fbe c7f5 73be d897 a4bc cff3 8a3d
000001a0: 661e 893e ed6d 05bb f17c 163e 7b51 a3bd
000001b0: d71a 833e 967c fd3d 3b71 41be a12b adbb
000001c0: bcdb 5ebe df38 a7bd 032b c33c 763f 47be
000001d0: eaac 46bd f463 87bd ff0e b63d 76a6 4a3d
000001e0: 90ca f73d c15d 4cbd 374e 643d b283 b93b
000001f0: 59ed 4bbd 55be 2ebe eb54 3bbd 2b4a 07be
00000200: 0e2a 4dbe 1452 68be 41a0 37bb fead 263e
00000210: 45d4 69be ed64 35bd 76d0 3ebd d25d 1dbd
00000220: bf6f 463d 073a 8dbe 8971 e4bd 74f3 c3be
00000230: 5ec4 c53c 5220 2c3e 6d01 27be 7725 123d
00000240: 97bf 213e 0bdd d9be 3bb0 95be 69a0 9fbe
00000250: 7d18 ee3d 5dfe 1c3d 8eae e3be 5b96 373e
00000260: 8e64 22be fcb8 51be a68e 12be d44d 0dbd
00000270: 2de0 3d3e ece1 bb3d b3ad 1a3e a14f 8b3e
00000280: e2d9 6e3e 7584 9ebd 897f c7be 3cff a6be
00000290: 6c67 a5bd e99a 5dbe e932 893b e6fc 37bd
000002a0: 31c0 9f3e 3320 983d 5f89 c6bd e716 71be
000002b0: eaa4 00be d628 17bd 9236 1d3d faa9 b4bd
000002c0: 8025 f0bd fdd9 6dbe 0f0d 033d 0d9a 4a3e
000002d0: fd0f 97bc 38a9 b9bc e61b 373d 2203 343c
000002e0: fb60 23be ac72 093d 69ac 473e ff45 f8bd
000002f0: 9917 bd3d d81f 8ebe a9f0 1fbd c8a3 153e
00000300: 7923 dbbe 2fb2 94bd d8b1 613d c2f1 9cbd
00000310: 414b 5a3e 8365 87be 6ac8 93bd 43f8 893d
00000320: 7f9f 9f3c 8712 a5bd de15 1f3e 8799 f03d
00000330: 7966 84bd a394 85be e485 023d f13e 8bbe
00000340: 244d 9bbe 9df7 e33d 0e3f 32bd f941 023e
00000350: e5b9 433e 9134 073e 7c3f 863e f7ad c4bd
00000360: 7231 97bd 8f65 0b3e 9c3d b83c cc13 8c3d
00000370: a5f0 01bc 760a ad3d f9a1 9dbd 1667 2abe
00000380: 6112 f0bd 8d5c b0be f959 d23e 1bfa 41bc
00000390: 18d3 7a3d c160 503e 5c26 8fbe 1da5 c1be
000003a0: 2cd2 10be d6ec 84be bc84 77be d091 253e
000003b0: de53 95be 60f3 dcbc 9b48 773e bfb1 d0bc
000003c0: e22d 873e bce7 8e3d 56ea 063e a8ea f03d
000003d0: b9e3 68be 2031 b3bb 9c3e 56bd 948a e1bb
000003e0: 1bde 3abe bd94 043e d4c1 80be 7a4c 83be
000003f0: 53d3 9cbe cc6f fc3d 8613 58be ef94 edbd

net.4.bias f4 [64]
0.1296528 -0.32898632 0.18068795 0.12170776 -0.019834546 -0.23239477 -0.13664551 0.18698318
-0.048163474 -0.1191807 0.18939118 0.1359353 0.1517606 0.009727223 0.16164714 -0.13082607
0.20596415 0.27633542 0.18106534 0.19089139 0.10803471 -0.014896693 0.11614101 -0.1652302
-0.23963217 -0.030995375 0.22273257 -0.08393471 0.19628115 0.17377187 0.31843922 0.1432178
-0.015614902 0.1262891 -0.12000336 0.2515805 -0.081830144 -0.1531616 0.17364359 0.15745991
0.06743377 -0.25100955 -0.1647616 0.26519614 0.01964905 -0.15863289 0.28504792 0.020897176
-0.09224218 0.11393736 -0.01926399 0.0464277 0.16596735 0.02462571 0.21551673 -0.012396194
-0.06991603 0.22811522 0.17857726 0.17397998 -0.1659153 -0.13476765 -0.12107971 -0.10629944
00000000: b4c3 043e e570 a8be 4306 393e eb41 f93d
00000010: 0f7c a2bc e5f8 6dbe cdec 0bbe 8578 3f3e
00000020: 1047 45bd 0315 f4bd c3ef 413e a032 0b3e
00000030: 2167 1b3e ee5e 1f3c d486 253e 45f7 05be
00000040: 44e8 523e d67b 8d3e 3169 393e 0879 433e
00000050: 4d41 dd3d 4211 74bc 56db ed3d 1b32 29be
00000060: 2362 75be 03ea fdbc 0214 643e f6e5 abbd
00000070: edfd 483e 41f1 313e 770a a33e b0a7 123e
00000080: a5d5 7fbc ee51 013e 52c4 f5bd 29cf 803e
00000090: 9096 a7bd 65d6 1cbe a0cf 313e 2c3d 213e
000000a0: b71a 8a3d 5384 80be 44b7 28be cac7 873e
000000b0: 0bf7 a03c a970 22be cdf1 913e 8e30 ab3c
000000c0: 78e9 bcbd fe57 e93d 84cf 9dbc f92a 3e3d
000000d0: 58f3 293e dbbb c93c 6bb0 5c3e 6819 4bbc
000000e0: 2330 8fbd 0997 693e f5dc 363e cf27 323e
000000f0: b3e5 29be 8800 0abe a4f8 f7bd 85b3 d9bd

net.6.weight f4 [1, 64]
-0.23457684 -0.11200111 -0.3547117 0.12869701 0.04977977 -0.067682445 0.373531 0.20763926
-0.1097766 -0.22542459 0.1493258 0.12971462 0.14576636 -0.47063693 0.11083703 -0.003785515
0.1921341 0.22666556 0.2042763 0.15403873 0.08112498 -0.36297587 0.13993543 0.005288893
-0.01049425 -0.100967556 0.14977528 0.25303102 0.25206205 -0.33027142 0.5135466 0.1379119
0.20092987 0.095676735 0.06790132 0.150709 0.321413 -0.05203376 0.2943917 0.12793297
0.47379175 -0.20244703 -0.09644465 0.102174535 -0.12479584 0.085187115 0.12504683 -0.10019257
0.1767463 -0.27588254 -0.21839724 -0.37636542 0.20905538 -0.017227551 0.2526019 -0.08507323
0.15027827 0.21366164 0.12656926 -0.5899308 -0.16022885 0.0040708273 0.15285933 0.31215727
00000000: e934 70be d760 e5bd c69c b5be 26c9 033e
00000010: dfe5 4b3d 189d 8abd 753f bf3e 639f 543e
00000020: 8ed2 e0bd b4d5 66be dde8 183e e9d3 043e
00000030: c743 153e 53f7 f0be 86fe e23d 6716 78bb
00000040: cdbe 443e 041b 683e ce2d 513e 54bc 1d3e
00000050: da24 a63d f9d7 b9be 3c4b 0f3e 734e ad3b
00000060: 13f0 2bbc 14c8 cebd b15e 193e 488d 813e
00000070: 470e 813e 5619 a9be ca77 033f c738 0d3e
00000080: 8fc0 4d3e 2af2 c33d d90f 8b3d 7653 1a3e
00000090: 3f90 a43e 5a21 55bd 82ba 963e dc00 033e
000000a0: d594 f23e 464e 4fbe c684 c5bd e240 d13d
000000b0: f694 ffbd 9576 ae3d 470c 003e c331 cdbd
000000c0: fbfc 343e 7a40 8dbe 87a3 5fbe f8b2 c0be
000000d0: 9d12 563e cb20 8dbc 0955 813e e03a aebd
000000e0: 8ce2 193e 1eca 5a3e 5f9b 013e b405 17bf
000000f0: 0813 24be 9364 853b 2887 1c3e 14d3 9f3e
