cancer_iterative/cancer_models/20_train/ctgan_final_model.pt (torch, 45337 bytes, 7 tensors)

net.0.weight f4 [64, 30]
0.11227097 -0.11352881 -0.11137811 0.12078925 -0.20495489 -0.15992694 0.14417654 0.13820007
-0.0045082085 0.04417374 0.111863784 -0.020552862 -0.0013291552 0.046897247 0.12826733 0.059650134
-0.04530522 0.12974234 0.100055546 0.061069116 0.19521108 0.058906965 -0.030439178 -0.09122404
-0.012468278 0.050924934 0.105810754 0.18200248 0.08105141 0.07939344 0.11055492 0.070832126
0.02835977 -0.059741896 0.08892495 -0.21054457 0.08870162 -0.15607215 0.006784962 0.20748289
0.03529886 0.021302579 -0.11967263 -0.17932205 0.1409969 -0.077137776 0.10777785 -0.10336719
0.10641339 0.15610941 -0.12628296 0.15049995 0.09662118 -0.0333198 -0.024207547 0.046533797
-0.16992706 -0.17133911 -0.123308405 0.10402287 -0.014899309 -0.03040396 0.2033782 0.100124136
0.1276513 -0.06097411 0.12796567 0.12330382 -0.119405515 -0.12051206 0.009815158 -0.14366505
0.15574038 0.04418477 -0.114982806 0.020171542 0.13886617 -0.089837454 -0.11344195 -0.13896897
-0.057641663 0.13628075 0.11474434 0.041096363 -0.010112219 -0.17695095 -0.06883453 0.096902974
0.05902555 0.0039134077 -0.008887135 -0.036496114 -0.1656337 -0.08234974 -0.057008915 -0.18935126
-0.18725026 -0.081514835 0.17442444 -0.063137054 -0.0993437 -0.2084302 0.12741303 0.10097796
-0.083802655 -0.11292422 0.0070059784 -0.0747308 0.09687119 0.08989574 -0.048068658 -0.046278346
0.10086937 -0.046874847 -0.1837753 -0.18684578 -0.023513196 -0.19728373 0.13796578 -0.17417274
0.07651824 -0.22267854 -0.23290387 -0.075604305 0.22557324 0.069946684 -0.20937322 0.09300173
0.15595126 -0.17137197 -0.04837955 0.18355078 0.059480645 -0.11724695 -0.08037019 0.1301802
-0.0233074 -0.17901456 -0.090088874 -0.1698913 -0.16133568 -0.16689278 0.0051336456 -0.15217084
0.20329414 0.16091432 0.029800907 -0.14719535 0.06178079 0.013151075 0.09395586 -0.13406491
-0.10644332 0.17402123 0.10809877 -0.026113883 0.08107806 0.14510153 0.08967613 -0.03768209
0.19729552 -0.09895735 0.11165169 0.13139728 -0.15692241 0.17628926 0.09284799 0.11044134
-0.016973298 0.1439168 0.11989908 0.030496271 0.14596333 0.09993032 0.06418978 -0.1394212
0.21153837 0.12766822 0.061710063 -0.026041226 0.11512072 0.015090483 -0.088829495 -0.13896118
0.025519859 0.15550226 -0.03482036 -0.050730985 -0.15097938 -0.16016662 -0.10618321 0.16653344
0.02020971 -0.056391533 -0.15343408 -0.11194956 -0.07145826 -0.07005057 -0.11570382 -0.15516199
-0.21635799 0.078403294 -0.16852503 -0.010675084 0.119403996 -0.18811765 -0.11624579 -0.058248654
-0.060272112 0.1439778 -0.049652647 0.17336975 0.1845345 0.18404506 -0.21293274 -0.13165033
0.09023053 0.17528738 0.12881182 0.10719775 0.037299372 -0.12860455 0.18640888 -0.046090104
0.03320958 0.1595078 0.123818964 -0.073485196 -0.20690238 -0.06957488 0.031761058 0.23269685
0.03450801 0.12621813 -0.0211188 -0.07491532 0.007406785 0.16614059 0.03829139 0.052587695
0.052168656 0.006499422 0.11995561 -0.13750918 0.088211514 0.006867955 0.11697957 0.20084716
0.011479907 0.0604146 -0.061540823 0.09716107 0.09530291 -0.037150722 -0.020541992 -0.030143682
00000000: 53ee e53d cb81 e8bd 351a e4bd 5b60 f73d
00000010: b2df 51be e3c3 23be 04a3 133e 5284 0d3e
00000020: 98b9 93bb 86ef 343d d718 e53d 7a5e a8bc
00000030: 0c37 aeba 5417 403d 8358 033e b353 743d
00000040: f791 39bd 2ddb 043e ece9 cc3d 9c23 7a3d
00000050: 6ae5 473e 6e48 713d 955b f9bc abd3 babd
00000060: c047 4cbc aa96 503d 4fb3 d83d dc5e 3a3e
00000070: 48fe a53d 0799 a23d 9e6a e23d 6f10 913d
00000080: c052 e83c ebb3 74bd 491e b63d ff98 57be
00000090: 32a9 b53d 61d1 1fbe 6354 de3b 6576 543e
000000a0: 8a95 103d bf82 ae3c ed16 f5bd 33a0 37be
000000b0: 7e61 103e 69fa 9dbd a2ba dc3d 2db2 d3bd
000000c0: 43ef d93d 25db 1f3e 5250 01be a91c 1a3e
000000d0: 53e1 c53d 587a 08bd e84e c6bc 399a 3e3d
000000e0: 5c01 2ebe 8573 2fbe 1e89 fcbd f109 d53d
000000f0: 3b1c 74bc ba11 f9bc 6042 503e e20d cd3d
00000100: 06b7 023e fdbf 79bd 6f09 033e b786 fc3d
00000110: e18a f4bd 07cf f6bd c2cf 203c ee1c 13be
00000120: 687a 1f3e 17fb 343d 1b7c ebbd ca3e a53c
00000130: ef32 0e3e b3fc b7bd 4154 e8bd e24d 0ebe
00000140: aa19 6cbd 2e8d 0b3e 15ff ea3d a954 283d
00000150: b8ad 25bc a132 35be 1ef9 8cbd 1175 c63d
00000160: c6c4 713d 0b3c 803b 599b 11bc f37c 15bd
00000170: e19b 29be fba6 a8bd 2e82 69bd 4ce5 41be
00000180: 88be 3fbe 40f1 a6bd 529c 323e 004e 81bd
00000190: b674 cbbd ba6e 55be 9078 023e 88cd ce3d
000001a0: baa0 abbd d044 e7bd 6892 e53b 760c 99bd
000001b0: 6764 c63d 421b b83d a4e3 44bd 5d8e 3dbd
000001c0: 9a94 ce3d d7ff 3fbd 982f 3cbe 8054 3fbe
000001d0: bf9e c0bc bf04 4abe e746 0d3e 575a 32be
000001e0: 98b5 9c3d d805 64be 5a7e 6ebe 6ed6 9abd
000001f0: acfc 663e 3540 8f3d ef65 56be b177 be3d
00000200: b0b1 1f3e 227c 2fbe a329 46bd bcf4 3b3e
00000210: faa1 733d 2b1f f0bd 2099 a4bd f54d 053e
00000220: 29ef bebc 984f 37be 8480 b8bd fcf7 2dbe
00000230: 2e35 25be f1e5 2abe 2438 a83b acd2 1bbe
00000240: 572c 503e b9c6 243e 0821 f43c 61ba 16be
00000250: db0d 7d3d 9b77 573c ee6b c03d 5048 09be
00000260: f5fe d9bd 9f32 323e e362 dd3d c8ec d5bc
00000270: 410c a63d 7f95 143e 1ea8 b73d 8958 1abd
00000280: d607 4a3e 27aa cabd a4a9 e43d 028d 063e
00000290: 45b0 20be 2c85 343e 1627 be3d 122f e23d
000002a0: 960b 8bbc ed5e 133e a68d f53d 51d3 f93c
000002b0: 6977 153e 45a8 cc3d ee75 833d 6ec4 0ebe
000002c0: 849d 583e 75bb 023e b1c3 7c3d 6954 d5bc
000002d0: 69c4 eb3d 133e 773c 3dec b5bd d74b 0ebe
000002e0: 060f d13c fc3b 1f3e cb9f 0ebd 4bcb 4fbd
000002f0: 579a 1abe b802 24be 9576 d9bd be87 2a3e
00000300: d58e a53c cffa 66bd d31d 1dbe d045 e5bd
00000310: b558 92bd ac76 8fbd 20f6 ecbd c9e2 1ebe
00000320: f38c 5dbe e891 a03d d391 2cbe 8ce6 2ebc
00000330: 158a f43d eaa1 40be 4612 eebd 2496 6ebd
00000340: e4df 76bd eb6e 133e 9360 4bbd d787 313e
00000350: 9df6 3c3e 4f76 3c3e 0a0b 5abe 58cf 06be
00000360: c9ca b83d 897e 333e 3fe7 033e 7e8a db3d
00000370: 3ac7 183d e9b0 03be f8e1 3e3e fac8 3cbd
00000380: c506 083d 0356 233e cc94 fd3d 687f 96bd
00000390: 38de 53be 467d 8ebd e217 023d 1548 6e3e
000003a0: 4558 0d3d 533f 013e 5501 adbc 346d 99bd
000003b0: 9eb4 f23b c220 2a3e 6fd7 1c3d 3266 573d
000003c0: cdae 553d 1af9 d43b 49ab f53d 35cf 0cbe
000003d0: 3da8 b43d 950c e13b fc92 ef3d e1aa 4d3e
000003e0: 3816 3c3c 4d75 773d 3b12 7cbd 62fc c63d
000003f0: 2c2e c33d 5b2b 18bd ae47 a8bc e2ef f6bc

net.0.bias f4 [64]
0.12068612 0.027881691 -0.061796237 0.16994588 0.1487361 0.13484961 0.03083484 0.01083638
0.09674208 -0.052882317 -0.050534304 -0.1809639 0.0063750455 -0.116105914 0.24517326 0.06091017
-0.0003957773 -0.09537714 0.065768205 0.18227258 0.07064181 0.002960129 0.025953285 -0.06709127
0.0031999263 0.116546 0.15000586 -0.04393641 0.09573063 0.1671803 0.029835397 -0.054564893
0.12849446 0.06099973 0.12073504 -0.010414157 0.06690182 0.22859298 0.08142964 0.030480918
0.11952804 0.20201029 0.10710675 -0.10329312 -0.011442763 0.110497415 0.15393472 -0.030471304
0.20898513 0.05516271 0.18289465 0.2042082 -0.08664543 -0.01781077 0.009473703 0.0984834
0.19749941 0.20680888 -0.03936367 0.18869035 -0.027025444 -0.04213935 0.18698137 0.1470839
00000000: 492a f73d 2568 e43c 0d1e 7dbd 4b06 2e3e
00000010: 474e 183e 0416 0a3e 5999 fc3c 128b 313c
00000020: b620 c63d 219b 58bd 0ffd 4ebd 9a4e 39be
00000030: c2e5 d03b f0c8 edbd b30e 7b3e f17c 793d
00000040: 5480 cfb9 1755 c3bd 7bb1 863d aaa5 3a3e
00000050: a7ac 903d b9fe 413b fc9b d43c 2667 89bd
00000060: dbb5 513b abaf ee3d 239b 193e aaf6 33bd
00000070: 6c0e c43d 5031 2b3e 5d69 f43c 707f 5fbd
00000080: 0d94 033e dada 793d ef43 f73d 24a0 2abc
00000090: d203 893d 4714 6a3e 95c4 a63d 1eb3 f93c
000000a0: 1ecb f43d c9db 4e3e c95a db3d 588b d3bd
000000b0: 6d7a 3bbc 784c e23d 10a1 1d3e f59e f9bc
000000c0: 3300 563e 4bf2 613d bc48 3b3e f41b 513e
000000d0: 2973 b1bd e4e7 91bc 9737 1b3c aab1 c93d
000000e0: 493d 4a3e b5c5 533e cd3b 21bd 0b38 413e
000000f0: 7764 ddbc 509a 2cbd 0b78 3f3e 299d 163e

net.2.weight f4 [64, 64]
0.105040565 0.024790606 0.05614507 0.010210773 0.05683358 0.14626895 0.048280228 0.006270355
-0.04429537 0.16494626 0.07723392 0.13174647 0.06761332 0.009999393 -0.05931806 0.09056872
-0.06932724 -0.12596023 0.0809837 0.00965739 -0.12527457 -0.113316834 0.021207187 0.11108782
0.07764886 -0.007142488 0.120010845 0.09417297 0.15011394 -0.13537742 0.054272756 0.012194777
0.12819171 -0.024492111 0.09509081 0.14628689 0.09369529 0.10341941 -0.0013305089 0.11912072
0.11538573 0.0374166 0.0132551 0.07194109 -0.055728797 0.104031265 0.0739716 0.09994575
0.08902519 0.015436537 0.075373925 0.1832464 -0.073395595 0.088519156 -0.101091 0.034386806
-0.077539176 -0.088160776 -0.0629318 0.084224164 -0.020221146 -0.10276614 0.013542882 -0.04094772
-0.059806805 -0.004444666 0.087959655 -0.06772001 -0.053665698 0.011890148 0.044537958 0.12629627
0.19314484 0.10238747 0.15412208 0.16191347 -0.10993704 0.052758776 0.08957608 -0.04178984
-0.09467717 0.105153285 -0.051500548 -0.032232404 0.084676094 -0.040865693 0.089400046 0.10654462
0.008408875 0.097082414 0.16616948 0.07831173 0.15778896 0.09708515 -0.0057520475 0.01982329
0.056401078 -0.106816895 0.07704783 0.089092255 0.08404188 0.07239981 0.0676169 0.15467231
-0.035749517 0.114090286 0.18663912 0.057480328 -0.00775066 0.11488451 0.012660455 -0.050317377
-0.019510789 -0.0011608745 -0.071769334 0.001328852 0.040407576 0.048899654 -0.13593327 0.07405775
-0.07455921 -0.06173373 0.12346012 0.08223436 -0.0065877885 0.09755563 0.15015154 -0.16229425
0.044651173 0.06571617 0.11287611 0.11013598 0.01174156 0.0039061964 0.0419566 -0.08067906
0.14649285 0.12666437 0.029756716 0.06548367 0.041412815 -0.047853366 -0.06365669 0.09587903
0.04974058 -0.046776325 0.06265679 -0.0010775344 0.07613454 0.17225641 0.08357088 0.049062166
-0.021599857 0.043610603 0.02404641 -0.00397095 -0.023836125 0.06517824 0.12774698 -0.051225673
-0.029923977 0.0007426282 0.14127296 -0.027585376 -0.031978358 0.04146086 0.12149363 0.123973854
0.027799986 0.0133266095 0.08261096 0.068320364 -0.048550934 -0.01090874 -0.014407512 -0.024666911
0.06931446 0.074900046 -0.0018769314 0.034297053 -0.043320913 0.07497791 0.04453805 0.0568686
0.1522879 0.19747582 0.088869005 0.09517469 0.13597076 0.13812701 0.13955475 0.082284644
0.06847303 -0.014960107 -0.011863438 0.032021478 0.044612423 -0.024942523 -0.04231185 0.14245726
0.10826828 0.00911014 0.017833764 0.092791274 -0.055902172 -0.0798548 -0.0037651064 0.112859584
0.059526857 -0.07477919 0.07572387 -0.10236003 0.12104468 -0.12434274 0.07747573 -0.017347021
0.04061667 0.16144183 0.1255738 0.009105618 0.10083005 0.08361824 0.039253794 -0.12937325
-0.04876873 0.089704 0.03400591 0.065524444 0.17413582 -0.05517662 0.02572811 -0.06465727
0.04809005 0.11614262 0.19562633 0.17624843 0.1671673 -0.017045075 0.14016165 -0.025072942
0.019577328 -0.053848077 -0.025165712 0.07899477 -0.08031061 -0.020865023 -0.1383839 0.03169999
-0.027405592 -0.04582005 0.0474533 0.0029001774 -0.15940121 -0.16946003 0.047788307 -0.011874442
00000000: 821f d73d ab15 cb3c 5ff8 653d 164b 273c
00000010: 54ca 683d 87c7 153e 7dc1 453d 8d77 cd3b
00000020: 106f 35bd ace7 283e d12c 9e3d 8ce8 063e
00000030: da78 8a3d 7ed4 233c 7ef7 72bd 187c b93d
00000040: 71fb 8dbd b8fb 00be c8da a53d 083a 1e3c
00000050: fa47 00be a812 e8bd b2ba ad3c 0382 e33d
00000060: 5e06 9f3d 880b eabb 3fc8 f53d c2dd c03d
00000070: 78b7 193e 61a0 0abe 1c4d 5e3d 9acc 473c
00000080: b044 033e aea3 c8bc f8be c23d 3bcc 153e
00000090: 51e3 bf3d 8ecd d33d 7864 aeba 90f5 f33d
000000a0: 5b4f ec3d 2642 193d eb2b 593c da55 933d
000000b0: e143 64bd 580e d53d 6c7e 973d 5bb0 cc3d
000000c0: d752 b63d 87e9 7c3c a55d 9a3d f2a4 3b3e
000000d0: 6e50 96bd 8849 b53d cc08 cfbd 2ed9 0c3d
000000e0: dccc 9ebd a38d b4bd 63e2 80bd b87d ac3d
000000f0: d1a6 a5bc 0e77 d2bd f7e2 5d3c ccb8 27bd
00000100: fbf7 74bd 90a4 91bb 3124 b43d cab0 8abd
00000110: 90d0 5bbd e5ce 423c 6f6d 363d cf53 013e
00000120: c3c7 453e 86b0 d13d 2ed2 1d3e a5cc 253e
00000130: ac26 e1bd 9619 583d aa73 b73d d32b 2bbd
00000140: 1be6 c1bd 9b5a d73d 3df2 52bd 2006 04bd
00000150: a96a ad3d c962 27bd 5f17 b73d 1134 da3d
00000160: 61c5 093c 25d3 c63d 5528 2a3e e661 a03d
00000170: 6e93 213e 94d4 c63d ac7b bcbb 7464 a23c
00000180: d104 673d d1c2 dabd 41cb 9d3d 0076 b63d
00000190: 261e ac3d 5a46 943d bb7a 8a3d 6b62 1e3e
000001a0: 166e 12bd 2ba8 e93d 531e 3f3e 7e70 6b3d
000001b0: 40f9 fdbb 9248 eb3d cc6d 4f3c 9819 4ebd
000001c0: 17d5 9fbc 7c28 98ba cdfb 92bd e02c ae3a
000001d0: 6a82 253d 014b 483d 1732 0bbe 97ab 973d
000001e0: 80b2 98bd 82dc 7cbd a9d8 fc3d 7d6a a83d
000001f0: 60de d7bb 3fcb c73d 53c1 193e 7730 26be
00000200: 26e4 363d 3396 863d 972b e73d f98e e13d
00000210: ac5f 403c 1aff 7f3b afda 2b3d 103b a5bd
00000220: 3902 163e 4eb4 013e 5bc4 f33c 4d1c 863d
00000230: 7ca0 293d e401 44bd 705e 82bd 3a5c c43d
00000240: c7bc 4b3d 8898 3fbd 3452 803d 0e3c 8dba
00000250: 6dec 9b3d fc63 303e 3627 ab3d 69f5 483d
00000260: 2ff2 b0bc 08a1 323d fafc c43c be1e 82bb
00000270: fa43 c3bc 2b7c 853d 1bd0 023e 03d2 51bd
00000280: 2123 f5bc efac 423a dca9 103e bafa e1bc
00000290: bdfb 02bd ddd2 293d a7d1 f83d 01e6 fd3d
000002a0: ccbc e33c da57 5a3c ef2f a93d 8ceb 8b3d
000002b0: 58dd 46bd 92ba 32bc 7c0d 6cbc 4312 cabc
000002c0: bdf4 8d3d 3265 993d 5e03 f6ba 117b 0c3d
000002d0: 4571 31bd 058e 993d 886d 363d 0def 683d
000002e0: 5cf1 1b3e 1a37 4a3e f400 b63d f3ea c23d
000002f0: eb3b 0b3e 2b71 0d3e 71e7 0e3e da84 a83d
00000300: 973b 8c3d 3d1b 75bc de5e 42bc f428 033d
00000310: 84bb 363d 4354 ccbc 314f 2dbd 51e0 113e
00000320: c3bb dd3d b242 153c 1d18 923c 5a09 be3d
00000330: adf9 64bd ea8a a3bd 01c0 76bb ed22 e73d
00000340: 6fd2 733d d525 99bd 1e15 9b3d 23a2 d1bd
00000350: 46e6 f73d 68a7 febd 98ab 9e3d 571b 8ebc
00000360: aa5d 263d 0251 253e 6b96 003e bb2f 153c
00000370: fc7f ce3d 0a40 ab3d 96c8 203d 6c7a 04be
00000380: b8c1 47bd bbb6 b73d c849 0b3d ae31 863d
00000390: a950 323e e100 62bd c2c3 d23c 086b 84bd
000003a0: 13fa 443d 2fdc ed3d 4552 483e 787a 343e
000003b0: e82d 2b3e 1da2 8bbc 8986 0f3e c565 cdbc
000003c0: a260 a03c cd8f 5cbd 5328 cebc 03c8 a13d
000003d0: e479 a4bd 20ed aabc 82b4 0dbe d9d7 013d
000003e0: b181 e0bc cead 3bbd 645e 423d e710 3e3b
000003f0: 123a 23be ee86 2dbe acbd 433d 058d 42bc

net.2.bias f4 [64]
0.09309949 -0.043608256 0.17028497 0.12023904 0.17094564 0.10876849 -0.031544067 0.12653318
0.05999061 -0.05601103 -0.051415883 0.029534856 -0.040567134 0.067276545 0.08320438 -0.0031093732
0.014034998 0.03531652 0.051446535 -0.030562121 0.0056865527 0.12167327 0.08848659 0.13356073
0.07014484 -0.018463396 0.16662371 0.06413187 0.13631347 0.03909113 -0.08566821 -0.021267204
0.0040534916 -0.023337293 0.124274276 0.103033744 -0.005918882 -0.01922177 0.14224634 -0.039958864
-0.09063913 0.11706082 0.13847801 0.062639974 0.0771957 0.1027655 0.065248 -0.020678736
0.038893543 0.15082486 -0.09961542 0.11637035 0.012383427 0.16318393 0.021908816 0.09990499
0.06692961 -0.032382626 -0.03468497 0.13022451 0.008531933 -0.022137305 0.107875444 -0.027305717
00000000: f2aa be3d 929e 32bd 2f5f 2e3e e33f f63d
00000010: 600c 2f3e 04c2 de3d 5a34 01bd ea91 013e
00000020: b7b8 753d d26b 65bd 7699 52bd 15f3 f13c
00000030: b929 26bd 49c8 893d 0f67 aa3d a0c6 4bbb
00000040: 0cf3 653c 0ea8 103d 9ab9 523d 6a5d fabc
00000050: 4356 ba3b d62f f93d 7538 b53d 25c4 083e
00000060: 19a8 8f3d 8c40 97bc 689f 2a3e 9257 833d
00000070: c295 0b3e 051e 203d d172 afbd 8f38 aebc
00000080: 27d3 843b da2d bfbc 8383 fe3d 5b03 d33d
00000090: 2ef3 c1bb f976 9dbc 06a9 113e e8ab 23bd
000000a0: 02a1 b9bd 95bd ef3d 2ecd 0d3e 6349 803d
000000b0: c718 9e3d b876 d23d bea0 853d 7466 a9bc
000000c0: d64e 1f3d d571 1a3e 2b03 ccbd 9453 ee3d
000000d0: dbe3 4a3c b019 273e 1e7a b33c fd9a cc3d
000000e0: 6412 893d a5a3 04bd d411 0ebd 9359 053e
000000f0: 85c9 0b3c 4b59 b5bc cded dc3d 3db0 dfbc

net.4.weight f4 [64, 64]
-0.03366403 -0.10550532 0.14386226 -0.03994224 0.042079754 0.11544274 -0.0019707256 0.024408694
0.12295204 0.08306699 -0.22558387 -0.023184417 -0.0068778642 -0.02591178 -0.009580614 -0.047560122
0.13860193 -0.0004201884 0.019376582 -0.14871655 0.19268373 -0.050424054 0.011579441 0.1077139
-0.1172236 -0.07506227 0.05808729 -0.079626076 0.07056054 -0.06847779 0.053946935 -0.064160116
-0.11941768 0.18903305 -0.028844463 -0.109645925 0.037809115 0.0062822397 0.10529347 -0.0009014373
-0.034720376 0.019305646 -0.083659165 -0.007068004 -0.033776812 0.13716167 -0.04855619 0.02601597
0.080213666 0.066900186 0.03725434 0.13094941 0.06369505 0.15964219 0.060033828 0.051335365
0.06475809 -0.0928315 -0.11602157 0.045135457 -0.07362925 -0.0804622 0.04662393 0.08626931
-0.07001438 -0.05621568 0.04116005 0.046573922 0.108925365 0.026036853 -0.03055077 0.11628476
0.19086246 -0.12748264 -0.25209334 -0.021859052 -0.09173232 0.122136146 0.037007667 -0.14409916
0.029506696 -0.07976277 0.07904837 -0.15690038 0.07515648 -0.08827989 -0.06393491 0.01884864
-0.027614035 -0.095253356 0.08070854 -0.009108007 0.14892235 0.044715796 -0.07286715 0.04869694
-0.017693264 -0.009901297 -0.0058022453 -0.02469718 0.02816413 0.09214867 0.18872215 0.012056944
-0.0104235755 0.078362465 0.025291108 0.007244447 -0.06424447 0.11084248 0.06250153 0.1152984
0.18768902 -0.056784198 -0.05587355 0.14405535 0.047247097 -0.0020420735 -0.09182263 -0.10097044
-0.010228811 -0.096081845 -0.12772316 -0.048631374 0.08823807 0.046243846 0.13514543 0.025584854
0.027489746 -0.039909966 -0.04931109 0.0873653 0.17276454 0.04870581 -0.035746593 0.08857596
0.12803918 -0.057498354 -0.17237931 0.110012285 0.052133135 0.19384198 0.12269564 -0.049101386
0.06329017 -0.04263784 0.043338254 0.04216636 0.20774275 0.024777377 -0.03202579 -0.018575845
-0.020199684 -0.09776437 0.17571421 -0.08806988 0.20362698 0.08861955 0.017265065 -0.08947447
0.05298907 -0.026234826 0.101893626 -0.12567051 -0.13543092 0.05209075 -0.004333872 0.06189741
-0.12353435 -0.09794242 -0.03767888 -0.07465914 -0.09488269 0.22350737 0.009052179 0.077137776
0.12679301 -0.116924554 -0.16469306 0.073599726 0.13750656 0.058032263 -0.02268474 0.014146821
-0.15008843 -0.110621855 0.07099065 -0.0047086366 -0.06969498 -0.13615188 0.103390805 -0.09592648
0.04420391 0.11872719 -0.1085263 0.0454839 0.09162755 0.0118577415 0.08831573 0.00018163685
0.025675729 0.04927282 0.10569926 0.04745248 0.004739598 -0.050031345 0.007291863 -0.009951395
0.046201244 0.08435338 0.025427183 -0.022103582 0.030278822 -0.031615235 0.061028533 -0.0717992
-0.038801134 -0.07192111 -0.06501927 0.012265507 0.048251625 -0.04748868 -0.0460798 0.032589268
0.054029938 -0.04902494 -0.008968866 0.0024511956 0.026074097 -0.063198335 0.0066088894 -0.002099915
-0.05312697 0.059196897 -0.08862012 -0.13990988 -0.03244654 0.028769068 -0.11672093 -0.12391303
-0.11465767 0.055736475 0.09683378 -0.03263001 -0.11465913 0.11459671 0.08305147 -0.13311414
0.013717695 0.0469206 -0.0111034755 -0.07293801 0.029020328 -0.051928412 -0.01048531 -0.017968342
00000000: 4be3 09bd 2c13 d8bd a150 133e 799a 23bd
00000010: d25b 2c3d 3e6d ec3d 4a27 01bb bef4 c73c
00000020: 47ce fb3d 071f aa3d 75ff 66be 3fed bdbc
00000030: b55f e1bb f144 d4bc 02f8 1cbc 67ce 42bd
00000040: aaed 0d3e bb4c dcb9 a3bb 9e3c 2749 18be
00000050: e24e 453e 7489 4ebd b2b7 3d3c 1b99 dc3d
00000060: ed12 f0bd 3fba 99bd f0ec 6d3d ff12 a3bd
00000070: 0b82 903d 153e 8cbd 76f7 5c3d 6166 83bd
00000080: 4291 f4bd e191 413e 394b ecbc 0b8e e0bd
00000090: bbdd 1a3d 3fdb cd3b 1aa4 d73d 6f4e 6cba
000000a0: f436 0ebd e026 9e3c 7f55 abbd b79a e7bb
000000b0: 8e59 0abd 1c74 0c3e dbe2 46bd 721f d53c
000000c0: 1047 a43d f702 893d 0298 183d 9a17 063e
000000d0: 8d72 823d 3e79 233e 08e6 753d 0845 523d
000000e0: e49f 843d 711e bebd b89c edbd f5df 383d
000000f0: efca 96bd 5ec9 a4bd bcf8 3e3d f7ad b03d
00000100: b363 8fbd 6a42 66bd 7197 283d 4cc4 3e3d
00000110: 4314 df3d 3d4b d53c 9c45 fabc b426 ee3d
00000120: 7371 433e cf8a 02be 6112 81be c111 b3bc
00000130: 28de bbbd 8422 fa3d 5a95 173d bb8e 13be
00000140: 07b8 f13c aa5a a3bd 1de4 a13d 7eaa 20be
00000150: a4eb 993d 16cc b4bd 4ef0 82bd 7768 9a3c
00000160: d436 e2bc 3114 c3bd 854a a53d c039 15bc
00000170: 1a7f 183e e927 373d 5f3b 95bd 7176 473d
00000180: 77f1 90bc 0d39 22bc c320 bebb be51 cabc
00000190: 76b8 e63c 71b8 bc3d 6140 413e 7d8a 453c
000001a0: a5c7 2abc 807c a03d 4c2f cf3c d362 ed3b
000001b0: 9b92 83bd 6201 e33d cd00 803d 9121 ec3d
000001c0: 8d31 403e 8c96 68bd aadb 64bd 3f83 133e
000001d0: 2c86 413d 4fd4 05bb 810d bcbd 97c9 cebd
000001e0: be96 27bc 8fc6 c4bd dcc9 02be b131 47bd
000001f0: 29b6 b43d 306a 3d3d 9063 0a3e 5497 d13c
00000200: 2d32 e13c a278 23bd 6dfa 49bd 94ec b23d
00000210: 30e9 303e be7f 473d 056b 12bd 5067 b53d
00000220: b41c 033e 6583 6bbd 3484 30be 1f4e e13d
00000230: 8e89 553d 837e 463e da47 fb3d 891e 49bd
00000240: 479e 813d 04a5 2ebd 7483 313d a2b6 2c3d
00000250: 84ba 543e edf9 ca3c 7a2d 03bd 5f2c 98bc
00000260: cf79 a5bc b038 c8bd 6dee 333e fb5d b4bd
00000270: 9783 503e 2b7e b53d 776f 8d3c 643e b7bd
00000280: 110b 593d 6bea d6bc 9bad d03d c5af 00be
00000290: 67ae 0abe 1c5d 553d 2703 8ebb 2388 7d3d
000002a0: 94ff fcbd 0996 c8bd 2b55 1abd e4e6 98bd
000002b0: db51 c2bd 1edf 643e 974f 143c 69fa 9d3d
000002c0: 07d6 013e 2476 efbd 4ca5 28be 74bb 963d
000002d0: 85ce 0c3e 3db3 6d3d 59d5 b9bc 11c8 673c
000002e0: c8b0 19be b68d e2bd 8c63 913d e84a 9abb
000002f0: 3ebc 8ebd 666b 0bbe 8fbe d33d 1a75 c4bd
00000300: 290f 353d 3e27 f33d 0943 debd 534d 3a3d
00000310: 3aa7 bb3d f946 423c e1de b43d c575 3e39
00000320: e855 d23c 4cd2 493d db78 d83d 885d 423d
00000330: a14e 9b3b abed 4cbd 95f0 ee3b 2d0b 23bc
00000340: 843d 3d3d 77c1 ac3d ab4c d03c 9212 b5bc
00000350: 4b0b f83c fa7e 01bd 0ef9 793d 750b 93bd
00000360: f0ed 1ebd 604b 93bd d328 85bd 44f5 483c
00000370: 7fa3 453d 7d83 42bd 2cbe 3cbd 537c 053d
00000380: 7f4e 5d3d 60ce 48bd 27f2 12bc 3da4 203b
00000390: 5899 d53c 216e 81bd 628f d83b ba9e 09bb
000003a0: aa9b 59bd 7278 723d 777e b5bd 8944 0fbe
000003b0: aae6 04bd 1cad eb3c 620b efbd 1dc6 fdbd
000003c0: a4d1 eabd ee4b 643d ca50 c63d 0ca7 05bd
000003d0: 68d2 eabd aeb1 ea3d e416 aa3d 134f 08be
000003e0: 2fc0 603c d12f 403d 5aeb 35bc 8660 95bd
000003f0: 0abc ed3c e3b2 54bd 94ca 2bbc 5832 93bc

net.4.bias f4 [64]
0.14046684 0.16380551 -0.00279223 -0.04264737 -0.005262677 -0.054756213 0.07411861 -0.07095776
0.079693116 0.040866807 0.077642925 0.049357213 0.1520761 -0.02793282 0.042150658 0.089930095
-0.031433374 0.037362643 0.10763346 0.10478703 0.05478055 0.013144188 0.081667356 -3.1308216e-05
0.064590335 -0.02298603 0.16210273 -0.018954515 -0.011090544 -0.04984188 0.02589282 0.107666895
-0.0046599754 0.019595865 -0.094655104 -0.11435068 0.09567057 0.1250871 -0.060765047 0.010813816
-0.060699068 -0.12369553 -0.015555306 -0.0127402535 0.10217248 -0.05284704 -0.09470961 0.10708121
0.07060564 0.095361315 0.039529875 0.045242306 -0.06814712 0.021258619 0.14092208 0.042462498
0.09883533 0.049255073 0.13948765 -0.025436787 -0.06610028 -0.049909003 0.008643833 -0.065964766
00000000: 8ad6 0f3e a2bc 273e d9fd 36bb 02af 2ebd
00000010: 8972 acbb 0d48 60bd 7fcb 973d 4d52 91bd
00000020: 2536 a33d f463 273d 4103 9f3d ca2a 4a3d
00000030: d6b9 1b3e 5fd3 e4bc 2ba6 2c3d 452d b83d
00000040: 48c0 00bd 9209 193d ee6e dc3d 959a d63d
00000050: 9261 603d b85a 573c 3741 a73d f150 03b8
00000060: f047 843d 334d bcbc 42fe 253e 8046 9bbc
00000070: 1db5 35bc 0027 4cbd 2e1d d43c 7680 dc3d
00000080: b5b2 98bb 8287 a03c 89da c1bd b030 eabd
00000090: efee c33d d516 003e c5e4 78bd 6f2c 313c
000000a0: 969f 78bd 1554 fdbd afdb 7ebc 7fbc 50bc
000000b0: ce3f d13d 2376 58bd 1df7 c1bd 654d db3d
000000c0: b199 903d cb4c c33d 14ea 213d ff4f 393d
000000d0: b890 8bbd 8e26 ae3c e14d 103e 28ed 2d3d
000000e0: 2d6a ca3d b0bf 493d dad5 0e3e cf60 d0bc
000000f0: 955f 87bd 626d 4cbd dd9e 0d3c 8918 87bd

net.6.weight f4 [1, 64]
0.18094471 0.124636985 0.14001542 0.09441139 -0.13607554 -0.168621 -0.15956435 -0.12555777
0.16038983 0.13685045 0.13850772 -0.30612415 0.0957498 0.09055081 -0.11594939 0.126381
-0.13267098 -0.06058281 0.16575529 0.14904621 -0.20150946 0.17374603 0.12263724 -0.17025928
-0.0999613 0.11287479 0.15896209 -0.097715005 -0.18913078 -0.16618341 -0.13154852 -0.082323775
0.14224754 -0.098041706 -0.17583616 0.031272065 0.12914747 0.19224244 -0.09081579 -0.11766414
-0.18943447 0.009638546 0.12943995 -0.14913635 0.14993599 -0.03853363 -0.10134041 0.111739315
-0.10836297 0.1367773 0.108508974 0.12021845 0.099133015 0.20081995 0.14430691 -0.12435925
-0.11403352 -0.13069673 0.16820073 -0.2126869 -0.14891854 -0.115543194 -0.20223887 0.15313078
00000000: 9249 393e ad41 ff3d 3460 0f3e c25a c13d
00000010: 6357 0bbe fcaa 2cbe d664 23be 3792 00be
00000020: 3b3d 243e 8622 0c3e f8d4 0d3e 4ebc 9cbe
00000030: 7918 c43d b472 b93d e076 edbd 056a 013e
00000040: e7da 07be ae25 78bd c1bb 293e 929f 183e
00000050: 7f58 4ebe 7bea 313e 3c29 fb3d 7358 2ebe
00000060: 83b8 ccbd e62a e73d f5c6 223e ce1e c8bd
00000070: 80ab 41be fc2b 2abe a8b4 06be 5e99 a8bd
00000080: 57a9 113e 17ca c8bd 650e 34be 2317 003d
00000090: 3c3f 043e 34db 443e a1fd b9bd e6f9 f0bd
000000a0: 1cfb 41be feea 1d3c e88b 043e 33b7 18be
000000b0: d288 193e 71d5 1dbd 908b cfbd 95d7 e43d
000000c0: 68ed ddbd 590f 0c3e f439 de3d 1735 f63d
000000d0: 4006 cb3d bfa3 4d3e 31c5 133e 10b0 febd
000000e0: 688a e9bd 5dd5 05be d03c 2c3e 98ca 59be
000000f0: 1a7e 18be e9a1 ecbd b517 4fbe 51ce 1c3e
