cancer_iterative/cancer_models/20_train/tvae_final_model.pt (torch, 45323 bytes, 7 tensors)

net.0.weight f4 [64, 30]
00000000: 309c 65be 91e5 90be 6c2c 71be e378 283d
00000010: 7b6c a7bd 0d00 673e 22a9 78be 99e5 c3bc
00000020: 41a2 4f3d 047c a3bc f11f 98bc 995c 13bc
00000030: 4485 0c3e 88b7 c63d 2f3f 92bc 690f 183c
00000040: e78b 793d 29a5 153e 6658 1f3e 993e 9abd
00000050: fa0f 52bd f55c 5abe c094 1d3e 9feb 84bd
00000060: e918 8d3d 973d c9bd 5ba7 25bd 39ad aabd
00000070: f12f aabd 9645 07be 180d 99be ad7d 78be
00000080: f80f f6bd 6b32 f9bc 85e3 d23d e4ce 0e3e
00000090: 5e8e 15bd f548 dfbd 44b4 c53c fc02 ddbd
000000a0: fff8 203e abf4 cdbd 023f ee3d 83d4 5ab9
000000b0: dc13 d63d 1150 c7bd b158 6dbd b057 703e
000000c0: 99bc 963c 1296 663d 3c49 70be 27eb 123e
000000d0: b4fd ba3d c6e5 8dbd f502 5ebe 8184 b6bc
000000e0: 1e5e e03c 34aa 7dbe 3194 393d 5f2e 9cbd
000000f0: 14d0 7bbd a3d1 013e 17be a8be 288c adbd
00000100: b81d 1e3b 62a1 283e eee0 58be c939 a2bd
00000110: 3456 6abc ea45 78bd b3f3 5cbd 1eb3 da3d
00000120: 517d 3abe 62af c0bc 3a2f 153e 3978 f8bd
00000130: 41df e2bd aa90 50bc 566b 75be 74c7 093d
00000140: b800 293d a441 b13d 2fff 713d b535 afbd
00000150: 4a65 de3c 995e babc 2c33 06be b6f0 f63d
00000160: bd67 db3d 646d c23d 35d5 da3d 9c8d 393d
00000170: 2571 65be 6ec1 c2bd 653f 1fbe 97ff 53be
00000180: 3fc3 b43d c08b 0bbe 9af1 1fbd e070 1bbe
00000190: 74ac fabb e9b4 05bd 5d99 223e d315 1dbe
000001a0: 98e1 6d3e 2e26 2e3d 3d3a f83c 0d56 60bd
000001b0: ed20 9fbd 0706 e9bd fd80 d9bd 84d5 3c3e
000001c0: d0d1 48bd 438c 86bd 7628 2bbe 7018 96bd
000001d0: 8ca4 f13d feb0 963c c7de 0abd df61 843d
000001e0: 38b2 98bd ff26 e0bd 7599 bf3c 424e 853c
000001f0: 0c50 6ebe dc8c a6bc 184c 5cbe 5163 243e
00000200: 167f ce3b f19d c2bc bfd2 863d 8169 11bd
00000210: f4b0 4c3d e925 873d c08e 26bd 6811 d2bd
00000220: 3b44 83bd f24b d2bb cd26 23bd af66 8ebe
00000230: 5701 17be af3b bdbd a679 19bd 18ad 48be
00000240: 4610 74be 6698 aabc 2da7 1e3d ddf1 99bd
00000250: e471 793d b594 95bd 2e7a 8c3d fe92 4d3b
00000260: 4fca 50bd 98ea aebd 0545 abbd 365c 29be
00000270: c994 45be d42b bebd 84fa 0cbd f2a6 cabd
00000280: 6a2b b1bd 3969 75bd c4b8 81bd dfd0 cdbd
00000290: 59e9 3a3e d3fd 043d 3223 d63b 2727 423d
000002a0: 7910 6c3e 0ede 50be 6491 16be a7cb a13d
000002b0: 265c 11be 755b 6dbe ac72 b43d 1f38 38bd
000002c0: a625 40bd 06af 873d 3a74 923e ee8d 603e
000002d0: e2fe cd3d b985 233d e7af 153e 6a49 62be
000002e0: ea47 343e 4690 50be 72bb df3d 6f78 ee3d
000002f0: 8f8a acbd 4b5b f93d 1f9e b5bc 1201 3abe
00000300: 1268 3fbe 4346 adbd c231 4e3e 237b 033d
00000310: 1868 3cbe 4335 003e c6e5 01bd ddb6 b03d
00000320: 88dd fc3c 15e8 843e 861e 1bbc c0a8 f73c
00000330: b8fc 21be cef8 ffbd 452c 113e 2493 0c3c
00000340: 3fa3 e93a c7c3 e03d e39a 05be eb06 373e
00000350: 64bd 7dbd c803 733d 435d 05bd d117 9bbc
00000360: 21db 313e d799 283c 3e0b 31bd c539 b6bc
00000370: 099b f9bd f85e 69bd ab59 dcbd edee 4bbe
00000380: ba25 74bd 8601 063e 55ec 45bd 159f 1f3d
00000390: bd2d f6bd 7749 d0bb 3501 19be 6f61 983c
000003a0: a142 37be 5528 97bd 40f8 8f3a 6074 db3d
000003b0: 933c e8bd a7c4 2a3d 4bbc 09be f6c4 f13d
000003c0: 0bc9 e13d 0686 05be 4deb 43be 28d5 833d
000003d0: e9c8 6ebe 4dcf 5ebe bff4 923c a5ff cfbb
000003e0: f821 17be 0e61 cebd 299d de3c eb42 99bd
000003f0: 1a62 07bd 6f5e 9abe 3127 263d df8e c1bd
-0.22422862 -0.28300145 -0.23552102 0.04113091 -0.08174988 0.22558613 -0.24283269 -0.023913192
0.050691847 -0.019956596 -0.018569918 -0.008994245 0.13722712 0.097029746 -0.017852394 0.009281018
0.060924437 0.14613785 0.15561065 -0.07531471 -0.051284768 -0.21324523 0.15388775 -0.06490254
0.06889517 -0.098262005 -0.040442806 -0.08333821 -0.08309925 -0.13210139 -0.29892802 -0.24266692
-0.120147645 -0.030419549 0.10297302 0.1394611 -0.036512725 -0.10902587 0.024133809 -0.10791585
0.15719984 -0.10056432 0.116331115 -0.00020869267 0.104530066 -0.09732068 -0.05794591 0.2347095
0.018400477 0.056295462 -0.23465437 0.14347516 0.09130421 -0.069285914 -0.21680816 -0.02227998
0.027388629 -0.24771959 0.045307342 -0.07626032 -0.061477736 0.12677626 -0.32957527 -0.08473998
0.00241266 0.16467813 -0.21179554 -0.07921178 -0.014302779 -0.06061355 -0.053943347 0.10678695
-0.18211867 -0.023521129 0.14568797 -0.12132306 -0.110777386 -0.012729803 -0.23966727 0.03363748
0.04126045 0.08655098 0.059081253 -0.08555166 0.027147908 -0.022750186 -0.13105458 0.12057631
0.10713146 0.09493521 0.10685197 0.045301065 -0.22406442 -0.0950955 -0.15551527 -0.20702969
0.08826303 -0.13627529 -0.03904877 -0.15179777 -0.0076499525 -0.032643232 0.15878816 -0.15340357
0.23230588 0.04251688 0.030301208 -0.054769564 -0.07769952 -0.11378103 -0.10620306 0.18440825
-0.049028218 -0.065697215 -0.16714653 -0.0732888 0.11798963 0.018394943 -0.033903863 0.0646398
-0.074558675 -0.10944938 0.023388604 0.016272668 -0.23272723 -0.020330839 -0.21513402 0.16053511
0.006301771 -0.023756953 0.065831654 -0.035501007 0.049973443 0.06599028 -0.04066348 -0.10257226
-0.06409498 -0.006417745 -0.039831925 -0.27812716 -0.14746605 -0.09239899 -0.03746953 -0.1959728
-0.23834333 -0.020824622 0.03873365 -0.07516835 0.06089963 -0.07303754 0.068592414 0.0031368132
-0.050974187 -0.08540839 -0.08362774 -0.16539082 -0.19295038 -0.09285703 -0.034418598 -0.098951235
-0.08650859 -0.0599148 -0.06334069 -0.100496046 0.18253078 0.03246863 0.0065349573 0.04740062
0.23053159 -0.20397207 -0.147039 0.07900172 -0.14195308 -0.2317942 0.088109344 -0.044975396
-0.046910904 0.0662518 0.286043 0.21929142 0.10058381 0.03992245 0.14617883 -0.22098318
0.17605558 -0.20367536 0.10924424 0.11644065 -0.084248655 0.12175616 -0.022170125 -0.18164471
-0.18692043 -0.08460667 0.20136169 0.032099854 -0.18399084 0.12520318 -0.03171327 0.086286284
0.030867353 0.25958315 -0.009467727 0.030231833 -0.15819061 -0.124986276 0.14177044 0.008580003
0.001782514 0.109748416 -0.13047366 0.17873733 -0.061948195 0.059329778 -0.032559644 -0.018932255
0.17368747 0.0102905845 -0.043223612 -0.022244344 -0.12187774 -0.056975335 -0.1075929 -0.19915362
-0.05960629 0.13086519 -0.048321087 0.03897007 -0.12020443 -0.006356414 -0.14941867 0.018601147
-0.1789651 -0.073807396 0.0010984018 0.10715556 -0.113396786 0.04169145 -0.13450734 0.118051454
0.11024674 -0.13039407 -0.19132729 0.06437141 -0.23318829 -0.21758766 0.01793897 -0.006347614
-0.14759052 -0.100771055 0.02717455 -0.07483467 -0.03305254 -0.30150172 0.04056472 -0.094510786

net.0.bias f4 [64]
00000000: 1fe0 0bbc 1cc7 463d d2e1 453e 3cbd f43d
00000010: e36b 38bd 273a 983c bf37 98bd bb94 163d
00000020: 6018 093e ed4a 40bd 756c ecbd 1b75 4d3e
00000030: 9563 0a3d 0f80 9ebd 9e03 c7bc ef20 06be
00000040: ec5e 12be 1619 8dbc 5e48 08bc b900 783d
00000050: 79e6 ed3d a009 14be 3740 2e3e 16d1 09bb
00000060: 39b1 473e 0a83 f73d 5039 a43d 59c7 d73d
00000070: eba4 483e 4984 0d3e e8e9 0b3e 94f0 a83c
00000080: f049 31bc 5160 9c3d cf42 27be db2c 713c
00000090: 2c10 223e 575d efbd 5d17 6f3d 8593 20be
000000a0: 17bf 00be f7c7 d5bd 3efb 453e 5f98 8c3d
000000b0: 3784 9f3c 800c 1bbd 6471 183e c726 61bc
000000c0: d68a 8cbd 117a e1bd 6ee0 ccbd ca18 70bc
000000d0: 7b07 043d 543e 17be c5c4 f7bd aa87 6e3d
000000e0: 456b 0c3e f0b2 e6bd 8d1b 5b3e 0175 69bd
000000f0: 825d 0fbe 54e7 84bd 40c9 0d3e d9a9 5b3e
-0.008537321 0.04852973 0.19324425 0.11950156 -0.045024764 0.018582417 -0.07432508 0.036762934
0.13388205 -0.046946455 -0.11544124 0.20064203 0.033786375 -0.07739269 -0.024293717 -0.130985
-0.14294022 -0.017223876 -0.008318035 0.060547564 0.11616225 -0.14456797 0.17016684 -0.0021029166
0.19501199 0.120855406 0.08018744 0.105360694 0.19594161 0.13819994 0.13663447 0.02062253
-0.010820851 0.076355584 -0.16334079 0.014720167 0.15826482 -0.11687725 0.05837189 -0.15681274
-0.12572895 -0.10438531 0.19334123 0.06865 0.019472225 -0.037853718 0.14887005 -0.013742155
-0.06862418 -0.110096104 -0.10003744 -0.014654348 0.032233696 -0.1476987 -0.12098078 0.058234848
0.13712795 -0.11264598 0.21397229 -0.05699635 -0.14000514 -0.06489435 0.13846302 0.2145151

net.2.weight f4 [64, 64]
00000000: 5e98 da3d 76f7 b23d 2550 3b3d 7f49 5cbd
00000010: 21a0 3a3e 00ae f63c d3ce 17bc 676f c73c
00000020: 2c9d 123d 8178 33be c3ca e8bd 0303 90bd
00000030: c7f9 883c 66bd d03d 2309 42bd 9efb 15bd
00000040: 7f62 073d 5947 a939 fd13 b73d 72ef ce3c
00000050: 68d1 783d b340 df3c 01ac 1d3e f8bd a53d
00000060: ad59 92bc db68 2ebc 2a4f 423d 4891 ac3d
00000070: c3a5 aebd 33d1 5c3e a3a7 603e 4871 12be
00000080: 698b fb3c 4e48 eabd dbe9 103e d0d6 a03d
00000090: 7295 29bd d1c2 a83d 88c4 3a3e 67f7 47be
000000a0: b225 ea3d 3af7 a93c 8ab9 c5bd f2e8 18be
000000b0: 4ce5 ef3d 75b0 9dbd 5796 a6bd 9849 abbc
000000c0: ee51 123e 6c88 d0bd 0df9 c03d a3db ddbd
000000d0: 5042 21bd 7d20 643e e049 2f3e a789 1b3e
000000e0: f045 babd 0755 a83d eec5 84bd bb61 1d3e
000000f0: e2c9 c83d b226 dfbd 7e92 1dbe 0424 273d
00000100: d800 103d ae76 013e 20b3 12bd c52f 2bbd
00000110: 29a8 2e3e 45ad 90bd 4043 fa3d b3ee 013e
00000120: 570c 983d 0b52 88bb be66 e8bc acb0 4ebd
00000130: 39cc febd a90b fb3d 8615 c9bc a24b 333e
00000140: f525 433e f89c dc3d 810b 173e 9483 853d
00000150: 18eb bb3d 494e 89bd 2413 1c3e 9af7 033e
00000160: 68b9 be3d 8bc7 e83d b740 ba3c 82ae 32bd
00000170: 49c8 aebd 9ab7 283e 7c67 ba3d 5da3 8d3d
00000180: eb03 8c3d 258d 4c3d ca9c cd3d 97a7 133e
00000190: 19e1 50bd 8a27 833d 34ee c13d e3fe ffbb
000001a0: 3fcc c0bd 4658 d33c 3933 243d 1681 92bd
000001b0: 725f 373d 33fd 5fbd 7bb1 d0bc ab9c f8bd
000001c0: 44d1 7e3e 6c2a 1f3d e949 823d 3c4b e4bd
000001d0: 954a 80be c550 723e a225 4bbd fb72 033e
000001e0: 4280 a7bc eb6b f8bd 2426 913d eae1 923c
000001f0: 8002 b1bd b8dc f83c c95c 32bd 9c7a 7ebd
00000200: e1ba ccbd f76c 843d e565 db3d 541a 9cbc
00000210: e4bc 1d3e aaca 95bd 8f2d 5cbe 7e00 6d3d
00000220: 3b63 933d 9553 163e 2f5f 333e afed 113e
00000230: 90c9 453e f06d f13c 36de 58bc 3181 523d
00000240: 9bb1 41be 5a52 373e a311 0dbd c564 51be
00000250: 641c 0abd 8222 233d 8cdb 9ebd f1b0 e23d
00000260: 74da debc b13d b33d 5cc6 01be edb5 1c3e
00000270: 2d69 203e 9c7f 37bd 75da 88bd c534 8d3c
00000280: e58e 163e 8bc3 13bd a31a d93c 8756 9b3d
00000290: afaa 05bd 1b60 13be d922 d83d 8744 d6bc
000002a0: 94ec d53d 8957 fcbc ee9b 03bd 7a84 e83c
000002b0: 6b78 5bbd a2fb bd3d 93af 053e e343 343e
000002c0: 6c00 88bd 4ec9 773d 3870 f0bd 8688 333e
000002d0: d0e8 663e 64f2 1fbe 8eb4 8dbc 3fa8 ea3d
000002e0: 7ab5 503c c3e8 2e3d 04ec dd3d c99a 823d
000002f0: 3d91 643d fe1d f73d bb7b 663e 968d 5e3e
00000300: f48a 583d 9820 3c3e 0254 883d 7878 f3bd
00000310: 69f0 ea3d e6e3 e63d cbf0 253e 8713 353d
00000320: a0d3 0f3e 54e1 323d 288b 1dbe ad85 c1bc
00000330: bc8c 653c fae2 523a 7bee 1b3d d551 c53c
00000340: 05b6 3d3e b078 a0bd 9147 033e 43ab e23d
00000350: fdeb 503d 95ea 51bd b63f 173d 5503 b43d
00000360: 5e06 ccbd 72b2 b13d 2a01 0a3e c0c2 c53d
00000370: 9d27 6bbd 514a 38bd cfba de3d c861 993d
00000380: 3065 4abd b327 d3bd 2b16 a03d 90de 3f3e
00000390: 56d4 b23d 222a 4a3e b19b f03d 78c6 f8bd
000003a0: 129e af3d edc1 8cbd 37bd e5bd 40b4 33be
000003b0: 0dc2 da3d b9cf 98bd 157b c03c 49f8 0cbe
000003c0: 7142 853e b825 003e 3000 913d e73b edbd
000003d0: 0935 02be a9a3 553d 7f7f b73d 76d6 9c3d
000003e0: d690 a0bd dce9 493d 337d 24bb 5b31 40bd
000003f0: c363 373d a67c 78bc edbf 3bbe 1649 60bd
0.10673593 0.08738606 0.04573073 -0.05378103 0.18225147 0.030112267 -0.009265619 0.024345113
0.035794422 -0.17526437 -0.11366799 -0.070318244 0.016720666 0.10192375 -0.047371995 -0.036616914
0.033052918 0.0003228735 0.08939359 0.02526066 0.06074658 0.02725253 0.15397646 0.08092874
-0.017865026 -0.010645117 0.047438778 0.08426148 -0.0852771 0.21564178 0.21938948 -0.14301026
0.030706124 -0.11439572 0.14151709 0.07853472 -0.041402288 0.08240283 0.18239033 -0.1952797
0.11432971 0.02074777 -0.096545294 -0.14932612 0.11713657 -0.07699672 -0.08134144 -0.020909116
0.14289066 -0.101822704 0.09422503 -0.10832908 -0.03936988 0.22278018 0.17118025 0.15189229
-0.09095371 0.08219343 -0.064830646 0.15369312 0.09804131 -0.108960524 -0.15387914 0.04080583
0.035157055 0.12642929 -0.03581536 -0.041793603 0.17056336 -0.070642985 0.12219858 0.12688713
0.07424229 -0.004160171 -0.028369304 -0.050461456 -0.12441296 0.122580834 -0.024546396 0.1750932
0.19057448 0.10772127 0.14750482 0.06519237 0.091757 -0.06704385 0.15241677 0.12887421
0.09312707 0.11366185 0.022735937 -0.043623455 -0.08534295 0.16476288 0.09101769 0.06915925
0.06836685 0.049939293 0.10039671 0.14419399 -0.05099592 0.06404026 0.09469262 -0.0078123673
-0.09413957 0.025798928 0.040087912 -0.071535274 0.044768758 -0.05468483 -0.025475254 -0.12139257
0.24884516 0.038858816 0.063617535 -0.11147162 -0.25056902 0.23663624 -0.049596436 0.1283683
-0.0204469 -0.12129959 0.07087353 0.01792999 -0.08643055 0.030378684 -0.043545518 -0.06212865
-0.09996582 0.06466096 0.10712794 -0.019055523 0.15404087 -0.07314046 -0.21501754 0.057861798
0.07196661 0.14680322 0.17516778 0.14250825 0.19315171 0.029471368 -0.013236573 0.051392738
-0.18915407 0.17902508 -0.034440648 -0.20448597 -0.03371848 0.03982783 -0.07756719 0.11068905
-0.027203776 0.08752001 -0.12673324 0.15303774 0.15665121 -0.044799432 -0.06682292 0.017237077
0.14702947 -0.036075156 0.02650196 0.07584863 -0.03263348 -0.1439213 0.10553522 -0.026155723
0.10445514 -0.030803459 -0.032131128 0.028383482 -0.053581636 0.09276511 0.13055257 0.17604022
-0.066407055 0.060494713 -0.11740154 0.17532548 0.22549748 -0.15619808 -0.01729801 0.11457872
0.01273858 0.042702448 0.10836032 0.06377179 0.055802573 0.120662674 0.22508137 0.21733698
0.05286689 0.18371809 0.06656648 -0.11888212 0.11471636 0.11273937 0.16205136 0.044208076
0.14045572 0.04367192 -0.15385115 -0.023623312 0.0140106045 0.00080446864 0.03806923 0.024086872
0.18526466 -0.07835519 0.12820269 0.11067822 0.051006306 -0.051249105 0.036925994 0.08789698
-0.09962152 0.08676614 0.13477007 0.09656286 -0.057410825 -0.04499275 0.10875475 0.074893534
-0.049412906 -0.103103064 0.07816728 0.18737245 0.08731906 0.19742635 0.11748446 -0.1214723
0.085750714 -0.06872926 -0.112177305 -0.17549229 0.106815435 -0.07461495 0.02349619 -0.13766588
0.26027253 0.12514389 0.07080114 -0.11583691 -0.12715544 0.05215803 0.08959865 0.07658093
-0.07840125 0.04929529 -0.0025099039 -0.04692207 0.044772875 -0.015166437 -0.18334933 -0.0547572

net.2.bias f4 [64]
00000000: f270 f8bc caab 963d ac36 2b3d e52a 033c
00000010: 3458 ff3c de1a 15bc 353b 2b3e ab41 203e
00000020: 9761 483d b07e dd3c f11c 01bc 142f 803d
00000030: 186c 593d cb74 9fbd 0e74 7f3c 30ba 843d
00000040: 7ee0 61bd 14cd babd 2c39 51bc 69f1 0c3e
00000050: ffcb f6bd a48f 6c3d 9f35 b5bd aa75 a2bd
00000060: 7ded 643d 072e 30bd d1e1 bebc 6053 41bd
00000070: db08 e5bd 13ce d3bd 2f7d 46bd 1010 4ebb
00000080: 10e9 fb3d bffc 27bd 9230 1a3d fda8 5a3c
00000090: d2cc 4b3e b261 ad3c deee 753d f809 923d
000000a0: 4e80 d83d b29b b0bc cd18 bb3d 5775 b33d
000000b0: 06de acbd bfd0 ecbc 9a7c 793d 1520 b0bd
000000c0: c290 be3c 72cf 49bc 6df2 fe3b 54d9 c13d
000000d0: 1fd4 3dbd 2d50 0a3e 267a a53d c308 3ebd
000000e0: 97cf 87bd 8846 9d3d 388e 0cbe 1e5d b53d
000000f0: 9744 3abc d289 d2bd 6c35 6e3d 9982 863d
-0.030327294 0.07356985 0.041800186 0.008005832 0.031169988 -0.009100644 0.16721804 0.1565005
0.048921194 0.027037948 -0.007880435 0.062589794 0.0530816 -0.07785948 0.015591634 0.06480825
-0.055145733 -0.09121147 -0.0127699785 0.13763966 -0.12050628 0.057754174 -0.08848118 -0.07932599
0.05589055 -0.043012645 -0.023301037 -0.047198653 -0.1118333 -0.1034204 -0.048459228 -0.003144268
0.123003125 -0.04101252 0.037643977 0.013345954 0.19902351 0.021164749 0.060042255 0.07130808
0.10571347 -0.021558616 0.0913559 0.08762615 -0.08440785 -0.028908132 0.060909845 -0.08599869
0.023262385 -0.012317525 0.0077803642 0.0946528 -0.046344873 0.13507147 0.080799386 -0.046395075
-0.066313915 0.076794684 -0.13726127 0.08855651 -0.011368892 -0.102801934 0.058156416 0.06567878

net.4.weight f4 [64, 64]
00000000: 617d bfbc 647c 51bd 1c8f 4e3e 0899 11be
00000010: 35a4 a0b9 a934 413e 06cf 9a3d 73ea 513e
00000020: 3f79 49bc 0d78 72bd 7a20 b3bd f5d5 5b3e
00000030: 9945 36be 3316 75be 8686 36be b554 453d
00000040: 8190 b03d 6ff5 49be 32fa 663e 2c75 353e
00000050: 1487 42bd 7a96 fa3c 446d a4bd 9731 51be
00000060: 6b22 9d3c 7409 8ebd 8f24 82bd a125 4d3e
00000070: 5e57 c63d 0ed8 113c d18e 223e 90fb 813d
00000080: 71e9 d03c ca1b 14bd 4eec 363d 885a 073e
00000090: 7b51 0e3e 65e4 943d c364 903c c950 443c
000000a0: 429e 85bd 1a65 5c3d 7618 0c3e 66bc 8c3c
000000b0: 3b9d 12be 5a68 07be 0699 1ebe 755d 70bd
000000c0: 3733 0cbd b9fa d1bd c4ac a63d 90e0 e6bd
000000d0: 5b45 9e3d 413d 303e 72d3 703d 958f 00bc
000000e0: ea56 1bbd ba38 2c3e 0200 36be f0c8 20be
000000f0: 29db f2bc 1108 4bbe 57e4 083d f063 f0bd
00000100: 16a9 90bc 024c a23c e365 123e 3353 d4bd
00000110: da94 b3bd 8b26 733d 5492 263e df7e 6f3b
00000120: c416 2abe 163d 6ebc f5f1 d4ba c7f8 ac3d
00000130: bdb2 1cbe 27ea 17be b075 0cbe fb97 07be
00000140: 9ebb b3bd ca26 38bd 873a 983d a510 3a3c
00000150: 9c3b 63be b782 8d3d d458 14be 7761 1ebe
00000160: 98f0 3d3e 6b8a e9bd 1a6b 05be e855 08ba
00000170: db2d d73d 23c4 08be 0958 333e a1bf a73d
00000180: 32e7 513e f09b 20be d1f6 383e bd00 cb3d
00000190: 32fb e63d 21c5 723e e131 d03d 3488 d53d
000001a0: 5b7e 813d aab2 693e dd2d b13d b909 9ebc
000001b0: 1d45 29be 6bba 1a3d 0244 89bc 7f7f 1dbd
000001c0: 0ae9 953b 2247 b2bc fd7a 1b3e a44b 08be
000001d0: e06a 643e 3226 293e 0cd1 363d da77 80bd
000001e0: f90c cdbd be73 3d3e c675 a2bd b7f3 f73c
000001f0: 590c f1bd 3310 03be 12e0 6c3d 0860 6c3b
00000200: 2feb 1ebd 8ecf b33d c85b 103e bf92 86bd
00000210: 82df a53d c91e 703e 332d 203e a03b 093e
00000220: dccc 013c 7fc9 debb 02a1 adbd 0c78 633e
00000230: b70b febd 1fa9 67be 5c61 79be 4226 89bc
00000240: 4b1e 423d caad 53bc 41b2 103e ffbf 263d
00000250: 65cd afbd 3780 07be 327a 25be 65fc 4dbe
00000260: c8ef b23c 5849 093d 9d89 20be af08 3c3e
00000270: 50be ad3c f25a c9bd 8982 d33d d1a8 9dbd
00000280: 2bff 343d 20ea b3bd 94fb 2a3e d4e0 d23c
00000290: 0e66 333e befd c93c 4aa0 2d3e 10a3 ee3d
000002a0: 321a c33d 66f1 803d 74b2 cd3d fbe2 08bd
000002b0: 1bc6 19be b229 9fbd f5d8 003d 013a 3bbe
000002c0: 89e7 c3bd 91e8 3ebe 2d72 df3c 286c 1ebe
000002d0: c4b0 d33d b91f 1c3e 05d5 07be b8e9 e2bd
000002e0: 4465 aabd dc58 503e 859d a8bd 8b4d 19be
000002f0: f956 94bd 1e49 66bd e92b dc3d 3b34 873d
00000300: 5330 cebb 1ad1 65bd 4473 313d 2f1e 09bd
00000310: 2de2 8b3d a07e 5d3e c57b 8b3d 49b8 bb3d
00000320: b5a9 d1bd d2e4 2bbd eb6f 06bd 263c e73d
00000330: b1ae b23b b7c5 d9bd 2574 27be 624b 8fbd
00000340: 2237 1fbe c624 2d3d 8738 6b3e e888 3b3e
00000350: 6874 7bbe 02fd 95bc 38ca 253c 717d 90bc
00000360: 2596 493e 351f 66bd aba7 47bd 836a ebbb
00000370: b4c5 0a3c 94c4 95bd 57bb aa3c 6e03 e33d
00000380: 8df8 393e 9a92 873d bbb0 4c3e 6b94 c43d
00000390: 051e c53c 4a94 363e 78ee 463e f94d c2bd
000003a0: e2b6 853d 1672 143e 64c9 313e e503 2b3e
000003b0: 8d94 943c c229 51bd 840a 1fbc d4ca 32be
000003c0: b442 f8bd 45b5 52be 4a59 a03d c0bc 813e
000003d0: 7767 863e 9bd9 a33d 59c8 cebd dd14 1fbd
000003e0: 732b 36bb 1b91 003d 591e 4ebe 08bd 7b3c
000003f0: be31 70bd 78cf 19be f721 cf3d 7930 77bd
-0.023375215 -0.05114402 0.2017178 -0.14218533 -0.00030639922 0.18867745 0.07559018 0.20499592
-0.012296974 -0.05919652 -0.08746429 0.21468337 -0.17799987 -0.2393425 -0.17824754 0.048176486
0.08621312 -0.19722532 0.2255638 0.17720479 -0.0474921 0.030589331 -0.08028653 -0.20429073
0.01918145 -0.06935397 -0.06354629 0.20033886 0.09684633 0.008901609 0.15874793 0.0634681
0.025501939 -0.036159314 0.04465895 0.13218129 0.1389827 0.07270125 0.017626172 0.011982151
-0.06524326 0.053807355 0.13681206 0.01717968 -0.14317791 -0.132234 -0.15488061 -0.058682878
-0.03422853 -0.102529 0.08138421 -0.11273301 0.07728072 0.17210867 0.0587954 -0.007846733
-0.037924685 0.16818514 -0.1777344 -0.15701652 -0.02964552 -0.19827296 0.033420887 -0.117378116
-0.017658751 0.019811634 0.14296679 -0.103674315 -0.087686256 0.05936293 0.16266757 0.0036544127
-0.16610247 -0.014540931 -0.0016246425 0.08445888 -0.15302558 -0.14835416 -0.13716769 -0.1324157
-0.087760195 -0.044958867 0.07433038 0.011356507 -0.22190708 0.069096975 -0.1448701 -0.15466867
0.1854881 -0.11403354 -0.13029137 -0.00052007893 0.10506793 -0.1335607 0.17514051 0.08190847
0.2049835 -0.15684485 0.18062903 0.0991225 0.112783805 0.23708011 0.10165764 0.10426369
0.063229285 0.22822061 0.08651326 -0.019291745 -0.16530271 0.03777544 -0.016756061 -0.038451668
0.0045748996 -0.021762434 0.15183635 -0.13310105 0.22306395 0.16518477 0.044632956 -0.0627286
-0.1001224 0.18501183 -0.0793262 0.03026758 -0.11769933 -0.12799148 0.057830878 0.0036067981
-0.038798507 0.08779822 0.14097512 -0.06570958 0.08099271 0.23449244 0.15642242 0.13401651
0.007922377 -0.0067989225 -0.084779754 0.22213763 -0.12404578 -0.22623108 -0.24353546 -0.016741876
0.04739217 -0.0129198525 0.14130498 0.040710445 -0.08584098 -0.13232504 -0.16159895 -0.20115812
0.021842852 0.03351721 -0.15677495 0.18362688 0.021208912 -0.098317996 0.10327632 -0.07698215
0.04418866 -0.0878489 0.16697532 0.025741972 0.175194 0.024657127 0.16955677 0.116521955
0.09526481 0.06296043 0.10043803 -0.03341959 -0.15016977 -0.077716246 0.031456906 -0.18283845
-0.09565646 -0.18643405 0.027276123 -0.15470946 0.1033645 0.15246476 -0.13264854 -0.110797346
-0.08320096 0.20346397 -0.082331695 -0.14970987 -0.07243151 -0.056222074 0.10750563 0.06601759
-0.006292382 -0.056107618 0.043322816 -0.03347605 0.06830249 0.21630335 0.068107165 0.09166009
-0.10237447 -0.041966267 -0.032821577 0.11290769 0.0054529537 -0.10633414 -0.163529 -0.069968
-0.15548375 0.042271398 0.22970782 0.18313944 -0.24556124 -0.01830912 0.0101190135 -0.01763794
0.19686182 -0.056182105 -0.048743885 -0.007184328 0.008469988 -0.07312885 0.020841284 0.110846385
0.18161221 0.06619759 0.19989292 0.09598621 0.024062166 0.17830005 0.19426906 -0.09487528
0.06529023 0.14496645 0.1736198 0.16700704 0.01813724 -0.051065214 -0.009707097 -0.17460185
-0.121220976 -0.20576961 0.078295305 0.25339317 0.26250812 0.08000489 -0.10096807 -0.038838256
-0.0027796894 0.031388383 -0.20128764 0.015364893 -0.058641188 -0.1502055 0.101139 -0.06034896

net.4.bias f4 [64]
00000000: 1c0b 483b 73dc edbc 7360 613d 568a 093e
00000010: 947c 01bc 1793 da3d c3ec 943d 3bad dd3d
00000020: fa38 ee3c 4578 06be 83d0 903d 7bfb 143d
00000030: bfd6 093e b023 903d c457 3b3d d94b 303d
00000040: 4e19 093c 736b f13c 16b2 a0bc 4bfc 333c
00000050: b505 373d c18c 6b3d 7d7d eabc dd1a d3bb
00000060: 3441 d3bc 38a3 29bd cdfe 84bd ed62 87bc
00000070: 33c0 cc3d ed24 fe3d 9bc3 073e a7b7 93bd
00000080: e8ae ad3c 1e38 1e3d 5157 94bb 0acf 8e3d
00000090: 4d23 d23d 3313 f83d 0b9c 593d 47f7 3bbd
000000a0: e453 6abc ff67 f73d 0345 093e 7240 2d3e
000000b0: 8e88 8e3d c087 863d e3f9 cd3d be74 573c
000000c0: 6de4 453b 9bbb f43d 15a2 933d 15bf 083e
000000d0: 89fc 9bbc 4f0a ce3d ba89 ff3d b28e f3bc
000000e0: 5f40 453d e8e9 b8bd 2cff c63d 0bac c83d
000000f0: 3462 13bb 371b b1bb c20f dc3d b2ce 053d
0.00305242 -0.029035782 0.05502362 0.13431677 -0.007903237 0.106725864 0.07271721 0.10824057
0.029079903 -0.13131817 0.070710205 0.036372643 0.13460825 0.07038057 0.045737997 0.043041084
0.0083678495 0.029470181 -0.019616168 0.010985444 0.044683177 0.05750728 -0.02862429 -0.0064424113
-0.025787927 -0.041415423 -0.06493912 -0.016526664 0.099975966 0.12409387 0.13258211 -0.07212763
0.021201566 0.038627736 -0.0045270105 0.06973083 0.10260639 0.12113037 0.05312733 -0.04589012
-0.014302228 0.120803826 0.13405232 0.16919115 0.069596395 0.06568861 0.10057428 0.013150392
0.0030195967 0.119498454 0.07208649 0.13354142 -0.019041317 0.1006056 0.12477441 -0.029731128
0.048157092 -0.09028989 0.09716639 0.097984396 -0.0022488954 -0.0054048556 0.10745193 0.032667823

net.6.weight f4 [1, 64]
00000000: 25cc 61be 405f 4abe 2853 67be 34f5 4abe
00000010: ced2 20be 0de5 163f e11b 4fbe a6e4 4dbe
00000020: d1ee 1e3e 659e 89bd ecb3 22be 5a7c 1abe
00000030: 43a0 05bf 41b5 81be 9065 343e c4b4 09be
00000040: e77b fcbd 2ff4 60be 71eb 60be b7b1 34be
00000050: f6dc c1be f2a4 713e 162b 7abe 3bba efbd
00000060: d5a6 43be 6f1a 44be 13f5 393e 13b6 b53e
00000070: 50e7 80be fe3d 6cbe 2ed3 683e ffc8 2e3e
00000080: f6e1 463e 663d 29be 152d 363e ae26 4abe
00000090: df98 4cbe 2b4a 3ebe abef 893e 7897 403e
000000a0: a8d8 7b3e 7dc6 21be 03aa 6ebe 6908 2ebe
000000b0: d8ba 6c3e 041b 6cbe a347 5bbe 22d5 45be
000000c0: 1c45 813e cc31 5c3e 50f0 513e 66ba 1ebe
000000d0: 1a65 50be 72e0 45be baa3 603e 7c17 503e
000000e0: f73a 1f3e b0cc 853e d9b1 19be 145b 82be
000000f0: 7303 073e c48b 533e aaa8 a03e 2bbc a1be
-0.22050531 -0.19762897 -0.22590315 -0.198201 -0.15705416 0.58943254 -0.20225479 -0.20106754
0.15520789 -0.067196645 -0.15888947 -0.15086499 -0.52197665 -0.25333598 0.17616868 -0.13447863
-0.1232832 -0.21968149 -0.21964814 -0.17645918 -0.37863892 0.23598078 -0.24430498 -0.117054425
-0.1910661 -0.19150709 0.18159895 0.35490474 -0.25176477 -0.23070523 0.22736809 0.17068861
0.19422135 -0.16527328 0.17790635 -0.19741318 -0.1998019 -0.1858298 0.26940665 0.1880778
0.24594367 -0.15798374 -0.23307042 -0.16995396 0.2311815 -0.2305718 -0.21414046 -0.19319585
0.2524804 0.21503371 0.20501828 -0.15500793 -0.20351067 -0.193239 0.21937457 0.20321459
0.15549837 0.26132727 -0.1500925 -0.25460112 0.1318491 0.20658785 0.3137868 -0.31588873
