cancer_iterative/cancer_models/20_train/tvae_final_model.pt (torch, 45323 bytes, 7 tensors)

net.0.weight f4 [64, 30]
00000000: e3ed 17be 62b6 2fbe 01f8 5cbe e11a 29b9
00000010: f6d2 d2bc 2f30 c93d fd25 1ebe 4938 d1bd
00000020: af8f 043e 5ad1 66bc c672 99bd 4295 e4bd
00000030: 0e0a 633e 75ca 143e 4158 ca3b 5b1c 463e
00000040: 562c fd3d b7f9 94bc ace5 223e d802 9cbd
00000050: db95 3e3d 5165 6cbe 695f 203e 2fa4 133d
00000060: 4597 013e c84a 70bc 68ad 373d b695 20be
00000070: 9a62 00be 8706 94bd e720 58be f4d8 2fbe
00000080: 09b6 09be 278d a9bd f09a e93d 879f 2a3e
00000090: 34da 32bd 5ac4 cfbd dc76 69bd 8407 79be
000000a0: d019 6c3e a8df c0bd 84a9 ab3d a5d0 033d
000000b0: 2f59 ce3d 1a90 f13c 6d4a 3ebe e32c 983d
000000c0: 3c8a b8bd d621 5a3d 7cc9 53be de29 c63d
000000d0: b318 273e ca7f 7e3b ccdb e0bd 1dfc b73d
000000e0: 250b 343e 2253 49be 1b69 6bbd f36e 29bd
000000f0: 93ec e0bc 2ab0 373e 5e89 25be 795d 89bc
00000100: 7e8c fcbb 6efc 583e 0eb5 31be d096 06be
00000110: 8f0d a3bd c7b0 833c 337e fe3c bc41 903d
00000120: bff6 1cbe 2fe9 1fbd 267f 1d3e 6d88 30be
00000130: 5495 33be 5d32 1e3d fb4a 22be 6549 52bd
00000140: 0b83 ad3d 3e3b 113d 2127 ad3d 9df8 25bd
00000150: a1df 583d 241e ca3c 2033 f3bd b47a c53d
00000160: 758a e33d 17d0 3c3e a647 c73e f980 e3bc
00000170: e0c6 4abe 68ad 07bd adb2 d6bd 089f 9ebe
00000180: cc4e c03d 6d41 e9bd efa2 ff3c 0e07 60bd
00000190: 8b98 4d3d d60d 943a 7bc4 063e a938 34be
000001a0: 5935 423e 8a66 023e 9293 b93d a518 8fbb
000001b0: 2118 84bc f468 e73b f288 753d aa2c d13a
000001c0: dfdd 753d c578 a5bc f781 23be f669 81bd
000001d0: d1cd b03d 1d20 f53c 5655 92bd b7d5 f33d
000001e0: ee49 6c3c c39d 30bc d001 993d 9da8 853d
000001f0: 8eae ffbd 1cdc 6f3c b486 80be ad7d ea3d
00000200: 24d9 ec3c dbe2 583d e1a2 703b 6cb7 c7bc
00000210: 44f7 85ba 9c13 1f3e 4937 1abe 13df 5c3d
00000220: fbd7 823d 5cfc 17bd c86c 41bd e162 f5bd
00000230: e478 85be 3a48 feba c70d 49be 6bdb 91bd
00000240: be4f 27be c44f c63d 6aff b43d 003d b6bd
00000250: e454 e23d 3ff9 123d 9440 7a3d 4b84 583d
00000260: a0c5 2d3e 6600 cebc 24c5 3bbe 275a 48bd
00000270: 94ad 4bbe b987 aabd a162 40be 9d59 58be
00000280: 210c 133e c921 e9bc 892e c8bb 9c15 26be
00000290: e2b9 463e 114c c63d 0a0f 9d3d 2c92 ac3d
000002a0: e1f8 153e c772 2cbe 5179 95bd 83eb 4c3e
000002b0: ebf7 66be a652 3dbe 8528 283e 2e78 0fbd
000002c0: 9b39 c4bd cb4d a53d 156d 193e c74d 923e
000002d0: 8279 a2bd d895 7fbd 5b44 ef3d 6c83 14be
000002e0: 352a 1c3e 7099 17be 0046 ad3b a081 413e
000002f0: f86f 97bd 5679 f93d adbb 163c b80d 6dbe
00000300: 4012 d0bd 90f2 06be 06aa df3d babc d43c
00000310: f935 0fbe 80b1 133e fc3c 26bd d164 c03d
00000320: 8462 503e 6abf fe3d 16da 14be dcfa c63c
00000330: d7dc 83bb ca5d 903d c05f 583e 9a72 5b3d
00000340: 098f a13d 1160 133e aace 0cbe e201 d73d
00000350: 2e84 23bd 9c94 703d 70aa b1bd dbac 1ebe
00000360: 07d7 06be 5d9f 203d a6a3 a5bd 5363 bebc
00000370: cc5d fbbc 72f7 c5bd 06c7 3fbe a503 7cbd
00000380: cb6b f2bd 3c99 3a3e 9c98 843c f041 e43d
00000390: 0e33 f9bd 2e8f ab3d f3ad 5ebe 070f f23c
000003a0: c4b1 3ebe d383 42be f163 fcbb 08b5 243e
000003b0: e432 adbd 9ad4 953c a59f 27be 492b 4f3e
000003c0: f021 4f3e 1ed0 fcbc b42d 73be 05f0 9fbb
000003d0: 5d90 1fbe 4178 b3be a380 75bd c6d0 283c
000003e0: 0d8c 7abd af25 7cbd b02d a33c 2416 65bd
000003f0: 8791 96bd 34ef 68be 3352 703d 326d cdbd
-0.1483684 -0.17159417 -0.21578981 -0.00016127109 -0.02573536 0.098236434 -0.15444179 -0.10215814
0.12945436 -0.014087999 -0.074925944 -0.11161281 0.22171804 0.14530356 0.0061750715 0.19346754
0.12361972 -0.01818548 0.15907925 -0.0761773 0.046529632 -0.23085524 0.15661396 0.03604525
0.12655361 -0.014666267 0.044843107 -0.1568211 -0.12537614 -0.072278075 -0.21106301 -0.17172605
-0.13448347 -0.08278876 0.11406505 0.16662417 -0.043665126 -0.10144873 -0.05699812 -0.24319273
0.23056722 -0.09417659 0.08381942 0.0321814 0.10075604 0.029487658 -0.18583079 0.074304365
-0.09010741 0.053254925 -0.20682329 0.09675954 0.16318016 0.0038833492 -0.10979423 0.08983634
0.17582376 -0.19660619 -0.057473283 -0.041365575 -0.027456557 0.17938295 -0.16165683 -0.016768204
-0.0077071777 0.21190044 -0.17354223 -0.13143468 -0.079615705 0.016075505 0.031066036 0.07043788
-0.15328501 -0.03904074 0.15380535 -0.17239542 -0.17537433 0.03862225 -0.15848915 -0.051339526
0.0847226 0.03545689 0.08454729 -0.0405203 0.052947644 0.024672575 -0.11874986 0.096425444
0.11110393 0.18438755 0.3892185 -0.02777146 -0.19802427 -0.033124357 -0.104832985 -0.30980706
0.09390029 -0.11389432 0.031205622 -0.054694228 0.050194304 0.0011295627 0.13160889 -0.17599739
0.18965663 0.12734428 0.0906135 -0.0043669515 -0.016124787 0.007062072 0.059945054 0.0015958745
0.060026046 -0.020199189 -0.15967546 -0.063190386 0.08633006 0.02992254 -0.07145183 0.11905997
0.014421923 -0.010779801 0.07471049 0.06526301 -0.124844655 0.0146398805 -0.2510277 0.11449752
0.028912134 0.05295072 0.0036718177 -0.024379455 -0.0010220786 0.15534824 -0.15060152 0.053923678
0.06388851 -0.037105903 -0.047222883 -0.1198175 -0.26068795 -0.0019400187 -0.19634162 -0.07121929
-0.16339013 0.09683183 0.08837779 -0.088983536 0.11051348 0.03588223 0.061096743 0.05286054
0.16969919 -0.025146674 -0.18336922 -0.0489141 -0.19890434 -0.08326668 -0.18787624 -0.21127935
0.14360096 -0.028458493 -0.006109063 -0.16219181 0.19406846 0.09682477 0.07668884 0.084263176
0.14645721 -0.16840659 -0.0729853 0.20011716 -0.2255551 -0.18488559 0.16421707 -0.03502672
-0.095813 0.080714785 0.14983018 0.28574964 -0.07933332 -0.06239876 0.1168296 -0.14503258
0.15250476 -0.14804626 0.0052878857 0.18897104 -0.07394403 0.12181346 0.009200019 -0.23149765
-0.10159731 -0.13178468 0.10921101 0.025968898 -0.13985433 0.1442318 -0.040585503 0.09394229
0.2035008 0.12438853 -0.14536318 0.024289541 -0.004024129 0.07049139 0.21130276 0.05357609
0.0788861 0.14392115 -0.13750711 0.10498406 -0.03992098 0.058735475 -0.086750865 -0.15495627
-0.13167964 0.03921448 -0.08087854 -0.02324072 -0.030684374 -0.09666337 -0.18728265 -0.061526913
-0.11836966 0.18222517 0.016186051 0.11145389 -0.12167941 0.08376919 -0.21746044 0.029548181
-0.186225 -0.189956 -0.0077023436 0.16084683 -0.08456972 0.018289853 -0.16369493 0.20231356
0.2022779 -0.030860957 -0.23747903 -0.0048809075 -0.15582414 -0.35052684 -0.05993713 0.010303682
-0.06116872 -0.061559375 0.019919246 -0.055929318 -0.07351976 -0.22747499 0.05867214 -0.10030593

net.0.bias f4 [64]
00000000: 833b 0e38 f1c9 563d c676 6d3e 3e8d 283d
00000010: d397 06be d503 063d 7628 16bd 72d6 2b3d
00000020: 7fa1 ba3d f06e 5cbd b581 cfbd 24a9 5e3e
00000030: 9093 7cbd e33f bfbd bfa2 92bc 7299 18be
00000040: 2fb2 41be a199 c53c d7e4 b63c 9c59 af3d
00000050: 85d4 243e 2163 47be 0d5b 233e e7e2 9cbd
00000060: 3b08 4d3e 0872 f43d 05d6 c23d 06e5 c23d
00000070: 6979 d23d 0759 403e a048 ff3d 3b69 533d
00000080: d627 9dbc 505e 323e bb20 1dbe 48ac 3bbd
00000090: a57e df3d 831e 64be 9b65 793d 1880 67be
000000a0: 05ac 9abd ce2f 00be 1bc5 2f3e 47da 833d
000000b0: ca47 763d d9a5 8bbd d3a3 743e 37f8 193b
000000c0: aa6e edbd 31dc 65bd a7b4 83bd 47be aabc
000000d0: c8a7 5abd 1448 19be 17f5 22be a0af 153e
000000e0: 39f4 c43d 14e6 16be 32f4 0a3e 745c efbd
000000f0: 960d 00be c59e 45bd c3a0 eb3d 54d2 0c3e
3.3910863e-05 0.05243868 0.2318984 0.041150324 -0.13143854 0.0327185 -0.03665968 0.041952558
0.09112834 -0.053816736 -0.101321615 0.2174421 -0.061664164 -0.09338357 -0.017899869 -0.14902285
-0.18915628 0.024121108 0.022325916 0.085620135 0.16096695 -0.19471408 0.15952702 -0.07660466
0.20022671 0.11935812 0.09513477 0.09516339 0.102770634 0.18783961 0.12465024 0.051614027
-0.019184034 0.1741879 -0.15344517 -0.045818597 0.109128274 -0.22277264 0.060887914 -0.22607458
-0.07552341 -0.12518236 0.17165034 0.064381175 0.060127057 -0.06818742 0.23890619 0.0023493895
-0.11593373 -0.056118194 -0.06430941 -0.020842684 -0.053382665 -0.14968902 -0.15913807 0.14617777
0.09616894 -0.14736205 0.13569716 -0.11687556 -0.12505183 -0.048247118 0.11505272 0.13752109

net.2.weight f4 [64, 64]
00000000: 13e4 cb3d cc27 e13c 1c2f a53d a16a efbc
00000010: f271 463e 3d9f 0c3e f92f 0bbe 4258 443d
00000020: b8cf b63c 9393 5abe c17d 0bbe dcb5 fdb8
00000030: a748 cfbd dddd 443e bb53 43be 2e21 a93d
00000040: 6797 7c3c 119a b7bd c92b 9cbd 33c6 e9bc
00000050: 0bb0 753d 350b dbbc 84ee 3e3e 4eb3 e33d
00000060: 5114 55be 2876 07bd e4b4 583d f988 da3d
00000070: f077 56bd 97bc 343e c43b 2c3e 5704 61be
00000080: a063 aebc 7f35 3d3e 2c55 6c3e b5cd 903d
00000090: f633 b1bd a666 ccbb 7594 d43d 1344 07be
000000a0: 0fdd 393d c58f a0bc db83 aebd b633 67be
000000b0: d42b 793d a103 a73c e0d3 44bd 9234 46bd
000000c0: 071f a03c dd25 07be b24c a53d dcc6 b5bd
000000d0: f728 3dbe 22aa 373e 5acb f0bb 837e 133e
000000e0: 9ed3 16be e641 17bd ef6e ccbd 9ded 623e
000000f0: 889f a83d 6e6f 5bbe dd73 19be 0e20 c23d
00000100: 6116 e03d 650d f23d b471 5bbc e61d 393d
00000110: 9232 283e 2454 4bbd 0df3 ad3c f071 153e
00000120: 808f 6a3d dbe0 27be ccd0 113e 0acc 9e3c
00000130: 73b6 f4bd 3733 4d3e 3df6 53bc 4c35 5b3e
00000140: e607 053e 3ba6 b03d 63ef c13d 9305 a4bc
00000150: 35a7 9c3d e939 57bd f42c 183e fe12 063e
00000160: b7aa ae3d 5a1c 793e 73f9 b63c cea2 0dbd
00000170: c071 c3bd 773e 2f3e 6328 803d 5ed3 663d
00000180: c4fe ed3d dfdf 8e3e 8bf2 3e3e 7bf4 833d
00000190: c064 3cbd 8454 aabc 69d1 823d 03d9 353b
000001a0: f1e1 8bbd 5766 5e3d 7c4d cf3d d4b6 893d
000001b0: dd21 8b3d e58a 88bb 6d22 143d 4100 d5bd
000001c0: 6bc8 563e 1cba 82bc 1da0 bb3d a01d b4bd
000001d0: a06b 24be 37c2 3d3e 589f 37be 2a24 513e
000001e0: 70a3 89bd 6170 1abe a200 9b3c 03df 563d
000001f0: 8998 03be a42b c8bb f7a8 323e 0d67 16bc
00000200: 53d8 c2bd f04e b93c 298e d13c e929 e1bd
00000210: 1698 053e e2dc e1bd 0147 09bd d76d 9e3d
00000220: b1ba 903d c2b5 963e ca08 7e3d 0250 2c3d
00000230: 6094 483e b754 b4bc c1ac 0bbd 3f1f 2fbd
00000240: 9e58 aebd 3199 353e 6c85 d2bd 1d9a a8bd
00000250: c1e6 42bc 7755 ea3c ce5d 8dbd a15a 903d
00000260: b414 bbbd 6703 fc3c f642 03be 66a9 df3d
00000270: 3acd 443e f54f b9bd 165a c6bd e64f e1bb
00000280: 3c4f 4a3e c6de e7bd 8040 f7bb dfa9 283e
00000290: 0e87 14bc da50 09be b728 eb3d a331 eebc
000002a0: 72ef d23d c189 9fbd 6119 97bc 63f5 cabd
000002b0: c37e f3bd 879e f93d 34cb d63d 5b80 463e
000002c0: 5cec 003c 5673 cf3d 0236 30be 71c6 db3d
000002d0: b6b8 a73d 1f62 9cbd 4136 b03d 6bbd 633d
000002e0: ddaf c73d ea97 a03c ec02 853d da1b 7dbd
000002f0: bbe5 e43d 647a 1d3e f2d5 583d 8852 023e
00000300: cefd b23d 85b4 c93d 3b52 223e 3a28 ecbd
00000310: f649 363d da23 e43d f8e4 0b3e 7605 333d
00000320: a8d0 de3d b0db 313e c155 e8bd 74f5 c53b
00000330: 89ee 413e c5de 07bc b917 e73d 8669 2539
00000340: fd95 0b3e 5892 413d fdb9 f23d bf16 013e
00000350: 53a4 ce3d 010c e93c d0c9 823d 5d44 c23d
00000360: 89aa 20bd 922c 423d a31d 0d3e cf01 493e
00000370: 6138 3c3d b5ae b8bc 8ea2 053e 5319 ea3d
00000380: 12f0 003d 5c1f d2bc 073d 863d 7fb5 453e
00000390: 44bb 793e 3434 9c3d 7f71 ae3d 3e83 ffba
000003a0: 5fe7 563e 189b 35bd 8390 a9bd ee86 febd
000003b0: 9198 0c3e c19e 8b3c b2e9 ef3d 3d97 8839
000003c0: b49e b83d 902f 533e 12a1 0d3d e9e5 be3b
000003d0: 6b4d 7d3c af1d 0d3d 2098 193e b858 b33d
000003e0: 17b7 58bc e95f d03d 10ae 05bc 66f2 543b
000003f0: 6f0d 783d 039e 5b3d d055 9bbd fd4e 2b3d
0.09955611 0.027484797 0.08065626 -0.02922565 0.19379404 0.1373262 -0.13592519 0.04793573
0.022315845 -0.21345358 -0.1362219 -0.00012097854 -0.10121279 0.19225259 -0.1907491 0.08258282
0.0154169565 -0.08964933 -0.07625539 -0.028536892 0.05998234 -0.026738742 0.18645674 0.11118184
-0.20808531 -0.033071667 0.052906886 0.10670657 -0.052360475 0.17650066 0.16819674 -0.21974312
-0.02128774 0.18477438 0.23079365 0.070704855 -0.08652489 -0.0062378226 0.103798784 -0.13209562
0.045376834 -0.019599805 -0.08521243 -0.2257832 0.060832813 0.020387473 -0.048053622 -0.04838998
0.019546045 -0.13198037 0.08071269 -0.0887582 -0.18472658 0.17935994 -0.00734846 0.14403729
-0.14729163 -0.03692808 -0.099820964 0.22160955 0.08233553 -0.21429226 -0.14985605 0.0947877
0.109417684 0.11818961 -0.013393808 0.04519453 0.16425541 -0.04964079 0.02123406 0.14594245
0.05726576 -0.1639437 0.14239806 0.019384403 -0.11948862 0.20039068 -0.012937126 0.2140705
0.12991294 0.08625456 0.094694875 -0.02002219 0.0764908 -0.05254546 0.14860898 0.13093182
0.08528655 0.24327222 0.022335744 -0.03457909 -0.095431805 0.17113672 0.06257703 0.05635392
0.11620858 0.27905175 0.1864721 0.06443115 -0.04599452 -0.020792253 0.06387598 0.0027747757
-0.06830204 0.054296818 0.10122201 0.06724325 0.06793568 -0.004166948 0.036165643 -0.10400439
0.20974891 -0.015957884 0.091613986 -0.08794713 -0.1605668 0.18531118 -0.17931879 0.20423952
-0.06720626 -0.15081932 0.0189212 0.052458774 -0.12851156 -0.006108718 0.17447267 -0.009179843
-0.09513917 0.022620648 0.025580483 -0.10994322 0.13046297 -0.11028458 -0.03351498 0.07735794
0.070668586 0.29435545 0.0620201 0.04206849 0.1958785 -0.022013051 -0.034100298 -0.042754408
-0.08512996 0.17734219 -0.102793545 -0.0823252 -0.011895836 0.028605206 -0.069026574 0.07048536
-0.09134808 0.030763341 -0.12818512 0.10920982 0.19218913 -0.09048454 -0.09685151 -0.0068759797
0.19756788 -0.113217875 -0.007545531 0.1647105 -0.009065403 -0.13409749 0.11482375 -0.029076403
0.10299577 -0.07789946 -0.018444719 -0.09910085 -0.11889412 0.1218844 0.10487977 0.19384901
0.0078688525 0.101294205 -0.17208102 0.10731209 0.08189528 -0.076359026 0.08604098 0.055600565
0.0975034 0.019603688 0.06494698 -0.06179414 0.1117663 0.1537872 0.05293841 0.12726796
0.08739816 0.098488845 0.15851681 -0.1153111 0.04450413 0.11139651 0.13661563 0.04370638
0.10879642 0.1736896 -0.11344481 0.006041223 0.1893865 -0.0082928585 0.112838216 0.00015774937
0.13631435 0.047258705 0.11851881 0.12606333 0.10089936 0.028448107 0.06386149 0.094856955
-0.039225135 0.047405787 0.13780837 0.19629596 0.045952205 -0.022544244 0.13050291 0.114306115
0.03147895 -0.025649719 0.06554609 0.19307517 0.24387842 0.076271445 0.085177414 -0.0019494069
0.20986699 -0.044337362 -0.082795165 -0.124280795 0.13730074 0.017043473 0.11714496 0.00026052623
0.09014645 0.20623612 0.034577437 0.0058257473 0.015460352 0.034452137 0.14999437 0.08757156
-0.013227246 0.101745434 -0.0081591755 0.0032493114 0.060559686 0.05361749 -0.07584727 0.041823376

net.2.bias f4 [64]
00000000: 2d08 ffbc 1848 f23d d8b1 d5bb ad4b 9e3d
00000010: d9f2 cf3d 6bff 84bd 478f 1e3e f2be c03d
00000020: 3198 6d3d bfef d53b 403b 8abc c27b 323c
00000030: e8cc e73d 3401 a8bd 4526 debd 66f5 953d
00000040: d522 b93c d10a 88bd 1ba5 a7bd 8a4c ce3d
00000050: a492 e5bd 3bd5 dd3d 7de9 f8bd b103 77bd
00000060: 7e0f 6a3d a61e f33a bf9e 6abc ef2b 3cbd
00000070: 381c 10be 991c cbbd 6750 4fbc 20d8 703d
00000080: a765 053e 5170 2a3d b9a3 963a 5881 f73c
00000090: 37c5 3d3e a1eb 113c 4a4e 903d 4b46 df3d
000000a0: 08d0 063e af7b 78bd 21a4 633d 1a6e 913d
000000b0: 4943 a8bd 9bb1 d3bc 8e90 f83d 71a6 9dbd
000000c0: 1b19 863d 7579 b4bc 8f30 b53c bf79 343d
000000d0: 5bfb 66bd a1e1 c13d 99b5 193e ee5a 76bc
000000e0: 8190 70bd 7651 993d 30bd f8bd f360 293e
000000f0: 943a 103c a317 f4bd 065d 30b9 d15f df3d
-0.031131828 0.11830157 -0.006521445 0.07729278 0.101537414 -0.064940296 0.15484343 0.0941142
0.05800647 0.006528824 -0.016873956 0.010893764 0.1131838 -0.082033545 -0.10847143 0.07322197
0.022599617 -0.06642688 -0.08185788 0.100731924 -0.1120961 0.10831686 -0.12153909 -0.060306255
0.05714368 0.0018548563 -0.014320075 -0.045940336 -0.14073265 -0.09917564 -0.012653447 0.058799863
0.13027059 0.04161102 0.0011492885 0.030213043 0.18532263 0.008906276 0.070461825 0.10902079
0.13165295 -0.06066483 0.055576447 0.07101078 -0.082159586 -0.025841525 0.121369466 -0.07697762
0.06547757 -0.022030571 0.022117881 0.04406142 -0.056392055 0.094668634 0.1501068 -0.015036328
-0.05873156 0.074862406 -0.1214546 0.1654089 0.008803029 -0.11918571 -0.00016819322 0.109069474

net.4.weight f4 [64, 64]
00000000: c6b0 72bd e3de 49bd f784 3f3e fe1a f2bc
00000010: 5cf3 19be 3e76 2b3e b5ac 883d 61bc 8a3e
00000020: ab66 193d 25ea 42bd 8f31 cabc c69e 473e
00000030: b756 9abd e36e 9dbe 0391 10be 67b0 8c3e
00000040: 7042 1f3e bf12 b8bd ca28 8dbd 685d 163e
00000050: 6e23 84bd 06f2 9f3d 4be2 1abe 7369 09be
00000060: 1630 0fb8 fcb4 113e 94b1 2c3e d4c0 993e
00000070: 9118 cf3d 36ce 973e 01dc 01be 2c4c df3d
00000080: ba09 27bc 5aa3 22bc 1e60 9cbc b444 c33d
00000090: dd9f 0e3e 6f94 1d3e dd7f d4bb 5238 4d3b
000000a0: 186c 443c 3ca5 b63c 7c8c da3d f2a3 fbba
000000b0: 62b3 08be f55d b7bd 1470 743e 554c 813b
000000c0: f5b1 11bc c135 92bd ec1b f33d d9ed 6cbe
000000d0: 8fd3 06bc 4f41 193e bd34 c93d fb5e df3b
000000e0: 9c4c dfbb f171 b73d acf8 4fbe f7c5 45be
000000f0: 80f6 17bd b863 88be a9c1 30bd 350a afbd
00000100: 37d3 8bbd 98d5 2b3d 4edf fa3d 05be 1bbb
00000110: c36d 67be 63b6 883c b7ef 2b3e 02d3 7b3d
00000120: 7861 04be c670 29bc 1b05 013e 8474 773d
00000130: 39b4 96bd 182d 87be f10a ba3d 0f53 813d
00000140: 1a4f 44bd 6c07 ce3c 1ba2 5dbe 3c72 18bd
00000150: 0d38 7bbe cda8 ad3d 118f 4cbe c3d5 e3bd
00000160: 0ee4 293e 325a bd3d fe3e 0e3d 556d a23d
00000170: 675b f93d 0d3f 9c3d 685e a6bd a433 e73d
00000180: 5b03 2d3e 05b6 16be 4c61 bf3d b2bd 863d
00000190: 0052 d73d e343 9c3e ef54 a73d e596 af3d
000001a0: ed15 073e 62dd 493e aa10 6d3d a770 5bbd
000001b0: a7e5 34be b985 953c f904 a43e 8cbe 43bc
000001c0: b7f9 393d e1c9 2fbc 7ff6 423e e81a 9dbe
000001d0: 1c51 073e f716 133e 957f 6f3d 1970 6ebd
000001e0: 7a1d cebd 5c2a f23d 8926 ebbd 2d50 30be
000001f0: 74e2 f7bd 2e4d 62be 4abc c5bc 7724 de3c
00000200: de15 aebd 1da0 d33d db7f 0b3e 6ab0 203d
00000210: 3267 a5bd e541 5a3e 2853 253e 95fb 433e
00000220: 5e76 833d 0c45 1bbc 76bf a33c 8e35 373e
00000230: bbdb 27bd a445 9ebe b670 c4bd f1f1 343e
00000240: 268d c13d 1d27 a03d 17a4 05be 0415 0a3c
00000250: be10 dabd 61e5 c3bd 7aeb 6bbe 35aa 26be
00000260: 6c9c 0a3c 1951 603e c119 023d 2ca1 8a3e
00000270: 9978 233d 82a8 263e 6d0d 16be 5a05 11bd
00000280: d28d 243c 9d07 9fbd ccbe dc3d 2f8a b7b9
00000290: bffd 323e 301e b53d 1184 1d3e bf41 d93d
000002a0: 93fb 213e a4c8 083d e03e a73d 7506 62bd
000002b0: 3873 1ebe cbf0 a0bd 0328 c03e 30b3 0abe
000002c0: 763c babd 6327 2ebe d817 8d3d 640c 94be
000002d0: 4134 ef3c 1f9c 123e 21e8 cbbd 3f65 ccbd
000002e0: 0db0 a1bd fd35 063e 2776 dabd 2df4 96be
000002f0: 87fe 8cbd 7853 01be 4af8 dc3c ceae cc3d
00000300: a456 51bd e6ee e7bc 440e 373d d3d0 5c3d
00000310: b30e cdbd e3e8 4c3e 9624 993d ff07 293e
00000320: e1ef 73bd 265d 52bd 2a85 bc3d 0692 e43d
00000330: 6d46 1c3d 8174 8abe 4fad 0e3d cdca 4c3e
00000340: 00d9 c4bd a138 8b3d 7a2e 19bd c3e3 2f3e
00000350: d9eb 63be c82f 8fbc 338d 84bd 5f1b b03c
00000360: c0c7 3d3e 3c22 033e bf7a 3b3e 9e70 ad3d
00000370: fe1c 993c 5130 7d3e d309 5cbe ffc2 043e
00000380: 2a69 1e3e 33db 3c3d 94af 0a3e e79e 873d
00000390: 26f7 fb3c d64a 793e 18ac 3d3e 905a e9bd
000003a0: b6f4 e93d 7a82 043e 3d73 253e 6e30 223e
000003b0: 4933 7c3b a79d b7bd e873 9d3e 102b 0dbe
000003c0: 2ec5 ebbd 0b4c 53be a6a7 053e 85a1 a2bd
000003d0: 1bde 473e 3bb9 5a3d a37a dabd 17d2 4abd
000003e0: f512 01bc e454 8ebc 5431 47be fae7 a7bd
000003f0: 5a13 70bd 9b4d 6dbe 734f 1c3d 26f8 4dbd
-0.059250616 -0.049284827 0.18703066 -0.029553887 -0.1503424 0.16744325 0.06673566 0.27096847
0.037451427 -0.04758658 -0.024681835 0.19494161 -0.07536071 -0.30748662 -0.14117818 0.27478334
0.15552688 -0.089879505 -0.068925455 0.14684069 -0.0645207 0.07809834 -0.15125386 -0.13419132
-3.413864e-05 0.14229196 0.16864616 0.3002993 0.101121075 0.29649514 -0.12681581 0.109032005
-0.01019519 -0.009926641 -0.019088801 0.095345885 0.1392817 0.15388654 -0.006484969 0.0031314087
0.011988662 0.022295587 0.106713265 -0.001919864 -0.13349679 -0.08953468 0.2387088 0.003945867
-0.008892526 -0.07139159 0.1187056 -0.23137607 -0.00822915 0.1496632 0.09824512 0.0068167425
-0.0068145525 0.089572795 -0.20309705 -0.19313799 -0.037100315 -0.2663858 -0.04315344 -0.08546869
-0.068273954 0.041951746 0.12249623 -0.0023764384 -0.22600465 0.016688531 0.16790663 0.06148053
-0.12927806 -0.010341829 0.12599604 0.060413852 -0.073585935 -0.2640159 0.09084118 0.0631467
-0.047927 0.025150023 -0.2164387 -0.037218317 -0.245331 0.08479462 -0.1997645 -0.11124756
0.16590902 0.09245719 0.034728043 0.0793101 0.12175637 0.076292135 -0.08123475 0.112891465
0.16895811 -0.14717872 0.0934473 0.0657915 0.10513687 0.30520543 0.08170497 0.08573703
0.13191958 0.19713357 0.05787722 -0.05357423 -0.1766573 0.01825224 0.32035044 -0.011947285
0.045404162 -0.010729284 0.19039343 -0.3068459 0.13214535 0.14364229 0.05847128 -0.058212373
-0.10064216 0.11824486 -0.114819594 -0.17218085 -0.121037394 -0.22099754 -0.024137635 0.027116997
-0.085002646 0.103332736 0.13622992 0.03923074 -0.080763236 0.213142 0.16145003 0.1913894
0.06419061 -0.009476911 0.019988757 0.17891523 -0.040981036 -0.30912507 -0.095918104 0.17670418
0.0945075 0.0781996 -0.13050877 0.008427862 -0.106477246 -0.09565235 -0.23039046 -0.16275866
0.008460145 0.21905936 0.031762842 0.2707609 0.039909933 0.16275218 -0.14653559 -0.035405494
0.010043578 -0.07765124 0.10778579 -0.00035007435 0.17479609 0.088436484 0.1538241 0.10608243
0.15818624 0.03339447 0.08166289 -0.05518194 -0.1547364 -0.078584276 0.37530527 -0.13544917
-0.09093563 -0.17007212 0.068893135 -0.28915703 0.029199721 0.14317368 -0.099563845 -0.09980249
-0.07894907 0.13106532 -0.10667067 -0.29483166 -0.06884485 -0.12629497 0.026973862 0.09994279
-0.051108018 -0.028312158 0.04469134 0.053910088 -0.10012569 0.20010714 0.07477681 0.16506957
-0.05955494 -0.051358365 0.092050865 0.11160664 0.0381531 -0.2704201 0.03483325 0.19999237
-0.09611702 0.067979105 -0.03739784 0.17176728 -0.22257937 -0.017478839 -0.06472244 0.021497427
0.1853323 0.12806028 0.18308543 0.08468746 0.018690582 0.24725462 -0.21488123 0.1296501
0.15469804 0.046107482 0.1354354 0.06622105 0.030757498 0.24344954 0.1852268 -0.113942266
0.11423628 0.12940398 0.16157241 0.15838787 0.0038482717 -0.08965617 0.30752492 -0.13785958
-0.115122184 -0.20634477 0.13052234 -0.07940964 0.1951832 0.053399306 -0.10667922 -0.049516764
-0.007878055 -0.017374463 -0.19452411 -0.08198543 -0.058612205 -0.23174135 0.038161706 -0.05028548

net.4.bias f4 [64]
00000000: 7ee9 17bc 3a63 e3bc f867 663d a5db 003e
00000010: 787b 82bc e310 ce3c 3bdb 963d f53d 813d
00000020: c41c 593d dfcd aabd 7687 3e3d 2754 263d
00000030: dc75 b6bc 6504 673d ed2b 8a3d e7f9 4f3d
00000040: 3596 ba3c 58d8 433c 1447 6dbc 025d 623c
00000050: 9830 a23c 8fcc 853d 26f0 76bd 2714 5fbc
00000060: 1369 61bc 2512 7fbd 9fa7 75bd 3f38 14bb
00000070: 3fbf cb3d 3935 023e 252e 1d3e 1a03 37bd
00000080: 7642 1d3d ea4a 183d 74f5 8e3c 9639 963d
00000090: 07c2 f73d 5da8 d93d 20be cf3d b189 22bc
000000a0: e0e1 a03c aa01 fa3d 2a89 ea3d 1acb 093e
000000b0: e791 ca3d 24de 293d f772 b03d a20b 2a3c
000000c0: 111a f83c 6105 fc3d 78a4 c73d 3637 ed3d
000000d0: 821a 20bc 1dcb a43d 0809 0c3e 4de7 1bbd
000000e0: d689 8d3d cd88 87bd c575 c33d 7600 d53d
000000f0: f224 633d b4ce 863c 5995 373d 8d89 c13c
-0.0092719775 -0.027757276 0.056251496 0.12583788 -0.015928015 0.025154537 0.07366034 0.063106455
0.05300595 -0.08340048 0.046515904 0.040607598 -0.022272997 0.056400675 0.067466594 0.050775435
0.022776702 0.011953436 -0.014482278 0.01381612 0.019798562 0.06533157 -0.060287617 -0.013615645
-0.013757962 -0.062273163 -0.05997431 -0.0022616533 0.09948587 0.12715615 0.15349634 -0.044680692
0.03839346 0.03718082 0.017451026 0.073352024 0.12097555 0.10627816 0.10143685 -0.0099205235
0.019638956 0.12207349 0.11451943 0.13456383 0.0989111 0.041471615 0.08615678 0.01037875
0.030285867 0.123057134 0.09748167 0.11582796 -0.009771945 0.08046553 0.1367532 -0.038062382
0.06911056 -0.066178896 0.09543947 0.104004785 0.055455156 0.016455986 0.044820163 0.02362516

net.6.weight f4 [1, 64]
00000000: cf43 7abe 5f8d 48be 3e93 66be c0c8 5abe
00000010: ea3a 24be 511c bc3e 41ef 49be 1710 43be
00000020: bf47 893e 31ca a8be b8b7 23be 36bf 39be
00000030: 203b c8bd f554 8cbe 6713 403e 6311 44be
00000040: e719 42be bcdc 81be d776 81be 2a32 56be
00000050: e704 b1be 7fcb 7f3e ea3b 50be 04fe 17be
00000060: 62cb 67be c167 40be bd52 923e f69b bf3e
00000070: 8ea3 78be 4447 7abe f1e4 843e 8ad5 323e
00000080: 117f 4f3e 10fc 2fbe e7bb 583e f9e1 49be
00000090: 0e99 5dbe 2e3b 3dbe 15f5 c73e 86e4 4f3e
000000a0: f578 763e cfcb 1abe ae74 68be 5dda 45be
000000b0: 5075 693e 024f 6ebe 76db 44be ee2e 32be
000000c0: 489d 853e 756c 673e b130 5c3e 42e5 23be
000000d0: 5306 69be 8dbe 27be edbd 693e f4ba 643e
000000e0: a5ad 313e 0175 aa3e 2c07 42be 7956 85be
000000f0: 1fe5 1e3e 74c2 4a3e 792f 3e3d 74e3 aabe
-0.2443993 -0.19585179 -0.22517106 -0.21365643 -0.16038099 0.36740354 -0.19720174 -0.19049107
0.2681255 -0.3296676 -0.15988052 -0.18139347 -0.09776902 -0.27408567 0.18757401 -0.19147258
-0.18955193 -0.2536372 -0.2528598 -0.20917574 -0.34574053 0.24979971 -0.20335355 -0.14842993
-0.22636178 -0.18789579 0.2857875 0.37423676 -0.24281141 -0.24441248 0.25955918 0.17464271
0.20263316 -0.17185998 0.21165429 -0.19715108 -0.21640417 -0.18479607 0.3905417 0.20302019
0.24069579 -0.1511681 -0.2270076 -0.1932158 0.22798657 -0.23272327 -0.19224343 -0.17400715
0.2609656 0.22599967 0.2150295 -0.16005424 -0.22756319 -0.16381283 0.22826357 0.22336942
0.17351396 0.33292392 -0.18948048 -0.26042536 0.1551709 0.1980074 0.046431992 -0.33376658
