wine_iterative/wine_models/20_train/ctgan_combined_final_model.pt (torch, 41175 bytes, 7 tensors)

net.0.weight f4 [64, 13]
000000 8f e6 ad be 02 10 05 be 72 9d 9b 3d a2 6b 7f bd
       -0.33964965 -0.12994388 0.0759839 -0.062358506
000010 4f e7 82 bd 5f 2c 60 3e 23 cd 3a be 40 c7 84 be
       -0.06391775 0.21891926 -0.18242316 -0.25933266
000020 e4 02 b8 3d 5c f3 f0 bd 84 ec ce 3d 59 fc 1f 3d
       0.08984926 -0.11765167 0.101037055 0.039059017
000030 5c af 23 be 89 50 62 be 03 da a1 be a0 6d 5a be
       -0.15984863 -0.22101034 -0.31611642 -0.21330881
000040 9f 9c 0a 3e a0 a2 e6 bd f9 69 4a bd b0 15 d3 3c
       0.13536309 -0.11261487 -0.04941747 0.025767177
000050 7b 1d fb 3d 08 83 5c 3e fc 0a 34 be 68 b9 95 3e
       0.12261482 0.2153436 -0.17582315 0.29243016
000060 90 45 68 3e e0 09 92 bd 47 26 2b be fb 78 57 3e
       0.22682786 -0.0713079 -0.1671382 0.21042244
000070 ba ee 3c be 0c f4 5f 3e ad a3 65 bc 11 39 6b 3e
       -0.18450442 0.2187044 -0.014016074 0.22970988
000080 21 83 47 3e 8d 9c 4d be ab b2 db 3d f0 55 e8 bd
       0.19483615 -0.2007925 0.107274376 -0.11344516
000090 e2 79 85 bd 93 74 55 3e af fe 19 3e 47 d6 3a be
       -0.06517388 0.20845251 0.1503856 -0.18245803
0000a0 26 35 7d be 04 aa b6 3b 8e 28 f8 bc 43 51 3a bc
       -0.24727306 0.0055744667 -0.030292775 -0.011371913
0000b0 83 fc 8a bc 0c 69 43 bd d2 d6 45 be a7 ea 02 3e
       -0.01696611 -0.047707602 -0.19320229 0.12784825
0000c0 09 28 ba bc f2 82 c7 3d 47 5c 63 bc b0 74 6c be
       -0.022724168 0.09741773 -0.013876981 -0.23091388
0000d0 f2 ba da bb f4 2a f9 3d 08 c6 1d 3e 7c fb 23 ba
       -0.0066751176 0.12166396 0.15407574 -0.00062554306
0000e0 fc 0b f7 bd 1d 29 ad bd f0 65 43 bd c3 4c c2 bd
       -0.12062833 -0.08455107 -0.047704637 -0.094872974
0000f0 88 bc 03 3e 28 84 35 3e f1 7d 2e 3e 53 66 0c 3e
       0.12864888 0.17726195 0.1704023 0.13710909
000100 31 55 39 be c4 2f fa 3d bf 7d b8 bd b1 26 97 bd
       -0.18098904 0.12216142 -0.09008359 -0.07380427
000110 0f e2 87 3e b7 eb a6 bc 60 d2 0e be 14 1e 8d 3e
       0.26539657 -0.02037607 -0.13947439 0.2756201
000120 33 f9 b3 3d 4d bf 98 3e 64 93 db bd 10 ed 82 bd
       0.08787765 0.2983345 -0.10721472 -0.06392872
000130 95 44 25 bd 26 32 73 3e 42 3c d4 3e 39 07 57 be
       -0.040348608 0.23749599 0.41452223 -0.20998849
000140 1f 8c 76 3e 4c 91 ed bc da 40 96 be 01 7a 88 3e
       0.2407689 -0.028999947 -0.29346353 0.26655582
000150 c2 3f a8 3d 3d d8 35 3e c4 36 31 bd 93 38 26 3e
       0.08215286 0.1775827 -0.04326512 0.16232519
000160 b9 5b 1e be 88 40 2c 3e 29 c1 2a 3e 14 1e a7 3d
       -0.15464677 0.16821492 0.16675247 0.08160034
000170 df 99 c9 3d a9 f5 3a 3e 65 79 8f be 4a 1c 7f bd
       0.09843802 0.18257774 -0.28022304 -0.062282838
000180 2f 69 f1 bd 6c 95 e5 bd 28 92 30 3e 8d 65 45 be
       -0.1178764 -0.112101406 0.17243254 -0.1927702
000190 bf eb ee bc 15 93 05 3c b3 db 38 3e 09 96 2a 3e
       -0.029165147 0.008152743 0.18052559 0.16658796
0001a0 38 f2 36 be 4c d6 ba be f1 0b 26 be 0c b6 23 be
       -0.17865837 -0.3649162 -0.16215493 -0.15987414
0001b0 61 a6 8d be 5c de ee 3d 7b 9f 89 3e 7d 49 b4 3e
       -0.27666 0.116635054 0.26879486 0.35212317
0001c0 15 ce 09 be 0f 87 52 3d 70 b6 fd 3d ff 87 a0 3c
       -0.1345752 0.051398333 0.12388313 0.019596098
0001d0 97 92 d8 bd 0c 16 2b be fb fa 6f be 6a 4f 8f 3d
       -0.10574835 -0.16707629 -0.23435585 0.06997569
0001e0 d0 ed 08 be 42 df 49 bd f6 93 d6 3b ec d1 86 3e
       -0.13371968 -0.04928518 0.0065484 0.26332033
0001f0 9e 92 7d bd 4c 2b 13 be f1 81 5b 3e fc 7b 90 be
       -0.061907403 -0.14371985 0.21436287 -0.28219593
000200 f3 4b b4 3e df a4 25 3e e4 6f 21 3d b3 ca b4 3d
       0.35214195 0.16176175 0.039413348 0.08827724
000210 95 88 c5 3c 48 ec 33 3e 1c b7 5a 3d fe b6 27 3e
       0.024112979 0.17570603 0.053397283 0.163784
000220 13 ca 60 3e 27 75 40 3e f0 a0 62 3e 21 53 5b 3d
       0.21952085 0.1879469 0.22131705 0.053546075
000230 10 47 47 be 47 6c 40 3e 8e b3 89 be 3b 7e 2c 3e
       -0.19460702 0.18791305 -0.26894802 0.16845028
000240 36 78 82 3d a8 58 ba 3d 2a 08 d4 bd 82 d8 46 3d
       0.06370585 0.09098941 -0.1035312 0.04854632
000250 89 6a f3 bc d3 78 67 3e 50 5c be bc 7d 74 b1 3e
       -0.029713886 0.22604685 -0.023237377 0.34659186
000260 bf 36 df 3d d2 62 d2 bd 73 9b 90 3e b4 f6 c4 3e
       0.10899114 -0.10272755 0.28243598 0.3846947
000270 06 54 c4 3e 65 a7 c6 3b 37 fa 28 be 8e d3 0d 3e
       0.38345355 0.0060624355 -0.165017 0.13850233
000280 86 de 04 3e 95 73 0e 3e 67 a0 8f 3e 73 68 19 3e
       0.12975511 0.13911279 0.28052065 0.1498125
000290 2f d7 64 3d eb b6 5f be ab a0 72 3d 44 1a 0b 3e
       0.055869278 -0.21847121 0.059235256 0.13584238
0002a0 94 1f 42 3d 35 00 b7 bd fa 5a e7 3c e3 90 8b 3d
       0.047393396 -0.08935586 0.028241623 0.06814744
0002b0 cb 95 eb bd b1 b6 27 3d 09 ce e9 3d bb ad 56 3d
       -0.1150318 0.040945712 0.11416251 0.052411776
0002c0 4b 02 a0 3d 08 52 44 be 14 f7 83 3c 4e 07 8e 3e
       0.07812937 -0.19171917 0.016109027 0.27739948
0002d0 0a c8 73 be 7e 69 5f 3e 02 c7 95 bd 3d 8b 99 be
       -0.23806778 0.21817586 -0.07313348 -0.29989043
0002e0 42 5b 3b 3e 4f 9d a3 be 9f 56 07 bd e0 a8 0f 3e
       0.18296531 -0.31955954 -0.033041593 0.14029264
0002f0 57 02 91 3e f2 e0 1d 3d 0e 77 4c 3c 4f 35 32 be
       0.28322098 0.038544603 0.012479557 -0.17403148
000300 11 b8 1a be 84 50 03 be de 6d 41 bd a0 49 3a 3c
       -0.15109278 -0.12823683 -0.04722392 0.011370093
000310 93 08 a1 bd 82 d6 7e bd 00 8b 55 3e 24 f5 5a be
       -0.078629635 -0.06221629 0.20853806 -0.21382576
000320 6d 3f b4 bd 66 c1 6c bc e0 0b 9e bd 51 97 1f be
       -0.0880116 -0.014450407 -0.07717109 -0.15585066
000330 de 29 51 be 6d 20 14 be a9 b2 36 bc 5f 2f 5b bd
       -0.20426127 -0.14465494 -0.011150994 -0.053511973
000340 f2 97 5b be 79 56 38 3d e8 91 cd 3d 76 82 23 3e
       -0.21444681 0.04500434 0.10037595 0.15967736
000350 76 cf fa 3d 2b 08 0d 3e c5 98 dc bb 53 3c 70 be
       0.12246601 0.13772647 -0.0067320787 -0.23460512
000360 44 ea 9b 3d 37 59 03 3e 0e 7b 70 3e 41 47 d2 3d
       0.07613042 0.12827002 0.23484442 0.10267497
000370 df e0 5f be ca d6 1f be 9b db 80 be 1e 66 5b 3e
       -0.21863125 -0.1560928 -0.25167546 0.21425673
000380 7c f5 f1 3d 6a ee 68 3e 21 45 07 be a3 e2 99 3c
       0.118144006 0.22747198 -0.13209964 0.018784827
000390 d0 a5 c0 bd e7 20 6e 3d e4 8f d4 3c fa 87 14 be
       -0.09406626 0.058136847 0.025947519 -0.14504996
0003a0 22 23 64 3a 60 b1 97 bd fa b8 1a be 4d 77 74 bd
       0.0008702745 -0.074068785 -0.15109625 -0.059684087
0003b0 a8 8c 46 be 5c 41 61 be 3b e5 91 3d 96 89 43 bd
       -0.19389594 -0.21997589 0.071238 -0.047738634
0003c0 8a 10 ac 3d ba d3 7a bd 50 df 14 3e 20 0a bb 3b
       0.08401592 -0.061237074 0.14538312 0.005707994
0003d0 5a 9d aa bd 36 59 22 be e3 2f 77 3d d5 57 39 3e
       -0.08330794 -0.15854344 0.060348403 0.18099912
0003e0 af 92 8d 3e 92 09 93 3c 28 3f 42 be 8f f6 94 3c
       0.27650973 0.0179489 -0.18969405 0.018183975
0003f0 fa 11 8c be f4 fd 52 be 67 b8 81 bd d1 c8 c4 bb
       -0.27357465 -0.20604688 -0.06334 -0.0060053845

net.0.bias f4 [64]
000000 e3 5b b4 be 94 3a e1 3d 0e 8a c6 be 00 e1 99 be
       -0.35226354 0.10997501 -0.38777202 -0.30054474
000010 18 dc c0 3e 76 b1 3e 3e df 9e 7a 3c 4e b6 cd bd
       0.37667918 0.18622383 0.015296667 -0.100445375
000020 ee 51 36 bd 42 e8 ad be 51 a5 3c bd 42 01 09 3c
       -0.044511728 -0.3396626 -0.046056096 0.008362116
000030 7c 01 41 be 54 44 b0 be 4d 13 5c 3d 80 2a 88 3e
       -0.18848222 -0.3442713 0.053729344 0.26594925
000040 31 e4 90 be 91 79 0d 3e 18 47 73 3e b0 a9 77 3d
       -0.28299096 0.13815905 0.23757589 0.06046456
000050 e9 ce 8b be 53 8f 97 3e 5a 3f 19 3e f6 f5 93 3e
       -0.27306297 0.29601535 0.14965573 0.2889859
000060 34 fd ed bd ea 4a 0f 3e 9e 56 8c be 2b c3 19 3e
       -0.1162056 0.13993421 -0.27409834 0.15015857
000070 af ad da bc bb 28 2f 3c ca 38 b7 3c ec 61 39 3e
       -0.026694147 0.010690863 0.022365946 0.1810376
000080 98 f5 27 be ac ae c1 3d c6 11 ad bc cd da 1d bd
       -0.1640228 0.09457144 -0.02112664 -0.038538743
000090 fe 4f ab 3e 27 b4 95 3c c5 ac a9 be bc 6c 24 be
       0.33459467 0.01827438 -0.33139625 -0.16057104
0000a0 e5 42 ff bd f8 6e 8f 3d b8 39 42 bd 11 02 7c be
       -0.12463931 0.070035875 -0.047418326 -0.24610163
0000b0 9b f5 43 be e1 d5 b3 3e b5 a8 03 bf ad ee 5d 3e
       -0.1913666 0.35124114 -0.514293 0.21673079
0000c0 1a 98 1a be b4 78 a9 3e b2 7a 44 3e 19 5c 39 be
       -0.15097085 0.33099902 0.1918743 -0.18101539
0000d0 03 22 ff 3d b9 99 9e 3e eb e8 43 be f9 71 b1 3e
       0.12457659 0.30976656 -0.1913182 0.34657267
0000e0 91 8b a5 3d 9c d0 2c be 69 37 2d bd aa 2d 9d be
       0.08083261 -0.16876453 -0.04228917 -0.306989
0000f0 51 17 27 be 14 20 69 3e 23 9f 3e 3e 0b 7c 76 be
       -0.16317488 0.22766143 0.18615393 -0.24070756

net.2.weight f4 [64, 64]
000000 8e 72 d0 3d 85 68 21 be bc 59 5a bd bc 69 35 3d
       0.101780996 -0.15762527 -0.053308234 0.04429029
000010 d4 86 3d bc b3 5a 7e bd 63 47 49 3c c5 45 b5 3c
       -0.01156779 -0.062098216 0.012285086 0.022127995
000020 53 66 7f 3d 40 1e d2 3c c9 1a a6 3d 6f 9f 1e be
       0.062353443 0.02564919 0.081105776 -0.15490507
000030 0d 7c 2f be 75 7f da 3d 02 d9 b6 3d da 31 d3 3d
       -0.17137165 0.10668842 0.0892811 0.10312243
000040 16 78 c4 bd fd ee 42 bb 2b 1a ad 3d 83 02 7b be
       -0.09593217 -0.00297445 0.08452257 -0.24512677
000050 85 4b e4 bd c5 b9 0a be 30 98 8a bd 2d 8e 79 bd
       -0.11147217 -0.13547428 -0.06767309 -0.060926605
000060 15 4d 7f bd 79 34 67 3d 3c e3 a5 3d f3 74 83 3d
       -0.06232937 0.056446526 0.08099982 0.06418791
000070 2f 62 a2 bd ca a5 e6 3b 9c 49 03 3d 56 cc 1b bd
       -0.07928883 0.0070388066 0.03205262 -0.038036667
000080 4e db 2d be e1 b0 c4 bd 6f 11 f5 bd 04 fd db bd
       -0.1697819 -0.096040495 -0.11966216 -0.10741618
000090 52 71 ab bd ea 22 12 bd f7 20 15 3d 41 93 2d bd
       -0.083712235 -0.035677828 0.03640839 -0.04237676
0000a0 22 b9 37 3d 3a 04 44 be 01 2d 93 bc 48 35 3a be
       0.04485429 -0.19142237 -0.017965795 -0.18184388
0000b0 5b 79 d3 bc 08 61 16 3d 17 bb 16 be d4 53 09 be
       -0.025814703 0.03671363 -0.14719807 -0.13410884
0000c0 90 a5 0a be f9 ee d9 bd 71 4b 11 be 0d d1 29 be
       -0.1353972 -0.106412835 -0.14188935 -0.16583653
0000d0 e0 7b 02 bd 3f 65 d9 bd db 52 8f bd ed 4f 82 bb
       -0.031856418 -0.10615014 -0.06998225 -0.003976813
0000e0 fb d0 5c 3d 9b 70 b2 bc 06 34 62 bd f4 79 c9 3a
       0.053910237 -0.02178221 -0.055225395 0.0015371428
0000f0 d7 0f 13 3d 30 6d ac bd a4 47 22 be 0c 4b 73 bd
       0.035903778 -0.08419263 -0.15847641 -0.059397742
000100 4b 19 ea 3d ac 59 5f 3c 27 62 91 bb 6a 45 ac bc
       0.114306055 0.013632219 -0.0044367495 -0.021029193
000110 dc 25 e5 bd 8b 6a fc bd 56 06 01 3c 64 33 31 3c
       -0.11188862 -0.12325009 0.007875046 0.010815475
000120 a6 6a 6c 3d e2 06 ab bd 3a 06 f6 3b 08 06 18 bc
       0.057718895 -0.08350922 0.0075080665 -0.009278782
000130 97 6d 5e bd cd ae 8a bd ba b2 0a bd 30 01 3e 3d
       -0.05430373 -0.06771622 -0.033861853 0.04638785
000140 d7 6a 10 3c 6c e9 c2 bd d1 a6 ba 3d e7 41 a3 3c
       0.008814535 -0.09517178 0.09113849 0.019928886
000150 19 60 a9 bd 6b c9 05 3d de 05 25 bd 96 5b c3 3c
       -0.08270282 0.03266279 -0.0402888 0.023847383
000160 ee ad a8 bd a7 b5 21 be 93 cf 02 be b3 2c 94 3d
       -0.082362995 -0.15791951 -0.12774496 0.07235088
000170 68 06 9f bd f5 68 8a 3d 89 37 98 3c d4 ed c7 bd
       -0.07764894 0.067583 0.018581169 -0.09762159
000180 df 6b 93 bc 15 c0 a0 3c c7 cb 8a 3d ff 85 5b be
       -0.017995773 0.019622842 0.06777149 -0.21437834
000190 a8 ba 0f be 69 25 74 bd 7c b7 0f be 9e f4 03 be
       -0.14036047 -0.05960599 -0.14034837 -0.12886283
0001a0 45 2f 4e bd cb 39 0e bd c5 d4 0a be 96 3e 7a bd
       -0.05033805 -0.034723084 -0.13557728 -0.061094843
0001b0 40 4f 1a be a9 b0 db bc 57 79 ee bd 79 96 10 be
       -0.15069294 -0.026817637 -0.116442375 -0.14119901
0001c0 b4 11 12 3d ad f0 22 bd b1 30 f2 bd 35 a4 6a bd
       0.035661414 -0.039780308 -0.118256934 -0.057285506
0001d0 87 b1 2f be fe 58 9b 3d b2 69 e9 bc 8a 4c 47 bd
       -0.17157565 0.07585333 -0.028492782 -0.048656978
0001e0 07 33 cc bd 86 02 e4 bc 94 cc b3 bd 8c 73 47 bd
       -0.0997067 -0.027833235 -0.087792546 -0.04869418
0001f0 25 1e 7a 3c e7 c4 a2 3c 0a 21 ef bc f6 a7 15 be
       0.015265976 0.019869281 -0.029190559 -0.14614853
000200 22 8f 55 3d cd ac 63 bd c1 27 ed bd 2f 5a 06 3c
       0.052138455 -0.055584718 -0.11579848 0.008200212
000210 a8 3c e3 3a e1 d2 50 3d c5 17 e5 3c a6 82 97 bd
       0.0017336803 0.05098236 0.027965436 -0.07397966
000220 e3 ac 53 3d 6d 04 ef bd 62 43 11 be 6c d9 19 bd
       0.05167855 -0.11670766 -0.14185861 -0.037560865
000230 41 6d a4 bc 7a 92 e9 bd 6e bc 5d bd 52 b7 91 bd
       -0.020071628 -0.11404891 -0.05413478 -0.07115044
000240 46 de 84 3b f1 e0 aa bd 93 73 df 3c b0 bb f7 bc
       0.0040548174 -0.083436854 0.02727679 -0.030240864
000250 12 7c bb 3d c6 eb a1 3c 9f f9 37 bb 62 21 45 3d
       0.09154524 0.019765746 -0.002807237 0.04812754
000260 21 2a ce bd 30 5e bf bd bc b9 93 bd 5b e2 63 bd
       -0.10066629 -0.09344137 -0.072131604 -0.05563579
000270 6d 92 9d bd 27 0a 6e bd 77 37 4a 3d ae 5a 33 3d
       -0.07693944 -0.05811515 0.0493693 0.04378765
000280 be 1b 2e be 43 c0 73 3d 79 0c 0f 3d 89 c2 4a bb
       -0.1700277 0.059509527 0.034924004 -0.0030938706
000290 97 b9 5a bd e3 59 ed bd 82 98 4b bc 2d d7 36 bb
       -0.05339965 -0.1158941 -0.012426497 -0.002789925
0002a0 66 1a 95 bd f6 f6 80 3d b3 6d a1 bc e5 fa 6f 3c
       -0.07280426 0.06297104 -0.019705629 0.01464722
0002b0 f1 61 04 be 46 93 22 3d e7 25 5e bd 5d 36 47 3d
       -0.12927987 0.039691232 -0.054235365 0.04863583
0002c0 24 1e 10 bd f7 8f 27 3d ce c9 aa bd a3 14 70 be
       -0.035184994 0.04090878 -0.083392724 -0.23445372
0002d0 80 46 7b bb 8b 62 ef bd 21 cd fb bd d5 dc d7 bc
       -0.0038341582 -0.116887175 -0.122949846 -0.026350418
0002e0 99 c7 29 bd 0e bf 7a bd a8 4b 17 3e d6 ca b0 bd
       -0.041450117 -0.06121736 0.14774954 -0.08632438
0002f0 84 96 0b 3d 2d 15 14 3b 49 b0 33 3d e7 af b8 ba
       0.03407909 0.002259563 0.04386929 -0.0014090509
000300 da bf 05 bd 32 37 77 3c 31 c9 dc bc d8 38 12 bd
       -0.032653667 0.015088843 -0.026951404 -0.03569874
000310 dc 49 ce bd 4d 02 9c bb c8 81 9e 3d 0f 94 8e bd
       -0.10072681 -0.0047610165 0.077395976 -0.06961834
000320 7c b0 da 3b 2f 15 95 3d 7e 59 02 3e 43 75 2b bd
       0.0066738706 0.07279431 0.12729451 -0.041859876
000330 9f 49 71 bd b3 32 3d bd ef 01 fa bd c0 26 10 be
       -0.0589081 -0.04619093 -0.122074 -0.14077282
000340 03 44 96 3d 09 04 03 be 66 5d 82 bd 1d 40 f1 bd
       0.07337191 -0.12794508 -0.063654706 -0.11779807
000350 fd bc 91 bd 9b 16 de 3c c3 68 31 3d d9 9f 05 bd
       -0.07116125 0.027110389 0.0433128 -0.032623146
000360 b6 92 a9 bd 86 ee 51 bd f7 31 30 be 71 8c e1 bc
       -0.08279936 -0.051252864 -0.1720656 -0.027532788
000370 52 ae 09 3c 73 5a 79 3d 00 49 63 be 15 a4 ba 3d
       0.008403378 0.060877275 -0.22195816 0.091133274
000380 23 e3 69 bd b6 0d 4e 3d f7 fc 8b 3d e4 14 00 bd
       -0.05710138 0.050306045 0.068353586 -0.031269923
000390 8d 8e ea bd a8 48 05 bd 62 8c 09 be db 2e 11 3c
       -0.11452971 -0.032539994 -0.13432458 0.008861269
0003a0 bc b3 82 3d 21 b7 48 be 86 98 88 bd 4c 33 a5 bd
       0.06381938 -0.19601108 -0.066697165 -0.08066425
0003b0 ef 3f 89 3d c4 9b f9 bd 96 0e c2 3d 3f 8b 4e bd
       0.067016475 -0.12187913 0.09475438 -0.050425764
0003c0 9c 40 37 be 18 c7 1e 3b d6 ac b2 bd 10 39 60 be
       -0.1789574 0.0024227556 -0.08724372 -0.21896768
0003d0 72 49 ed 3d 0e 4e da 3c 67 a5 9e bc c4 1f a2 bd
       0.11586274 0.026648548 -0.01936598 -0.07916215
0003e0 de bc 95 bd 3b b6 f0 bd 35 4b c1 bd d4 5b 29 bd
       -0.07311414 -0.11753508 -0.09438173 -0.04134734
0003f0 cb 36 7c 3d 91 d0 bb bd b3 0a 91 3d 4f d3 a6 bd
       0.061575692 -0.0917064 0.07082119 -0.08145773

net.2.bias f4 [64]
000000 0c 02 15 3c 01 c0 a1 3d 01 e9 6f 3e 33 81 95 3d
       0.009094726 0.0789795 0.23428728 0.073000334
000010 1e f0 c5 3e 38 85 0f 3c e4 3c 43 be 31 07 40 be
       0.38659757 0.008759789 -0.19066197 -0.18752743
000020 f2 c4 8a 3e 74 c1 83 3e be de b0 3e 27 a6 7c be
       0.27103382 0.2573353 0.3454494 -0.24672757
000030 e4 a1 01 3e c7 cb 63 3d 96 35 9d 3c 7f 12 25 be
       0.12659413 0.05561426 0.01919059 -0.16120337
000040 eb cc 9a 3d b8 fa ad bc 9c a1 63 bd 66 4b 29 be
       0.07558616 -0.021237716 -0.055574045 -0.16532668
000050 01 a4 22 be be 60 0c be a8 52 08 3e 2a 5f a7 3d
       -0.15882875 -0.13708779 0.13312781 0.08172448
000060 11 c5 28 be be 31 70 be 4e 8c 43 be 3f 12 e2 3e
       -0.16481425 -0.23456475 -0.1909649 0.44154546
000070 fd 0f 6a bd d5 3a 84 3c 1f df 41 bd 79 ce 59 3c
       -0.057144154 0.016141335 -0.047331925 0.013293856
000080 a0 44 1a 3d c3 ea 40 be 28 33 8f bd a5 ae 0d bd
       0.037663102 -0.18839554 -0.06992179 -0.034590382
000090 fc 64 82 3d f0 34 a7 be bd 7d 38 be 7c bc 4c be
       0.063669175 -0.32657576 -0.18016715 -0.19993776
0000a0 40 b9 3c be 87 ea b1 3d fd 7b 8b bb 28 62 14 bc
       -0.18430042 0.08687311 -0.004256724 -0.009056605
0000b0 8c 24 95 bd f1 08 fe bc 73 d7 a0 be aa 60 67 bd
       -0.072823614 -0.031010123 -0.31414375 -0.05648867
0000c0 7a cf f4 bd 45 88 3e 3e 6e 98 44 3d 91 d8 b7 3e
       -0.119536355 0.1860667 0.04799693 0.35907415
0000d0 ec 5e 8e 3e 0f f4 e1 bd 00 2d 24 bd f6 41 e1 3d
       0.27806795 -0.110328786 -0.040081978 0.10998909
0000e0 ee a8 8a 3e ca bc d6 3d 2b ed 6e 3e 22 5d d0 bd
       0.27082008 0.104852274 0.2333266 -0.10174014
0000f0 f2 88 96 3e 4c db c5 3d d2 f8 c0 bd c3 2d 6b 3c
       0.29401356 0.09660968 -0.09422459 0.014354172

net.4.weight f4 [64, 64]
000000 a7 2a 8c 3d dd 4b 7f bc b6 ea e0 3c 9d 6d 91 3d
       0.06844073 -0.015582052 0.027455669 0.07100985
000010 a1 eb 19 3d bb a3 ba 3d dd d1 42 3c 65 10 91 bb
       0.03757823 0.0911326 0.011890856 -0.004427003
000020 4b b7 1c be 0b eb 3b 3d 59 b5 12 3d 88 68 bc bd
       -0.15304296 0.04587845 0.035817478 -0.09199625
000030 39 5b 80 3d d0 cd db 3d c2 81 b5 bd fc 81 e0 3d
       0.06267399 0.10732615 -0.0886264 0.109622926
000040 3f 75 ce 3c 2a b3 a8 bd c7 de 8d bd bf 82 04 3d
       0.025202392 -0.08237298 -0.06927257 0.03235125
000050 5c 57 04 3d 57 56 ba bb 5d bb ba 3d b5 fd 9d 3d
       0.032309875 -0.005686562 0.09117768 0.077144064
000060 72 b7 d7 bb 29 ed 21 3e 28 40 29 3c f1 bf bc 3c
       -0.0065831477 0.15813126 0.010330237 0.023040744
000070 38 87 5d 3d 2d 69 e7 bc 1b 6b 1a 3e 43 bf 6c 3d
       0.054084033 -0.028248394 0.1507992 0.05779959
000080 78 43 a7 3d 99 ec 2e 3e f4 11 0c 3d e6 04 8a 3d
       0.081671655 0.17082442 0.03419681 0.067392156
000090 79 d2 97 bd bd 38 6a 3e f8 3e 27 3d dd 2c 03 3e
       -0.07413191 0.22873206 0.040831536 0.12810083
0000a0 7f b3 e6 bc 43 6d 0f bd b7 78 af bd b4 99 cf 3c
       -0.028161762 -0.03501631 -0.085679464 0.025341846
0000b0 dd 8f a4 bd b5 39 18 bd ad 8d 97 3d 21 d6 44 bb
       -0.08035252 -0.03716441 0.074000694 -0.0030034857
0000c0 db e9 93 bd 9e 34 e4 3c 61 ca f5 3d 0d da f6 3c
       -0.07222339 0.027857121 0.12001491 0.030133272
0000d0 8c 8b 05 be f7 b2 96 bc f5 5d 5f bb cb 58 8d 3c
       -0.13041514 -0.018395884 -0.0034083102 0.017254254
0000e0 b0 39 c2 bd 18 c2 fe bc 3d 0d d4 bd fb c9 30 3e
       -0.09483659 -0.03109841 -0.103540875 0.1726455
0000f0 04 71 7b 3d c6 fc 81 3d c3 0c b5 bd 9c 29 89 bd
       0.061387077 0.06347041 -0.08840325 -0.066973895
000100 04 ea 60 3d f1 3e ee bd 6a 88 fb 3c 07 73 08 3e
       0.054910675 -0.11633099 0.030704696 0.1332513
000110 7f a7 5c 3d 92 15 67 3d c0 1e 77 bd 60 19 e5 bc
       0.053870674 0.056417055 -0.06033206 -0.027966201
000120 be a7 d7 3d b2 7f d4 3b e8 46 1f 3e fa a7 5b 3d
       0.10530041 0.006484949 0.15554392 0.05362699
000130 7a 80 f2 3c 7c 6f fc 3d b3 e9 d1 bd 76 88 c7 bb
       0.029602278 0.123259515 -0.10249653 -0.0060892655
000140 68 60 8c 3d bd fa 80 be b1 58 01 3e 6d 7b e6 3d
       0.068543255 -0.25191298 0.1263149 0.1125401
000150 8b c1 bf 3c 63 a4 bd 3d a6 da 5e be bb 1b 9d 3d
       0.023407718 0.0925987 -0.21763095 0.07671305
000160 0f e5 84 bd 0d 4e 80 bd d7 b3 cc bc 79 8e 45 3e
       -0.06489002 -0.06264887 -0.024988098 0.1929263
000170 25 32 91 bd fb 72 0b 3e 18 4e 07 be f3 e4 eb 3d
       -0.070896424 0.1361808 -0.13213384 0.11518278
000180 ad 21 af 3c 24 fa ef bc 07 91 00 be a1 6e 0d 3d
       0.021378363 -0.029294081 -0.12555324 0.034529332
000190 2b a1 49 be d5 9a 8b 3c 57 d1 86 bd d6 71 83 b9
       -0.19690387 0.017041603 -0.06582897 -0.00025071081
0001a0 0e 98 1c 3d 74 5a b7 3c a4 09 fa bd b6 e7 44 3d
       0.03823095 0.022381999 -0.1220887 0.04807254
0001b0 f7 68 62 bc c7 21 8f be 03 d4 41 3d 09 d8 15 bd
       -0.013818971 -0.27955458 0.04732133 -0.03658298
0001c0 11 39 e5 bd ba b1 a0 bb 8b 38 91 bc df 04 ea 3d
       -0.11192525 -0.004903999 -0.017727157 0.1142671
0001d0 21 9d 52 bd 0d 43 97 3d 0b be 21 be d8 f8 03 be
       -0.05141938 0.07385836 -0.15795152 -0.12887895
0001e0 d5 8e c5 bd 14 bf b8 3d 2c 55 85 bb dd 05 ba 3c
       -0.09646384 0.0902082 -0.004068991 0.022707874
0001f0 23 95 aa 3c d2 46 44 be c5 d3 17 3e 91 9a 6c bd
       0.020823067 -0.19167641 0.14826877 -0.057764594
000200 a0 0a b1 3d 66 48 e8 3d c0 8b e0 bc 47 be 82 bc
       0.08644605 0.11341934 -0.027410388 -0.015959872
000210 b7 fa d1 3c 8f 48 8e bd f5 e9 77 3d 96 e9 7d 3c
       0.025632245 -0.06947433 0.060525853 0.015497586
000220 15 a5 c3 3d a4 66 5c 3d 2f 93 8a 3c d9 5c a7 3d
       0.09552971 0.053808823 0.016915886 0.08172006
000230 b5 99 5e 3c f3 13 e7 bc bd 15 32 bd f1 14 5a 3b
       0.013586451 -0.028207755 -0.043477762 0.0033276642
000240 2e 3c cb bd 3e 0a 82 be 36 8d b8 bc 48 f1 24 bc
       -0.09923588 -0.2539844 -0.022528272 -0.010067292
000250 ef 79 b7 bd 6b ff d3 bd 52 43 3c be a2 ca 88 3d
       -0.08958804 -0.103514515 -0.18385056 0.06679274
000260 fa e8 8f 3d 6f 34 8b 3d 60 43 78 3d 49 6c 0f 3d
       0.07026859 0.0679711 0.06061113 0.03501538
000270 e7 8e a5 bd f7 c5 44 bd 6b 3d fd 3c 8c 52 0a 3e
       -0.08083897 -0.048040356 0.030913075 0.13508052
000280 01 12 c0 bd ae e3 b2 bb d8 45 13 3d 31 de 94 3d
       -0.09378434 -0.0054592704 0.03595528 0.07268942
000290 ea 28 e4 bd 4a 6f f5 bd e8 11 5f 39 fd 1f 94 3c
       -0.11140616 -0.11984117 0.00021273608 0.01808166
0002a0 92 2d 05 3e e8 4f 1b 3d b3 5f 00 be 51 4b ee bd
       0.13005665 0.037918 -0.12536506 -0.11635459
0002b0 7a a6 50 bd 6b 1e 87 be 08 b6 e9 bd 88 fd ee 3d
       -0.050940014 -0.26390395 -0.11411673 0.11669451
0002c0 d1 43 af 3d d7 d2 96 3d de d1 e8 3c 4b 8e 05 3e
       0.08557857 0.07364433 0.028420385 0.13042562
0002d0 6c 9e c3 3c f3 16 2f bd 47 3c 5d be 0d c6 a7 bd
       0.023879252 -0.042746495 -0.21605025 -0.08192072
0002e0 93 36 d5 bd 36 30 03 3e ac f2 19 bd 4f e0 e2 bb
       -0.104108 0.1281136 -0.037584946 -0.0069237123
0002f0 7a c7 14 bd a7 9d 6e be 1f 6b c0 bd c9 ca 04 be
       -0.03632305 -0.23302327 -0.09395432 -0.12967981
000300 6a 39 90 bb 9c d6 17 bc 51 a2 c2 3d 86 74 56 bc
       -0.0044013755 -0.009267475 0.09503616 -0.013089305
000310 c7 ec 0c 3e 1c d7 ff 3d 5f 72 d6 3b 79 91 de 3d
       0.13762198 0.12492201 0.006544396 0.108675905
000320 e4 47 04 bd 4f 91 b5 3d 60 c1 b7 3d 9e f0 be 3d
       -0.032295123 0.08865606 0.0897243 0.09323238
000330 97 6e f2 bd 70 d8 7e bd 1b 28 13 be 48 3c 7a 3c
       -0.118374996 -0.06221813 -0.14370768 0.015273161
000340 3c f0 1d bb cd df 41 be a4 15 8d bd df 9f bc bd
       -0.002409949 -0.1893303 -0.06888893 -0.092101805
000350 11 bc ba bb d8 dd 8b bc 4f 98 38 be ae b5 62 3d
       -0.005698689 -0.017073557 -0.18026851 0.055349045
000360 63 b0 95 3d 60 84 51 bc 09 18 b6 bc 03 86 6e 3e
       0.07309034 -0.012787908 -0.022228258 0.23293309
000370 d1 16 a5 3d 94 7a 3b 3c 5f c3 3a 3d e0 5a eb bd
       0.080609925 0.011442799 0.045596477 -0.114919424
000380 4e b4 01 3e ea b2 3b 3d 54 e1 b6 bd 8d bf 58 bc
       0.12666437 0.045824923 -0.08929697 -0.013229263
000390 11 51 27 be 99 30 db bd e8 5f b7 bd e9 b7 d0 bd
       -0.16339518 -0.10702629 -0.089538395 -0.10191328
0003a0 a1 8e a4 bc b1 82 b0 3d 46 41 77 3d 38 3e 1d bd
       -0.020087542 0.086186774 0.060364984 -0.038389415
0003b0 33 3d 11 bd 61 80 fa bd 2d 4a 00 bd a2 0a 51 3c
       -0.035458755 -0.122315176 -0.03132074 0.012758883
0003c0 8f 46 9a 3d 6e 56 f6 bc 93 02 ad 3d 41 9d 80 3d
       0.07532989 -0.03007051 0.084477566 0.06279994
0003d0 ac 83 8f 3c 48 4e 3c bd e5 c5 c8 bd 36 b1 65 bd
       0.01751884 -0.045973092 -0.098033704 -0.056077205
0003e0 f7 b7 0a bc 9e 2a a1 bd ea f8 2a bd 17 a9 93 bc
       -0.008466712 -0.07869457 -0.04174129 -0.018024964
0003f0 20 a9 c4 bd 81 16 15 be 3e 73 ce bd 8e c3 a6 3b
       -0.096025705 -0.14559366 -0.100805745 0.00508923

net.4.bias f4 [64]
000000 be 91 35 bd 12 a2 bc 3e f9 3c af 3e ea 07 6b 3e
       -0.044328444 0.368424 0.34226206 0.22952238
000010 bc 62 28 be 72 d8 37 be 89 ef 30 bd 20 d3 8a 3e
       -0.16443914 -0.17953661 -0.04319719 0.271142
000020 a6 eb 85 3e c0 f5 2f 3e 1e 37 a5 3e a4 2a 75 3d
       0.26156348 0.1718359 0.32268614 0.05985512
000030 0d 09 22 3d 10 8c bd 3e 93 fa 91 3d 8e 17 02 3e
       0.039559413 0.37020922 0.07127871 0.12704298
000040 24 d0 58 be ac 50 ab be 28 a8 a2 3e a5 ee aa bc
       -0.2117315 -0.33459985 0.31768918 -0.020865748
000050 5d bc 23 bd f4 1f 1f 3e 27 1a 91 3e ae ef f6 bd
       -0.03997456 0.15539533 0.28340265 -0.12057434
000060 fe c6 84 3e 05 19 bc bd 56 f3 39 3e a9 b5 03 3e
       0.2593307 -0.091844596 0.18159232 0.12862267
000070 71 d6 a6 3e 61 0f 37 3e 95 fa 24 3e e3 d8 b1 3d
       0.3258548 0.1787696 0.16111214 0.08683946
000080 42 bf f8 3c e8 1a 4b bd 3f 21 c8 3d d2 ea 9c be
       0.030364636 -0.049586207 0.09771966 -0.30647904
000090 62 af dc 3d ba dc 9d bd ab 28 9b 3e 5b 00 d1 bd
       0.10775639 -0.07708116 0.30304465 -0.10205146
0000a0 55 fc 55 be 27 4d 88 3e c2 29 98 3e 5b 9a b6 3d
       -0.20897038 0.26621363 0.2971936 0.0891616
0000b0 0e 6c 87 bd 34 a1 9e bd b8 c4 b3 3e 4b 9b b6 3e
       -0.06612407 -0.07745591 0.35111022 0.35665354
0000c0 3c 2d 4f 3e f9 99 8e bd 44 10 84 3d 0c c6 72 3e
       0.202321 -0.06962962 0.06448415 0.23708361
0000d0 4a f8 92 3e 63 a3 25 be 27 e3 97 3e f4 13 93 be
       0.28705055 -0.16175608 0.2966549 -0.2872616
0000e0 fb 27 14 be ad 68 76 3e 9a 6c a3 3d 18 13 53 3e
       -0.14468376 0.24063368 0.079796985 0.20612752
0000f0 28 9b 18 3e 61 ef a1 be 26 7e 5d bd c6 53 77 be
       0.14902937 -0.31627944 -0.054075383 -0.24153051

net.6.weight f4 [1, 64]
000000 bf 0f 9e bb 0b e7 f0 3d 22 f8 51 3e 5a fc 07 3e
       -0.0048236544 0.11762818 0.20504811 0.13279858
000010 36 3f 8d bd 06 27 14 be e2 47 d7 bd be 13 ed 3d
       -0.06896822 -0.14468011 -0.105117574 0.11576031
000020 ba 51 2e 3e dc 53 a2 bd 03 f5 3a 3e a1 88 0c be
       0.17023364 -0.07926151 0.18257527 -0.13723995
000030 81 5e 7d bc 63 4c 20 3e 73 ad e8 3b 0a 5d a3 bd
       -0.015464426 0.15654139 0.007100755 -0.0797673
000040 a3 dd ca bd d9 f7 06 bf 20 45 4c 3e 3d b4 f8 3c
       -0.09905555 -0.52721936 0.19948244 0.030359382
000050 85 c9 c8 ba da a5 3c be eb 87 f0 3d 85 34 30 bd
       -0.0015318847 -0.18422642 0.11744674 -0.043018837
000060 3c 35 1d 3e e5 68 f4 3a d9 6f 2a be 00 69 f0 3d
       0.15352339 0.0018646984 -0.16644229 0.11738777
000070 ad 89 0d 3e 14 54 76 3d 15 c3 cd 3d f0 28 b7 3b
       0.1382205 0.060138777 0.100469746 0.005589597
000080 22 5e ff bc 55 fb 41 3c 0c 74 7e bd 49 68 a1 bd
       -0.031172816 0.011839707 -0.06212239 -0.07881219
000090 e6 59 60 bd 68 b6 9b 3c a4 5f 56 3e 79 b5 2a 3b
       -0.054773234 0.019007877 0.20934922 0.0026048108
0000a0 4b d8 0f bc a4 19 21 3e 3f bc 04 3e 2b 1f c4 bc
       -0.008779596 0.15732437 0.12962435 -0.023940643
0000b0 37 04 88 bc ec 51 af bc 63 90 5c 3e b6 3f 66 3e
       -0.016603572 -0.021401368 0.21539454 0.22485241
0000c0 4a ba ce 3d e6 dc e5 3a 45 cf 5a 3c f0 59 bd 3d
       0.100941256 0.0017537146 0.013355081 0.0924567
0000d0 25 99 0c 3e 41 a2 75 bd a2 ca 22 3e 7b bc 42 bd
       0.13730295 -0.05996919 0.15897611 -0.04754303
0000e0 47 fd eb bd 43 09 36 be a0 ee 56 be 48 00 31 be
       -0.11522918 -0.1777697 -0.20989466 -0.17285264
0000f0 98 8f db 3c b5 db bf bd 4c 2e 8b 3b 84 20 58 3e
       0.02680187 -0.09368078 0.0042474624 0.21106154
