wine_quality/wine_models/tvae_best_model.pt (torch, 40957 bytes, 7 tensors)

net.0.weight f4 [64, 13]
0.14044285 -0.09584648 -0.06293798 0.1176482 -0.23445156 0.13229503 -0.08727633 0.14201403
0.023885155 -0.01035842 0.05318901 -0.020160368 0.09882982 -0.14616117 -0.047824975 0.003697914
0.0449458 -0.016292116 0.30522585 0.14973319 -0.1341062 -0.17241894 -0.083330795 -0.09248952
-0.03611747 -0.03714405 0.2286998 0.1544376 -0.20689283 0.13226807 0.12603804 0.28270483
0.25186792 -0.2050888 -0.21808945 -0.071914695 0.2423637 0.002600542 0.19570808 -0.098479696
0.23117942 -0.12668166 0.1805605 0.025557525 -0.109024845 0.15951253 -0.18031687 0.103058405
-0.082391076 -0.0019515116 -0.25367266 -0.11180196 0.17772852 -0.060369443 0.2725194 0.23796569
0.014020716 -0.20408586 0.12837797 0.076847024 -0.19970684 0.20076215 0.13009943 0.21394686
-0.19092554 0.029935049 0.005926482 0.058157936 -0.22148716 -0.125173 0.20765765 0.0047584763
0.07277969 0.061539937 0.13070957 0.091493644 0.14930566 0.21363293 -0.2936956 0.12003012
-0.19581498 -0.19889191 0.03220059 -0.05328161 0.15057354 -0.15974985 -0.25738987 0.18844938
-0.04425157 0.14440376 0.045261238 -0.2478713 0.07507962 0.06311322 -0.16975713 -0.13764639
0.056747913 0.008674675 -0.11086158 -0.106607586 0.28543153 -0.08566471 0.113623895 0.07101913
-0.14498197 -0.20922522 0.29424295 -0.013223721 0.18589905 0.073551916 0.13577153 0.21137956
0.24006563 -0.16158827 0.101027735 0.2586758 0.24376383 0.1937033 -0.15856491 -0.22459112
-0.1680285 0.019422363 0.2581956 -0.14052764 0.1480483 -0.13672033 -0.22929674 -0.07312775
0.12613246 0.28561732 -0.1791095 0.07837515 0.26283163 0.18970492 0.1986976 0.19548354
0.1502039 0.06584747 -0.212712 -0.2332274 -0.17265674 -0.053895947 -0.18469888 0.15882759
0.07322989 -0.09279289 0.059563853 0.095120355 0.20516214 0.23895994 -0.0941351 0.30039108
-0.021621784 0.02958002 -0.20849279 -0.11719007 -0.14303651 -0.15119396 0.17717822 -0.124966316
-0.17539304 0.13907774 0.11379685 0.14997762 -0.12724377 0.071034856 -0.074329734 -0.027403532
-0.2132621 -0.14002675 -0.08535972 0.13108137 0.05769924 0.050370082 0.23816296 0.24744138
0.19634143 -0.042739425 -0.19962761 0.22376667 -0.116630904 -0.052077703 -0.24759522 -0.039238665
-0.18045188 0.26857996 -0.23896128 -0.23738547 -0.038511332 -0.1662148 0.09015055 -0.09804955
-0.15305917 -0.018933414 0.18784592 -0.1615074 0.14918834 0.2044585 0.27988705 -0.14479174
0.03894508 -0.2514601 0.2482108 -0.12473787 0.213315 -0.03817746 -0.061856613 -0.019520516
0.03663816 0.14252582 0.023939617 0.09381332 -0.2730269 0.19292982 0.24700356 0.23590273
0.19522285 -0.19991161 -0.08412274 0.24027517 -0.19764628 0.20292982 -0.21731435 -0.18241884
0.16356301 -0.23343453 -0.09382812 0.17952801 0.24637356 0.22929652 -0.08401337 -0.21598133
0.26937768 -0.114330515 -0.06457576 0.058725867 -0.12847187 0.1748193 0.2439779 -0.22084805
-0.2522921 -0.03532457 0.12792933 0.036756836 -0.17124957 -0.016981132 -0.23034398 -0.19692245
-0.14835708 0.21463044 0.2252734 -0.08612663 -0.009417956 0.09744386 0.037686486 -0.15683909
00000000: 40d0 0f3e 294b c4bd a1e5 80bd 8af1 f03d
00000010: 1214 70be 5978 073e efbd b2bd 206c 113e
00000020: cdaa c33c 5db6 29bc b8dc 593d 5b27 a5bc
00000030: 4a67 ca3d 46ab 15be 1fe4 43bd b458 723b
00000040: 1619 383d 0b77 85bc 9046 9c3e a853 193e
00000050: 2353 09be 978e 30be 56a9 aabd 256b bdbd
00000060: eaef 13bd 5c24 18bd 4830 6a3e e424 1e3e
00000070: b7db 53be 4871 073e 1e10 013e b0be 903e
00000080: d5f4 803e cc02 52be d752 5fbe 0348 93bd
00000090: 312e 783e db6d 2a3b b367 483e b9af c9bd
000000a0: 4cba 6c3e d6b8 01be dae4 383e 045e d13c
000000b0: 6b48 dfbd 4157 233e fca4 38be 4910 d33d
000000c0: a7bc a8bd ddc9 ffba 62e1 81be 6df8 e4bd
000000d0: 77fe 353e f345 77bd aa87 8b3e 47ad 733e
000000e0: 25b7 653c e2fb 50be 8475 033e f961 9d3d
000000f0: f37f 4cbe 9894 4d3e c938 053e e314 5b3e
00000100: fc81 43be 593a f53c ef32 c23b 0437 6e3d
00000110: 88cd 62be 5a2d 00be 35a4 543e feec 9b3b
00000120: 850d 953d 4d11 7c3d bbd8 053e 0561 bb3d
00000130: 95e3 183e 97c2 5a3e 455f 96be 5ad2 f53d
00000140: b983 48be 52aa 4bbe c4e4 033d d13d 5abd
00000150: f32f 1a3e 7795 23be 9bc8 83be e0f8 403e
00000160: 2241 35bd 94de 133e d963 393d f9d1 7dbe
00000170: 58c3 993d 8141 813d d0d4 2dbe 2df3 0cbe
00000180: 8070 683d 3920 0e3c 650b e3bd 1455 dabd
00000190: 1524 923e fb70 afbd a5b3 e83d 7a72 913d
000001a0: 2776 14be 233f 56be 03a7 963e 4ea8 58bc
000001b0: 525c 3e3e 63a2 963d b107 0b3e e273 583e
000001c0: c4d3 753e 6577 25be a1e7 ce3d 2871 843e
000001d0: 3a9d 793e 285a 463e d75e 22be 37fb 65be
000001e0: aa0f 2cbe a61b 9f3c 3732 843e 7ae6 0fbe
000001f0: f999 173e 6a00 0cbe c4cc 6abe 00c4 95bd
00000200: de28 013e 6f3c 923e 7b68 37be 2783 a03d
00000210: de91 863e 0242 423e 6277 4b3e d62c 483e
00000220: 0dcf 193e 0adb 863d 2dd1 59be 2ad3 6ebe
00000230: eecc 30be ffc1 5cbd b421 3dbe b3a3 223e
00000240: 8df9 953d 330a bebd 3af9 733d 76ce c23d
00000250: 0616 523e eab1 743e e7c9 c0bd dccc 993e
00000260: 2b20 b1bc cc51 f23c 227f 55be 5901 f0bd
00000270: 2a78 12be 97d2 1abe 356e 353e 57ee ffbd
00000280: 3c9a 33be 656a 0e3e 530e e93d bc93 193e
00000290: 314c 02be b97a 913d 303a 98bd 5f7d e0bc
000002a0: 6161 5abe 2c63 0fbe 14d1 aebd 323a 063e
000002b0: 0a56 6c3d dc50 4e3d fee0 733e 4661 7d3e
000002c0: ba0d 493e 890f 2fbd 2e6b 4cbe 1723 653e
000002d0: 2fdc eebd 6e4f 55bd 9a89 7dbe b9b8 20bd
000002e0: 61c8 38be 5083 893e 44b2 74be 2d15 73be
000002f0: 0fbe 1dbd 3634 2abe daa0 b83d 34ce c8bd
00000300: 8bbb 1cbe 3f1a 9bbc ae5a 403e 3262 25be
00000310: d4c4 183e 925d 513e 5b4d 8f3e 4944 14be
00000320: e084 1f3d 61bf 80be f92a 7e3e 9276 ffbd
00000330: 3f6f 5a3e f85f 1cbd 5c5d 7dbd 7de9 9fbc
00000340: e511 163d 4af2 113e 041d c43c 3321 c03d
00000350: 2fca 8bbe 658f 453e 80ee 7c3e 7c90 713e
00000360: 80e8 473e a1b5 4cbe 8b48 acbd b20a 763e
00000370: c963 4abe d6cc 4f3e a787 5ebe 01cc 3abe
00000380: 107d 273e 7609 6fbe f528 c0bd 31d6 373e
00000390: 5a49 7c3e b5cc 6a3e 340f acbd 362a 5dbe
000003a0: dfeb 893e 1e26 eabd 4c40 84bd 898a 703d
000003b0: 218e 03be d503 333e 58d5 793e fe25 62be
000003c0: 6e2c 81be 7fb0 10bd e8ff 023e 568e 163d
000003d0: 0c5c 2fbe 041c 8bbc 4bdf 6bbe 0aa6 49be
000003e0: ebea 17be 15c8 5b3e 12ae 663e 2963 b0bd
000003f0: c54d 1abc a590 c73d 255d 1a3d 6d9a 20be

net.0.bias f4 [64]
-0.013017526 -0.2215493 0.13705462 -0.110495836 0.2546048 -0.24026588 -0.06322989 0.22424737
0.12628184 -0.15890057 -0.21436006 -0.026277928 0.087658465 -0.2527436 -0.2174821 0.029040096
-0.076490834 0.18671843 -0.24922134 -0.06662275 -0.20500258 0.011982164 -0.11661983 0.10922182
-0.2336377 -0.21646601 -0.11960961 -0.23023823 0.22846648 -0.02118459 -0.15167433 0.17280185
-0.040133607 0.1728059 -0.095904864 -0.20580262 0.086576104 0.20336513 -0.27660778 0.061482478
0.06925746 0.06672659 0.021260537 -0.065362886 -0.20444892 0.045131307 -0.1240757 -0.2030122
-0.089926414 -0.16471456 0.11221535 0.23144726 0.25202605 -0.1600938 0.15574107 0.20445877
0.02534685 0.11742303 0.18104777 0.22135642 0.15808308 0.15477791 -0.10965098 -0.1188432
00000000: 7647 55bc d2dd 62be 0c58 0c3e a44b e2bd
00000010: 8f5b 823e 4208 76be ac7e 81bd 1aa1 653e
00000020: 0750 013e d5b6 22be 3481 5bbe cf44 d7bc
00000030: 4886 b33d 9c67 81be a1b3 5ebe 7fe5 ed3c
00000040: 3aa7 9cbd 1e33 3f3e e133 7fbe 8271 88bd
00000050: 32ec 51be d750 443c 61d6 eebd b1af df3d
00000060: b93e 6fbe 44a9 5dbe e2f5 f4bd 92c3 6bbe
00000070: 1ef3 693e 4e8b adbc 8450 1bbe f8f2 303e
00000080: 2363 24bd 08f4 303e c569 c4bd ecbd 52be
00000090: d04e b13d f33e 503e 899f 8dbe 0dd5 7b3d
000000a0: dbd6 8d3d f3a7 883d 942a ae3c fadc 85bd
000000b0: 0f5b 51be 9bdb 383d 671b febd 6ee2 4fbe
000000c0: 572b b8bd efaa 28be 29d1 e53d 8300 6d3e
000000d0: 8f09 813e a1ef 23be 967a 1f3e a45d 513e
000000e0: 32a4 cf3c 7c7b f03d 9664 393e 42ab 623e
000000f0: 88e0 213e 1a7e 1e3e b190 e0bd 1064 f3bd

net.2.weight f4 [64, 64]
-0.055658422 0.14831366 -0.041624 0.019034762 -0.107250005 -0.04194226 -0.030768134 -0.07015921
0.092094906 -0.118877724 -0.012214161 -0.0090904385 -0.088078246 0.08321133 -0.049721416 0.07198162
0.0806968 0.11633437 0.057338957 0.09098075 0.100244805 0.065429896 -0.022196788 -0.007828073
0.022124222 0.06820024 -0.08974658 0.11146243 0.05752132 -0.1118747 0.01254587 0.08625068
0.06277227 0.14087467 -0.012509742 -0.08570704 0.0024929356 0.10161709 -0.029786205 0.06905187
0.037869174 -0.004184308 0.009776782 0.08878482 -0.072328605 0.08756784 0.1124879 0.031494923
0.12442517 0.011457663 -0.06959245 0.016619613 0.0025513072 0.063513465 0.12791902 -0.052674178
0.0067683603 0.12103498 -0.077328265 0.010289341 0.15625294 0.1124421 0.014034027 -0.025793659
-0.0066974363 -0.06731644 -0.12120299 -0.10448215 0.13067801 0.08078281 0.06022833 -0.017702498
0.11324007 -0.03280449 0.09953531 -0.00041455348 -0.035771772 -0.025186036 -0.03384503 -0.09656879
0.05057218 -0.028804824 0.08459274 0.08193448 -0.030976217 0.10472153 0.033191223 0.108209044
-0.07148852 0.01241838 -0.019645562 0.12882298 -0.07401517 -0.07727995 -0.0036400072 0.12498143
0.1004275 -0.07718542 -0.091639794 0.14208403 0.03405576 -0.0942497 -0.0126176905 0.072375104
-0.013928536 -0.082273915 -0.06910014 -0.03283758 0.015524015 0.06118833 0.096469216 -0.076710366
-0.022001166 -0.080348566 0.11505616 0.13784453 0.1562768 0.07280911 -0.00013335812 0.008141896
0.05141587 -0.10177809 0.03007146 -0.06902958 -0.09075017 0.024189511 -0.055046957 -0.0495194
0.028242767 -0.020972794 -0.04398238 -0.085035056 -0.13980027 -0.03313216 -0.0915924 -0.06857402
0.058167815 -0.0011102292 0.038903452 -0.0649361 -0.10790526 -0.0075744395 -0.08837396 0.0063043386
-0.122779645 0.07349088 -0.092514426 0.08875195 0.057346083 0.1009735 0.06018993 0.032910492
-0.045565005 0.0025715006 -0.03355893 -0.13428377 0.12720993 -0.009784652 0.014452354 -0.021795629
0.02504673 -0.06838405 -0.1361547 0.10406247 0.040080927 0.044957194 -0.12879448 -0.0014004534
-0.12344024 -0.017478148 -0.024553811 -0.07814319 -0.14343695 -0.029268133 0.099271104 0.062472153
-0.112927966 -0.042866625 -0.11000111 -0.10216073 -0.027600564 0.11927207 -0.056184165 -0.0022648491
0.10512789 -0.040693372 0.09934424 0.07931722 0.11864548 0.015018461 -0.13986363 -0.10849232
-0.069360636 0.14110036 0.062721245 0.05064988 -0.07009086 -0.12791674 0.10236587 0.005256691
-0.12483663 -0.043685548 -0.022784265 0.0043708924 0.08315696 0.06760125 -0.112688735 0.013290711
-0.053201295 0.08297572 0.0860509 0.074921384 0.09772557 0.10915156 -0.12977117 0.05582205
-0.07005957 0.040128414 0.017531406 0.13770768 -0.05078872 -0.1066022 -0.067271985 0.02089408
0.10528696 0.14533703 0.08199031 0.05157712 -0.024008328 -0.018594079 -0.040893678 0.03736331
-0.082718164 0.055602632 0.09023818 0.13606106 -0.11249885 0.11668093 -0.03947329 -0.051475387
0.10772448 0.081286326 -0.025244769 0.07790382 -0.073582225 0.11647819 0.14957908 0.019639488
0.020592695 -0.008021943 -0.061596356 -0.019652545 0.028027672 -0.070115834 -0.12093447 0.038580965
00000000: 16fa 63bd 89df 173e ed7d 2abd caee 9b3c
00000010: e4a5 dbbd a6cb 2bbd 740d fcbc a2af 8fbd
00000020: 419c bc3d 2a76 f3bd e81d 48bc 10f0 14bc
00000030: 5e62 b4bd b46a aa3d afa8 4bbd 196b 933d
00000040: 5d44 a53d b740 ee3d 41dc 6a3d 1e54 ba3d
00000050: 264d cd3d 1c00 863d 0ad6 b5bc 5141 00bc
00000060: db3d b53c 91ac 8b3d 0ecd b7bd 6a46 e43d
00000070: 7a9b 6b3d 901e e5bd 318d 4d3c 32a4 b03d
00000080: bf8e 803d 7341 103e a9f5 4cbc 2c87 afbd
00000090: 8560 233b 9f1c d03d 3302 f4bc 116b 8d3d
000000a0: b51c 1b3d 851c 89bb cc2e 203c d1d4 b53d
000000b0: 0521 94bd c556 b33d 0e60 e63d d200 013d
000000c0: a0d2 fe3d ecb8 3b3c 7d86 8ebd db25 883c
000000d0: d533 273b 5913 823d 34fd 023e e1c0 57bd
000000e0: 1fc9 dd3b 30e1 f73d 485e 9ebd a094 283c
000000f0: c500 203e 0b48 e63d faee 653c 394d d3bc
00000100: 2b76 dbbb 34dd 89bd 4639 f8bd bdfa d5bd
00000110: 75d0 053e 7571 a53d fbb1 763d d404 91bc
00000120: 69ea e73d 005e 06bd 2bd9 cb3d 6d58 d9b9
00000130: 6c85 12bd f252 cebc 16a1 0abd dcc5 c5bd
00000140: c624 4f3d 18f8 ebbc f53e ad3d 44cd a73d
00000150: d6c1 fdbc 3e78 d63d 85f3 073d b49c dd3d
00000160: 9368 92bd 7676 4b3c bbef a0bc 2cea 033e
00000170: 4495 97bd f344 9ebd 308d 6ebb 44f6 ff3d
00000180: efac cd3d 6413 9ebd a5ad bbbd 7a7e 113e
00000190: 0d7e 0b3d fd05 c1bd 6eba 4ebc 6639 943d
000001a0: 8434 64bc 3a7f a8bd 6084 8dbd b380 06bd
000001b0: 7058 7e3c 9da0 7a3d a791 c53d 531a 9dbd
000001c0: ca3b b4bc ca8d a4bd 90a2 eb3d 1e27 0d3e
000001d0: 0707 203e f11c 953d 0cd6 0bb9 9665 053c
000001e0: 7399 523d 0871 d0bd 6c58 f63c 615f 8dbd
000001f0: 3adb b9bd 1529 c63c eb78 61bd dbd4 4abd
00000200: 605d e73c 23cf abbc de26 34bd dc26 aebd
00000210: cd27 0fbe 96b5 07bd cc94 bbbd 8970 8cbd
00000220: 6041 6e3d 1c85 91ba 3a59 1f3d 38fd 84bd
00000230: 6ffd dcbd 0133 f8bb 68fd b4bd a094 ce3b
00000240: e573 fbbd 6382 963d 3478 bdbd 95c3 b53d
00000250: bae3 6a3d 32cb ce3d b789 763d 27cd 063d
00000260: 5fa2 3abd 9f86 283b 1775 09bd af81 09be
00000270: 5243 023e ce4f 20bc 91c9 6c3c bf8c b2bc
00000280: cd2e cd3c f00c 8cbd 236c 0bbe b41e d53d
00000290: e62b 243d 0925 383d b3e2 03be 6b8f b7ba
000002a0: 3dce fcbd 552e 8fbc 1325 c9bc 8909 a0bd
000002b0: 23e1 12be b9c3 efbc a64e cb3d cde2 7f3d
000002c0: c746 e7bd ea94 2fbd 4348 e1bd a539 d1bd
000002d0: 941a e2bc ea44 f43d 5e21 66bd dd6d 14bb
000002e0: 4b4d d73d 18ae 26bd fe74 cb3d 1171 a23d
000002f0: 67fc f23d fe0f 763c 6938 0fbe 3931 debd
00000300: f30c 8ebd 9d7c 103e ff73 803d 4076 4f3d
00000310: cc8b 8fbd 9bfc 02be 32a5 d13d 5240 ac3b
00000320: 59aa ffbd 9eef 32bd 11a6 babc b439 8f3b
00000330: 324e aa3d 8672 8a3d 5ac9 e6bd 48c1 593c
00000340: 9ae9 59bd 2def a93d 743b b03d 6270 993d
00000350: 5824 c83d da8a df3d bce2 04be a9a5 643d
00000360: 647b 8fbd b15d 243d 069e 8f3c 3e03 0d3e
00000370: d507 50bd 4152 dabd e5c5 89bd 102a ab3c
00000380: b1a0 d73d 3bd3 143e 89ea a73d 8842 533d
00000390: 1dad c4bc 9c52 98bc 2180 27bd 450a 193d
000003a0: 2468 a9bd 96bf 633d cbce b83d 9753 0b3e
000003b0: cc65 e6bd 69f6 ee3d bfae 21bd dbd7 52bd
000003c0: a79e dc3d 7279 a63d 1ece cebc 0a8c 9f3d
000003d0: 47b2 96bd 1e8c ee3d 422b 193e fee2 a03c
000003e0: 03b2 a83c 786e 03bc 764c 7cbd 60fe a0bc
000003f0: 4a9a e53c e498 8fbd 7eac f7bd 1307 1e3d

net.2.bias f4 [64]
-0.010435279 -0.006356323 -0.016922733 0.002544666 0.13055362 -0.014993249 0.093509436 0.12191676
-0.005610222 0.029296651 0.06794156 0.13760409 -0.1138637 0.051866345 0.05342885 0.06503474
0.041706376 0.09055377 0.094897084 -0.08431743 -0.049286004 0.096482486 0.067853265 0.1017749
0.08677108 0.16630697 0.076731004 0.041292943 0.12363351 0.018774437 -0.040951476 -0.071722955
0.17951356 -0.036044195 -0.028833482 0.14488484 -0.083882295 0.053637646 0.036137026 0.07497153
0.07322561 0.13161243 0.107578024 0.011715403 -0.03546566 0.090281144 0.08693319 -0.015795292
0.048399203 0.07188989 -0.05918095 -0.10626314 -0.081143245 0.038046844 -0.04033702 0.0003213191
-0.108792104 0.10046223 0.060857464 -0.0011440498 0.035772763 0.01856313 -0.0032046724 0.11248443
00000000: bcf8 2abc b448 d0bb 8ba1 8abc 69c4 263b
00000010: d9af 053e 3fa6 75bc e081 bf3d 7faf f93d
00000020: f4d5 b7bb 88ff ef3c f224 8b3d 16e8 0c3e
00000030: 5f31 e9bd ce71 543d 36d8 5a3d ef30 853d
00000040: 4ed4 2a3d 4174 b93d 6759 c23d 9eae acbd
00000050: 1fe0 49bd 9c98 c53d a7f6 8a3d 5c6f d03d
00000060: 09b5 b13d 604c 2a3e 2525 9d3d ca22 293d
00000070: 9133 fd3d d9cc 993c bcbc 27bd 7ce3 92bd
00000080: 67d2 373e 14a3 13bd 3234 ecbc b15c 143e
00000090: 7bca abbd 26b3 5b3d 6b04 143d ac8a 993d
000000a0: 4ff7 953d 69c5 063e de51 dc3d f6f1 3f3c
000000b0: 7144 11bd 52e5 b83d 070a b23d 2165 81bc
000000c0: 3e3e 463d 023b 933d b967 72bd 7da0 d9bd
000000d0: 6e2e a6bd 02d7 1b3d 6e38 25bd b876 a839
000000e0: 65ce debd 24bf cd3d ad45 793d f1f3 95ba
000000f0: 7686 123d b511 983c 7b05 52bb 3d5e e63d

net.4.weight f4 [64, 64]
0.13159575 0.09612997 -0.07267729 0.109892786 0.099243715 -0.01157261 0.08276092 0.012553983
-0.066554904 -0.07411214 -0.010210331 0.09038166 0.010594706 -0.03470927 0.14085566 0.07451017
0.068463154 -0.090838596 0.0734825 0.14425717 -0.0058723427 -0.033878576 0.019071009 -0.00082399976
0.094334975 0.19266586 0.11872193 -0.039346743 -0.061899386 0.035925936 -0.078409895 -0.0039359303
0.011117562 0.089810476 0.120613076 0.09007568 0.06673032 0.08962132 -0.06795318 0.059764206
0.12071883 0.10669117 -0.06444266 -0.0962995 0.023992922 0.13154282 0.023686882 -0.033595048
-0.1413679 0.052638523 0.12596285 -0.04147631 0.07241411 0.03590008 0.14890322 0.08669288
-0.041082304 0.12988855 -0.06838045 0.11460343 0.05644114 0.12674884 -0.031263642 -0.1340854
-0.024604376 -0.026967071 -0.08475511 -0.13590644 -0.07766706 0.10479581 0.11073467 -0.14858264
-0.06586835 0.046692092 0.07184465 0.08168847 -0.12053041 0.058182783 -0.052552897 -0.09365097
0.104660966 0.058847282 0.10804309 0.021648677 0.02804346 -0.06511631 -0.049015623 0.1252437
-0.035183806 0.083634295 -0.037132252 -0.11869589 -0.089252904 0.132783 -0.045087293 -0.11903264
-0.064641945 0.11555829 0.01952024 -0.0025112412 -0.11285979 -0.08690902 -0.06452473 0.03707641
-0.06349041 -0.01071619 0.01925018 0.0018898196 0.02092907 -0.034980394 -0.07736006 -0.04783918
0.030360524 -0.09922277 -0.027945358 -0.093275405 0.025413403 -0.12410156 0.13599953 0.092948645
-0.09057336 0.02197295 -0.12965645 0.036040433 0.09823592 -0.022699289 0.08074964 -0.024752839
-0.044628777 0.033289585 -0.051108446 -0.034207243 0.11236582 0.0726588 0.11360458 -0.031139303
0.1326229 0.0884745 0.08457861 0.09022076 -0.09969763 -0.049069457 0.02714023 0.00075708085
0.1413572 0.13348311 -0.028677868 0.10260978 0.075943306 -0.039839465 -0.11110886 0.07971418
0.0008396621 0.10882314 0.10238365 -0.03814804 -0.017740112 0.03871958 -0.041761924 -0.07716283
-0.055938803 -0.08009632 -0.007777437 0.11838486 -0.14505662 0.03753653 0.11789051 0.051509965
0.015780788 0.1300013 -0.0832963 0.13027681 0.12198351 0.118246175 0.11978967 0.009881327
-0.13474289 -0.06715576 -0.083550826 -0.087244324 -0.18120296 0.031546064 0.08272674 -0.0427858
-0.020065526 0.037875313 0.024436073 0.11078205 0.08086021 -0.07522897 0.15898122 -0.0831652
-0.036722496 0.12662049 -0.030493831 -0.01489608 0.03263008 -0.105185114 0.113693185 0.09406236
-0.0981607 -0.0180664 0.046769034 0.09374664 0.068691805 0.007068659 0.13225296 -0.08320845
0.029754039 -0.05356842 -0.043377895 -0.015736455 -0.08737616 0.0061584087 0.043163706 -0.05889374
-0.1277888 0.19822825 -0.043295998 -0.08642211 -0.00042139844 -0.028963115 -0.10481223 -0.016851678
0.020675132 -0.008494541 0.0545538 0.02103287 0.03336507 -0.11281841 0.16107005 0.10413594
-0.0048652366 0.12385652 0.15277395 0.039959446 0.05432616 -0.051740006 0.015640268 0.009210003
-0.11509964 0.03981089 -0.031940322 0.07478013 -0.04589583 -0.15395996 0.13946556 0.058853995
0.047490925 -0.09718238 0.12286636 0.059964497 0.014728146 -0.061858732 0.07592955 0.016101697
00000000: 09c1 063e cadf c43d d5d7 94bd 780f e13d
00000010: 4a40 cb3d 0b9b 3dbc 8f7e a93d 39af 4d3c
00000020: f04d 88bd 1bc8 97bd 3b49 27bc 051a b93d
00000030: 6b95 2d3c 4f2b 0ebd 773c 103e ca98 983d
00000040: 6936 8c3d 9609 babd fe7d 963d 27b8 133e
00000050: c86c c0bb 43c4 0abd ce3a 9c3c b001 58ba
00000060: b232 c13d 334a 453e 7c24 f33d 0d2a 21bd
00000070: 368a 7dbd 1327 133d 5e95 a0bd faf8 80bb
00000080: 6f26 363c 8eee b73d fd03 f73d 9979 b83d
00000090: e8a9 883d 628b b73d 092b 8bbd 50cb 743d
000000a0: 6f3b f73d e680 da3d 83fa 83bd ac38 c5bd
000000b0: ce8c c43c 29b3 063e fe0a c23c f69a 09bd
000000c0: bfc2 10be 7e9b 573d 68fc 003e 10e3 29bd
000000d0: d94d 943d f60b 133d 167a 183e 098c b13d
000000e0: eb45 28bd 8101 053e 0d0b 8cbd 34b5 ea3d
000000f0: d32e 673d 73ca 013e 4e0e 00bd af4d 09be
00000100: 1e8f c9bc 0cea dcbc 1694 adbd 0f2b 0bbe
00000110: e80f 9fbd 309f d63d dcc8 e23d 0c26 18be
00000120: fce5 86bd 3540 3f3d 4a23 933d 494c a73d
00000130: a6d8 f6bd 1251 6e3d b541 57bd 14cc bfbd
00000140: 7d58 d63d d909 713d b245 dd3d 9158 b13c
00000150: 66bb e53c b35b 85bd 9bc4 48bd e23f 003e
00000160: e51c 10bd 7548 ab3d fd17 18bd d516 f3bd
00000170: 3aca b6bd 44f8 073e 74ad 38bd 62c7 f3bd
00000180: ff62 84bd d3a9 ec3d e9e8 9f3c a393 24bb
00000190: 0923 e7bd 5bfd b1bd 8b25 84bd 6fdd 173d
000001a0: 4307 82bd f592 2fbc 8eb2 9d3c d3b3 f73a
000001b0: 7173 ab3c 9a47 0fbd f36e 9ebd 04f3 43bd
000001c0: a2b6 f83c 4f35 cbbd aaed e4bc 2d07 bfbd
000001d0: c52f d03c f528 febd 7643 0b3e dc5b be3d
000001e0: 877e b9bd 9e00 b43c a9c4 04be 229f 133d
000001f0: ea2f c93d dcf3 b9bc 1160 a53d 77c6 cabc
00000200: aacc 36bd a95a 083d 1757 51bd e51c 0cbd
00000210: 0d20 e63d 23ce 943d 85a9 e83d da17 ffbc
00000220: 4cce 073e 1e32 b53d 8d37 ad3d a9c5 b83d
00000230: 452e ccbd 0efd 48bd 3055 de3c d676 463a
00000240: f1bf 103e ccaf 083e d9ed eabc 1425 d23d
00000250: 2a88 9b3d b52e 23bd 0b8d e3bd 3041 a33d
00000260: c51c 5c3a abde de3d 85ae d13d 1f41 1cbd
00000270: b653 91bc 6c98 1e3d 8d0e 2bbd 8c07 9ebd
00000280: 1620 65bd 8a09 a4bd dfd9 febb c373 f23d
00000290: b989 14be e8bf 193d 9470 f13d 1dfc 523d
000002a0: b646 813c 101f 053e 4097 aabd 4967 053e
000002b0: 7ed2 f93d 0d2b f23d 4954 f53d 4ae5 213c
000002c0: 0afa 09be f688 89bd b21c abbd 27ad b2bd
000002d0: 458d 39be 7236 013d a36c a93d 2a40 2fbd
000002e0: 7560 a4bc 2523 1b3d 292e c83c b3e1 e23d
000002f0: 0a9a a53d a511 9abd f9cb 223e 8452 aabd
00000300: 546a 16bd cda8 013e 33ce f9bc b00e 74bc
00000310: 1ea7 053d 4b6b d7bd f9d7 e83d c4a3 c03d
00000320: 7a08 c9bd fdff 93bc e390 3f3d 3dfe bf3d
00000330: 4aae 8c3d 36a0 e73b 526d 073e 3169 aabd
00000340: bebe f33c 8f6a 5bbd 05ad 31bd bde9 80bc
00000350: 46f2 b2bd 7acc c93b 6dcc 303d 903a 71bd
00000360: 11db 02be 59fc 4a3e 2557 31bd 13fe b0bd
00000370: 24ef dcb9 0e44 edbc cba7 d6bd 880c 8abc
00000380: e55e a93c b02c 0bbc ce73 5f3d 204d ac3c
00000390: d0a9 083d 570d e7bd 8cef 243e 3945 d53d
000003a0: 906c 9fbb 7da8 fd3d c670 1c3e 84ac 233d
000003b0: 1c85 5e3d 54ed 53bd 0520 803c 8de5 163c
000003c0: 5cb9 ebbd be10 233d dbd3 02bd 5326 993d
000003d0: 44fd 3bbd aea7 1dbe 0fd0 0e3e e310 713d
000003e0: d885 423d 8e07 c7bd 5ca1 fb3d 559d 753d
000003f0: 524e 713c 955f 7dbd f480 9b3d b5e7 833c

net.4.bias f4 [64]
0.0061192634 -0.0075262925 -0.059661288 0.0043285047 -0.04867241 -0.011184206 0.034761768 -0.13950463
0.12638634 0.03280479 0.1051966 0.038214553 -0.06482299 -0.014835263 -0.030497098 -0.0010672162
0.060307752 -0.032584876 -0.09086076 0.068086684 0.10278873 0.009712061 0.07106137 -0.106950395
-0.10118161 -0.11537632 -0.08109128 0.054081604 0.13480388 0.10643145 0.017364984 -0.035285767
-0.025183123 0.07468678 0.09077807 0.0046738265 0.004754448 -0.09429816 0.070815206 0.039296433
-0.07514686 0.00861346 0.046129886 -0.06919894 0.12654543 -0.04346328 0.085871264 -0.058067802
-0.09770646 -0.012060142 0.002946843 0.0015493752 0.05328295 -0.1465414 -0.041200355 -0.043237112
-0.09124689 -0.0319431 -0.07719334 0.048217107 -0.084442355 0.05633118 0.13260339 -0.087068975
00000000: 1a84 c83b 1e9f f6bb 655f 74bd 21d6 8d3b
00000010: b95c 47bd f63d 37bc 5b62 0e3d 4dda 0ebe
00000020: 6c6b 013e 515e 063d 5171 d73d dd86 1c3d
00000030: eac1 84bd 9a0f 73bc 0dd5 f9bc d5e1 8bba
00000040: 4305 773d b877 05bd 3515 babd 0871 8b3d
00000050: e682 d23d 561f 1f3c a088 913d cf08 dbbd
00000060: 4e38 cfbd 6c4a ecbd 2f13 a6bd ac84 5d3d
00000070: 070a 0a3e bbf8 d93d 0341 8e3c cf87 10bd
00000080: d64c cebc 62f5 983d dae9 b93d e626 993b
00000090: 33cb 9b3b 651f c1bd 9007 913d 4cf5 203d
000000a0: 99e6 99bd 781f 0d3c b1f2 3c3d 2db8 8dbd
000000b0: 2095 013e 8d06 32bd 46dd af3d 81d8 6dbd
000000c0: 531a c8bd e797 45bc d21f 413b 6814 cb3a
000000d0: 393f 5a3d f30e 16be b4c1 28bd 6619 31bd
000000e0: a6df babd c5d6 02bd 8b17 9ebd 4d7f 453d
000000f0: 1df0 acbd 86bb 663d 2fc9 073e 3851 b2bd

net.6.weight f4 [1, 64]
0.119885825 0.013197133 0.14636241 0.0715113 0.081754945 -0.0044697183 0.051317234 -0.031989757
0.05970108 0.03784331 -0.07598801 0.13814676 -0.083125256 0.13001727 -0.07031079 0.045623392
0.12632829 -0.09044281 -0.094194844 0.12759155 -0.05651256 0.09764624 0.115143776 -0.063621856
-0.06042361 -0.13179746 -0.018837562 -0.037289012 0.09327032 -0.082160614 -0.10264736 0.035596777
-0.031981964 0.12772831 0.1342629 0.022102218 0.07279357 0.092902415 0.048102375 0.08724013
0.081226945 -0.11080484 0.10991846 0.055509973 0.020446774 0.07057536 0.13194454 -0.06307475
-0.12691812 0.02055002 0.11321743 0.083861254 -0.025148332 -0.04421055 0.049806148 0.008761459
-0.004858694 0.06760761 0.031124927 -0.035185628 -0.11030116 -0.05088475 0.1491367 -0.053737268
00000000: b386 f53d ca38 583c 07e0 153e 8474 923d
00000010: 236f a73d b776 92bb 0532 523d b107 03bd
00000020: 1f89 743d 9601 1b3d 9a9f 9bbd 5876 0d3e
00000030: 933d aabd 3f23 053e 1aff 8fbd 98df 3a3d
00000040: 345c 013e 143a b9bd 3ae9 c0bd 5ca7 023e
00000050: b779 67bd c0fa c73d 80d0 eb3d 2d4c 82bd
00000060: bf7e 77bd eaf5 06be 3b51 9abc 5dbc 18bd
00000070: 8204 bf3d d343 a8bd c738 d2bd edcd 113d
00000080: 85ff 02bd 36cb 023e 377c 093e b60f b53c
00000090: cc14 953d 9f43 be3d ff06 453d f4aa b23d
000000a0: 505a a63d a6ed e2bd ee1c e13d 6d5e 633d
000000b0: fe7f a73c d089 903d 781c 073e 562d 81bd
000000c0: d3f6 01be 8458 a83c 8ade e73d 73bf ab3d
000000d0: e003 cebc 1f16 35bd 8801 4c3d 398c 0f3c
000000e0: ae35 9fbb dc75 8a3d b4f9 fe3c ce1e 10bd
000000f0: 93e5 e1bd 876c 50bd 4bb7 183e 9c1b 5cbd
