cancer_iterative/cancer_models/90_train/copula_final_model.pt (torch, 45351 bytes, 7 tensors)

net.0.weight f4 [64, 30]
0.10047662 -0.09906211 0.113687366 -0.0070860754 -0.031293504 -0.07888373 -0.28630018 -0.2530387
-0.056273304 0.1285519 0.063383274 0.1293305 -0.15631787 -0.33982462 -0.1137087 -0.002425536
-0.14533778 -0.1681454 -0.0911535 0.08060842 -0.15193523 -0.14362101 -0.15828598 -0.0902258
-0.061662603 -0.20360862 -0.084688365 -0.21298279 -0.09104582 0.035186857 0.15139128 -0.096427485
-0.07834499 -0.08900603 0.19355433 0.0900669 -0.0059285243 -0.25542575 -0.17900507 -0.06936225
-0.12846787 -0.07691871 -0.089474656 -0.051690727 0.0022179727 0.061572924 0.18398619 -0.103286274
0.046442457 0.09659058 -0.14591132 0.032902908 -0.035115976 -0.30612049 -0.12415702 -0.048346136
-0.039605387 -0.0045034434 0.08229341 0.07272301 0.054067675 -0.017464671 -0.070571 -0.095452435
-0.16673584 -0.14075668 -0.11452047 -0.23933733 -0.18556191 -0.16127019 -0.16133547 0.00627374
-0.016690198 -0.0035692134 0.15532288 0.13165426 0.04480527 0.051777873 -0.06112012 0.024335576
0.07849941 -0.17930984 -0.16335295 -0.11818388 0.027420543 0.057146765 -0.16116887 -0.17858484
-0.10590875 -0.022037836 -0.11698647 0.06336313 0.0146352025 -0.06780697 0.04544569 -0.15915446
-0.0632105 0.18807167 0.18951705 -0.077300355 -0.10105834 -0.017465116 0.019362709 0.11243455
-0.09801896 0.07330441 -0.02173301 -0.08087336 -0.14642955 0.113865644 -0.14113285 -0.1150063
0.07625099 0.20783147 -0.04621463 0.047580093 -0.07600034 -0.016984846 0.14965534 0.03053058
0.21251637 -0.10565699 -0.06871284 0.057880856 -0.030384827 -0.20963842 0.05488302 0.05477336
0.16656795 0.14912339 0.091079675 -0.11050293 0.26764113 0.23194419 0.14122562 0.13184643
0.115903616 -0.14539503 -0.05860505 0.11451013 -0.13107 -0.012970467 0.04033913 0.31906036
0.10017651 0.24056673 0.21184476 0.10407256 -0.0037163133 0.062113583 0.11339522 -0.05314275
-0.045432698 0.004274304 -0.10983253 0.03993491 0.10053655 -0.12577224 -0.004956801 -0.09265251
0.18182898 0.097028516 0.16305283 0.13244301 -0.1439228 0.021906449 -0.051939793 -0.12159336
0.1472762 -0.1289597 0.016051812 0.15610722 -0.008559098 -0.006105693 -0.08256251 -0.111836836
-0.0036477118 0.0392602 -0.12397317 -0.11141177 0.15396811 0.033929817 0.04861203 0.076242104
-0.2093308 -0.067910224 -0.15752052 -0.02598492 -0.053072482 0.08871051 -0.06116774 0.18976507
-0.26601055 -0.09235707 -0.21674499 -0.027279846 0.12923345 0.12413411 0.021674369 -0.085197374
-0.07409585 0.11132748 -0.046081077 -0.115820825 -0.11303184 0.024046436 0.1319194 -0.050539404
0.034152944 0.13717642 -0.058453772 -0.08639217 -0.02752341 -0.03058646 -0.0052576265 -0.040837023
-0.08885978 -0.23038267 0.122487165 0.041584566 0.09430683 0.063524134 -0.26889235 -0.2699488
0.05209169 -0.059247036 -0.038920656 0.03215764 0.0054371813 0.056025617 -0.12720178 0.033597134
0.07097943 -0.21575014 0.12226243 -0.11431598 0.005748435 0.049016703 -0.011902791 -0.1451561
0.07971919 -0.15958712 -0.074505694 0.12531716 0.1207655 -0.14014728 0.1104972 -0.094659075
0.07218084 -0.07473926 -0.08639106 -0.22312443 -0.16950339 -0.04521045 0.1760184 -0.04192262
00000000: b0c6 cd3d 13e1 cabd ecd4 e83d 4f32 e8bb
00000010: 9e2d 00bd cb8d a1bd f095 92be 4a8e 81be
00000020: d67e 66bd 1ca3 033e 17cf 813d 376f 043e
00000030: cb11 20be 7efd adbe 1be0 e8bd bef5 1ebb
00000040: 6dd3 14be 4f2e 2cbe b0ae babd 0716 a53d
00000050: e994 1bbe 6311 13be b815 22be 4ec8 b8bd
00000060: ed91 7cbd c77e 50be 1871 adbd 2918 5abe
00000070: 3b76 babd 1820 103d 5106 1b3e c67b c5bd
00000080: 5773 a0bd cb48 b6bd 1b33 463e ff74 b83d
00000090: 1144 c2bb 2ac7 82be 1b4d 37be cc0d 8ebd
000000a0: 158d 03be 8e87 9dbd 7d3e b7bd a8b9 53bd
000000b0: 685b 113b e433 7c3d e066 3c3e c187 d3bd
000000c0: 723a 3e3d 48d1 c53d c769 15be 33c5 063d
000000d0: c5d5 0fbd d3bb 9cbe 0946 febd 9906 46bd
000000e0: 4239 22bd 9f91 93bb 7389 a83d cdef 943d
000000f0: 1176 5d3d 1212 8fbc 8787 90bd 917c c3bd
00000100: cdbc 2abe 8522 10be b589 eabd d814 75be
00000110: f103 3ebe 0324 25be 2035 25be f293 cd3b
00000120: e2b9 88bc 77e9 69bb f60c 1f3e 60d0 063e
00000130: bb85 373d 0915 543d 1759 7abd 675b c73c
00000140: 4cc4 a03d 009d 37be ff45 27be 640a f2bd
00000150: 0ca1 e03c ba12 6a3d 7409 25be f2de 36be
00000160: b0e6 d8bd b188 b4bc 9a96 efbd 87c4 813d
00000170: 7dc8 6f3c 61de 8abd 4325 3a3d 63f9 22be
00000180: 8274 81bd dc95 403e c210 423e a64f 9ebd
00000190: adf7 cebd 0113 8fbc 8b9e 9e3c 1644 e63d
000001a0: 2abe c8bd 9f20 963d 6d09 b2bc efa0 a5bd
000001b0: a1f1 15be 6432 e93d 2185 10be 6c88 ebbd
000001c0: 7b29 9c3d c6d1 543e 8d4b 3dbd 58e3 423d
000001d0: 11a6 9bbd ce23 8bbc 403f 193e 441b fa3c
000001e0: e49d 593e b162 d8bd 51b9 8cbd 7a14 6d3d
000001f0: 9ae9 f8bc 74ab 56be 05cd 603d 085a 603d
00000200: ca90 2a3e cdb3 183e fb87 ba3d 5c4f e2bd
00000210: 4208 893e c782 6d3e 739d 103e c002 073e
00000220: e05e ed3d 6fe2 14be d90b 70bd 4984 ea3d
00000230: 3737 06be 1582 54bc a53a 253d e15b a33e
00000240: 5829 cd3d 2057 763e d5ed 583e ff23 d53d
00000250: 648d 73bb d06a 7e3d c13b e83d 36ac 59bd
00000260: a317 3abd 760f 8c3b e1ef e0bd ca92 233d
00000270: 1be6 cd3d 70ca 00be a96c a2bb 99c0 bdbd
00000280: 6031 3a3e e3b6 c63d 52f7 263e 249f 073e
00000290: 8060 13be 2775 b33c d2be 54bd f105 f9bd
000002a0: 92cf 163e 030e 04be 177f 833c 92da 1f3e
000002b0: 753b 0cbc 4412 c8bb 8916 a9bd b60a e5bd
000002c0: 730e 6fbb 4ecf 203d a5e5 fdbd db2b e4bd
000002d0: d1a9 1d3e fef9 0a3d 681d 473d d224 9c3d
000002e0: d05a 56be 8414 8bbd 0f4d 21be 54de d4bc
000002f0: 8862 59bd dbad b53d 068b 7abd c651 423e
00000300: 8932 88be b425 bdbd 66f2 5dbe fc79 dfbc
00000310: c655 043e 063a fe3d 728e b13c f67b aebd
00000320: 91bf 97bd a9ff e33d 83bf 3cbd 7833 edbd
00000330: 3d7d e7bd 08fd c43c e115 073e 6802 4fbd
00000340: f5e3 0b3d fa77 0c3e 396d 6fbd 61ee b0bd
00000350: c678 e1bc 7590 fabc 2b48 acbb b944 27bd
00000360: 1efc b5bd 6fe9 6bbe 8dda fa3d 9454 2a3d
00000370: f023 c13d f118 823d 42ac 89be bb36 8abe
00000380: 195e 553d 05ad 72bd 446b 1fbd bbb7 033d
00000390: 622a b23b 1e7b 653d 2f41 02be 269d 093d
000003a0: aa5d 913d 9bed 5cbe ba64 fa3d 7f1e eabd
000003b0: 5e5d bc3b bdc5 483d ed03 43bc cda3 14be
000003c0: d143 a33d ce6a 23be 7196 98bd 2453 003e
000003d0: e753 f73d c582 0fbe 5b4c e23d 9edc c1bd
000003e0: 8cd3 933d e610 99bd cced b0bd bb7a 64be
000003f0: 4c92 2dbe 982e 39bd 2b3e 343e 0eb7 2bbd

net.0.bias f4 [64]
-0.050974548 0.20514491 0.061001718 0.13134684 0.20618302 0.15481861 0.07873255 -0.1222863
0.10486856 0.021776322 -0.12170025 0.15182894 0.22249171 -0.05848161 -0.07362815 -0.11126523
0.12049111 0.026875364 0.04477538 0.023641111 -0.07433489 0.11321545 0.03176838 0.07032964
0.32487953 -0.01728718 0.20216055 0.050418258 0.07919418 0.07379559 -0.05947094 -0.1013108
0.18969694 -0.015140385 -0.09762827 -0.024958998 -0.08687585 -0.08714041 -0.031409103 0.1026124
-0.011378503 0.16886939 -0.07466684 0.14336489 0.16858324 0.09415409 -0.061010055 0.28166094
0.07309005 0.15142253 0.053730916 -0.09523819 0.2018209 -0.025048656 0.28840345 -0.021177249
-0.10499545 0.08013393 -0.20311081 0.17726628 0.072911404 0.045257807 0.019609217 -0.091852084
00000000: b0ca 50bd 8211 523e f0dc 793d c97f 063e
00000010: a421 533e c588 1e3e 883e a13d 3d71 fabd
00000020: 54c5 d63d 4264 b23c fb3d f9bd 0c79 1b3e
00000030: ded4 633e 6a8a 6fbd 5bca 96bd 06df e3bd
00000040: 0bc4 f63d b929 dc3c 6466 373d 01ab c13c
00000050: e43c 98bd 80dd e73d 901f 023d fc08 903d
00000060: 9c56 a63e d89d 8dbc 2d03 4f3e 6083 4e3d
00000070: 8f30 a23d 2422 973d cd97 73bd 097c cfbd
00000080: ea3f 423e 610f 78bc 55f1 c7bd d076 ccbc
00000090: f7eb b1bd ac76 b2bd d5a6 00bd 7326 d23d
000000a0: e76c 3abc 19ec 2c3e eeea 98bd 3fce 123e
000000b0: 16a1 2c3e dcd3 c03d aee5 79bd dd35 903e
000000c0: 3cb0 953d 820e 1b3e f314 5c3d 3d0c c3bd
000000d0: 23aa 4e3e d732 cdbc 9ea9 933e e97b adbc
000000e0: db07 d7bd 421d a43d 48fc 4fbe 4b85 353e
000000f0: 9352 953d 4060 393d 82a3 a03c f21c bcbd

net.2.weight f4 [64, 64]
-0.022362107 -0.024531696 0.06426125 0.0997885 0.16534004 0.09646166 -0.106333524 -0.10083036
-0.10806355 0.15292005 0.15747935 -0.031005481 0.058839884 -0.023777531 -0.026072048 -0.10859006
-0.090793625 0.016697142 0.084887475 -0.024406547 0.010354936 0.0356547 -0.04676842 0.081359774
-0.0732077 0.046207648 0.079189494 0.03615595 0.18321714 -0.14443918 0.118613504 0.037010472
0.08725221 0.031938143 -0.15623151 -0.04112989 0.12360138 -0.16566959 0.06346016 -0.0807009
0.08021057 0.04234788 0.198533 0.1786339 0.14687285 0.15907927 -0.17812596 0.10023627
0.08895775 0.043030407 0.058713574 -0.06588347 0.14959306 0.06260411 0.10279506 -0.106693745
0.043139976 0.16578968 -0.06401955 -0.0050678873 0.14207917 0.111683674 0.09678967 -0.013752702
-0.14111763 -0.16139121 -0.011659293 0.04808741 0.00982626 0.122149386 0.07155516 -0.022156019
-0.010310944 0.15912557 0.12759063 0.030926151 0.043474685 0.07651884 0.09259136 -0.03175771
-0.04612204 0.06295783 -0.019547839 0.17566624 -0.05209536 0.063671626 0.015500821 0.07579987
-0.038113333 0.14748655 -0.06815816 0.12727807 0.105604135 -0.13529179 0.18710299 -0.057144474
0.14322008 0.04261858 -0.11669116 0.10552045 -0.023505429 -0.0892464 2.4362254e-05 -0.073166825
-0.039489742 -0.104460984 0.076756865 0.18660459 0.033173975 0.1416941 -0.11744035 0.14532876
0.033686716 0.0061253947 0.11347633 0.06066877 0.099069215 0.03888684 0.016818335 0.08666042
0.008061982 0.03344477 -0.08297044 0.1773797 0.08938624 -0.050560962 0.20066176 -0.06017962
0.030031145 0.08602032 0.1314363 -0.052349336 -0.0006595834 0.03440752 -0.036936935 0.09655805
0.049594242 0.087118104 -0.07542075 -0.15066479 -0.056000534 -0.0230366 0.028424405 0.10843706
0.06818768 -0.15101829 0.020947928 -0.07472474 0.12349776 -0.007965091 -0.031358507 0.021580847
0.049677894 0.103838935 0.09674573 -0.017928759 0.014688869 -0.009498417 -0.13621436 -0.011078847
-0.12627442 0.051091854 -0.01418966 0.09651879 0.03260703 0.099977836 0.1801101 0.051618993
0.001803364 0.13582881 0.01808208 -0.12965071 0.025683044 -0.03384606 0.031891946 0.12412016
0.050244268 -0.008220546 -0.1688312 -0.077311404 -0.011050705 -0.10843296 0.13313495 0.06520045
-0.008427697 -0.07079476 -0.08971868 -0.048290413 0.012102933 -0.032799557 -0.05676729 -0.030111143
-0.14831676 -0.011838264 0.016082589 0.08115753 0.20713453 0.017122826 -0.022278363 -0.056296065
-0.007504356 0.08547483 0.01157867 0.1840641 0.028159933 0.20794159 0.12673749 -0.12090926
-0.061866432 0.18908851 -0.105105676 0.08238375 0.10806338 -0.07297842 0.079889104 -0.022319656
0.031558216 0.12446475 -0.123642884 -0.070678435 0.09719144 0.050117243 0.08622185 -0.010335863
0.09318057 0.12313921 -0.08969516 0.09932983 0.14807917 0.0803417 -0.05616316 -0.0338337
-0.020624183 0.09739224 0.12979716 0.02331651 0.103453666 0.1446313 -0.011100526 0.032332525
0.006275335 0.082291014 0.029439056 0.083908275 -0.02835806 -0.017217416 0.070111856 -0.06853812
0.23295027 0.047041748 -0.03229972 0.13203196 0.08653495 0.026701424 0.0143321045 0.08559235
00000000: bd30 b7bc b2f6 c8bc 679b 833d ea5d cc3d
00000010: e64e 293e b18d c53d 64c5 d9bd 2680 cebd
00000020: 6c50 ddbd 1397 1c3e 4442 213e 35ff fdbc
00000030: 1702 713d 19c9 c2bc 0c95 d5bc 7764 debd
00000040: 02f2 b9bd 72c8 883c 7cd9 ad3d 3df0 c7bc
00000050: c0a7 293c aa0a 123d 3e90 3fbd f49f a63d
00000060: ebed 95bd 3b44 3d3d 1a2e a23d 4318 143d
00000070: 469d 3b3e dde7 13be a3eb f23d 4b98 173d
00000080: 49b1 b23d 92d1 023d 27fb 1fbe d177 28bd
00000090: b822 fd3d 4aa5 29be 66f7 813d 8346 a5bd
000000a0: 7045 a43d f874 2d3d 3c4c 4b3e ceeb 363e
000000b0: d665 163e ade5 223e a766 36be ac48 cd3d
000000c0: 7b2f b63d a740 303d a57d 703d eaed 86bd
000000d0: ec2e 193e 9536 803d 3786 d23d 4082 dabd
000000e0: 8bb3 303d c5c4 293e af1c 83bd 8510 a6bb
000000f0: 347d 113e 69ba e43d aa39 c63d 0353 61bc
00000100: 2481 10be bd43 25be 9f06 3fbc 4ef7 443d
00000110: 52fe 203c 7529 fa3d 838b 923d 8a80 b5bc
00000120: 3cef 28bc d0f1 223e 1ea7 023e d758 fd3c
00000130: 8312 323d e9b5 9c3d 8aa0 bd3d 5f14 02bd
00000140: 77ea 3cbd 09f0 803d ca22 a0bc dae1 333e
00000150: f261 55bd 4566 823d 28f7 7d3c f63c 9b3d
00000160: ba1c 1cbd b706 173e 8196 8bbd 2f55 023e
00000170: fb46 d83d ee89 0abe ed97 3f3e 5310 6abd
00000180: 49a8 123e d290 2e3d c6fb eebd 1b1b d83d
00000190: 758e c0bc d1c6 b6bd 8b5d cc37 7dd8 95bd
000001a0: ffbf 21bd a4ef d5bd b432 9d3d 4615 3f3e
000001b0: 6fe1 073d 4218 113e 9184 f0bd 10d1 143e
000001c0: 15fb 093d 89b7 c83b 4766 e83d d17f 783d
000001d0: cde4 ca3d cf47 1f3d 9bc6 893c 057b b13d
000001e0: 6716 043c 62fd 083d 68ec a9bd 06a3 353e
000001f0: 2210 b73d 0319 4fbd 477a 4d3e e87e 76bd
00000200: e003 f63c 6c2b b03d 3d97 063e 426c 56bd
00000210: e5e7 2cba e6ee 0c3d 2f4b 17bd 3ac0 c53d
00000220: 5523 4b3d fa6a b23d 3276 9abd df47 1abe
00000230: d160 65bd 40b7 bcbc 4cda e83c 4014 de3d
00000240: fba5 8b3d 8aa4 1abe fd9a ab3c 4909 99bd
00000250: 65ec fc3d 0380 02bc c771 00bd 51ca b03c
00000260: 0c7b 4b3d 82a9 d43d a022 c63d 55df 92bc
00000270: 95a9 703c 409f 1bbc c77b 0bbe 0d84 35bc
00000280: 154e 01be b145 513d bf7b 68bc a5ab c53d
00000290: f38e 053d 2ec1 cc3d c86e 383e 706e 533d
000002a0: db5e ec3a b516 0b3e df20 943c 28c3 04be
000002b0: 3f65 d23c 2ba2 0abd 21a1 023d b632 fe3d
000002c0: efcc 4d3d 78af 06bc 16e2 2cbe 7155 9ebd
000002d0: 040e 35bc 1a12 debd 8754 083e d087 853d
000002e0: 5314 0abc d8fc 90bd 6dbe b7bd 2bcc 45bd
000002f0: 614b 463c d458 06bd d184 68bd a5ab f6bc
00000300: 59e0 17be 47f5 41bc a2bf 833c eb35 a63d
00000310: 131b 543e 2b45 8c3c 1d81 b6bc b496 66bd
00000320: 1ae7 f5bb 6d0d af3d 76b4 3d3c 4d7b 3c3e
00000330: a9af e63c a4ee 543e 79c7 013e 469f f7bd
00000340: a867 7dbd 6ba0 413e a541 d7bd d0b8 a83d
00000350: 5550 dd3d b675 95bd e69c a33d b6d7 b6bc
00000360: 3043 013d 60e7 fe3d 7b38 fdbd dbbf 90bd
00000370: 4e0c c73d bd47 4d3d 1595 b03d c057 29bc
00000380: 74d5 be3d 6930 fc3d 19b2 b7bd 706d cb3d
00000390: 11a2 173e 308a a43d 570b 66bd 3595 0abd
000003a0: 0cf4 a8bc 9575 c73d 8ce9 043e 4402 bf3c
000003b0: 84df d33d 3a1a 143e fbde 35bc 1c6f 043d
000003c0: 53a1 cd3b 3188 a83d 2d2a f13c 1ad8 ab3d
000003d0: 2a4f e8bc 8a0b 8dbc ce96 8f3d b75d 8cbd
000003e0: 848a 6e3e d9ae 403d b64c 04bd 6333 073e
000003f0: 3c39 b13d f2bc da3c 34d1 6a3c 0b4b af3d

net.2.bias f4 [64]
-0.079669714 0.006029608 0.028617779 0.024201272 0.06037922 0.11671725 0.10628796 0.15398811
0.13478403 0.12838581 -0.047784712 0.115723565 0.0835383 0.09711217 -0.0014866629 0.003993764
0.07174515 0.108734794 -0.025738105 0.03828069 -0.02858495 -0.04353301 -0.0994452 0.084644064
0.027684698 -0.109068714 -0.027517812 0.09448179 -0.090964206 -0.050185293 0.08172319 -0.066164576
-0.04297756 0.15356979 0.12784201 -0.004038197 0.13473031 0.11161026 0.00013520411 -0.033464916
0.05738061 0.049306218 0.061431456 -0.009420665 -0.03929605 0.037117857 0.05758858 -0.037629306
0.13424732 0.14003108 -0.047508318 -0.0400069 0.14430857 0.094656624 -0.13251358 0.020592758
0.018602759 0.09070124 0.097477846 0.09357657 -0.076629385 0.023873642 0.014854998 0.054041453
00000000: e029 a3bd 0594 c53b d56f ea3c bf41 c63c
00000010: 3350 773d 7409 ef3d 81ad d93d 0faf 1d3e
00000020: d304 0a3e 9277 033e e7b9 43bd 7a00 ed3d
00000030: 2116 ab3d bfe2 c63d 21dc c2ba 1fde 823b
00000040: 1fef 923d 59b0 de3d b8d8 d2bc 36cc 1c3d
00000050: fc2a eabc ab4f 32bd eda9 cbbd de59 ad3d
00000060: 05cb e23c 6b5f dfbd 096d e1bc ab7f c13d
00000070: 714b babd 188f 4dbd 7d5e a73d 4b81 87bd
00000080: 3d09 30bd 6641 1d3e 04e9 023e da52 84bb
00000090: bef6 093e ec93 e43d 94c5 0d39 8212 09bd
000000a0: ee07 6b3d 51f5 493d 8d9f 7b3d 2259 1abc
000000b0: e5f4 20bd e508 183d 01e2 6b3d 3021 1abd
000000c0: 2178 093e 4f64 0f3e 1598 42bd 46de 23bd
000000d0: a0c5 133e 55db c13d a4b1 07be 25b2 a83c
000000e0: d064 983c 92c1 b93d 77a2 c73d 13a5 bf3d
000000f0: deef 9cbd a892 c33c 6162 733c 925a 5d3d

net.4.weight f4 [64, 64]
-0.12565924 -0.14387551 -0.039345853 0.04261845 -0.030105038 -0.0035121744 0.15492882 0.104998305
-0.088702805 -0.12428967 0.0655624 0.13321091 -0.016398923 -0.036906376 0.106295206 0.1057102
0.047368165 0.09440431 0.100219645 -0.10402187 -0.12084609 0.118272826 -0.18056384 0.050945673
0.14163846 -0.11256975 0.16251816 -0.14987502 -0.021110982 0.12324874 -0.038650922 -0.17189907
0.32575488 -0.12676682 -0.03573381 -0.11340548 -0.015847733 0.19506115 0.11827552 0.026483752
-0.0913427 0.07945461 0.026334519 0.10079855 -0.061984442 -0.11601902 0.18575388 0.17304666
-0.013410205 0.1578683 0.095353425 -0.09521402 -0.057531826 0.16575953 -0.053391416 -0.048696987
-0.12422703 0.16898632 -0.0065008015 -0.04328963 0.12444859 -0.120160066 0.029163592 0.013044272
-0.06682761 -0.074175045 0.013546292 -0.0381673 0.0024046476 -0.06844814 0.04115993 0.16385445
0.08531716 -0.13178462 0.018119104 0.11993094 0.08972032 -0.006599724 0.0913384 -0.0115126185
0.07027231 -0.038686406 0.07673011 -0.09147965 0.029087704 0.035632297 -0.049859773 -0.08042699
0.1401434 -0.11573416 -0.0124205835 -0.15596531 0.11376168 0.13888125 0.13688596 0.02880991
0.19638368 0.059826232 0.11977424 -0.035460863 -0.01282465 0.06898699 0.066962756 0.09188232
0.07501757 -0.13048166 -0.092924535 0.16889954 0.063347444 -0.064998664 0.038026992 0.041330703
-0.1133413 0.08275829 0.09077191 0.08087252 -0.037660696 0.022510687 0.10127244 -0.073308334
0.059847746 0.02115949 -0.002117757 0.05113116 0.05682318 -0.15070851 0.013442366 0.08462156
-0.18475623 -0.040494774 0.16652763 -0.102635555 -0.012704863 -0.15971191 -0.05348461 0.055224225
0.082872316 -0.064479165 0.13286862 0.16352053 0.0679437 0.031656455 0.15394925 -0.09989338
0.09115515 0.07466883 0.010829757 0.04187639 -0.14478429 0.17367242 -0.15986219 -0.043141417
-0.027800173 -0.122252695 0.14421727 -0.02924388 0.08867993 0.121566005 0.12111067 -0.036591776
0.25895426 -0.03075773 0.19522272 -0.07818567 -0.038132235 0.07761576 0.11982603 0.08416708
-0.047181252 -0.13313428 -0.059941344 0.08699506 0.008125108 -0.11152514 0.16597767 0.19520885
-0.145947 0.18231222 0.09922595 0.050038323 -0.19806433 0.007919728 0.024103466 -0.1649103
-0.034050874 0.18824454 0.12783487 -0.015072313 0.18622348 0.011005248 -0.026084078 0.09080445
0.19469008 0.026562897 -0.045283407 0.04477469 0.15284811 0.056127395 -0.03021173 -0.0651474
0.11420077 0.13001224 -0.06308502 0.08731073 0.048372213 0.13556544 -0.0963648 0.115076035
0.08876488 0.08841506 -0.09841167 0.18237524 0.1802489 0.020093635 0.048944224 -0.039676763
0.023160163 0.08033708 -0.029492032 0.14511272 0.1337715 -0.109296516 0.060889233 0.1733034
-0.033401307 0.21252222 -0.11944099 0.05928894 0.00017845088 0.042463325 -0.17044842 0.017124524
0.09906196 -0.07458517 0.17073078 -0.021327347 0.13535361 0.12777752 -0.016240332 -0.14939122
0.08810518 -0.033462815 -0.1502215 0.022845823 0.18091491 -0.061851136 -0.027089134 0.10852967
0.14785439 0.060515106 -0.057314467 -0.15008953 -0.10444809 0.16848908 0.012700399 -0.03043017
00000000: d1ac 00be 1a54 13be 1e29 21bd af90 2e3d
00000010: d79e f6bc 822c 66bb a9a5 1e3e 5a09 d73d
00000020: d1a9 b5bd 958b febd 9445 863d 7168 083e
00000030: 0957 86bc 242b 17bd 4db1 d93d 977e d83d
00000040: 1f05 423d 0c57 c13d f53f cd3d 6b09 d5bd
00000050: 287e f7bd 0639 f23d bae5 38be 69ac 503d
00000060: ac09 113e f88a e6bd 296b 263e d678 19be
00000070: f0f0 acbc d669 fc3d 6e50 1ebd 4f06 30be
00000080: 58c9 a63e 29cf 01be 9e5d 12bd 2241 e8bd
00000090: 1bd3 81bc 1cbe 473e 703a f23d 74f4 d83c
000000a0: e211 bbbd 19b9 a23d 7dbb d73c 786f ce3d
000000b0: 66e3 7dbd 619b edbd 4436 3e3e 2533 313e
000000c0: 7ab6 5bbc 3aa8 213e a848 c33d 91ff c2bd
000000d0: 7ea6 6bbd debc 293e f5b0 5abd 7e76 47bd
000000e0: be6a febd c00a 2d3e ad04 d5bb 7850 31bd
000000f0: e7de fe3d 7b16 f6bd 7ce8 ee3c a4b7 553c
00000100: eadc 88bd 16e9 97bd 44f1 5d3c 5155 1cbd
00000110: 4b97 1d3b 8a2e 8cbd 5197 283d 76c9 273e
00000120: c3ba ae3d 8cf2 06be 846e 943c 5a9e f53d
00000130: 4abf b73d 7f42 d8bb a10f bb3d 6c9f 3cbc
00000140: eeea 8f3d a375 1ebd ad24 9d3d af59 bbbd
00000150: 5649 ee3c 2cf3 113d c339 4cbd e8b6 a4bd
00000160: c081 0f3e 0806 edbd b47f 4bbc 5fb5 1fbe
00000170: e2fb e83d e336 0e3e d52b 0c3e c302 ec3c
00000180: ce18 493e 5a0c 753d 324c f53d 693f 11bd
00000190: 7b1e 52bc 0d49 8d3d c523 893d cc2c bc3d
000001a0: d0a2 993d fc9c 05be 384f bebd 00f4 2c3e
000001b0: 4ebc 813d 051e 85bd 31c2 1b3d 624a 293d
000001c0: 7c1f e8bd 2e7d a93d a0e6 b93d 7ea0 a53d
000001d0: 1a42 1abd 5568 b83c ed67 cf3d ae22 96bd
000001e0: e922 753d ab56 ad3c 11ca 0abb e86e 513d
000001f0: 6cbf 683d 5553 1abe 5f3d 5c3c 124e ad3d
00000200: bd30 3dbe d9dd 25bd 3886 2a3e 9732 d2bd
00000210: 0f28 50bc 858b 23be ae12 5bbd cc32 623d
00000220: f6b8 a93d a70d 84bd b60e 083e ed71 273e
00000230: 1126 8b3d 33aa 013d dfa4 1d3e e794 ccbd
00000240: 8daf ba3d f9eb 983d 4b6f 313c 9486 2b3d
00000250: 5542 14be 2fd7 313e eab2 23be 0eb5 30bd
00000260: 30bd e3bc 9f5f fabd b1ad 133e dd90 efbc
00000270: d39d b53d 99f7 f83d df08 f83d 42e1 15bd
00000280: a795 843e a3f7 fbbc 77e8 473e cf1f a0bd
00000290: 8c30 1cbd 03f5 9e3d 5a67 f53d ca5f ac3d
000002a0: 2141 41bd 5a54 08be 0e85 75bd 772a b23d
000002b0: 2c1f 053c 4b67 e4bd 0df6 293e d4e4 473e
000002c0: 2173 15be 0eb0 3a3e fa36 cb3d fcf4 4c3d
000002d0: 60d1 4abe bfc1 013c a274 c53c 3fde 28be
000002e0: ee78 0bbd 2dc3 403e 25e7 023e ddf1 76bc
000002f0: 5eb1 3e3e 5b4f 343c 47ae d5bc aff7 b93d
00000300: d65c 473e 6f9a d93c 187b 39bd aa65 373d
00000310: 3784 1c3e d7e5 653d 977e f7bc 006c 85bd
00000320: 18e2 e93d ee21 053e b832 81bd f8cf b23d
00000330: f121 463d abd1 0a3e e95a c5bd fcac eb3d
00000340: 5dca b53d f412 b53d 0f8c c9bd 93c0 3a3e
00000350: 2b93 383e 689b a43c bd79 483d 1a84 22bd
00000360: 62ba bd3c c487 a43d 4699 f1bc 6e98 143e
00000370: 65fb 083e dad6 dfbd fd66 793d 7276 313e
00000380: cfcf 08bd 6d9f 593e 7a9d f4bd f6d8 723d
00000390: 8b1e 3b39 06ee 2d3d 088a 2ebe bb48 8c3c
000003a0: ffe0 ca3d 1cc0 98bd 0dd4 2e3e b0b6 aebc
000003b0: 239a 0a3e 1cd8 023e 720a 85bc 03fa 18be
000003c0: 7d70 b43d 4e10 09bd aad3 19be 2a27 bb3c
000003d0: c241 393e 9e57 7dbd 08ea ddbc ce44 de3d
000003e0: 2467 173e b0de 773d 93c2 6abd 12b1 19be
000003f0: e1e8 d5bd 6788 2c3e 5615 503c b148 f9bc

net.4.bias f4 [64]
0.10113768 -0.023970628 0.08794291 -0.0434428 -0.013606401 0.044597574 0.017441547 0.07596422
0.08653242 0.0017443616 -0.00984792 0.11816158 -0.0058136173 0.07328728 -0.028589098 -0.04498151
0.04279355 0.058307424 0.12195239 0.20314595 0.11216489 -0.07666324 -0.04471506 -0.03296276
0.104878224 0.13679755 -0.021517472 0.026088206 0.04222295 -0.039547827 0.11392552 0.04174609
0.0950811 -0.04983788 0.0046078255 0.15232253 0.07409194 0.021659402 0.13211541 -0.051440008
0.047744967 0.041188244 -0.05966789 0.08651684 0.06733656 -0.052638207 0.11834195 -0.01729644
0.07697154 -0.043468814 0.061575364 -0.091308214 0.09019665 0.09963968 0.12360245 0.041075747
0.017929938 0.03976596 -0.016364822 0.030548954 -0.039422467 0.11033432 -0.04994681 0.047876313
00000000: 4621 cf3d 0d5e c4bc 6a1b b43d 14f1 31bd
00000010: 62ed 5ebc f2ab 363d 93e1 8e3c 2193 9b3d
00000020: e937 b13d 10a3 e43a 2c59 21bc b3fe f13d
00000030: 2880 bebb a417 963d af33 eabc 883e 38bd
00000040: 4a48 2f3d c4d3 6e3d 2dc2 f93d 7e05 503e
00000050: b5b6 e53d 9e01 9dbd 2427 37bd f603 07bd
00000060: 65ca d63d a814 0c3e 6945 b0bc efb6 d53c
00000070: f9f1 2c3d e7fc 21bd c851 e93d f3fd 2a3d
00000080: e1b9 c23d ce22 4cbd 3efd 963b 70fa 1b3e
00000090: 84bd 973d 0f6f b13c 4349 073e c2b2 52bd
000000a0: 3a90 433d 01b5 283d 5166 74bd be2f b13d
000000b0: c0e7 893d 299b 57bd 445d f23d 44b1 8dbc
000000c0: 41a3 9d3d 5b0c 32bd 7336 7c3d cdff babd
000000d0: 05b9 b83d e30f cc3d 4823 fd3d 0b3f 283d
000000e0: cee1 923c a2e1 223d 850f 86bc cd41 fa3c
000000f0: 7479 21bd f6f6 e13d 0795 4cbd f419 443d

net.6.weight f4 [1, 64]
0.1573492 0.14016634 0.16221024 -0.16112779 -0.19284926 -0.20828043 0.14811236 -0.14655812
-0.20479196 0.6489831 -0.15545624 -0.21205354 0.2319883 0.14834578 0.17704713 -0.19910128
0.14838031 0.12753339 0.20726201 -0.18343993 -0.19808935 -0.2034915 0.24109739 -0.19676866
0.19760096 0.13383615 -0.1574683 0.11313991 -0.14029685 -0.1802115 -0.18458597 0.055984117
0.21899353 -0.024867633 0.14510249 -0.18636087 0.10785484 -0.20597927 -0.095399775 0.21106304
0.10663505 0.13027914 0.09014614 -0.23260127 0.08218525 0.18310654 -0.1452408 0.10259512
-0.16784795 0.1518586 0.12503071 0.19533287 -0.24685687 -0.22891109 0.11820286 -0.18477213
0.17910314 -0.22269116 -0.23707213 -0.22479506 -0.23718658 -0.15550154 -0.16315283 -0.23225595
00000000: 2620 213e c487 0f3e 711a 263e affe 24be
00000010: 477a 45be 7747 55be c4aa 173e 5513 16be
00000020: fcb4 51be c223 263f ec2f 1fbe 9024 59be
00000030: 578e 6d3e f5e7 173e d84b 353e 35e1 4bbe
00000040: 02f1 173e 1d98 023e 7e3c 543e add7 3bbe
00000050: efd7 4abe 1360 50be 3ce2 763e b97d 49be
00000060: e857 4a3e 580c 093e 5f3f 21be e6b5 e73d
00000070: faa9 0fbe 5d89 38be 1b04 3dbe 9a4f 653d
00000080: d73f 603e 35b7 cbbc bf95 143e 62d5 3ebe
00000090: 00e3 dc3d 3bec 52be f560 c3bd e920 583e
000000a0: 7a63 da3d e567 053e 8a9e b83d 072f 6ebe
000000b0: be50 a83d 4880 3b3e 01ba 14be 641d d23d
000000c0: 55e0 2bbe d280 1b3e 0d08 003e 5705 483e
000000d0: 0cc8 7cbe ab67 6abe 5714 f23d e834 3dbe
000000e0: d066 373e 2709 64be 09c3 72be ad30 66be
000000f0: 0ae1 72be cc3b 1fbe 8911 27be 81d4 6dbe
