cancer_iterative/cancer_models/90_train/ctgan_combined_final_model.pt (torch, 45527 bytes, 7 tensors)

net.0.weight f4 [64, 30]
0	0xbe6f9dee	-0.23400089
1	0x3dc03a97	0.09386175
2	0xbda98a57	-0.08278339
3	0xbe4a7c51	-0.19773985
4	0x3dfe7b32	0.124258414
5	0xbd5cb736	-0.05388566
6	0x3e26b8db	0.16281454
7	0x3da8b3a0	0.08237386
8	0xbd41f233	-0.04735012
9	0x3e9e4752	0.30913788
10	0x3d9cfc8f	0.07665359
11	0xbe157608	-0.14595807
12	0xbe8c5bea	-0.27413875
13	0xbc9bb9ff	-0.019009588
14	0x3e7bef95	0.24603112
15	0xbd92fbcf	-0.07176935
16	0xbbef4976	-0.0073024584
17	0x3ec8f148	0.39246583
18	0x3e411e93	0.1885932
19	0x3e111534	0.14168245
20	0xbdd119ee	-0.10210024
21	0xbe6a22b5	-0.22864802
22	0x3d57e0ab	0.052704494
23	0xbe830b0d	-0.2559437
24	0x3bc0cc96	0.0058837635
25	0xbd9858b2	-0.07438792
26	0x3da69e55	0.08135668
27	0xbce18097	-0.027527137
28	0xbe124e66	-0.14287719
29	0x3e7cd481	0.24690439
30	0xbb8b1032	-0.004243874
31	0xbe059494	-0.1304496
32	0xbe0f2cae	-0.13981888
33	0x3d2d67d3	0.042335343
34	0x3e497e32	0.19677046
35	0x3d89ac21	0.06722284
36	0x3d9ffc4f	0.07811796
37	0x3cf540bd	0.029938096
38	0xbe269e03	-0.16271214
39	0xbbf106ca	-0.0073555456
40	0x3e961bd9	0.2931812
41	0xbdf50c28	-0.11965209
42	0x3e354410	0.17701745
43	0x3e840644	0.2578603
44	0xbe406b86	-0.18791017
45	0xbe6f0a46	-0.23343763
46	0xbe17f68c	-0.14840144
47	0xbe88d635	-0.26725927
48	0xbe414430	-0.18873668
49	0xbc045754	-0.008077461
50	0x3cf948fa	0.030430306
51	0x3d61bc8d	0.055111457
52	0x3e726ad3	0.23673563
53	0x3e6f67e2	0.23379472
54	0x3e157f05	0.14599235
55	0x3c18c3c1	0.009324015
56	0x3ea132d5	0.31484094
57	0x3e8cd273	0.2750431
58	0xbddff075	-0.109345354
59	0xbe022a5c	-0.12711471
60	0xbc33afc0	-0.010967195
61	0x3e36e01c	0.17858928
62	0x3e06b9f6	0.13156876
63	0xbd9b3442	-0.07578327
64	0x3e5787c0	0.21047878
65	0xbdc3d567	-0.09562188
66	0x3e8416b6	0.25798577
67	0x3e326fc0	0.17425442
68	0xbd83d609	-0.06437308
69	0xbe879b35	-0.264856
70	0x3e2bcedb	0.16778128
71	0x3d8aff23	0.06786945
72	0x3e894ad0	0.2681489
73	0x3e82fa8f	0.25581786
74	0x3d3cfa8e	0.046137385
75	0xbdd7a68b	-0.105298124
76	0x3e2efe75	0.17089255
77	0x3e2dd084	0.16974074
78	0x3ce0093d	0.027348155
79	0xbc814f21	-0.015784802
80	0x3e589774	0.21151525
81	0x3e3f6ffe	0.18695065
82	0x3e97086c	0.29498613
83	0x3e9f0fdf	0.31066796
84	0x3e3a97bf	0.18221949
85	0x3e36dfc2	0.17858794
86	0x3d9414ae	0.07230507
87	0x3e43601d	0.19079633
88	0x3e5635cc	0.2091896
89	0x3d77e7c7	0.060523774
90	0x3c1ed6bc	0.009694751
91	0x3e7a4548	0.24440491
92	0x3e8db506	0.27677172
93	0x3e8a753b	0.27042565
94	0xbe58f469	-0.21186985
95	0xbc3423f4	-0.0109949
96	0x3e4c2381	0.19935419
97	0x3e04dbd4	0.12974483
98	0xbe30ffaa	-0.17285028
99	0xbe35592b	-0.17709796
100	0xbcdfb3a8	-0.027307346
101	0xbe0d1b45	-0.13779934
102	0x3daca701	0.08430291
103	0x3d79f4d4	0.061024502
104	0xbd8f5208	-0.06998068
105	0xbe2ed140	-0.1707201
106	0x3cd0d194	0.02549056
107	0xbd110332	-0.035403438
108	0xbe7a2ac2	-0.24430373
109	0x3df47f1c	0.11938307
110	0x3e32582d	0.17416449
111	0x3d8ab29c	0.06772348
112	0x3ecdbdc9	0.40183857
113	0x3f02898e	0.5099114
114	0xbd256f42	-0.040389307
115	0xbd501236	-0.050798617
116	0xbd83c9e8	-0.06434995
117	0xbdb5fb76	-0.08885853
118	0x3e37c799	0.17947234
119	0xbdec06a0	-0.11524701
120	0xbcedcfae	-0.029029693
121	0x3de9e782	0.1142111
122	0x3e65d52e	0.22444603
123	0x3e91286e	0.28351158
124	0x3e2ea845	0.17056377
125	0xbd4093f4	-0.0470161
126	0x3e4ee1f8	0.20203388
127	0x3e32a3be	0.17445275
128	0xbdfed890	-0.1244365
129	0xbea74694	-0.32671034
130	0x3d87aa45	0.06624273
131	0x3e0c1696	0.13680491
132	0x3d1b6d17	0.037945833
133	0x3da20a6f	0.07912146
134	0x3db12976	0.08650486
135	0x3e60a7b1	0.21938969
136	0x3e273422	0.16328481
137	0xbd7f399f	-0.06231081
138	0x3d7f11b2	0.062272735
139	0xbcf11a25	-0.029431412
140	0xbd5e7241	-0.05430818
141	0x3e814e4f	0.25255057
142	0xba877a6d	-0.0010336168
143	0xbd832699	-0.06403846
144	0x3dfa938a	0.12235172
145	0x3cec48cb	0.028843304
146	0xbdbba785	-0.09162811
147	0x3dcc3be2	0.09972359
148	0xbc2b6d48	-0.010463066
149	0xbd5fbe46	-0.05462482
150	0x3dd651eb	0.10464843
151	0xbd850c9c	-0.06496546
152	0xbe5ecf0b	-0.21758668
153	0x3e8db654	0.27678168
154	0xbe464b1b	-0.19364588
155	0x3e991eb3	0.29906234
156	0x3da6b93d	0.081408
157	0xbd7bfcf0	-0.061520517
158	0xbcf8bdbc	-0.03036391
159	0x3d8321ee	0.06402956
160	0x3b8b7d80	0.004256904
161	0xbea7d381	-0.32778552
162	0xbea0fe9d	-0.31444255
163	0xbd161db7	-0.036649432
164	0xbe2b6b0e	-0.16740057
165	0xbe337ae2	-0.17527345
166	0xbea0b73d	-0.313898
167	0xbe98a368	-0.2981217
168	0xbd1249f5	-0.035715062
169	0xbdb64097	-0.08899038
170	0x3e8268b0	0.25470495
171	0xbdd57bab	-0.104239784
172	0x3eacf66a	0.3378175
173	0x3ed1b846	0.40960902
174	0xbe05ff45	-0.13085659
175	0x3e8b1b4d	0.27169266
176	0x3b59ad55	0.0033214886
177	0x3c3c5c9b	0.011496688
178	0x3d05a6a0	0.03262961
179	0x3cc1d1b1	0.023659559
180	0xbe6ef701	-0.23336412
181	0xbec713cd	-0.38882294
182	0xbdf77a57	-0.12083881
183	0xbe22385f	-0.15841816
184	0xbc6b43e9	-0.014359453
185	0x3c554f28	0.013019361
186	0xbe14a7c3	-0.14517121
187	0x3cd23a71	0.025662633
188	0xbd53a431	-0.051670257
189	0x3de7f85b	0.11326667
190	0x3d5cf855	0.053947765
191	0xbe5167f1	-0.20449807
192	0xbdca66da	-0.09882899
193	0xbea6dc23	-0.32589826
194	0xbba19d93	-0.0049321144
195	0x3e02e0e7	0.12781106
196	0x3e4f0365	0.20216139
197	0x3e7f6bfd	0.24943538
198	0xbe2f0af7	-0.17094027
199	0x3cd12ecf	0.025535015
200	0xbe9678ed	-0.29389134
201	0xbec455cf	-0.38346717
202	0xbe70ec80	-0.23527718
203	0xbdbb4634	-0.091442496
204	0xbe86597d	-0.2624015
205	0x3bba921a	0.005693686
206	0x3e174e76	0.14776024
207	0xbdf29736	-0.118452474
208	0x3dc7c4ce	0.097543344
209	0xbe3efcc3	-0.18651108
210	0x3e45a750	0.19302106
211	0x3da34bdb	0.07973453
212	0x3d41489e	0.047188394
213	0x3eb78188	0.35841012
214	0xbe0c3936	-0.13693699
215	0x3e2d62a2	0.16932157
216	0x3d710927	0.05884662
217	0x3e4864cf	0.19569705
218	0x3d7f5c08	0.062343627
219	0xbd21bf1f	-0.039488908
220	0x3e866ebd	0.26256362
221	0xbdab2cc7	-0.0835815
222	0x3b848b67	0.0040449384
223	0x3e4d2a5e	0.20035693
224	0x3e33c206	0.17554483
225	0x3e39af15	0.18133195
226	0x3dae222e	0.08502613
227	0xbe108585	-0.14113434
228	0xbe33307d	-0.17498966
229	0xbd0d6ca8	-0.03452745
230	0x3e86ed9b	0.26353154
231	0x3dc59a3d	0.09648559
232	0x3e141524	0.1446119
233	0x3f169f12	0.5883647
234	0xbe065b0d	-0.1312067
235	0xbe031606	-0.1280137
236	0xbc6fef41	-0.014644445
237	0x3e9d4529	0.30716828
238	0xbe0decce	-0.13859865
239	0x3d86b9b7	0.06578391
240	0x3d838040	0.06420946
241	0x3e22e577	0.15907846
242	0x3e02f262	0.12787774
243	0x3e9f10ab	0.31067404
244	0xbe0b01be	-0.13574883
245	0xbd953b7f	-0.072867386
246	0x3e59cd7a	0.2126979
247	0x3e20e98b	0.1571409
248	0xbd0dbd34	-0.034604266
249	0xbe4c602d	-0.19958563
250	0x3e2d10c3	0.16900925
251	0xbc83a602	-0.01607037
252	0x3e00ce58	0.12578714
253	0x3e4dd71c	0.20101589
254	0x3dbe7305	0.09299282
255	0x3e73596e	0.23764583

net.0.bias f4 [64]
0	0xbdd93d8d	-0.10607443
1	0x3dcf109a	0.10110588
2	0xbdc4f334	-0.096167
3	0x3c8c0f1b	0.017097047
4	0xbda2191b	-0.07914945
5	0x3d54718b	0.051866096
6	0xbca83d1e	-0.020536955
7	0x3e86e0d9	0.2634342
8	0x3d17f812	0.037101813
9	0x3d77422f	0.060365852
10	0x3df3123f	0.118687145
11	0xbdb150f1	-0.086580165
12	0xbe0f3dc8	-0.13988411
13	0xbe231c1e	-0.15928695
14	0xbd8342db	-0.06409236
15	0xbe814356	-0.25246686
16	0x3bc2fe4d	0.005950725
17	0x3dd54c63	0.1041496
18	0xbe0b7584	-0.13619047
19	0x3d14f28a	0.036364116
20	0x3db262ac	0.087102264
21	0xbe98eba3	-0.29867277
22	0xbe0407e1	-0.1289363
23	0xbc3e2ced	-0.011607391
24	0xbcdbf89d	-0.026851946
25	0x3cd77c2a	0.026304323
26	0x3d045d15	0.032315332
27	0x3e4a3ced	0.19749804
28	0x3e776942	0.24161246
29	0xbd0fcd17	-0.0351077
30	0xbe85684e	-0.2605614
31	0xbd92ca17	-0.07167452
32	0xbe1b7f95	-0.15185387
33	0xbd43bd42	-0.047787912
34	0x3dceca31	0.10097159
35	0xbd91395e	-0.0709102
36	0xbd081ec6	-0.033232473
37	0xbd8b2f1f	-0.06796097
38	0x3d24fa05	0.0402775
39	0xbe264aea	-0.16239515
40	0xbdfe6ce0	-0.1242311
41	0x3dc19bc2	0.094535366
42	0xbdd1590b	-0.10222062
43	0xbe172992	-0.14761952
44	0x3e2e25ac	0.17006558
45	0xbd569969	-0.052392397
46	0x3d68e3a3	0.056857716
47	0x3e18b079	0.14911069
48	0xbe0d4cdc	-0.13798851
49	0xbd849ab0	-0.06474817
50	0xbda8664c	-0.082226366
51	0x3db6d7ea	0.08927901
52	0x3d372e1e	0.044721715
53	0xbdef99ae	-0.11699234
54	0xbe2ab218	-0.166695
55	0x3d0aeb73	0.033915948
56	0x3e0dace2	0.13835481
57	0xbe052f44	-0.13006312
58	0xbc634582	-0.013871552
59	0x3be93212	0.0071165645
60	0x3d24dfac	0.040252373
61	0x3e1a643d	0.150773
62	0xbe27a0f3	-0.16369991
63	0x3d1f213f	0.038850065

net.2.weight f4 [64, 64]
0	0x3e7d38e2	0.2472873
1	0xbd35f8b6	-0.044426642
2	0xbdba03ad	-0.09082732
3	0x3aecf276	0.001807763
4	0xbe3861c0	-0.18006039
5	0xbdc190a9	-0.0945142
6	0x3e48b239	0.19599237
7	0xbda00345	-0.078131236
8	0xbe11ef49	-0.14251436
9	0xbe87ec97	-0.2654769
10	0xbea66bb4	-0.32504046
11	0xbe291f48	-0.16515839
12	0x3dbf1941	0.09330989
13	0xbe1162b8	-0.14197814
14	0x3d559a72	0.052149244
15	0xbda09afa	-0.078420594
16	0xbe13d11d	-0.14435239
17	0xbdd58ee8	-0.10427648
18	0x3d36943a	0.044574954
19	0x3bcb3700	0.006201625
20	0x3e9f8e39	0.31163195
21	0xbd62cd3d	-0.05537151
22	0xbe34e12f	-0.17664026
23	0xbe2c1f49	-0.1680881
24	0xbe424fb3	-0.18975715
25	0x3d4a75a4	0.049428597
26	0xbc836255	-0.0160381
27	0xbe7ce53e	-0.24696824
28	0xbdf49adb	-0.11943599
29	0xbdd5a4ea	-0.104318455
30	0x3e5285ae	0.20558807
31	0x3e3f679f	0.18691872
32	0x3e868c1c	0.2627877
33	0xbdef9f21	-0.11700273
34	0x3e63e307	0.22254573
35	0xbd9d0ebe	-0.076688275
36	0xbe257d13	-0.16160993
37	0xbd0fc495	-0.035099585
38	0xbe5409c7	-0.20706855
39	0xbc0c1045	-0.008548801
40	0x3e548633	0.20754318
41	0xbd38d9d0	-0.045129597
42	0x3d1d28fc	0.038369164
43	0xbd2e5ce1	-0.042569045
44	0x3ce4d9aa	0.027935822
45	0x3e95df01	0.292717
46	0x3e47b512	0.19502667
47	0xbdc8ad25	-0.0979865
48	0x3e197c0f	0.14988731
49	0x3eb72247	0.3576834
50	0x3ea0f084	0.314335
51	0x3e0fd54e	0.14046213
52	0xbc3067af	-0.010766908
53	0x3e5a39d6	0.21311125
54	0xbd3e0432	-0.04639072
55	0x3b9ba005	0.0047493004
56	0x3e95da57	0.29268143
57	0xbda7c75a	-0.0819232
58	0x3dfd0722	0.12354876
59	0xbe62ce3f	-0.22148989
60	0x3de5ece6	0.112268254
61	0xbdd29c49	-0.10283715
62	0x38d35525	0.000100771234
63	0xbc83707c	-0.016044848
64	0xbd90c436	-0.07068674
65	0x3e19198f	0.14951156
66	0x3d9c9a2d	0.07646594
67	0x3e48e1cd	0.19617386
68	0x3e1e9e74	0.15490133
69	0x3e3424f0	0.17592216
70	0xbe100ca5	-0.14067324
71	0x3e0d42ab	0.13794963
72	0xbcaac872	-0.020847533
73	0x3ea5b292	0.323628
74	0x3e7aae33	0.24480514
75	0xbd5f196d	-0.054467607
76	0xbce154ca	-0.02750625
77	0x3e57a539	0.21059121
78	0xbe1537b3	-0.14572029
79	0x3c921382	0.017831568
80	0x3d626356	0.055270515
81	0x3dc42f10	0.09579289
82	0x3cf14b59	0.029454874
83	0x3e7f427c	0.24927706
84	0xbdd913c5	-0.10599474
85	0xbd3743b9	-0.04474232
86	0x3e458c35	0.19291766
87	0xbd9837d2	-0.07432522
88	0x3e353d3c	0.1769914
89	0xbd896e47	-0.06710487
90	0x3e2e54ae	0.1702449
91	0x3ec67cf0	0.38767195
92	0x3e161a04	0.14658362
93	0x3ccb016c	0.024780951
94	0xbd02223b	-0.031770926
95	0x3d3ad687	0.045614745
96	0xbe7ff322	-0.24995092
97	0x3e545322	0.20734838
98	0xbdc940ec	-0.09826836
99	0x3d95024c	0.07275829
100	0x3e788cac	0.24272412
101	0xbd9f6f35	-0.07784883
102	0x3e2ae8dc	0.16690391
103	0xbe6a4ffb	-0.22882073
104	0xbd241d14	-0.040066794
105	0xbe1e8968	-0.15482104
106	0xbd31609b	-0.04330502
107	0xbdd806f5	-0.10548202
108	0x3d83d903	0.06437876
109	0xbe508c65	-0.20366056
110	0x3cf92b7e	0.030416247
111	0x3e542f9d	0.20721288
112	0x3d0316ad	0.032004047
113	0xbe589e1d	-0.21154065
114	0x3e29069e	0.1650643
115	0x3ddffbc4	0.10936692
116	0xbdd99609	-0.1062432
117	0xbcc6434d	-0.024202013
118	0xbd5c35ae	-0.05376213
119	0xbe4a9b67	-0.19785844
120	0x3cbc4a3c	0.022984616
121	0x3e06cfc9	0.13165201
122	0xbd52b2a1	-0.051439885
123	0x3db8cc4d	0.09023342
124	0xbe3e96aa	-0.18612161
125	0x3e822f99	0.2542694
126	0x3e577227	0.2103964
127	0xbc5e6aab	-0.013575236
128	0x3cf54769	0.029941278
129	0xbcaf1f13	-0.021377122
130	0xbcf43521	-0.02981049
131	0xbdce792e	-0.10081707
132	0xbdf79b8b	-0.12090214
133	0xbd1cd8f6	-0.038292848
134	0x3e44db74	0.1922434
135	0xbdeb2f2f	-0.11483609
136	0xbe1d8892	-0.15384129
137	0xbd414e3f	-0.047193762
138	0xbe870efa	-0.26378614
139	0x3dafeb01	0.08589745
140	0xbcc3e504	-0.023912914
141	0xbe5415ec	-0.20711488
142	0x3e866745	0.26250663
143	0xbdb185c8	-0.08668095
144	0xbd96c75c	-0.073622435
145	0xbe5aed18	-0.21379507
146	0x3dd6331c	0.10458967
147	0xbe3bc95f	-0.18338536
148	0x3e255f0b	0.16149537
149	0x3e2376be	0.15963265
150	0xbe866441	-0.26248363
151	0x3df09ae6	0.117482945
152	0xbd8dabe7	-0.069175534
153	0x3e6b7e8f	0.22997497
154	0x3d889c6c	0.0667046
155	0xbe8af0eb	-0.2713693
156	0xbe39b2b5	-0.18134578
157	0x3e0834db	0.13301413
158	0x3d8bbb69	0.06822855
159	0xbd9bad08	-0.076013625
160	0x3b80d2a3	0.00393136
161	0xbe75f831	-0.24020459
162	0x3ce97f39	0.028503047
163	0xbd62a74f	-0.05533534
164	0xbe3293f6	-0.17439255
165	0xbd1355b2	-0.035970397
166	0x3b191181	0.002335638
167	0xbd08d721	-0.033408288
168	0x3d8395bf	0.06425046
169	0xbd9a50f8	-0.07534975
170	0x3d963836	0.0733494
171	0xbd22d24e	-0.039751343
172	0xbd810a26	-0.06300764
173	0x3cff5b77	0.031171544
174	0x3e0f894e	0.14017221
175	0xbdae08df	-0.08497786
176	0xbd94a87a	-0.07258697
177	0x3d93ed87	0.07223039
178	0x3eb16a30	0.34651327
179	0xbd472cfc	-0.048626885
180	0x3e6a3a70	0.22873855
181	0x3d7ff4e0	0.06248939
182	0x3db0fdc0	0.08642149
183	0xbc4544a2	-0.012040289
184	0x3dd21a15	0.10258881
185	0x3d352511	0.044224802
186	0x3e78e809	0.24307264
187	0xbe5d9ffd	-0.21643062
188	0x3d7d028d	0.06177001
189	0xbe1ed95d	-0.15512605
190	0x3e00e08c	0.12585658
191	0xbe23793c	-0.15964216
192	0x3e3842b5	0.17994197
193	0xbdfb5e68	-0.12273866
194	0x3c9c64ac	0.019090973
195	0xbd4117e1	-0.047141913
196	0x3d562fae	0.052291565
197	0xbe6de72c	-0.23232716
198	0x3e49830c	0.19678897
199	0xbe7167e7	-0.23574792
200	0xbe20ab9a	-0.15690461
201	0xbdd69baa	-0.10478909
202	0xbd8f100e	-0.06985484
203	0x3c9fa743	0.019488936
204	0x3e4aa498	0.1978935
205	0xbd8ec2fa	-0.069707826
206	0x3d89d8eb	0.06730827
207	0xbda7b12c	-0.0818809
208	0x3dc9f4cf	0.09861147
209	0xbe24c021	-0.16088916
210	0xbdeb8839	-0.11500592
211	0xbe70ebaf	-0.23527406
212	0x3d9de29f	0.0770924
213	0x3d510e2f	0.051038917
214	0xbe8ee7aa	-0.2791112
215	0xbd8a88b9	-0.06764359
216	0xbd66a34a	-0.05630807
217	0x3e396724	0.18105751
218	0xbc9b11d3	-0.018929398
219	0xbe9494ac	-0.29019678
220	0xbe18c3c4	-0.14918429
221	0xbcc423b0	-0.023942798
222	0x3dd459dc	0.10368702
223	0x3e4919a0	0.19638681
224	0x3e9efc1e	0.31051725
225	0xbd7b8332	-0.061404414
226	0x3e923a44	0.28560078
227	0x3e03d4fb	0.12874214
228	0xbe87df4e	-0.26537555
229	0x3c67f368	0.014157154
230	0x3cd9838b	0.026551982
231	0x3da714a1	0.081582315
232	0x3e0daad3	0.13834696
233	0x3d6b0a13	0.057382654
234	0x3d05565a	0.032553054
235	0x3d63e6ca	0.05564002
236	0x3d084457	0.0332683
237	0x3ea52ef1	0.32262376
238	0x3da95953	0.0826899
239	0xbd8829b1	-0.06648577
240	0x3d5ab4d8	0.053395122
241	0x3eaaa621	0.3332987
242	0x3e3bf8e6	0.18356666
243	0x3e32ef18	0.1747402
244	0x3e4278e0	0.18991423
245	0x3e7b5c69	0.2454697
246	0xbdf09de2	-0.11748864
247	0xbbc80731	-0.006104373
248	0x3ec1a307	0.37819692
249	0x3d243371	0.04008812
250	0x3d525ce5	0.051358122
251	0xbdbb9fa4	-0.091613084
252	0x3e0ea417	0.13929783
253	0xbdf59bbb	-0.11992594
254	0x3e0211ec	0.12702149
255	0x3d087fdd	0.033325065

net.2.bias f4 [64]
0	0x3d838a28	0.064228356
1	0xbde3b068	-0.11117631
2	0x3c58b8a6	0.013227617
3	0xbe0b37f9	-0.1359557
4	0x3e16635b	0.14686339
5	0xbcbc736f	-0.023004262
6	0xbe2fd850	-0.1717236
7	0xbdb85d2f	-0.09002148
8	0xbddcd8b7	-0.107835226
9	0x3c3227c6	0.010873741
10	0x3d15bf74	0.036559537
11	0xbde71ad6	-0.112844154
12	0xbcb0185f	-0.021495996
13	0x3cf429d4	0.029805101
14	0xbd13f4ea	-0.03612224
15	0xbde736bb	-0.11289736
16	0xbcc28897	-0.023746772
17	0xbd8146d4	-0.063123375
18	0x3c6a885f	0.01431474
19	0x3d9d26e5	0.07673434
20	0xbe18992b	-0.14902179
21	0xbe090a17	-0.13382755
22	0xbe0ac5fc	-0.13552088
23	0xbd4e13dd	-0.05031191
24	0x3d764d7c	0.06013249
25	0xbda45f41	-0.08025981
26	0xbb9ace5b	-0.0047243065
27	0xbbf28cc0	-0.0074020326
28	0x3da0c8de	0.078508124
29	0xbd8ff94a	-0.0702997
30	0xb8ecd624	-0.00011293244
31	0x3d3bbf94	0.045837
32	0x3d377d42	0.04479719
33	0x3dc65182	0.09683515
34	0x3d2488c6	0.0401695
35	0x3d9b5f6a	0.07586558
36	0x3c46ab13	0.012125748
37	0x3dd1226d	0.10211644
38	0x3dceaa50	0.10091078
39	0x3b724670	0.0036968254
40	0x3e1d3071	0.1535051
41	0x3b2d877d	0.0026478462
42	0x3ce9ca77	0.028538926
43	0xbdf32ba7	-0.118735604
44	0xbc0378c3	-0.008024397
45	0xbe5a675a	-0.21328488
46	0x3d4a17af	0.049338993
47	0xbdcafefb	-0.09911915
48	0xbd38ac02	-0.045085914
49	0xbdb04cdf	-0.08608412
50	0x3d18ec6c	0.037334844
51	0xbe031d92	-0.12804249
52	0xbc667d65	-0.014067982
53	0x3c622ee5	0.013805126
54	0xbc24a891	-0.010049955
55	0xbd389952	-0.045068093
56	0xbb98dfef	-0.004665367
57	0x3d6688ce	0.05628281
58	0x3e420c58	0.18950021
59	0xbdd6c959	-0.10487623
60	0xbe5b1e53	-0.21398287
61	0xbd43cd6a	-0.04780332
62	0xbd238677	-0.039923158
63	0x3cd004dc	0.025392942

net.4.weight f4 [64, 64]
0	0x3d755de3	0.05990399
1	0x3e87d1fd	0.26527396
2	0xbc36bb04	-0.011152986
3	0xbe073a75	-0.13205893
4	0x3dc4c7e5	0.09608439
5	0xbcd0ca80	-0.025487185
6	0xbe35c3af	-0.17750429
7	0xbd748b0e	-0.059702925
8	0x3e6d3939	0.2316636
9	0x3ecd319e	0.40076917
10	0xbe5a8fa2	-0.21343854
11	0x3e37bc6a	0.17942968
12	0x3d4cac28	0.04996887
13	0xbe174da2	-0.14775708
14	0xbd33c689	-0.04389051
15	0x3e0c782f	0.13717721
16	0xbd9d1a29	-0.07671005
17	0x3d9c7e6d	0.07641301
18	0x3e8e85f9	0.27836588
19	0x3e29afc3	0.16570954
20	0xbc41272b	-0.0117891235
21	0x3d580bbc	0.052745566
22	0xbdb8bbe1	-0.0902021
23	0x3e4668ef	0.19375966
24	0x3d83c7b1	0.064345725
25	0xbde4845a	-0.111580566
26	0x3e985db2	0.29758984
27	0x3cd89777	0.026439412
28	0xbdefec90	-0.117150426
29	0x3ea6f922	0.32611948
30	0x3dcabdbe	0.09899472
31	0xbe89aa87	-0.26887915
32	0xbe0dfbbb	-0.13865559
33	0x3e91a0ac	0.28442895
34	0xbe155208	-0.14582074
35	0x3e9dffc6	0.30859202
36	0x3c935edc	0.017989568
37	0x3e90dfb3	0.2829567
38	0x3e4cf519	0.20015372
39	0x3e829155	0.25501505
40	0xbee74cdb	-0.45175824
41	0x3d4c8735	0.04993363
42	0xbcc7bbda	-0.024381567
43	0x3d964151	0.07336677
44	0x3cb441c7	0.022004021
45	0xbd765d2e	-0.060147457
46	0xbe703f26	-0.23461589
47	0xbe18c930	-0.14920497
48	0xbda93829	-0.08262665
49	0x3d2234b7	0.039601054
50	0x3e0bff9b	0.13671724
51	0xbd70112e	-0.058610134
52	0x3e8e30b6	0.27771538
53	0xbcda62d8	-0.02665846
54	0xbe0cc216	-0.13745913
55	0x3e6e9c2f	0.23301767
56	0xbbd03c7b	-0.006354866
57	0x3dcd8614	0.10035339
58	0x3e34072b	0.1758086
59	0xbdcbac70	-0.09944999
60	0xbdf3869d	-0.1189091
61	0xbe6095bc	-0.21932119
62	0xbddfb21c	-0.109226435
63	0x3df8b3bc	0.121436566
64	0x3e1b1312	0.15143993
65	0xbd4e12f3	-0.05031104
66	0x3d3099a5	0.043115277
67	0x3e17f66c	0.14840096
68	0x3e7246f8	0.23659885
69	0xbaf2f4db	-0.0018536107
70	0x3e51208a	0.20422569
71	0xbd1a7b03	-0.03771497
72	0xbc8cef76	-0.017204028
73	0xbdfefdc0	-0.12450743
74	0x3d80e090	0.06292832
75	0x3d6ca08e	0.057770304
76	0xbd6b4531	-0.057439033
77	0xbc8e0188	-0.017334715
78	0x3d98d768	0.074629605
79	0x3dfb9319	0.12283916
80	0x3dc0a79a	0.094069675
81	0xbd9261e1	-0.07147575
82	0x3d945a9f	0.07243847
83	0x3e3fb4bd	0.1872129
84	0x3c054220	0.008133441
85	0xbc3ac381	-0.011399151
86	0xbe029241	-0.12751104
87	0x3d8f0fea	0.06985457
88	0xbcb99984	-0.02265621
89	0x3db31de2	0.08745934
90	0xbe83cfdb	-0.2574452
91	0xbe3abdd7	-0.1823648
92	0xbcc143c9	-0.023591893
93	0x3c97cbb8	0.018529758
94	0xbd18c55c	-0.03729759
95	0xbc944c31	-0.018102737
96	0x3d3bcc20	0.045848966
97	0x3e3c4458	0.18385446
98	0xbde2fc14	-0.11083236
99	0xbcaf295e	-0.02138203
100	0x3de64780	0.11244106
101	0x3e66eda9	0.22551598
102	0x3dfcca5a	0.12343283
103	0xbdc764f0	-0.09736049
104	0xbe7c122c	-0.24616307
105	0xbdf9c667	-0.12196045
106	0xbdf13230	-0.11777151
107	0x3caf2c8e	0.02138355
108	0xba8bfea2	-0.0010680745
109	0x3dc23349	0.09482438
110	0x3dc82c2e	0.097740516
111	0xbdb6d2c2	-0.089269176
112	0x3e41f7ff	0.18942259
113	0x3dd71c00	0.105033875
114	0xbdf10530	-0.117685676
115	0xbde5055c	-0.11182663
116	0xbe02cd6d	-0.12773676
117	0x3ce42ce1	0.027853431
118	0xba022d86	-0.000496589
119	0x3dcff885	0.10154823
120	0xbde845eb	-0.11341461
121	0xbdde214f	-0.10846197
122	0x3c8b825e	0.017029937
123	0x3e512bf6	0.20426926
124	0xbdeecf0f	-0.11660587
125	0xbd865a47	-0.06560188
126	0xbd951a00	-0.0728035
127	0xbd213800	-0.039360046
128	0xbd737510	-0.05943781
129	0xb8d4db3c	-0.00010149783
130	0xbe1bf91a	-0.15231743
131	0x3da2989d	0.07939265
132	0x3d0cceb1	0.034376804
133	0xbd7acc94	-0.061230257
134	0x3e9a28cc	0.3010925
135	0xbe17f027	-0.14837705
136	0x3e22ff9b	0.15917818
137	0xbdf89d30	-0.12139356
138	0xbe5238cf	-0.20529483
139	0xbdf5cbdc	-0.12001774
140	0xbdcb3f93	-0.09924235
141	0x3b9d741b	0.0048051006
142	0x3dbe686f	0.09297263
143	0xbdf9b7b8	-0.12193245
144	0xbe0796e6	-0.13241157
145	0xbc9ca488	-0.019121423
146	0x3cec131b	0.028817704
147	0xbda337f8	-0.079696596
148	0xbdd9e2ae	-0.10638939
149	0xbd4e6232	-0.050386615
150	0x3e07af5c	0.13250488
151	0xbe5ff29e	-0.21869895
152	0xbd853fef	-0.06506335
153	0x3e1773c0	0.14790249
154	0xbcccc869	-0.024997907
155	0xbd8f93d0	-0.07010615
156	0xbd53cad4	-0.051707104
157	0xbcae1843	-0.021251803
158	0xbe653bcc	-0.22386092
159	0x3c91e73b	0.017810455
160	0xbd507f65	-0.050902743
161	0x3dbff33b	0.093725644
162	0x3ddafb9b	0.10692521
163	0x3c7308ca	0.014833638
164	0xbbae2300	-0.005314231
165	0xbdffaf6d	-0.12484632
166	0x3e004583	0.12526517
167	0xbe16d4e5	-0.1472965
168	0x3dd51f23	0.104063295
169	0xbdcddbdf	-0.10051703
170	0xbdd506fd	-0.104017235
171	0x3ece22c4	0.402609
172	0xbe4ddd16	-0.20103869
173	0x3eb43362	0.35195452
174	0xbdb86555	-0.090037026
175	0xbd93f672	-0.0722474
176	0x3d9a4660	0.07532954
177	0x3d69c5c3	0.057073366
178	0xbd35e19a	-0.044404604
179	0x3dbf2c60	0.09334636
180	0xbd92e6a0	-0.071728945
181	0x3da336da	0.079694465
182	0xbd3b4047	-0.045715597
183	0xbd1009fd	-0.035165776
184	0xbd94e951	-0.07271064
185	0xbe203a39	-0.1564721
186	0xbdd8fbbf	-0.10594892
187	0xbdf9f560	-0.12205005
188	0xbe34d1f9	-0.17658223
189	0x3d456c15	0.04819878
190	0xbcfd4ef2	-0.030921433
191	0xbd9f482c	-0.077774376
192	0x3e90702a	0.28210574
193	0xbd240af2	-0.0400495
194	0x3eb405bf	0.35160634
195	0x3de9d434	0.11417428
196	0x3d907ec0	0.07055426
197	0x3dcbf388	0.09958559
198	0x3e1c4d4f	0.15263866
199	0x3dc2593b	0.094896756
200	0x3e38bfc4	0.18041903
201	0xbe86c18d	-0.26319543
202	0x3e7336cb	0.2375137
203	0xbc9e7d2e	-0.0193468
204	0x3dbc546a	0.09195788
205	0xbaecb925	-0.0018060548
206	0x3d4fb1b0	0.050706565
207	0xbda7748e	-0.08176528
208	0x3e16e98e	0.14737532
209	0x3d918927	0.07106238
210	0x3d6c5afc	0.057703957
211	0xbd79d0c4	-0.06099011
212	0x3dbc5a19	0.09196872
213	0xbc9e5170	-0.019325942
214	0xbd01e797	-0.031715002
215	0xbd2ab758	-0.041678756
216	0xbe2aeb0c	-0.16691226
217	0x3def9546	0.116983935
218	0xbd026212	-0.03183181
219	0x3d5b11af	0.05348366
220	0xbca3df46	-0.020003926
221	0x3d656649	0.05600575
222	0x3d93c955	0.072161354
223	0x3e3b5114	0.18292648
224	0x3e3d6075	0.18493827
225	0xbdec309b	-0.11532708
226	0x3e6e4e4a	0.23272052
227	0x3d491495	0.049091894
228	0xbc05e346	-0.008171862
229	0xbe1994ff	-0.14998244
230	0xbd920f28	-0.07131797
231	0xbe489484	-0.19587904
232	0x3e38ebf8	0.18058765
233	0xbe215d03	-0.15758137
234	0x3d8d00d4	0.068849236
235	0x3e576127	0.21033154
236	0xbe193abe	-0.14963815
237	0x3ebadd5d	0.36497012
238	0x3dfc6947	0.123247676
239	0x3b585034	0.003300679
240	0x3d64e8f3	0.05588622
241	0x3d84885c	0.06471321
242	0xbb70d9b0	-0.0036750846
243	0x3e8b584c	0.27215803
244	0x3c80765e	0.015681442
245	0x3db3c831	0.08778418
246	0x3ead585a	0.3385647
247	0xbe23f325	-0.16010721
248	0xbc1bfe4a	-0.009521076
249	0xbdc351c1	-0.09537078
250	0xbe5d115a	-0.2158865
251	0x3e3116fc	0.17293924
252	0x3d6b2758	0.057410568
253	0x3e1dbbbf	0.1540365
254	0x3e5f1f4c	0.21789283
255	0xbe0819ae	-0.13291046

net.4.bias f4 [64]
0	0x3e30b40f	0.17256187
1	0x3e1f8243	0.15577035
2	0xbe3f218a	-0.18665138
3	0xbc41d525	-0.011830603
4	0xbe07612e	-0.13220665
5	0x3db9983f	0.09062242
6	0xbc80a4fd	-0.015703673
7	0x3dbfe507	0.093698554
8	0xbc12e9f3	-0.008966911
9	0x3dae7a83	0.08519461
10	0x3dee1e6a	0.11626895
11	0xbda46d23	-0.08028629
12	0xbc28189e	-0.010259775
13	0xbd079ffb	-0.033111554
14	0xbd3fe75b	-0.046851497
15	0x3d2cd0f2	0.042191453
16	0x3d3dd672	0.04634709
17	0x3d94440f	0.07239544
18	0xbd8f59c3	-0.069995426
19	0xbe28fea0	-0.16503382
20	0xbde8f30d	-0.11374483
21	0x3d294fa9	0.041335735
22	0xbbb04e65	-0.005380439
23	0x3e1257f4	0.14291364
24	0x3cff1073	0.031135773
25	0x3d8731cf	0.06601297
26	0xbdc14a4f	-0.09438001
27	0x3d9dd874	0.07707301
28	0x3d651d88	0.055936366
29	0x3d2aa9c4	0.041665807
30	0xbd0cd6e3	-0.03438462
31	0xbd94b5ce	-0.07261239
32	0xbddf395f	-0.108996145
33	0x3d54b350	0.05192882
34	0x3c386b2d	0.011256021
35	0x3e68a6aa	0.22719827
36	0x3da3a328	0.07990104
37	0xbc4b529d	-0.012409833
38	0xbc894ab5	-0.016759256
39	0x3d9bde5c	0.07610771
40	0xbc0b5690	-0.008504525
41	0x3e067d82	0.13133815
42	0x3e6b5f7b	0.22985642
43	0x3dcbe4c5	0.09955744
44	0x3ddcbb2a	0.10777886
45	0x3d22ee4d	0.039778043
46	0x3ddb5961	0.10710407
47	0xbdac226b	-0.08405002
48	0x3e0b3abc	0.13596624
49	0x3e12da1a	0.14341012
50	0xbc47b839	-0.012189918
51	0x3cf70098	0.03015165
52	0x3d414f69	0.047194872
53	0x3dc86f31	0.09786833
54	0xbd2a77a2	-0.041617997
55	0x3dbd1f58	0.09234494
56	0x3e34064c	0.17580527
57	0xbcce25be	-0.025164481
58	0x3e7d5b1a	0.24741784
59	0x3d96d8f8	0.07365602
60	0x3d02f7e1	0.031974677
61	0x3e4c0b3a	0.19926158
62	0xbd8fbd02	-0.07018472
63	0x3d9bb51d	0.07602904

net.6.weight f4 [1, 64]
0	0xbe71d43b	-0.23616116
1	0xbd496b54	-0.04917462
2	0x3d61cea9	0.055128727
3	0x3dd7eb69	0.10542948
4	0x3e1aa87f	0.15103339
5	0xbe07d5b2	-0.13265112
6	0xbc399ae8	-0.011328436
7	0xbe22f6f5	-0.15914519
8	0x3dcc9c12	0.099907055
9	0xbe523f4c	-0.20531958
10	0xbe42f837	-0.19039999
11	0x3e02e490	0.12782502
12	0x3dc0b6df	0.0940988
13	0x3e0a526d	0.13508005
14	0xbde449fd	-0.11146925
15	0xbe5f09b3	-0.21781044
16	0xbdec0b5b	-0.115256034
17	0xbe0b18fe	-0.13583753
18	0x3d969dc2	0.07354309
19	0x3d719a63	0.058985125
20	0x3e29632c	0.16541737
21	0x3db7b0b9	0.08969254
22	0x3e028e76	0.12749657
23	0xbe4b150c	-0.19832247
24	0xbe5c32e6	-0.21503791
25	0xbe4a3f67	-0.19750749
26	0x3df3d914	0.11906639
27	0x3e10b0e2	0.14129975
28	0x3dda03f0	0.10645282
29	0xbe3860fa	-0.18005744
30	0xbde280c4	-0.11059716
31	0x3e55e941	0.2088976
32	0xbc765be4	-0.015036557
33	0xbe5f0a43	-0.21781258
34	0x3e04178c	0.12899607
35	0xbe3ea1e5	-0.18616445
36	0x3df8dd0b	0.121515356
37	0x3d8f026e	0.06982885
38	0x3e5319ce	0.20615312
39	0x3e1fe34e	0.15614054
40	0x3db23e77	0.087033205
41	0xbe3f1a7b	-0.18662445
42	0xbe70d714	-0.23519546
43	0xbe7f2cc6	-0.24919423
44	0xbe210109	-0.15723051
45	0xbe30ba31	-0.17258526
46	0xbe257ac6	-0.16160116
47	0x3dcb2e40	0.09920931
48	0xbe381775	-0.17977698
49	0xbe3b6828	-0.18301451
50	0x3e82ee1f	0.25572297
51	0x3e11ea42	0.14249519
52	0xbe878f5b	-0.2647656
53	0x3eeb2783	0.45928583
54	0xbd90de40	-0.07073641
55	0x3da8c063	0.0823982
56	0xbe90a3a2	-0.28249842
57	0x3ddfa894	0.109208256
58	0xbe86e2bc	-0.2634486
59	0xbe82bf0f	-0.2553639
60	0x3d5ed42c	0.05440156
61	0xbe6a0f48	-0.22857392
62	0x3d99180c	0.0747529
63	0xbe55d4c6	-0.20881948
