cancer_iterative/cancer_models/90_train/real_final_model.pt (torch, 45323 bytes, 7 tensors)

net.0.weight f4 [64, 30]
0	0xbcd4dffe	-0.025985714
1	0x3def46a9	0.11683399
2	0x3e8319e7	0.256057
3	0x3c844126	0.016144346
4	0x3e17cc47	0.1482402
5	0xbd4e0969	-0.050301943
6	0x3e0f9e23	0.14025168
7	0x3e39c2e3	0.1814075
8	0xbe3d9842	-0.18515113
9	0xbe5e60ad	-0.21716566
10	0x3e51341f	0.20430039
11	0xbe41d471	-0.18928696
12	0x3e3db103	0.18524556
13	0x3c1d9271	0.009617434
14	0x3e04f9da	0.12985936
15	0xbddacbd8	-0.10683411
16	0xbd8ce8cf	-0.06880342
17	0x3dd5982c	0.10429415
18	0x3da0758a	0.07834919
19	0xbdb4e8a0	-0.08833432
20	0x3e3e7c4d	0.18602104
21	0xbdeab8db	-0.1146104
22	0x3ea125f6	0.31474274
23	0x3d4151b3	0.047197055
24	0x3e42792d	0.18991537
25	0x3d12c8af	0.035835918
26	0xbd24dacd	-0.040247727
27	0x3d9b287b	0.075760804
28	0xbe5b9d31	-0.21446683
29	0x3e207c75	0.15672477
30	0x3b113b35	0.0022160534
31	0xbde43251	-0.111424096
32	0x3e4f5ddf	0.20250653
33	0x3d08b358	0.03337416
34	0xbe1bc476	-0.15211663
35	0x3e4d4421	0.2004552
36	0xbdd22d9e	-0.10262607
37	0x3d76fd72	0.060300298
38	0x3c6e627d	0.014549849
39	0xbe248cee	-0.16069385
40	0xbc839330	-0.016061395
41	0x3e2d8b04	0.16947562
42	0x3d9e116d	0.077181675
43	0xbd42a678	-0.04752204
44	0xbc8b2346	-0.016984593
45	0xbc7669f6	-0.0150399115
46	0xbd48d2e1	-0.049029235
47	0x3dbf1c9a	0.09331627
48	0xbddbf505	-0.10740093
49	0xbde9d540	-0.11417627
50	0xbe00da83	-0.12583356
51	0x3d35edb6	0.044416152
52	0xbd49e728	-0.049292713
53	0x3d906687	0.070508055
54	0x3df2c8fd	0.11854742
55	0x3e032bf5	0.12809737
56	0xbe4a358a	-0.19746986
57	0xbe0e76e5	-0.13912542
58	0xbe139b75	-0.14414771
59	0xbd2a8a16	-0.041635595
60	0xbcd68608	-0.026186958
61	0x3e5981ac	0.21240872
62	0x3e6af9f3	0.2294691
63	0x3e82429b	0.2544144
64	0x3ccd59c4	0.025067218
65	0x3d7631a9	0.060105953
66	0x3e23be0f	0.1599047
67	0x3db8b28a	0.090184286
68	0xbdb3c3e5	-0.08777598
69	0xbcbd1e10	-0.023085624
70	0x3e0b947e	0.13630864
71	0x3d2ae9bc	0.041726813
72	0x3e729d23	0.23692755
73	0x3e5fa574	0.21840459
74	0x3e0324d9	0.12807025
75	0xbd8d6833	-0.0690464
76	0xbd565d78	-0.052335232
77	0xbdbff889	-0.09373576
78	0x3dfa47fa	0.1222076
79	0x3d072435	0.032993514
80	0x3e245c7f	0.1605091
81	0xbceb325e	-0.02871054
82	0x3d38a867	0.045082476
83	0x3e7e7813	0.24850492
84	0x3d57c328	0.05267635
85	0xbc7177be	-0.014738021
86	0xbd9ce130	-0.076601386
87	0x3e262f3e	0.16228959
88	0x3e3456d9	0.17611255
89	0x3d6a5fe6	0.057220362
90	0xbe09ab14	-0.13444167
91	0x3d6185b0	0.055059135
92	0x3d149fb2	0.03628511
93	0x3d18498d	0.03717952
94	0x3e214856	0.1575025
95	0x3e04f5fc	0.1298446
96	0x3b4c38a2	0.0031161685
97	0xbe5983bc	-0.21241659
98	0xbe0a11dd	-0.13483377
99	0xbd676660	-0.056494117
100	0xbe103737	-0.14083563
101	0x3dd36d40	0.10323572
102	0x3e2bfc35	0.16795428
103	0xbe5bebbc	-0.21476644
104	0x3e36d311	0.17853953
105	0x3c33428c	0.010941159
106	0x3e39ffa5	0.18163927
107	0x3dcd6639	0.10029263
108	0xbd807a13	-0.06273284
109	0x3dc662ad	0.0968679
110	0xbd1c106c	-0.0381016
111	0xbe5b8871	-0.21438767
112	0xbdb6cdbc	-0.089259595
113	0xbe1d6803	-0.15371709
114	0x3cfec932	0.031101797
115	0x3e3e7936	0.18600926
116	0x3dd38681	0.10328389
117	0xbe691f80	-0.22765923
118	0x3e0fb834	0.14035112
119	0x3c56d462	0.013112159
120	0x3e270f09	0.16314329
121	0xbdedb572	-0.116068736
122	0x3da34875	0.079728045
123	0x3d2801d4	0.04101737
124	0x3df40646	0.11915259
125	0x3e3705f1	0.1787336
126	0x3e1fb34f	0.15595745
127	0xbd86f363	-0.06589391
128	0xbca3f3da	-0.020013738
129	0xbda97f27	-0.082762055
130	0x3df38efc	0.118925065
131	0x3df3e290	0.11908448
132	0x3d80ac51	0.06282867
133	0x3e6633bc	0.22480673
134	0x3d4c1fcf	0.049835023
135	0xbd233b59	-0.03985152
136	0x3d5123c6	0.051059507
137	0x3d8649b6	0.06557028
138	0xbc843a20	-0.016140997
139	0xbe1d2136	-0.153447
140	0x3c191c42	0.009345116
141	0x3e2fa625	0.17153223
142	0x3e54247c	0.20717043
143	0xbca2068a	-0.019778509
144	0x3e08bb60	0.13352728
145	0x3e3d7962	0.18503335
146	0x3d1edcea	0.0387849
147	0x3e860085	0.2617227
148	0x3de09f05	0.109678306
149	0x3d7c81ed	0.061647344
150	0x3dfcc751	0.12342704
151	0xbd5f8317	-0.054568376
152	0x3e50923a	0.20368281
153	0x3de55fa5	0.11199883
154	0xbe0d70c6	-0.13812551
155	0x3d2406c5	0.04004552
156	0xbe33d730	-0.17562556
157	0xbd0ca13d	-0.034333456
158	0xbd634906	-0.055489562
159	0xbd31de50	-0.043424904
160	0xbe8acc30	-0.27108908
161	0x3c028dd3	0.007968384
162	0xbdf9fe75	-0.12206737
163	0xbe8b9b39	-0.27266863
164	0xbd677eda	-0.05651746
165	0x3d788e8f	0.06068283
166	0x3b849f62	0.00404732
167	0x3e3de940	0.18546009
168	0x3e03434d	0.12818642
169	0x3d030e66	0.031996153
170	0x3d3b9546	0.045796655
171	0xbe42f611	-0.1903918
172	0x3dad3853	0.084580086
173	0xbd640b25	-0.05567469
174	0xbe2e1208	-0.16999066
175	0xbdbeefd1	-0.09323085
176	0x3c07f9ff	0.00829935
177	0xbe272b5b	-0.16325133
178	0x3b86bd22	0.004111902
179	0xbe159549	-0.14607729
180	0x3db4fc07	0.08837133
181	0x3deaa361	0.11456943
182	0x3c95afd5	0.01827232
183	0x3e3028c1	0.17203046
184	0x3e1fa282	0.15589336
185	0xbce36f96	-0.02776317
186	0x3e6abe72	0.22924212
187	0x3da0c1e8	0.07849485
188	0x3e22edc4	0.15911013
189	0x3e17f1f4	0.14838392
190	0x3b0ee26b	0.0021802436
191	0xbd2abe38	-0.041685313
192	0xbdd31762	-0.10307194
193	0x3d61c82b	0.055122536
194	0xbd4e86b2	-0.050421424
195	0xbe06635e	-0.13123843
196	0xbd04c72f	-0.03241652
197	0xbdaf7863	-0.08567884
198	0x3de30b99	0.110861965
199	0xbdf84e7c	-0.12124345
200	0x3c8a4a45	0.016881118
201	0xbe028d2b	-0.12749164
202	0x3e34a10f	0.17639564
203	0x3e61a8c9	0.22037043
204	0xbdd6f909	-0.104967184
205	0xbd4089e6	-0.04700651
206	0xbd4f8ae2	-0.05066956
207	0x3d167bc5	0.03673913
208	0x3e079c07	0.13243113
209	0x3e6e7215	0.23285706
210	0xbce5d287	-0.028054489
211	0x3e377ed0	0.17919469
212	0x3e51d12e	0.20489952
213	0x3d0ca357	0.03433546
214	0x3e40aba1	0.18815471
215	0xbd90c0dc	-0.07068035
216	0x3d79806b	0.060913485
217	0x3dbffd87	0.093745284
218	0xbe16a15a	-0.14709988
219	0xbe303269	-0.1720673
220	0x3e772a7e	0.24137303
221	0x3cbc2104	0.022964962
222	0x3e5b07de	0.2138972
223	0x3e9541c9	0.29151753
224	0xbde6ea9f	-0.11275219
225	0x3e072d1a	0.13200799
226	0x3e098468	0.13429415
227	0x3d93c2ff	0.07214927
228	0xbd9db058	-0.076996505
229	0xbdf819c4	-0.121142894
230	0x3df3ce8a	0.119046286
231	0xbd7bc266	-0.06146469
232	0xbd8ac892	-0.06776537
233	0xbce5310c	-0.027977489
234	0x3d415c75	0.047207315
235	0xbd850ce1	-0.06496597
236	0x3e4f6c17	0.20256077
237	0x3e78aa44	0.24283701
238	0x3d4ea3cf	0.05044919
239	0x3dcc572a	0.09977563
240	0xbe48743a	-0.19575587
241	0x3db81fb0	0.08990419
242	0x3bd15501	0.006388307
243	0x3dbf4d42	0.09340908
244	0x3d0539db	0.03252588
245	0xbe61ffc2	-0.2207022
246	0x3dfa510a	0.12222488
247	0xbdbf4688	-0.09339625
248	0xbd1ad35a	-0.037799217
249	0xbe17409c	-0.1477074
250	0x3e1fca24	0.15604454
251	0xbdbd961b	-0.09257146
252	0x3e2268ed	0.15860339
253	0x3e070fcf	0.13189624
254	0x3cd31827	0.025768353
255	0xbdd4286c	-0.10359272

net.0.bias f4 [64]
0	0x3e51ad7c	0.20476335
1	0xbd782d40	-0.06059003
2	0xbdabba23	-0.08385112
3	0x3db6a2b8	0.08917755
4	0xbdaec727	-0.08534079
5	0x3d7b17a0	0.061301827
6	0x3d0b5db8	0.034024924
7	0xbcb164c9	-0.021654503
8	0x3e1ae33b	0.15125744
9	0xbd071e95	-0.03298815
10	0xbd8feeab	-0.07027944
11	0x3cc4a6b8	0.024005279
12	0x3cde32dc	0.027123861
13	0x3defab16	0.11702554
14	0xbbd381dd	-0.00645469
15	0xbd4b1d82	-0.049588688
16	0x3de4ee0f	0.111782186
17	0x3cb2c093	0.021820342
18	0x3e0447da	0.12918034
19	0xbdaf3bb0	-0.08556306
20	0x3dcb4f1b	0.099271975
21	0xbe09ad7e	-0.13445088
22	0x3db1cd17	0.08681696
23	0x3e6dd432	0.23225477
24	0xbe277d65	-0.16356428
25	0x3df8c86e	0.12147604
26	0xbda34b35	-0.07973329
27	0xbd983ac8	-0.07433087
28	0xbca79673	-0.020457482
29	0x3da32b6a	0.07967265
30	0x3e48693f	0.19571398
31	0x3dde20e2	0.10846116
32	0xbdd768de	-0.10518049
33	0x3d385829	0.04500595
34	0xbcf8e251	-0.030381354
35	0x3c4146cf	0.011796667
36	0x3d90b962	0.07066609
37	0x3d7c34d6	0.061573826
38	0xbdafaf83	-0.08578398
39	0x3cfd1305	0.030892858
40	0x3cc55cf8	0.024092183
41	0x3de9f441	0.11423541
42	0x3e5b9982	0.21445277
43	0x3e7fc560	0.24977636
44	0x3cba549d	0.022745425
45	0xbc077cea	-0.008269528
46	0x3db15d36	0.08660357
47	0xbe29dc2d	-0.16587897
48	0xbd109a17	-0.0353032
49	0x3e29803b	0.16552822
50	0x3e451fd5	0.19250424
51	0xbd83f3a3	-0.064429544
52	0xbdd3196d	-0.10307584
53	0xbc170810	-0.009218231
54	0x3e35fbdd	0.1777186
55	0xbd9f2c00	-0.07772064
56	0xbcb022ea	-0.021501023
57	0xbe263305	-0.162304
58	0x3e3b78ba	0.18307772
59	0x3e203001	0.15643312
60	0x3d9527b4	0.072829634
61	0x3dc00e51	0.09377731
62	0xbc69a642	-0.01426083
63	0x3d3cefae	0.046127014

net.2.weight f4 [64, 64]
0	0x3cffbead	0.031218851
1	0xbd838029	-0.06420929
2	0x3dda7dcf	0.10668527
3	0xbda9319f	-0.082614176
4	0x3dd893fc	0.10575101
5	0x3de15350	0.11002219
6	0x3d07d975	0.033166368
7	0x3df1daf2	0.11809339
8	0xbd6cb53e	-0.057790034
9	0x3d29320e	0.0413075
10	0xbd7ca53c	-0.061681017
11	0x3da5e096	0.08099477
12	0xbc545db4	-0.012961794
13	0xbd111e56	-0.03542932
14	0x3e09d00f	0.13458274
15	0xbdfe13a6	-0.124060914
16	0xbd98da9b	-0.07463571
17	0xbda7c18c	-0.08191213
18	0xb9d9b204	-0.00041522097
19	0x3d63156d	0.055440355
20	0x3e0e9aab	0.13926189
21	0xbcd39b53	-0.0258309
22	0x3c8f1c7d	0.017469639
23	0x3e117fc8	0.14208901
24	0xbd0160cf	-0.031586464
25	0xbd8e03bc	-0.06934306
26	0x3cfa8a04	0.03058339
27	0x3d22edcd	0.039777566
28	0xbc7b9109	-0.015354403
29	0x3dc9bf7d	0.098509766
30	0xbe13cc9b	-0.1443352
31	0xbdc73914	-0.09727684
32	0xbd8f8a1e	-0.07008766
33	0x3c5bb2da	0.013409341
34	0x3cd7db72	0.026349757
35	0x3cda0101	0.026611807
36	0x3da07929	0.078356095
37	0xbaefee6f	-0.0018305312
38	0xbd9b1aa5	-0.075734414
39	0xbe05afd6	-0.13055357
40	0xbb6bdad2	-0.0035988581
41	0xbd175a1b	-0.036951166
42	0xbda0f2ea	-0.07858832
43	0xbcd228b7	-0.02565418
44	0xbce75693	-0.028239524
45	0x3d43a3bc	0.04776357
46	0x3dd2e0e0	0.10296798
47	0x3dcf3629	0.10117752
48	0xbd0a60d4	-0.03378375
49	0xbd94ead8	-0.072713554
50	0xbcd27c70	-0.025694102
51	0xbd023aae	-0.031794243
52	0x3e1acaaf	0.1511638
53	0x3dbf249a	0.09333153
54	0xbdeadefc	-0.11468312
55	0x3e2aa586	0.16664705
56	0xbde4822b	-0.1115764
57	0x3e0e344d	0.13887139
58	0xbcd47aab	-0.025937399
59	0xbdd9408c	-0.106080145
60	0xbd8a3877	-0.06749051
61	0x3aafa910	0.0013401825
62	0x3cba63c1	0.022752644
63	0x3dcf5529	0.10123665
64	0xbd417abd	-0.047236193
65	0x3d98fb81	0.074698456
66	0x3d6ac5e2	0.057317622
67	0xbe16fe06	-0.1474534
68	0x3d5b1f05	0.05349638
69	0x3d3114ed	0.043232847
70	0x3e2e0faa	0.16998163
71	0x3d49f00b	0.04930119
72	0x3e2c9f28	0.16857588
73	0x3e0c2f72	0.13689974
74	0x3d213249	0.039354596
75	0x3c58bb74	0.013228286
76	0xbe120dce	-0.14263079
77	0x3d9a54b9	0.07535691
78	0x3dbcebdb	0.09224673
79	0x3e1ad6c0	0.15120983
80	0x3dd80272	0.105473414
81	0x3da99fcb	0.08282431
82	0xbe6b6799	-0.22988738
83	0xbd04440f	-0.03229147
84	0xbde1403c	-0.1099858
85	0xbd999dd0	-0.075008035
86	0xbaabc6be	-0.0013105494
87	0x3d1df507	0.038563754
88	0x3bc91d74	0.0061375443
89	0x3e21e047	0.15808211
90	0xbd6805ea	-0.056646265
91	0x3df458bb	0.119309865
92	0x3de2a4fd	0.11066625
93	0xbe12f09c	-0.14349598
94	0xbd9e21e2	-0.077213064
95	0xbc33168f	-0.010930671
96	0xbd8527b4	-0.065017134
97	0x3e089182	0.13336757
98	0xbdbc9810	-0.09208691
99	0xbc18c056	-0.0093232
100	0xbd8242ac	-0.06360373
101	0x3e8d3457	0.27578995
102	0xbded7a7d	-0.115956284
103	0x3e03b334	0.1286133
104	0xbe6be72d	-0.23037405
105	0xbd86a93a	-0.06575246
106	0xbd3b2741	-0.045691732
107	0xbded22d3	-0.11578908
108	0xbdc1803c	-0.09448287
109	0x3e25e840	0.16201878
110	0x3db2f12c	0.08737406
111	0x3e0547e1	0.13015701
112	0x3dc1ecf7	0.094690256
113	0xbce65118	-0.02811484
114	0x3e5fd1e0	0.21857405
115	0x3d1d779e	0.038444154
116	0x3d56450a	0.052311935
117	0x3e2469a3	0.16055922
118	0x3deb7d86	0.11498551
119	0x3e050ac4	0.12992388
120	0xbe366aff	-0.17814253
121	0x3d2672c8	0.040636808
122	0xbd0a91ca	-0.03383044
123	0xbdbd4b3f	-0.09242868
124	0x3d9d41d5	0.07678572
125	0x3cb79f38	0.022414789
126	0x3e3419a9	0.17587914
127	0x3c83b9d0	0.016079813
128	0x3c8ac089	0.016937511
129	0xbd9e98c5	-0.07743982
130	0x3da7178b	0.08158787
131	0xbd71e088	-0.05905202
132	0x3daf1ea2	0.085507646
133	0xbd94d6f8	-0.072675645
134	0x3e29c891	0.16580416
135	0x3e4a7afb	0.19773476
136	0x3cdc914e	0.026924755
137	0x3e20d4c0	0.15706158
138	0x3def7be3	0.116935514
139	0xbe40c26d	-0.18824168
140	0x3dac8ac9	0.08424909
141	0x3cfc06d7	0.03076498
142	0x3ced6331	0.028977962
143	0x3e1a9d2e	0.15099022
144	0x3e2b0ca3	0.1670404
145	0xbd512c90	-0.05106789
146	0xbe034847	-0.1282054
147	0xbdbc6bb3	-0.092002295
148	0x3d07b127	0.03312793
149	0x3da91e15	0.08257691
150	0xbdcf5d82	-0.10125257
151	0x3c038a2d	0.008028549
152	0xbcf4f2f8	-0.029901013
153	0x3dc00129	0.09375221
154	0x3d5e770c	0.05431275
155	0xbd4fcbf4	-0.050731614
156	0x3e558350	0.20850873
157	0xbde72761	-0.11286808
158	0x3d7f86de	0.06238448
159	0x3a13b9a8	0.000563527
160	0x3daa896a	0.08326991
161	0x3e630198	0.22168577
162	0xbe0075cb	-0.12544934
163	0xbd26c916	-0.040719114
164	0x3e09c2da	0.13453236
165	0x3e5f1dd0	0.21788716
166	0x3b62b50c	0.0034592776
167	0x3e0f6a6e	0.14005443
168	0xbda959c9	-0.08269078
169	0x3d9e6bf8	0.07735437
170	0x3d54e6b0	0.051977813
171	0x3d13d93d	0.036095846
172	0x3db90026	0.090332314
173	0x3d4ab08c	0.049484774
174	0x3c9ef454	0.019403614
175	0xbd5158e4	-0.051110163
176	0x3d9dfaee	0.07713877
177	0xbd3a206c	-0.045441076
178	0x3e06d6a9	0.13167824
179	0x3c8f533e	0.017495748
180	0x3def9950	0.11699164
181	0x3ddcfcda	0.10790415
182	0xbda8674b	-0.082228266
183	0x3e0154d5	0.12630017
184	0x3e19fd82	0.15038112
185	0xbc922286	-0.017838728
186	0x3d8362c0	0.064153194
187	0xbbad971d	-0.005297555
188	0x3e179d54	0.1480611
189	0xbde3c8df	-0.111222975
190	0xbd042fdd	-0.03227221
191	0x3dac6d51	0.08419288
192	0xbd102ad5	-0.035197098
193	0xbd94fe4e	-0.07275067
194	0xbd900098	-0.07031363
195	0x3df46b22	0.119344965
196	0xbc63351d	-0.013867644
197	0x3e0ee962	0.13956216
198	0xbcb21d0a	-0.021742363
199	0x3cb12dbe	0.021628257
200	0xbd5cf568	-0.053944975
201	0xbe103707	-0.14083491
202	0xbdb53f2f	-0.08849942
203	0x3d0e8c2e	0.034801655
204	0x3e521646	0.20516309
205	0xbe4076ba	-0.1879529
206	0xbd53d989	-0.05172113
207	0xbdeed650	-0.116619706
208	0xbdc96d62	-0.09835316
209	0xbd0c6071	-0.03427166
210	0x3ba80693	0.005127737
211	0x3d009aa4	0.031397477
212	0x3c5cca93	0.013476032
213	0x3cdd8864	0.027042575
214	0x3e1c4f00	0.15264511
215	0x3d8cacb7	0.0686888
216	0x3dbeb910	0.093126416
217	0xbdf121e5	-0.11774043
218	0xbcf15308	-0.029458538
219	0x3c8057fe	0.015666958
220	0x3cca222d	0.0246745
221	0xbb17cbb8	-0.0023162197
222	0x3ca929af	0.02064976
223	0xbde6c3a0	-0.11267781
224	0x3abf7382	0.0014606568
225	0x3cde8dc1	0.027167203
226	0xbd903944	-0.070421726
227	0x3e03b9ce	0.12863848
228	0xbdedf4e1	-0.116189726
229	0xbdaadad5	-0.0834252
230	0x3dbaacd7	0.09114998
231	0x3dc0f5ba	0.094218686
232	0x3e3b9488	0.18318379
233	0x3e19f0d4	0.15033275
234	0xbc5d54b5	-0.013508965
235	0x3d0c2e7d	0.034224022
236	0x3e3b9be3	0.18321185
237	0xbc38292b	-0.011240284
238	0x3ce9a3ab	0.028520426
239	0x3d286b97	0.04111823
240	0xbd3bf010	-0.04588324
241	0x3db42346	0.087957904
242	0xbd879c37	-0.066215925
243	0xbc9721c2	-0.018448714
244	0xbd2ebabd	-0.042658556
245	0x3dae6733	0.085157774
246	0x3e08c6c5	0.13357075
247	0xbd60bf6f	-0.054870065
248	0x3dc779c1	0.097400196
249	0x3cd9763b	0.026545634
250	0x3da39602	0.07987596
251	0x3df650d2	0.12027134
252	0xbd92b942	-0.071642414
253	0xbd2b5d6a	-0.041837133
254	0xbe0d26ea	-0.13784376
255	0x3da54066	0.08068924

net.2.bias f4 [64]
0	0xbd56ec4a	-0.052471437
1	0x3df4ff8c	0.11962804
2	0x3e18a2d1	0.1490586
3	0x3de2e5e4	0.110790044
4	0xbda1b9a8	-0.07896739
5	0xbc2ffa87	-0.010740883
6	0x3c9ec586	0.019381296
7	0xbcd1b4b0	-0.025598854
8	0x3c951933	0.018200492
9	0xbc9b4bde	-0.018957075
10	0x3de32a99	0.11092109
11	0xbd0a69d8	-0.033792347
12	0xbdaff8a3	-0.085923456
13	0xbd92b47a	-0.071633294
14	0x3d66bb07	0.056330707
15	0x3e02cd08	0.12773526
16	0xbe212b37	-0.15739141
17	0x3e44b8eb	0.19211166
18	0x3d83d9f9	0.06438059
19	0x3b863d4e	0.0040966636
20	0xbd69b51e	-0.057057492
21	0x3d4dd135	0.050248343
22	0xbd227629	-0.039663468
23	0x3dacea8e	0.08443175
24	0xbd45387d	-0.048149575
25	0xbd31de38	-0.043424815
26	0xbdcfae06	-0.10140614
27	0x3c483b4b	0.012221168
28	0x3de7d915	0.11320702
29	0xba934c5d	-0.0011237968
30	0x3e0b4632	0.13600996
31	0xbd87b9d5	-0.066272415
32	0x3e229e4d	0.158807
33	0xbbbf9a2c	-0.005847236
34	0xbdcd55d9	-0.1002614
35	0xbd637b10	-0.055537283
36	0xbd635ea1	-0.055510167
37	0xbdbf56a6	-0.09342699
38	0x3d810800	0.06300354
39	0x3e13b1f9	0.1442336
40	0x3dcee44f	0.1010214
41	0xbcb81cd8	-0.022474691
42	0x3e093dbb	0.13402455
43	0x3da150a9	0.07876713
44	0x3e30a437	0.17250143
45	0xbce9f39d	-0.028558547
46	0x3e100e80	0.14068031
47	0x3ba2a3e6	0.004963386
48	0x3de87850	0.11351073
49	0x3dccb1c4	0.099948436
50	0xbd67afbb	-0.056564074
51	0x3e256ee4	0.16155583
52	0xbaffb0ff	-0.0019507705
53	0x3e2828be	0.16421792
54	0x3dc67b5f	0.096915
55	0xbbdfec30	-0.0068335757
56	0x3e28949d	0.16462941
57	0x3d748d2c	0.059704944
58	0xbd8f4a47	-0.06996589
59	0x3d84023d	0.064457394
60	0xbd789c68	-0.060696036
61	0xbda2eb49	-0.07955033
62	0xbdd582ef	-0.10425364
63	0x3def84d9	0.116952606

net.4.weight f4 [64, 64]
0	0x3e2b81ff	0.16748808
1	0x3e485921	0.1956525
2	0x3e180ad0	0.14847875
3	0xbae4d44d	-0.001745829
4	0x3cfe29b6	0.031025749
5	0x3d095e2c	0.033537075
6	0xbe25bd12	-0.16185406
7	0xbe196e46	-0.14983472
8	0x3e594bec	0.21220368
9	0xbe01b342	-0.12666038
10	0x3e048e7a	0.12944975
11	0xbde49808	-0.1116181
12	0xbda08d69	-0.07839472
13	0x3e33bf45	0.17553432
14	0xbc45a026	-0.012062108
15	0xbe176101	-0.14783098
16	0x3b3b2c7f	0.0028560457
17	0x3ca92093	0.020645415
18	0x3c9bf67d	0.019038433
19	0xbda3c542	-0.07996608
20	0x3e4b778d	0.19869824
21	0x3e6b5e0c	0.22985095
22	0x3d48a32e	0.048983745
23	0x3b116652	0.0022186232
24	0x3e3ef319	0.18647422
25	0x3cf0d0ac	0.029396378
26	0xbdad1e8d	-0.08453093
27	0xbc9b70d8	-0.018974707
28	0x3e4778c2	0.19479659
29	0xbd8745e0	-0.066051245
30	0xbe402d4c	-0.1876728
31	0x3e65801d	0.22412153
32	0xbdb68a4d	-0.089130975
33	0xbd7534a1	-0.059864644
34	0xbe45771d	-0.1928372
35	0x3cde3fb2	0.027129982
36	0xbd00b64a	-0.031423844
37	0xbdb31201	-0.08743668
38	0xbd55f15a	-0.052232124
39	0x3db6ca63	0.08925321
40	0xbcf5db9f	-0.03001195
41	0xbe550983	-0.2080441
42	0xbbc6d242	-0.006067545
43	0x3e1bb06f	0.15204023
44	0x3e32e880	0.17471504
45	0x3d6f22dc	0.058382854
46	0xbc59cad8	-0.013292991
47	0xbcf7dff1	-0.03025815
48	0x3e1a2e39	0.15056695
49	0x3d2526cd	0.040320206
50	0xbd9105d2	-0.07081188
51	0xbd7412a8	-0.059588104
52	0xbc88b10d	-0.016685987
53	0x3e089b91	0.13340594
54	0x3db7b300	0.089696884
55	0xbb8d7469	-0.0043168557
56	0x3e05c347	0.13062774
57	0x3e428d02	0.18999103
58	0xbdaa2b55	-0.08309046
59	0xbd15f7b1	-0.03661317
60	0xbe28f2c6	-0.1649886
61	0xbdef0cff	-0.11672401
62	0xbc4c28e1	-0.012460918
63	0x3e047907	0.12936793
64	0xbd5f120f	-0.05446058
65	0xbd92d63a	-0.07169767
66	0x3c76fdc8	0.015075155
67	0x3d171eb9	0.036894534
68	0x3d58e419	0.052951906
69	0x3df1ac93	0.11800494
70	0x3e0bb487	0.13643084
71	0x3e6f5e60	0.23375845
72	0xbcc1ac93	-0.02364186
73	0x3e18ab27	0.1490904
74	0x3cc04774	0.023471572
75	0x3df553a9	0.119788475
76	0x3cccb644	0.024989255
77	0xbdb41701	-0.0879345
78	0x3e28207c	0.16418642
79	0x3e4a0006	0.19726571
80	0x3e499f0f	0.19689582
81	0x3ce0fbc0	0.027463794
82	0xbd67cce2	-0.056591876
83	0x3e428ee1	0.18999816
84	0xbe022bb0	-0.12711978
85	0xbe58321f	-0.2111287
86	0x3d11e0f6	0.03561493
87	0xbdd3346d	-0.10312734
88	0xbd2fc8e7	-0.042916205
89	0x3cc62363	0.024186796
90	0x3e0232fe	0.12714764
91	0x3e0a489e	0.13504264
92	0xbda58aa5	-0.08083085
93	0x3e65b9b3	0.2243412
94	0x3db2f4ef	0.087381236
95	0xbe28a3b4	-0.16468698
96	0x3db5360f	0.088482015
97	0x3e63ce0b	0.22246568
98	0x3d1de36a	0.038546957
99	0xbb829402	-0.003984929
100	0x3e7144ed	0.2356145
101	0xbc674f97	-0.014118097
102	0x3e30362b	0.17208163
103	0xbc9e0952	-0.019291554
104	0x3b03fc29	0.0020139313
105	0x3e15ed93	0.14641409
106	0x3dadcbb5	0.0848612
107	0xbdfa880e	-0.122329816
108	0x3da222be	0.07916783
109	0x3d804e07	0.062648825
110	0x3e0c0873	0.13675098
111	0x3c480708	0.012208708
112	0xbda180e0	-0.07885909
113	0x3e0ceb28	0.1376158
114	0xbd426339	-0.047457907
115	0x3db22cff	0.086999886
116	0x3dd97492	0.10617937
117	0xbdaa6998	-0.08320922
118	0xbe0f71cb	-0.14008252
119	0xbdcf74da	-0.101297095
120	0x3bd0ac00	0.0063681602
121	0xbc6d6f91	-0.014491932
122	0xbd439b54	-0.047755554
123	0x3dd1194b	0.102099024
124	0x3e560a11	0.20902278
125	0x3b7c8bce	0.0038535479
126	0xbcfe93cd	-0.031076336
127	0x3d0de267	0.034639742
128	0x3da6d1b4	0.081454664
129	0x3e24516b	0.16046683
130	0x3e26b043	0.16278176
131	0x3d555c2e	0.052089863
132	0x3e9085b7	0.28227016
133	0x3d552954	0.052041367
134	0xbdd5b151	-0.10434211
135	0xbd1f5859	-0.038902614
136	0x3e57bb15	0.2106746
137	0xbbb21d09	-0.00543559
138	0x3da7d526	0.08194952
139	0xbd943a69	-0.07237703
140	0xbe6a7f92	-0.22900227
141	0x3e60600d	0.2191164
142	0xbe0d2c98	-0.13786542
143	0xbe5e51ca	-0.21710888
144	0xbcc6f2e8	-0.024285749
145	0x3e2f6394	0.1712783
146	0x3d675b57	0.056483593
147	0xbda48e0f	-0.08034908
148	0x3e12b4fa	0.1432685
149	0x3e8a4f43	0.27013597
150	0xbdb4cf85	-0.08828644
151	0x3e2ec395	0.17066796
152	0x3e0b4884	0.13601881
153	0xbe10a8c8	-0.14126885
154	0x3c0dd711	0.008657233
155	0x3d9b0480	0.07569218
156	0x3e763c73	0.24046497
157	0xbe2c2714	-0.16811782
158	0x3c3b39ff	0.011427402
159	0x3de557a1	0.111983545
160	0xbd2485bb	-0.040166598
161	0xbd18bb5c	-0.037288055
162	0xbdc74fa1	-0.09731985
163	0x3de825ab	0.113353096
164	0xbda51866	-0.08061294
165	0xbd5b62f3	-0.053561162
166	0xbcdfa9b0	-0.027302593
167	0x3e69d3e6	0.22834739
168	0x3da1428a	0.078740194
169	0xbcf934d2	-0.030420695
170	0x3e4a7f60	0.19775152
171	0x3e07ae94	0.1325019
172	0x3da9c03a	0.082886174
173	0xbd534873	-0.051582765
174	0xbe31d520	-0.17366457
175	0xbe177b86	-0.14793214
176	0x3d8c478b	0.06849583
177	0xbe2e7c6f	-0.17039655
178	0xbdbf5b19	-0.093435474
179	0xbe43a33e	-0.1910524
180	0x3e33e0ad	0.17566176
181	0xbd01efef	-0.03172296
182	0x3e503c02	0.20335391
183	0xbd109ee7	-0.03530779
184	0x3c901cdc	0.017591886
185	0x3d3f2a21	0.046671037
186	0xbe03c17e	-0.1286678
187	0xbe1dbdd4	-0.15404445
188	0xbc43af18	-0.011943601
189	0xbe7510cb	-0.23932187
190	0x3d6009b2	0.054696746
191	0x3e24e939	0.16104592
192	0x3d615494	0.0550123
193	0xbb64dd76	-0.003492204
194	0xbdc20d63	-0.094752096
195	0x3dbf5c41	0.09343768
196	0xbd4b55fc	-0.049642548
197	0xbbf05091	-0.007333823
198	0x3e43e658	0.19130838
199	0x3df0afe2	0.11752297
200	0xbd896059	-0.0670783
201	0xbb955950	-0.004557766
202	0xbd58fefc	-0.052977547
203	0xbbe53a59	-0.006995481
204	0x3dee5633	0.11637535
205	0xbd748643	-0.059698354
206	0x3df40084	0.11914161
207	0x3de02ecd	0.109464265
208	0x3e568ff5	0.20953353
209	0xbd49002d	-0.049072433
210	0x3dc33978	0.09532446
211	0x3e27b153	0.16376238
212	0x3c5aae17	0.01334717
213	0xbe12fee3	-0.14355044
214	0x3df1b492	0.11802019
215	0x3bd72c33	0.0065665483
216	0xbda5ddd7	-0.08098953
217	0x3e0601ea	0.13086668
218	0x3e589038	0.21148765
219	0x3e4b0b84	0.19828612
220	0xbdc21ae5	-0.09477786
221	0xbba9d5bf	-0.005182951
222	0x3d53fe5e	0.051756255
223	0xbb06f3b9	-0.0020592047
224	0x3d971e69	0.07378847
225	0x3e211720	0.15731478
226	0x3d93fcde	0.07225965
227	0x3d7e333b	0.062060576
228	0x3e424ff3	0.1897581
229	0x3d87a5e6	0.066234395
230	0x3d23c427	0.039981987
231	0xbcbab5b0	-0.022791713
232	0x3dff85a8	0.12476665
233	0x3e4150bf	0.18878458
234	0x3dbd3f05	0.09240536
235	0xbe390d42	-0.18071464
236	0xbd42d56f	-0.047566827
237	0x3dbf76e2	0.09348847
238	0x3b2487c1	0.002510533
239	0x3e27c1de	0.16382548
240	0xbd5b3bec	-0.053523943
241	0x3d74ba56	0.059748016
242	0x3c978d5d	0.018500024
243	0xbc25c036	-0.010116627
244	0x3ce75f4f	0.028243689
245	0x3d743bec	0.05962746
246	0xbd5de1e4	-0.054170504
247	0x3d1bf6c9	0.03807715
248	0xbc106dca	-0.008815238
249	0xbdfe96da	-0.124311164
250	0x3e10780c	0.14108294
251	0xbd1d30d1	-0.038376633
252	0x3d1ff157	0.03904852
253	0x3d50c4a3	0.050968777
254	0xbccc1a91	-0.024915012
255	0x3da8ed3b	0.08248373

net.4.bias f4 [64]
0	0x3c3d8e27	0.011569536
1	0xbcdd1215	-0.026986161
2	0xbd82cb7e	-0.06386469
3	0xbd10cef1	-0.035353605
4	0x3cdf8e5b	0.02728956
5	0x3dcf7e98	0.10131568
6	0x3e08ac92	0.1334708
7	0x3d826022	0.06365992
8	0x3cf90359	0.030397104
9	0xbd359658	-0.044332832
10	0x3e185dca	0.14879528
11	0xbd5ba1ac	-0.05362098
12	0x3d8045f5	0.06263343
13	0x3e2938b4	0.16525537
14	0x3d4cc5ba	0.049993254
15	0x3d7f9630	0.06239909
16	0x3b643eaa	0.003482739
17	0xbd92596a	-0.07145961
18	0x3d014ff3	0.031570386
19	0x3c84fe34	0.016234495
20	0x3d37aae0	0.044840693
21	0x3d639b02	0.05556775
22	0xbb9c3243	-0.004766734
23	0x3d707f57	0.05871519
24	0x3dae5357	0.085119896
25	0xbc871441	-0.01648915
26	0x3dc57c2a	0.09642823
27	0x3d2362f4	0.03988929
28	0x3e1112f8	0.14167392
29	0x3e1dbd49	0.15404238
30	0xbbd67d06	-0.0065456657
31	0x3e218610	0.15773797
32	0x3d03327f	0.03203058
33	0xbce9171e	-0.028453406
34	0xbd94da3c	-0.072681874
35	0xbc1843af	-0.009293481
36	0x3cd3477f	0.025790928
37	0xbd858a67	-0.06520539
38	0xbc9364d3	-0.017992413
39	0x3e3a092b	0.1816756
40	0x3d28ce76	0.04121252
41	0xbd1f8c9c	-0.038952455
42	0xbd1dabc8	-0.0384939
43	0x3e07d08d	0.1326315
44	0xbc8b8357	-0.017030401
45	0x3d2dced4	0.042433575
46	0x3e09649f	0.1341729
47	0xbdaa13c9	-0.08304555
48	0x3d193585	0.037404556
49	0xbd92e028	-0.07171661
50	0x3d8d65f0	0.06904209
51	0xbcfe40ec	-0.031036817
52	0x3e22cfb0	0.15899539
53	0xbc7eb303	-0.015545609
54	0xbd37298e	-0.044717364
55	0x3d7cb7fa	0.06169889
56	0x3e1ba2e6	0.1519886
57	0x3e2ab312	0.16669872
58	0x3caabd6f	0.020842282
59	0xbda3a60c	-0.07990655
60	0x3d04a514	0.032383993
61	0x3e05eb53	0.1307805
62	0x3d2eee64	0.042707816
63	0xbd3770e3	-0.04478539

net.6.weight f4 [1, 64]
0	0xbe56c119	-0.20972098
1	0x3e06706b	0.13128822
2	0xbeab7070	-0.3348422
3	0x3e0ef725	0.13961466
4	0xbe709ca1	-0.23497249
5	0x3e0cd6e6	0.13753852
6	0x3e256b43	0.16154198
7	0xbe8687df	-0.26275536
8	0x3e1abddf	0.15111493
9	0x3e557f53	0.20849352
10	0x3e156e1b	0.14592783
11	0xbe375aa3	-0.17905669
12	0x3e40ae6f	0.18816541
13	0x3e2cca2d	0.16873999
14	0x3e3873ac	0.18012875
15	0x3e0f644d	0.14003105
16	0xbe96e686	-0.2947275
17	0x3e3881f9	0.1801833
18	0xbe7064b4	-0.23475915
19	0x3e322bbe	0.17399499
20	0xbea12683	-0.31474695
21	0xbe8dc0cd	-0.27686158
22	0x3e64c7fe	0.22341916
23	0x3e443162	0.19159463
24	0xbe323b4b	-0.17405431
25	0xbe5164aa	-0.20448557
26	0xbe8591d2	-0.26087815
27	0xbe6b9af3	-0.23008327
28	0x3e49bb35	0.1970032
29	0x3e44cf03	0.19219594
30	0xbe2b64be	-0.16737649
31	0xbe74851c	-0.23878902
32	0x3e40cda6	0.18828449
33	0x3e6f184c	0.23349112
34	0xbd34243c	-0.04397987
35	0x3defc172	0.11706819
36	0x3e0de339	0.1385621
37	0x3e0c0e45	0.13677318
38	0xbe7f8baa	-0.24955621
39	0x3e5d2833	0.21597366
40	0x3e58ddd5	0.21178372
41	0xbe42535e	-0.18977115
42	0xbe56520b	-0.20929734
43	0x3e0107e1	0.12600662
44	0xbe5b8d8f	-0.21440719
45	0x3de28dcf	0.11062204
46	0x3e0249bc	0.1272344
47	0x3e02577b	0.12728684
48	0x3de9559f	0.11393284
49	0x3e36b5a5	0.1784273
50	0x3e1749e8	0.14774287
51	0xbe4cfb05	-0.20017631
52	0x3e16c58d	0.14723797
53	0x3e08e7fa	0.13369742
54	0x3e36ecfc	0.1786384
55	0x3dd2e1cd	0.10296974
56	0xbe8137da	-0.25237924
57	0xbe37b59e	-0.17940375
58	0xbcb1f7ee	-0.021724667
59	0xbe8e4fe1	-0.27795318
60	0xbea6f212	-0.3260656
61	0x3e5e989c	0.21737903
62	0xbe4b2367	-0.19837724
63	0xbe87eb3a	-0.2654665
