wine_iterative/wine_models/30_train/copula_combined_final_model.pt (torch, 41189 bytes, 7 tensors)

net.0.weight f4 [64, 13]
0	0xbe1b9c0f	-0.1519625
1	0xbe003317	-0.12519489
2	0x3eb86c49	0.36020115
3	0x3db4cc75	0.088280596
4	0x3e7555e0	0.2395854
5	0xbdea1b4e	-0.11430989
6	0x3dc4c9f4	0.09608832
7	0xbed0b122	-0.40760142
8	0x3d0875b6	0.033315383
9	0x3cbae2fc	0.022813313
10	0xbd8f638a	-0.070014074
11	0xbde9943f	-0.11405229
12	0x3dfe9512	0.12430777
13	0x3c0e132b	0.008671562
14	0xbd6e07b9	-0.058112834
15	0x3d41f688	0.04735425
16	0xbe3ab08a	-0.18231407
17	0x3caa263c	0.020770185
18	0xbee61790	-0.44939852
19	0xbea83d0d	-0.32859078
20	0xbe6cf33a	-0.23139659
21	0x3e0d07ff	0.13772582
22	0xbdab6faa	-0.083709076
23	0x3e038ecd	0.12847443
24	0xbd99dc34	-0.075127035
25	0x3ecfc85c	0.4058255
26	0xbc916f59	-0.01775329
27	0x3d49bf0b	0.04925446
28	0xbdf6b82f	-0.12046849
29	0x3c89a399	0.016801642
30	0x3df790c8	0.12088162
31	0xbe6efbf9	-0.23338307
32	0x3e254c89	0.16142477
33	0x3c88dc46	0.016706597
34	0xbe22b8b5	-0.15890773
35	0x3dc9fb69	0.09862406
36	0xbe9fd96f	-0.31220576
37	0xbd40a3db	-0.047031265
38	0xbce2e5ee	-0.02769753
39	0x3d4a702c	0.04942338
40	0xbdaa3875	-0.083115496
41	0x3de01501	0.10941506
42	0x3e627c55	0.22117741
43	0xbd86908f	-0.06570541
44	0x3ec45999	0.38349608
45	0xbdf151a7	-0.11783152
46	0x3e5d97ff	0.21640013
47	0x3cde892f	0.027165024
48	0xbd7dcc64	-0.0619625
49	0xbc2c0e85	-0.010501509
50	0xbc7ad996	-0.015310666
51	0xbea988b5	-0.33112112
52	0xbbbea030	-0.0058174357
53	0xbe4528b3	-0.19253807
54	0xbded0b9b	-0.11574479
55	0x3ded3091	0.11581529
56	0x3d459aad	0.048243213
57	0xbf0123eb	-0.5044543
58	0x3e202c39	0.1564187
59	0x3e81e302	0.25368506
60	0x3daa3153	0.08310189
61	0xbe8b1313	-0.2716299
62	0x3e3bcdf0	0.18340278
63	0xbd6f34c6	-0.058399938
64	0x3ab436e9	0.0013749275
65	0x3e1021cc	0.14075392
66	0xbe8310af	-0.25598666
67	0x3df096dc	0.11747524
68	0xbe41b1a4	-0.18915421
69	0x3e349a69	0.17637028
70	0x3e38e932	0.18057707
71	0x3e3c3346	0.18378934
72	0xbde4dd41	-0.11175013
73	0x3e0bfcbb	0.13670628
74	0x3e3f2836	0.18667683
75	0xbe0488af	-0.12942766
76	0x3e31f466	0.17378387
77	0x3f0bf837	0.5467562
78	0x3dcc1b67	0.09966164
79	0x3e3e9e53	0.18615083
80	0xbe0aa1be	-0.13538262
81	0xbe61adb2	-0.22038916
82	0xbc4098de	-0.011755196
83	0x3eb2cefb	0.3492354
84	0xbe22675b	-0.1585974
85	0xbe948827	-0.29010126
86	0x3bade4fa	0.005306837
87	0xbe2dc6e2	-0.16970399
88	0x3ddf7a63	0.10912015
89	0xbe88c693	-0.26714
90	0xbc0ccf4d	-0.008594346
91	0xbe26e184	-0.16296965
92	0xbe194ea1	-0.14971401
93	0x3e3fe378	0.18739116
94	0xbe961c18	-0.2931831
95	0x3da9515f	0.082674734
96	0x3e1f7003	0.15570073
97	0x3e998e76	0.29991502
98	0x3dd87ed6	0.10571067
99	0x3e3532ca	0.17695156
100	0xbd8f5882	-0.069993034
101	0xbe3dc5c6	-0.18532476
102	0x3da0636e	0.07831465
103	0x3ea040cf	0.31299445
104	0x3e275274	0.16340047
105	0xbd1f7c02	-0.038936622
106	0xbe3d2b56	-0.18473563
107	0x3e50d8a9	0.2039515
108	0xbdee9bf1	-0.11650837
109	0x3e64da6a	0.22348943
110	0x3d525d9d	0.051358808
111	0x3e4edf36	0.20202336
112	0x3e3deab4	0.18546563
113	0xbea71926	-0.32636374
114	0x3d8321b0	0.0640291
115	0x3ec6fb9c	0.38863838
116	0x3e3eccbf	0.18632792
117	0xbdf6b7ab	-0.12046751
118	0x3ead1f1a	0.3381279
119	0xbe0f2664	-0.13979489
120	0x3de55d10	0.11199391
121	0xbd792b07	-0.06083205
122	0x3e2d0867	0.16897736
123	0x3e6a9004	0.229065
124	0x3d67b8b8	0.056572646
125	0x3da44956	0.080218
126	0x3d0ca330	0.034335315
127	0x3e1cc614	0.15309936
128	0x3da81e4d	0.082089044
129	0xbd8be329	-0.06830437
130	0x3d3c07c2	0.045905836
131	0xbe78047f	-0.24220465
132	0xbdd7e11f	-0.10540985
133	0x3c6fec63	0.014643761
134	0x3e746771	0.23867585
135	0x3e8e9f17	0.2785575
136	0xbe43c65b	-0.19118635
137	0x3c765531	0.01503496
138	0x3e84029f	0.2578325
139	0x3e545076	0.20733818
140	0xbc3adfbc	-0.0114058815
141	0x3e81cec7	0.2535307
142	0xbdc7ccb2	-0.097558394
143	0x3dc10ed3	0.094266556
144	0xbd868ff4	-0.06570426
145	0x3d544412	0.05182273
146	0xbc76ef65	-0.015071725
147	0x3e5b8b6d	0.21439905
148	0x3def6a8b	0.11690243
149	0xbdfe40ea	-0.12414725
150	0x3e29cdc3	0.16582398
151	0xbe2ed038	-0.17071617
152	0xbe461398	-0.19343412
153	0x3e14558e	0.14485762
154	0x3dead52a	0.11466439
155	0x3e971761	0.29510024
156	0xbdb5e21a	-0.08881016
157	0x3e52dd90	0.20592332
158	0xbe848cca	-0.25888664
159	0xbdcf6f42	-0.101286426
160	0xbe2e762c	-0.17037266
161	0x3ea78473	0.32718238
162	0x3e6f6581	0.23378564
163	0x3e784535	0.2424515
164	0xbe58dd74	-0.21178228
165	0x3d049bd5	0.032375176
166	0xbe05cdba	-0.1306676
167	0xbbd50a05	-0.0065014386
168	0xbe0a91d5	-0.13532193
169	0x3d11d286	0.03560116
170	0x3e83be6d	0.2573122
171	0xbdcea77e	-0.1009054
172	0xbe3a246e	-0.1817796
173	0xbd054cd1	-0.03254396
174	0x3ea95847	0.33075163
175	0xbe8156bf	-0.25261495
176	0xbe431598	-0.19051206
177	0x3da4ecb9	0.08052964
178	0xbc8743c6	-0.01651181
179	0x3d35e374	0.04440637
180	0xbe2935a0	-0.16524363
181	0x3e018eed	0.12652178
182	0x3cf653ab	0.030069193
183	0x3bcfb286	0.0063384203
184	0xbdd638e0	-0.10460067
185	0xbe5f4cfc	-0.21806711
186	0xbe472a51	-0.19449736
187	0xbedf5594	-0.43619978
188	0xbe598c70	-0.21244979
189	0xbe426342	-0.18983176
190	0x3ddf5495	0.109048046
191	0xbeff5628	-0.4987042
192	0x3e86d6f6	0.26335877
193	0xbe3e5abd	-0.18589301
194	0xbd4b5954	-0.049645737
195	0xbe2324fd	-0.15932079
196	0xbd3c83c0	-0.046024084
197	0xbd124833	-0.035713386
198	0x3cfa0787	0.030521167
199	0xbdda1148	-0.106478274
200	0xbbb95281	-0.005655587
201	0xbdf4df04	-0.11956599
202	0xbe162e25	-0.1466604
203	0x3e57303b	0.21014492
204	0x3e74fa6b	0.23923652
205	0x3e797b93	0.24363546
206	0x3d659151	0.056046788
207	0x3cdb96d8	0.026805326
208	0xbd762f67	-0.0601038
209	0xbeaeb48f	-0.3412213
210	0xbdf004ff	-0.11719703
211	0xbe11bd2b	-0.14232318
212	0x3dbbf1e0	0.09176993
213	0xbe659644	-0.22420603
214	0x3e2533e0	0.1613307
215	0x3ee9f544	0.45694935
216	0xbc9e646d	-0.019334996
217	0xbc1c7fa3	-0.009551915
218	0x3d6bc3eb	0.05755989
219	0x3d8a2731	0.067457564
220	0x3e660f83	0.22466855
221	0xbe351c2d	-0.1768653
222	0xbdc7c28a	-0.09753902
223	0x3cee09b1	0.029057356
224	0x3e12192c	0.14267415
225	0x3e2951ca	0.16535106
226	0xbe0ab2b3	-0.13544731
227	0x3e678866	0.22610626
228	0xbe7551b5	-0.2395695
229	0x3d1c9e1b	0.03823672
230	0x3e24e380	0.1610241
231	0xbe6ce147	-0.23132811
232	0x3ba27faf	0.0049590687
233	0x3dd5e34c	0.10443744
234	0x3d81a3a1	0.06330038
235	0x3e1d7ed2	0.1538041
236	0xbdb606fe	-0.088880524
237	0xbe39a0fe	-0.1812782
238	0xbd64b22f	-0.05583399
239	0xbd073eb1	-0.03301877
240	0xbde86bb0	-0.11348665
241	0x3eadedb0	0.33970404
242	0x3d977e0c	0.073970884
243	0xbe2fdd0b	-0.17174165
244	0xbe4028e1	-0.18765594
245	0xbe40da51	-0.18833281
246	0xbdd4479c	-0.10365221
247	0x3ddc9a9b	0.10771676
248	0x3e8a1377	0.26967975
249	0x3e3e15ca	0.18563
250	0x3e12581e	0.14291427
251	0xbdc5c1ce	-0.09656106
252	0x3e0565c3	0.130271
253	0xbdbf6d0c	-0.09346971
254	0xbe79f169	-0.24408497
255	0x3e2ddc14	0.16978484

net.0.bias f4 [64]
0	0x3d358c53	0.044323277
1	0x3e011a07	0.12607585
2	0xbe0e9a5a	-0.13926068
3	0xbe3c5566	-0.18391952
4	0xbcfce7d1	-0.030872257
5	0xbdc178a6	-0.0944684
6	0xbeaf8518	-0.3428123
7	0xbe1e9f7f	-0.1549053
8	0xbe7a5c12	-0.24449185
9	0x3d22de14	0.03976257
10	0xbdd2f382	-0.10300352
11	0xbe6a6973	-0.22891788
12	0xbd33bad7	-0.043879356
13	0x3d168278	0.03674552
14	0xbe2356c5	-0.15951069
15	0xbe14749c	-0.14497608
16	0xbe483b86	-0.19553956
17	0x3e5b9d84	0.21446806
18	0x3ecb72bc	0.39735973
19	0x3e10e312	0.1414912
20	0xbda4deba	-0.08050294
21	0xbdc6a299	-0.09698982
22	0xbe64e7ef	-0.223541
23	0x3e120f60	0.14263678
24	0x3e2d857d	0.16945453
25	0xbe1d62a1	-0.15369655
26	0xbdeabe36	-0.11462061
27	0xbe9109e3	-0.28327855
28	0xbe951fe7	-0.29125902
29	0xbdb9822a	-0.0905803
30	0x3d0a6746	0.033789895
31	0xbe3b6d03	-0.18303303
32	0xbe148c57	-0.1450666
33	0xbd8c73a7	-0.068579964
34	0x3ebd1abc	0.3693446
35	0x3cff5509	0.031168478
36	0x3e8402a4	0.25783265
37	0x3ece1882	0.40253073
38	0x3dce2ed7	0.10067528
39	0x3e2f6872	0.17129686
40	0xbe220229	-0.15821137
41	0xbe7ef826	-0.24899349
42	0xbec26a7d	-0.3797187
43	0xbed2ec00	-0.4119568
44	0xbe8aaaa5	-0.27083316
45	0xbc688571	-0.014191971
46	0xbeaa93d6	-0.33315915
47	0x3cb3782b	0.021907886
48	0xbe9ba1a7	-0.30396768
49	0xbe062987	-0.13101779
50	0x3df8e39d	0.12152789
51	0xbe85da9f	-0.26143357
52	0xbe51d604	-0.20491797
53	0x3b4a4881	0.003086597
54	0x3e38b180	0.18036461
55	0xbe2795d2	-0.16365746
56	0xbe60db54	-0.21958667
57	0xbe5a1eae	-0.21300766
58	0x3e45af37	0.1930512
59	0x3dc75501	0.0973301
60	0xbe865a1b	-0.2624062
61	0x3e0d5079	0.13800229
62	0xbdb26457	-0.087105446
63	0x3d7e93f7	0.06215283

net.2.weight f4 [64, 64]
0	0xbcf77ff3	-0.030212378
1	0xbdbdaf5e	-0.09261964
2	0x3a90ade5	0.0011038153
3	0xbbe8047d	-0.007080613
4	0xbdc0433b	-0.09387823
5	0xbd9551ba	-0.07290979
6	0xbc3bd64e	-0.011464668
7	0xbc111538	-0.008855157
8	0x3d169bf3	0.03676982
9	0x3d694ac9	0.056956086
10	0x3d3932ff	0.04521465
11	0x3d269662	0.04067076
12	0xbd244159	-0.040101383
13	0x3d6f9ef5	0.058501203
14	0xbd705722	-0.058676846
15	0xbde79aac	-0.11308798
16	0xbdb723ca	-0.08942373
17	0xbe5b6c62	-0.21428064
18	0xbb9819d0	-0.004641749
19	0xbceab715	-0.028651753
20	0xbcee7eb0	-0.029113144
21	0x3d5c75e9	0.053823385
22	0xbe14e2ed	-0.1453969
23	0x3d95f32f	0.07321774
24	0x3db80a46	0.089863345
25	0xbe3daaf7	-0.18522249
26	0xbdca3521	-0.09873415
27	0xbe5a7848	-0.21334946
28	0xbd8b3371	-0.06796921
29	0xbd2c91ef	-0.04213136
30	0xbd4079dc	-0.046991214
31	0x3d19bde2	0.037534602
32	0xbe8fbc87	-0.28073522
33	0xbe100c06	-0.14067087
34	0xbd8014b6	-0.0625395
35	0xbe5bb180	-0.2145443
36	0x3d78f88a	0.0607839
37	0xbe34b6b8	-0.17647827
38	0xbe4b923d	-0.19880004
39	0xbe2bfbc3	-0.16795258
40	0xbd88765b	-0.066631995
41	0xbbfa3889	-0.007636134
42	0x3e122ba7	0.14274465
43	0x3ca68b8e	0.020330217
44	0xbd887585	-0.0666304
45	0xbdb9b4fd	-0.09067724
46	0xbc42a768	-0.011880733
47	0xbe29cf2f	-0.1658294
48	0x3d494dc5	0.049146432
49	0xbda35791	-0.07975686
50	0x3d60a199	0.05484161
51	0xbd3e0ea7	-0.046400692
52	0xbe11c61d	-0.1423573
53	0x3c5ec62f	0.013597055
54	0xbd114e8e	-0.035475306
55	0xbdc8daee	-0.098073825
56	0x3d65ae1e	0.056074254
57	0x3cb0c0ab	0.021576246
58	0x3a4b9112	0.00077654526
59	0x3d4b214d	0.049592305
60	0xbe06ffb8	-0.13183486
61	0x3a6d7e92	0.0009059693
62	0x3d34b82c	0.044120952
63	0xbd5952bf	-0.05305743
64	0xbe493d83	-0.19652371
65	0xbe26e887	-0.1629964
66	0xbcaf673a	-0.021411527
67	0xbe0da128	-0.13831007
68	0xbdfa929e	-0.12234996
69	0x3cd555a6	0.026041817
70	0xbdf21de5	-0.11822108
71	0x3d8bf7bb	0.0683436
72	0x3e59c2ca	0.21265712
73	0xbe1aa2d2	-0.15101174
74	0x3d81ca03	0.06337359
75	0x3e374064	0.17895657
76	0xbe8c6c26	-0.2742626
77	0xbd86a18b	-0.065737806
78	0x3d1702b6	0.03686782
79	0xbd990397	-0.07471388
80	0x3bb86af5	0.0056279846
81	0xbdd38eeb	-0.10329994
82	0xbea60232	-0.3242355
83	0xbe1f6bc6	-0.15568456
84	0xbdddbd5f	-0.10827135
85	0xbdd6b67e	-0.10484026
86	0xbe8d1869	-0.27557686
87	0x3d01340e	0.031543784
88	0xbd8cf4d1	-0.068826325
89	0xbeb42b6d	-0.3518938
90	0xbe089fc7	-0.133422
91	0xbddbc26b	-0.10730442
92	0xbdc144af	-0.094369285
93	0xbebec727	-0.37261316
94	0xbe537aad	-0.20652266
95	0x3b00bfe1	0.0019645619
96	0xbdfb120f	-0.12259304
97	0xbe4d1740	-0.200284
98	0xbd753257	-0.05986246
99	0xbb69203f	-0.0035572199
100	0x3de1ef15	0.110319294
101	0xbeadd610	-0.3395238
102	0x3d460516	0.048344694
103	0xbdf3da23	-0.11906841
104	0xbd3ea4b6	-0.0465438
105	0xbde1e3e7	-0.11029797
106	0x3d49f795	0.04930838
107	0xbd487c70	-0.048946798
108	0x3da74b4c	0.081686586
109	0xbe3409b0	-0.1758182
110	0x3c480095	0.01220717
111	0x3d72f8fe	0.05931949
112	0x3da8791b	0.08226224
113	0xbd9f0db3	-0.07766285
114	0xbe3c72f7	-0.1840323
115	0x3d4c52b3	0.049883556
116	0xbd050d24	-0.032483235
117	0x3e8bace2	0.27280337
118	0x3e13e05d	0.14441057
119	0xbe42addf	-0.19011639
120	0x3e1c3003	0.1525269
121	0xbda299fb	-0.07939526
122	0x3e360186	0.17774019
123	0xbe7fa2ae	-0.24964401
124	0xbcf94bce	-0.030431654
125	0xbe9c544c	-0.30533063
126	0x3b4c625f	0.0031186563
127	0xbe0b08d5	-0.13577588
128	0xbd154584	-0.03644325
129	0xbdba32b4	-0.09091702
130	0xbdb87ef9	-0.09008593
131	0xbd132829	-0.03592697
132	0x3d139e45	0.03603961
133	0x3d50f71d	0.051016916
134	0xbca0363a	-0.019557107
135	0xbd6ed412	-0.058307715
136	0xbd4c560b	-0.049886744
137	0xbe600595	-0.2187713
138	0xbdbe2a82	-0.092854515
139	0xbd941be6	-0.07231884
140	0x3d8c9bed	0.06865678
141	0x3d4ee1c1	0.050508264
142	0xbe352dda	-0.17693272
143	0x3d1cfd07	0.038327243
144	0x3e30211e	0.17200133
145	0xbda69dda	-0.081355765
146	0x3c48592a	0.01222829
147	0xbe564978	-0.20926464
148	0x3d1e6f3f	0.03868031
149	0xbdd3231a	-0.103094295
150	0x3dcd87e2	0.10035683
151	0x3d08783e	0.033317797
152	0xbe407ed9	-0.18798389
153	0x3c9af0f1	0.018913718
154	0xbca3c53b	-0.019991508
155	0xbe27df26	-0.16393718
156	0xbcb6a1cd	-0.02229395
157	0xbd1decd7	-0.038555946
158	0x3d91423f	0.070927136
159	0x3dc65dcb	0.09685858
160	0x3d3a1075	0.04542585
161	0x3ca8620b	0.020554563
162	0x3bad238b	0.005283778
163	0xbe821186	-0.25403994
164	0xbdaccc60	-0.08437419
165	0xbe8026cd	-0.25029603
166	0x3d1b4750	0.037909806
167	0xbbb44522	-0.0055014053
168	0x3de5bc1e	0.11217521
169	0xbb429bd9	-0.0029694943
170	0xbd17a92d	-0.037026573
171	0xbd5eb543	-0.054372083
172	0xbe7fa559	-0.24965419
173	0xbc8d784b	-0.017269274
174	0x3e28c62d	0.16481848
175	0xbd8af899	-0.067856975
176	0x3dd58416	0.10425584
177	0x3cdf816b	0.027283391
178	0xba168ed9	-0.0005743332
179	0x3e7ec3f1	0.24879433
180	0x3e72b695	0.23702462
181	0xbe34430d	-0.17603703
182	0xbe6ca6a3	-0.23110442
183	0xbce39d81	-0.027785065
184	0xbe0d5777	-0.13802896
185	0xbda4f670	-0.08054817
186	0xbe69719b	-0.22797243
187	0xbe92d124	-0.28675187
188	0x3e2ba4fb	0.16762154
189	0xbe2acc89	-0.16679586
190	0xbe0bc8b1	-0.13650776
191	0xbaaa7a13	-0.0013006352
192	0xbdb72a39	-0.089436
193	0x3de0eca3	0.10982635
194	0x3da965bf	0.0827136
195	0x3d84b88c	0.06480512
196	0x3d85a968	0.06526452
197	0xbd2814fa	-0.04103563
198	0x3d74a142	0.0597241
199	0xbd151569	-0.03639737
200	0x3d3b0dc7	0.045667436
201	0xbd67e37f	-0.05661344
202	0xbe55f698	-0.2089485
203	0xbdb74ed8	-0.08950585
204	0xbc5775a7	-0.013150609
205	0x3e4c7903	0.19968037
206	0xbdf900bf	-0.121583454
207	0x3d48dc70	0.04903835
208	0xbe374127	-0.17895947
209	0x3d97c449	0.07410485
210	0x3e0e67ba	0.13906756
211	0xbcd22110	-0.025650531
212	0xbe22fe59	-0.15917338
213	0x3c22cf56	0.009937128
214	0x3d8e31ff	0.0694313
215	0xbdaa4d9d	-0.08315585
216	0xbc9fce70	-0.019507617
217	0x3d211725	0.039328713
218	0xbd8e2bad	-0.06941924
219	0xbe4f5481	-0.2024708
220	0x3e1e7fce	0.15478441
221	0xbd868568	-0.06568414
222	0xbea3f92a	-0.32026035
223	0xbe3ea266	-0.18616638
224	0x3bf72d63	0.0075432523
225	0x3e29d213	0.16584043
226	0x3dbb8baa	0.09157498
227	0xbd0b4d39	-0.034009192
228	0xbce7e77d	-0.028308624
229	0xbd965853	-0.07341065
230	0x3bf7c827	0.007561702
231	0x3ba64054	0.0050735865
232	0xbd386f03	-0.045027744
233	0xbdfc5ce4	-0.12322405
234	0xbebb80d7	-0.36621734
235	0xbdd12cb7	-0.10213607
236	0x3e726cd8	0.23674333
237	0xbebfce90	-0.37462282
238	0xbda48e1c	-0.08034918
239	0x3d810897	0.063004665
240	0xbc055c51	-0.008139686
241	0xbde48e8b	-0.111600004
242	0xbd3c7d45	-0.046017904
243	0xbe049ff5	-0.12951644
244	0xbe5f8297	-0.2182716
245	0xbe0f52c5	-0.13996418
246	0xbc74a803	-0.014932635
247	0x3e6c5e95	0.23082955
248	0xbd7e417c	-0.06207417
249	0x3b70a890	0.0036721565
250	0xbda200c1	-0.079103
251	0xbd2ffa3c	-0.04296325
252	0xbd764100	-0.060120583
253	0x3d582e2f	0.05277842
254	0x3d9de303	0.07709315
255	0xbced956e	-0.029001918

net.2.bias f4 [64]
0	0x3e292d5e	0.16521212
1	0xbd8b852e	-0.068125114
2	0xbb08da00	-0.0020881891
3	0xbe851eb7	-0.25999996
4	0xbd800b5f	-0.06252169
5	0xbd13003d	-0.0358889
6	0xbe4e13b6	-0.20124707
7	0x3eab6d02	0.33481604
8	0x3e05dc2e	0.13072273
9	0x3d6bb855	0.05754884
10	0x3dbfa22a	0.09357102
11	0x3eb19373	0.34682807
12	0xbe1ea2b2	-0.15491751
13	0x3da3e8f7	0.08003419
14	0xbdcce228	-0.100040734
15	0xbd7b4c64	-0.06135215
16	0xbd893b7a	-0.067007974
17	0x3ed4272d	0.4143614
18	0xbcb1d464	-0.021707721
19	0x3cd4ddd8	0.02598469
20	0xbdbfd8d4	-0.093675286
21	0xbe598bbe	-0.21244714
22	0xbd937104	-0.071992904
23	0x3eac19aa	0.3361333
24	0x3ea9326b	0.33046278
25	0xbde2a2c7	-0.110662036
26	0x3da886ce	0.08228837
27	0x3d39683b	0.045265418
28	0x3ec7e6ef	0.39043376
29	0x3e40f01d	0.18841596
30	0xbd06ba67	-0.03289261
31	0xbe6a40f4	-0.2287634
32	0xbdfa0a13	-0.12208953
33	0x3dc9da8d	0.098561384
34	0x3b83463d	0.004006176
35	0x3dad72a2	0.0846913
36	0xbd420a48	-0.047373086
37	0x3d66de6c	0.05636446
38	0x3da1d25f	0.07901453
39	0x3dd2b529	0.1028846
40	0x3e01bea7	0.12670384
41	0xbd5bb320	-0.053637624
42	0xbe1a7653	-0.150842
43	0xbdeaa70a	-0.114576414
44	0xbe328bc3	-0.17436127
45	0xbdae8870	-0.08522117
46	0xbd7b673d	-0.061377753
47	0x3d8c2347	0.06842666
48	0x3d8539ef	0.065051906
49	0xbe2c958c	-0.16853923
50	0x3c9fe008	0.019516006
51	0x3e3ae1fd	0.1825027
52	0x3ddbb9a6	0.10728769
53	0x3e9ef797	0.3104827
54	0x3e36be6b	0.17846076
55	0x3d8c2f24	0.06844929
56	0xbdd53ad7	-0.104116134
57	0xbe15c6a7	-0.14626561
58	0xbdc7f9b8	-0.09764427
59	0x3e9adf3f	0.30248448
60	0xbdf80780	-0.121108055
61	0x399caf76	0.00029885367
62	0x3e384da2	0.17998365
63	0x3dc7b0b3	0.097504996

net.4.weight f4 [64, 64]
0	0x3d2a2644	0.0415404
1	0xbd4a5c70	-0.04940456
2	0xbd8f3db6	-0.06994192
3	0x3d5dd5ec	0.05415909
4	0x3c58bd8c	0.013228785
5	0xbd447bcd	-0.047969628
6	0xbe002676	-0.12514672
7	0x3b1fc9c9	0.0024381748
8	0xbe26b93d	-0.162816
9	0x3d60e085	0.05490162
10	0xbe126ac3	-0.14298539
11	0x3da93f72	0.08264054
12	0xbda38b28	-0.07985526
13	0xbd008f9c	-0.031386957
14	0xbdc6ffe0	-0.09716773
15	0xba75032d	-0.00093464815
16	0xbe2cd38e	-0.16877577
17	0x3e320fb4	0.17388803
18	0xbe4a9fe5	-0.19787557
19	0x3d86eca7	0.065881066
20	0xbc6f79fe	-0.014616488
21	0x3bcaf4c9	0.0061937314
22	0xbe020d4d	-0.12700386
23	0x3d0e7ceb	0.0347871
24	0x3d7d1306	0.06178572
25	0xbdeb937b	-0.11502739
26	0xbe4ee4fd	-0.2020454
27	0x3dc807f5	0.09767143
28	0x3e353cfc	0.17699045
29	0x3d89cfe7	0.06729107
30	0xbdb8b108	-0.09018141
31	0x3cbb074f	0.022830633
32	0x3c97d06d	0.018532002
33	0xbd2c5ed4	-0.042082623
34	0x3ddd15f8	0.10795206
35	0xbeee719e	-0.46571058
36	0xbd8cc771	-0.06873978
37	0xbe7b1544	-0.24519831
38	0xbde59180	-0.112093925
39	0x3d8eef26	0.06979208
40	0xbdca287c	-0.09871003
41	0x3d53262a	0.051550068
42	0x3d8ec47d	0.06971071
43	0xbe351d4a	-0.17686954
44	0x3d8161b6	0.06317465
45	0xbde85874	-0.11344996
46	0xbc807ea4	-0.015685387
47	0x3db5ec5f	0.08882975
48	0xbd167e3c	-0.03674148
49	0xbd7cb430	-0.061695278
50	0xbe3900ad	-0.18066664
51	0x3d9b34c2	0.07578422
52	0x3d566351	0.05234081
53	0x3cdf3dae	0.02725109
54	0x3dc95dc4	0.098323375
55	0xbe3f7c94	-0.18699867
56	0x3de2582e	0.11051975
57	0xbe3f4967	-0.18680345
58	0x3b3f744e	0.002921361
59	0xbd91f1e2	-0.071262136
60	0xbdd05b1c	-0.10173628
61	0xbcaaf2ce	-0.020867731
62	0xbc156dda	-0.009120429
63	0x3de6b1a5	0.11264352
64	0x3dfe0fab	0.12405332
65	0x3dfc0213	0.12305083
66	0x3cfbae1f	0.030722676
67	0xbd49893c	-0.049203143
68	0x3dd04914	0.101701885
69	0xbde88210	-0.113529325
70	0xbdaf5bdc	-0.08562443
71	0x3e33cc3d	0.1755838
72	0x3cd4f3dd	0.02599519
73	0xbe0a30d0	-0.13495183
74	0xbe525b1b	-0.20542566
75	0x3d6b9c11	0.057521883
76	0x3d9e55fe	0.077312455
77	0xbda55b5a	-0.080740646
78	0xbc6a936c	-0.014317375
79	0xbdccd116	-0.100008175
80	0xbe2bf21b	-0.16791575
81	0xbc160d3b	-0.009158428
82	0xbdfd0aca	-0.123555735
83	0x3bf044cc	0.00733242
84	0xbd9bcf37	-0.076078825
85	0xbe098911	-0.13431193
86	0xbdc26f2a	-0.09493859
87	0x3d6ef6fd	0.058341015
88	0xbd44234a	-0.047885217
89	0xbd6c73cd	-0.057727624
90	0xbdf3813c	-0.11889884
91	0x3d9fc251	0.07800735
92	0xbcb86372	-0.022508357
93	0x3d3615aa	0.044454254
94	0xbd92f7c3	-0.07176163
95	0xbd538448	-0.051639825
96	0x3e4b5af7	0.19858919
97	0x3df6325e	0.120213255
98	0x3dd44c8a	0.10366161
99	0xbed0f229	-0.40809754
100	0x3d4142c0	0.0471828
101	0xbe945ae2	-0.28975588
102	0x3c04ea5a	0.008112514
103	0x3d3381ea	0.043825068
104	0xbd1e763f	-0.038686987
105	0x3d4195b9	0.047261927
106	0xbd7ebb92	-0.0621906
107	0xbe23088a	-0.15921226
108	0x3d05cbfd	0.03266524
109	0x3d796edb	0.060896736
110	0x3e0caefa	0.13738623
111	0xbd3515f8	-0.044210404
112	0xbbf6c869	-0.007531215
113	0xbddcc416	-0.10779588
114	0xbc5e6255	-0.013573249
115	0xbc43b3aa	-0.011944691
116	0xbdd3b772	-0.10337724
117	0x3ddf2ba5	0.108969964
118	0x3d8e3017	0.06942766
119	0xbe7948f0	-0.2434423
120	0x3dd75500	0.10514259
121	0xbe494e42	-0.19658759
122	0xbcc3fb71	-0.023923608
123	0x3e0ee0b4	0.13952905
124	0xbce1c806	-0.027561199
125	0xbdb7dd10	-0.08977711
126	0xbd4291af	-0.047502216
127	0xbd9ed976	-0.07756321
128	0xbce2063b	-0.027590862
129	0xbe600bbc	-0.21879476
130	0xbdd2fda9	-0.10302288
131	0x3c55de04	0.013053421
132	0xbd47608b	-0.048676055
133	0xbb422f7e	-0.0029630358
134	0x3cf5a4cd	0.02998581
135	0x3caacbce	0.020849135
136	0xbe0707b8	-0.13186538
137	0x3ca176cd	0.019709969
138	0xbd80d9f2	-0.0629157
139	0xbd33f794	-0.04393728
140	0x3d3ec4b7	0.04657432
141	0xbd0a0db3	-0.03370447
142	0xbd82c249	-0.06384713
143	0xbe112482	-0.14174083
144	0x3d2638c3	0.040581476
145	0xbe23fa68	-0.16013491
146	0xbdae41a6	-0.08508615
147	0x3dfc59c8	0.12321812
148	0x3c8bca8a	0.017064352
149	0xbd0e8d19	-0.03480253
150	0x3d55ab8d	0.052165557
151	0xbd5f30c8	-0.05448988
152	0x3d44e1c6	0.048066877
153	0x3d24ba26	0.040216587
154	0xbd3f30cc	-0.046677396
155	0x3b1165c2	0.0022185897
156	0x3cbf79ce	0.02337351
157	0xbd909088	-0.07058817
158	0x3d499e9d	0.04922353
159	0x3d2df5cf	0.04247075
160	0xbe23ce10	-0.15996575
161	0xbdda63d4	-0.10663572
162	0x3d50c1b3	0.050965976
163	0x3c74aaad	0.01493327
164	0x3c9ee9a8	0.019398525
165	0xbdcccb4d	-0.09999714
166	0x3d7fdccd	0.06246643
167	0x3ccd045d	0.025026495
168	0x3d1f5254	0.038896874
169	0xbd8bb61e	-0.068218455
170	0xbd8be009	-0.06829841
171	0x3a9c33b9	0.001191727
172	0xbd9b0c01	-0.07570649
173	0xbdf9d685	-0.121991195
174	0xbda9ed28	-0.08297187
175	0xbe118290	-0.14209962
176	0xbd80dd47	-0.06292205
177	0xbd72a434	-0.059238628
178	0xbc869bb5	-0.016431669
179	0xbc66a762	-0.014077993
180	0xbe171c50	-0.14756894
181	0x3ca56049	0.020187514
182	0x3d45cf5a	0.04829345
183	0xbd0e3afa	-0.034724213
184	0x3dc5f39b	0.09665605
185	0x3d639f8a	0.05557207
186	0xbecad279	-0.39613703
187	0xbd128fa3	-0.035781514
188	0xbdb7ab4a	-0.08968218
189	0x3d13ea64	0.036112204
190	0xbdd68151	-0.10473884
191	0xbd9a0c40	-0.07521868
192	0xbd4e3e18	-0.050352186
193	0xbe1b6f7c	-0.15179247
194	0xbdf1792d	-0.117906906
195	0xbdca3238	-0.0987286
196	0xbe177e44	-0.1479426
197	0xbd01b206	-0.031663917
198	0x3dfcf697	0.12351721
199	0xbb85b618	-0.004080545
200	0xbbd7a59b	-0.006581021
201	0x3d91c52e	0.07117687
202	0x3dc19bc6	0.094535396
203	0xbdd6a630	-0.104809165
204	0xbe0389ce	-0.12845537
205	0x3c95e98e	0.018299844
206	0xbdbbf9b0	-0.091784835
207	0xbd1978d3	-0.037468743
208	0x3dc612e6	0.09671573
209	0x3d224dae	0.039624862
210	0xbd4ef6ba	-0.050528266
211	0xbcccb3e1	-0.024988117
212	0xbddb3100	-0.107027054
213	0x3cc10358	0.023561165
214	0xbb3c16c3	-0.002870009
215	0x3dd6b0b5	0.10482923
216	0x3d8e4447	0.069466166
217	0x3d91ee7c	0.071255654
218	0x3cabbbeb	0.02096363
219	0x3c448eac	0.011996906
220	0x3d5fb3a5	0.05461468
221	0xbe2e06f5	-0.16994841
222	0x3d2ebe17	0.042661753
223	0xbc6ae439	-0.014336639
224	0x3b81764f	0.003950871
225	0x3dc7636f	0.09735762
226	0x3dfb8f8c	0.12283239
227	0xbd617e3f	-0.05505204
228	0x3d373bb3	0.044734668
229	0xbe6dc571	-0.23219849
230	0x3cf76325	0.030198643
231	0x3c1dc6f8	0.009629957
232	0xbdb47267	-0.08810883
233	0xbd5701a8	-0.052491814
234	0x3cc084b0	0.02350077
235	0xbbdf31a8	-0.0068113394
236	0xbd50d0eb	-0.05098049
237	0xbe1ceb37	-0.15324102
238	0xbd1613ed	-0.036640096
239	0xbd911609	-0.07084281
240	0xbe035462	-0.12825158
241	0xbc86310b	-0.016380807
242	0xbc143d7a	-0.00904786
243	0x3c3d4e6d	0.011554343
244	0xbdff124c	-0.12454662
245	0xbd4f9a76	-0.050684415
246	0x3dda747a	0.106667474
247	0xbc7e8335	-0.015534212
248	0x3d583b0e	0.052790694
249	0xbe143120	-0.14471865
250	0xbe8cf1c9	-0.27528217
251	0xbddf04f7	-0.10889619
252	0xbdd7d0ff	-0.1053791
253	0x3e088fb9	0.13336076
254	0xbdbc8125	-0.0920432
255	0xbde0eb9c	-0.10982439

net.4.bias f4 [64]
0	0x3e5e2024	0.21691948
1	0x3e4ba6bd	0.19887824
2	0xbe1f4fca	-0.15557781
3	0xbe65de2c	-0.22448033
4	0x3e94917e	0.29017252
5	0xbc84ec72	-0.016226027
6	0xbe31a78c	-0.1734907
7	0x3e12eba7	0.14347707
8	0xbe8349a4	-0.2564212
9	0xbe839d59	-0.25705984
10	0xbe0aa4a1	-0.13539363
11	0x3ec3b6d3	0.3822542
12	0x3eba43fe	0.3638
13	0x3d67fdf3	0.05663867
14	0x3e6a7134	0.22894746
15	0xbe815247	-0.25258085
16	0xbd9529c8	-0.0728336
17	0xbbe2a483	-0.006916584
18	0x3e70cc91	0.23515536
19	0x3e0a77b1	0.13522221
20	0x3e468862	0.19387963
21	0x3df07732	0.11741485
22	0x3d8fc703	0.0702038
23	0xbe439bdf	-0.19102429
24	0xbe390014	-0.18066436
25	0x3d93632b	0.07196649
26	0x3e5cfea7	0.21581517
27	0xbdcdda41	-0.10051394
28	0x3e46ff4f	0.1943333
29	0x3e2f4dfd	0.17119594
30	0xbe45f0fb	-0.19330208
31	0x3e920b2b	0.28524145
32	0xbe864781	-0.26226428
33	0x3e6f33e7	0.23359643
34	0x3e028c45	0.12748821
35	0x3e42a4b4	0.19008142
36	0x3e4774dc	0.19478172
37	0x3e6a3b36	0.2287415
38	0x3e810a89	0.2520335
39	0x3e0ad090	0.13556123
40	0xbccbcf74	-0.024879195
41	0x3d9726e8	0.07380468
42	0xbe131e49	-0.14367022
43	0xbcd77511	-0.026300939
44	0x3eaa92ad	0.3331503
45	0x3bbcf954	0.005767027
46	0xbd00cfeb	-0.031448286
47	0x3c6b06dc	0.014344897
48	0xbdaae366	-0.08344154
49	0x3e8ad243	0.27113542
50	0xbe1f7269	-0.15570988
51	0xbdd9d6d4	-0.10636678
52	0x3eab3f5b	0.33446774
53	0xbd9571e0	-0.072971106
54	0x3ed55b1f	0.41671082
55	0x3e4a8df9	0.19780721
56	0xbe2b9dfb	-0.16759484
57	0x3e083f7d	0.13305469
58	0x3e790f59	0.24322261
59	0x3e665e8d	0.22497006
60	0x3ec4a4f9	0.38407114
61	0xbcab2bfc	-0.020894997
62	0xbb8d2949	-0.0043079
63	0x3ea1ebea	0.316253

net.6.weight f4 [1, 64]
0	0x3e209764	0.15682751
1	0x3de36b72	0.11104478
2	0xbd08e944	-0.033425584
3	0xbd0fc595	-0.03510054
4	0x3e27228f	0.16321777
5	0xba35c9d4	-0.0006934677
6	0x3bab1dab	0.0052220426
7	0x3e226360	0.15858221
8	0xbe6605b8	-0.22463119
9	0xbc546dd6	-0.01296564
10	0xbd0ee536	-0.03488656
11	0x3e3db397	0.1852554
12	0x3e239ab6	0.15976986
13	0x3c4617d5	0.012090643
14	0x3db2f64a	0.08738382
15	0xbe02c52d	-0.12770529
16	0x3c79f436	0.015255978
17	0x3e3761d0	0.17908406
18	0x3df5a176	0.11993687
19	0xbdc47a19	-0.09593601
20	0x3d874e12	0.066066876
21	0xbe0c28f5	-0.13687499
22	0xbd99432d	-0.07483516
23	0xbd952612	-0.07282652
24	0xbd1df54b	-0.038564008
25	0xbd9273f1	-0.0715102
26	0x3e0a06dc	0.13479179
27	0x3be3cd8a	0.0069519924
28	0x3d288a33	0.041147422
29	0x3dfeb3bf	0.124366276
30	0xbd639b54	-0.055568054
31	0x3dc43b7c	0.09581658
32	0xbdc5a128	-0.09649879
33	0x3dda908c	0.106721014
34	0xbd9f7082	-0.07785131
35	0xbe86411d	-0.26221552
36	0x3d661db5	0.056180675
37	0x3e1c5e4b	0.15270345
38	0x3e145905	0.14487083
39	0xbe19eb98	-0.15031278
40	0x3bf086cb	0.0073402873
41	0xbca05333	-0.019570922
42	0x3a29edfb	0.00064823
43	0xbb014f85	-0.0019731235
44	0x3e05c85b	0.13064711
45	0x3d5d22c8	0.053988248
46	0xbe9eebd0	-0.31039286
47	0xbd4f65a5	-0.050634045
48	0xbd90cb89	-0.07070071
49	0x3dc414fa	0.095743135
50	0x3c229d93	0.009925264
51	0x3bbd3503	0.0057741418
52	0x3e336949	0.17520632
53	0xbd64f262	-0.055895217
54	0x3e8a96f5	0.27068296
55	0x3dadd0b3	0.08487072
56	0x3e68f389	0.22749151
57	0xbe199cb6	-0.15001187
58	0x3df5c9fa	0.120014146
59	0x3e121384	0.14265257
60	0x3e67cfeb	0.22637908
61	0xbd26ec3b	-0.04075263
62	0x3d0b91e3	0.034074675
63	0x3e51676f	0.20449613
