wine_iterative/wine_models/60_train/ctgan_final_model.pt (torch, 40985 bytes, 7 tensors)

net.0.weight f4 [64, 13]
-0.015021853 0.012552106 0.089765586 -0.22468509 0.11576865 0.23816666 -0.077001736 0.119473375
-0.089894325 -0.06058567 0.20228939 0.13360338 0.10440983 -0.06691055 0.086536534 0.18707502
0.10392755 -0.0066733467 0.07070617 0.034892596 -0.13980232 -0.17624833 0.0832391 0.076943435
0.103065334 -0.12158887 0.2925902 0.023949783 0.040604096 -0.16822171 -0.17333794 0.1866958
0.18397626 -0.23940173 0.0836706 0.101383224 -0.16089578 -0.20302829 -0.1533951 -0.27756566
0.14795668 0.011298717 -0.14210965 -0.06504298 0.37868845 -0.0698423 -0.26425877 -0.058106173
0.094738394 0.3044736 -0.21422613 -0.3481639 0.33796275 -0.020416608 -0.15100478 -0.065887205
0.19090205 0.292748 0.17460626 -0.12272913 0.06960682 -0.008865118 -0.091650344 0.3219519
0.3154752 0.47872943 0.063782915 0.12749411 0.006730284 0.13271284 0.34972692 0.16983047
0.015779203 0.17251113 -0.042006467 0.15362306 0.36713552 0.41114143 0.006255788 -0.12931274
0.20132111 -0.011691339 -0.012392085 0.059904676 0.04859322 0.037230432 0.018979937 -0.22864754
0.07120543 -0.20588519 0.068482555 -0.20215552 -0.23577122 -0.2434472 0.20103942 -0.044317193
0.16192052 0.26335508 -0.3765551 0.07230613 -0.56411046 0.016444439 -0.27628112 -0.2795013
0.028165875 0.09517412 -0.1075021 0.035860207 0.03156853 0.056263916 -0.19539279 0.03643732
0.25410238 0.05368113 0.04895447 0.07620446 -0.07627093 0.12068418 -0.3435676 -0.054577295
-0.04157432 0.054413196 -0.100463085 -0.13677393 0.21691953 0.15958391 -0.14566782 0.12787978
-0.22706379 0.21554314 -0.05495499 0.07865601 0.12983346 0.13739035 0.17075063 0.2037869
-0.1767369 -0.0024161164 0.030287825 -0.23741762 0.10769617 -0.20006734 -0.074875005 -0.07931857
-0.17551559 -0.04598329 -0.034184147 -0.019863525 -0.28614685 0.14023209 -0.07871646 0.09211724
-0.15120181 -0.16407964 -0.09693509 0.13139796 0.22852868 -0.10722357 -0.04648895 -0.16409236
0.2526068 0.15169014 0.049079534 0.1614437 0.20667613 0.20982407 -0.10361343 -0.16384366
-0.17161115 -0.22225563 -0.15013418 0.25698587 -0.20428352 -0.17551276 0.0038868552 -0.120248154
0.05067215 0.20931841 -0.3091199 0.35202256 0.48005953 0.19595997 -0.09605022 -0.035171717
0.10738708 -0.041923452 0.1891954 0.12238917 0.0066567603 -0.11269991 -0.11099909 0.13251117
0.17825088 0.12408814 -0.12624645 0.0537777 -0.04461245 0.057153556 0.1651082 -0.06372872
0.020210752 -0.1463161 -0.06600036 0.15722439 -0.17250225 0.2830736 -0.14041136 0.20287903
0.18407093 0.08609671 -0.010007287 0.055047255 0.09549918 -0.249098 -0.17530447 -0.27041858
0.24782427 0.039196078 0.19697845 0.29809937 -0.38518482 0.099950634 -0.034767393 0.1585441
0.035591036 -0.06495481 0.27271476 0.09125133 0.16412082 -0.061792154 0.11756566 0.10829218
-0.100696854 -0.039864667 0.42287472 -0.29395247 -0.14154384 -0.20099361 0.006079411 0.12494753
0.30999997 -0.1478712 0.08271463 0.28552288 -0.12236853 0.093275696 0.22430266 0.008656807
-0.20834416 -0.14330001 -0.2153355 0.1253271 -0.068085134 -0.0094802 -0.030140797 -0.10885028
00000000: 381e 76bc 59a7 4d3c 05d7 b73d d913 66be
00000010: 1d18 ed3d f6e1 733e 16b3 9dbd 75ae f43d
00000020: 841a b8bd ae28 78bd f324 4f3e 53cf 083e
00000030: d2d4 d53d 6608 89bd 113a b13d 9890 3f3e
00000040: f8d7 d43d 17ac dabb 65ce 903d 8aeb 0e3d
00000050: 5728 0fbe 717a 34be 4379 aa3d 8594 9d3d
00000060: eb13 d33d 9603 f9bd 62ce 953e 5632 c43c
00000070: 7b50 263d 5042 2cbe 807f 31be 2f2d 3f3e
00000080: 4664 3c3e ba25 75be 7e5b ab3d 02a2 cf3d
00000090: ddc1 24be a6e6 4fbe 9b13 1dbe 161d 8ebe
000000a0: f581 173e 411e 393c 3185 11be 4135 85bd
000000b0: 74e3 c13e 7b09 8fbd ed4c 87be bd00 6ebd
000000c0: 3406 c23d f7e3 9b3e 185e 5bbe 8a42 b2be
000000d0: 7409 ad3e bb40 a7bc ffa0 1abe dfef 86bd
000000e0: d47b 433e 11e3 953e fccb 323e 6959 fbbd
000000f0: 058e 8e3d 003f 11bc 2db3 bbbd e1d6 a43e
00000100: f785 a13e 061c f53e 9ea0 823d d18d 023e
00000110: b789 dc3b e0e5 073e 680f b33e 0ae8 2d3e
00000120: 6343 813c c2a6 303e f90e 2cbd 5d4f 1d3e
00000130: 30f9 bb3e 2181 d23e 5afd cc3b 8f6a 04be
00000140: 1f27 4e3e 088d 3fbc 2c08 4bbc 9b5e 753d
00000150: af09 473d f07e 183d d07b 9b3c 9522 6abe
00000160: 27d4 913d 91d3 52be 9540 8c3d db01 4fbe
00000170: 036e 71be 394a 79be 47dd 4d3e f285 35bd
00000180: 7ece 253e 7ad6 863e d4cb c0be 3c15 943d
00000190: 8b69 10bf 7db6 863c b874 8dbe cb1a 8fbe
000001a0: 1fbc e63c a6ea c23d 102a dcbd 27e2 123d
000001b0: 014e 013d fe74 663d 0c15 48be 4d3f 153d
000001c0: b519 823e bfe0 5b3d 7b84 483d 1511 9c3d
000001d0: ef33 9cbd 4429 f73d 18e8 afbe 718c 5fbd
000001e0: d649 2abd 5fe0 5e3d 97bf cdbd 770e 0cbe
000001f0: 2720 5e3e f769 233e f229 15be ebf2 023e
00000200: 6983 68be 57b7 5c3e 7c18 61bd 6716 a13d
00000210: 10f3 043e 0eb0 0c3e 41d9 2e3e 83ad 503e
00000220: 85fa 34be b557 1ebb 2c1e f83c 9b1d 73be
00000230: cf8f dc3d 74de 4cbe 1158 99bd c671 a2bd
00000240: 5cba 33be f958 3cbd ad04 0cbd d5b8 a2bc
00000250: d781 92be 0099 0f3e 1836 a1bd f7a7 bc3d
00000260: a6d4 1abe 7e04 28be e885 c6bd 308d 063e
00000270: 6c03 6a3e 0898 dbbd 326b 3ebd d407 28be
00000280: ae55 813e a954 1b3e 9f07 493d 7f51 253e
00000290: e8a2 533e 1fdc 563e 4733 d4bd a2c6 27be
000002a0: d5ba 2fbe fb96 63be c6bc 19be a793 833e
000002b0: b32f 51be 9eb9 33be 9cba 7e3b aa44 f6bd
000002c0: 9a8d 4f3d 9157 563e f744 9ebe 4d3c b43e
000002d0: 5dca f53e bba9 483e fab5 c4bd 3810 10bd
000002e0: c2ed db3d edb7 2bbd 70bc 413e 2ca7 fa3d
000002f0: f420 da3b 36cf e6bd 7e53 e3bd 02b1 073e
00000300: 6687 363e ec21 fe3d c046 01be 0146 5c3d
00000310: 8bbb 36bd d919 6a3d 2012 293e 3484 82bd
00000320: 0591 a53c e3d3 15be 322b 87bd 6eff 203e
00000330: 6ea4 30be 06ef 903e ffc7 0fbe 85bf 4f3e
00000340: 177d 3c3e 7953 b03d 9bf5 23bc 3b79 613d
00000350: 1395 c33d 8c13 7fbe 0483 33be 4e74 8abe
00000360: a5c5 7d3e 118c 203d b8b4 493e 7ba0 983e
00000370: f236 c5be ebb2 cc3d 4168 0ebd 6259 223e
00000380: e8c7 113d 0707 85bd 45a1 8b3e fae1 ba3d
00000390: 4a0f 283e c519 7dbd 44c6 f03d 4ac8 dd3d
000003a0: 273a cebd 2249 23bd 0983 d83e f080 96be
000003b0: def0 10be 45d1 4dbe cc35 c73b 7ee4 ff3d
000003c0: 51b8 9e3e 8c6b 17be 4a66 a93d 0e30 923e
000003d0: 5a9c fabd 5407 bf3d 99af 653e 48d5 0d3c
000003e0: 2c58 55be 3dbd 12be e980 5cbe bf55 003e
000003f0: 3870 8bbd d752 1bbc d5e9 f6bc e5ec debd

net.0.bias f4 [64]
-0.0040173866 -0.3253224 0.23420744 -0.24002315 -0.12863472 -0.3197072 -0.4043527 -0.26185173
-0.313574 0.061337642 0.19507131 0.2281874 0.2774884 0.19639121 0.058001895 0.0062625543
-0.13653378 -0.29046047 -0.04883759 -0.42957717 -0.0127176745 -0.3774437 -0.16228059 0.010086899
0.3102359 0.1672607 -0.28968468 0.12698282 -0.2704083 -0.40497062 -0.29497528 0.019441644
-0.12282356 -0.3231999 -0.17570376 -0.15945305 -0.16276033 -0.19079465 -0.30979747 -0.44068956
-0.027482912 -0.23011146 -0.20611338 -0.085138366 0.23036225 -0.07309191 -0.25010902 0.034456823
0.06349081 -0.3005039 -0.0027761788 -0.35886145 -0.1478923 0.20010905 -0.18663538 0.050641146
-0.35583043 -0.16035438 0.20132351 0.41418505 -0.3550794 0.04690647 -0.12141684 -0.1400335
00000000: 48a4 83bb a890 a6be 13d4 6f3e a1c8 75be
00000010: d2b8 03be aab0 a3be 5107 cfbe 6e11 86be
00000020: c58c a0be 2e3d 7b3d c6c0 473e f5a9 693e
00000030: f612 8e3e c71a 493e 6593 6d3d 1d36 cd3b
00000040: 83cf 0bbe 3cb7 94be ed09 48bd 8af1 dbbe
00000050: cb5d 50bc 4d40 c1be e22c 26be 8543 253c
00000060: 3dd7 9e3e 6446 2b3e 8d51 94be c907 023e
00000070: f572 8abe 4f58 cfbe 0007 97be 1544 9f3c
00000080: eb8a fbbd 757a a5be b0eb 33be a947 23be
00000090: a5aa 26be ac5f 43be c69d 9ebe 10a2 e1be
000000a0: d823 e1bc 57a2 6bbe 630f 53be 065d aebd
000000b0: 15e4 6b3e 36b1 95bd 4a0e 80be 9922 0d3d
000000c0: 7807 823d a6db 99be 8df0 35bb b0bc b7be
000000d0: 1471 17be 63e9 4c3e 581d 3fbe 176d 4f3d
000000e0: 682f b6be f033 24be c027 4e3e 1010 d43e
000000f0: f8cc b5be 0021 403d 64a9 f8bd f164 0fbe

net.2.weight f4 [64, 64]
0.06383443 -0.106228195 0.116869144 -0.053198427 -0.15870109 -0.3508314 0.16496597 -0.37136075
-0.13202062 0.16029969 0.036344808 0.009513957 0.08289849 -0.5089793 -0.041814234 -0.0044539697
0.1686413 -0.121873856 0.081468515 0.12719493 -0.06801216 -0.14831431 0.013330938 0.07774331
-0.081500515 0.07075497 -0.257716 0.037566867 -0.04366753 0.07295484 -0.02620754 0.036463317
0.06520738 -0.02179126 -0.11911489 -0.079204716 0.036673404 0.11618615 0.045884665 0.028924566
-0.010259715 -0.068970025 0.07246784 0.017655507 -0.023115646 0.13587217 -0.038316634 -0.03959818
0.11009851 0.019462252 -0.32959437 0.05580607 -0.22210681 -0.38274685 0.09660337 0.08791785
-0.1035262 0.052041624 -0.40099493 -0.040263645 -0.083437055 0.09166441 0.07839331 -0.038909487
-0.08926251 0.095676325 0.050193563 -0.022854185 -0.14261457 -0.23176952 -0.005689224 -0.012121459
0.047164135 -0.02332222 0.03684314 0.0057676276 -0.0697883 -0.12495501 -0.026928917 0.0074888435
0.08107675 -0.050021265 -0.19532876 0.060455754 -0.10059159 -0.092114426 0.10816293 -0.108874485
0.043333795 -0.08982156 0.05487423 -0.123012125 -0.009958112 -0.12752819 -0.18332894 -0.0033822705
0.054900035 0.07201577 -0.08025105 -0.0345233 -0.081032984 0.05020711 -0.13893567 0.01135823
-0.18616542 0.024311686 0.033790242 0.084374525 -0.042481966 0.06204802 -0.058006022 0.0429813
-0.11539317 -0.05092101 -0.0049155806 0.057096004 -0.0017025635 0.072134435 -0.14108324 0.054687846
0.07104954 0.027309304 0.066631235 -0.1643063 0.025896627 -0.12090564 -0.0270172 0.0377654
0.097752675 0.08854219 -0.15337141 0.10860783 0.047782913 -0.04944767 0.011702849 -0.024187688
0.12635513 -0.07028264 -0.13511583 -0.11183527 0.052721724 0.034233164 0.007081657 0.063106395
0.04074209 -0.03927713 0.05430525 -0.10361879 -0.011160022 -0.1060514 -0.024048118 -0.08222387
-0.02032836 -0.12648758 -0.08713074 -0.08155971 -0.09410398 -0.018868992 0.030433323 0.03512731
-0.054377552 -0.10118628 0.123294115 -0.10254762 -0.047141932 -0.16683753 0.014675944 0.09732963
-0.08298974 -0.029015046 0.1261375 0.068875395 -0.11714383 -0.05796718 0.011799549 0.027486583
-0.06886744 -0.087632954 -0.049735244 -0.059300847 0.06229633 -0.06035712 0.03318741 -0.06331757
0.08393633 -0.05434794 -0.022937601 -0.11907395 -0.0677139 0.005112322 -0.08310795 0.09915282
-0.08660804 -0.05994771 0.016930187 -0.040670864 -0.1686748 -0.25358927 2.8609737e-05 -0.1576043
-0.053797714 0.032099724 0.009267286 -0.043710623 -0.024657657 -0.04363933 0.06324421 0.044942137
0.056556497 0.08559723 0.018311618 0.02728359 0.124687955 0.033978544 -0.025315689 -0.08684967
0.095497414 -0.11268807 0.013072572 -0.048378207 0.046001118 -0.024013387 0.0066038948 0.06795893
-0.052902203 0.087788366 -0.046551727 0.16976354 0.0026989644 -0.08889044 -0.056310095 0.062029656
0.102829866 -0.108732186 0.09128587 -0.05119205 -0.06262722 -0.078368165 -0.06507482 -0.01956056
-0.024105668 0.045487784 -0.025740523 0.06942984 -0.039863683 -0.08948713 0.04089979 -0.00085829076
-0.053930208 -0.03270124 -0.028547551 0.0046969745 0.09368357 -0.050556693 0.056667805 0.07165453
00000000: a0bb 823d 2b8e d9bd 1759 ef3d 98e6 59bd
00000010: 8a82 22be 2ca0 b3be d7ec 283e ff22 bebe
00000020: 6a30 07be 9a25 243e 4bde 143d 6ee0 1b3c
00000030: afc6 a93d 784c 02bf 6745 2bbd 9bf2 91bb
00000040: 4eb0 2c3e 0099 f9bd f7d8 a63d 633f 023e
00000050: f649 8bbd b5df 17be 026a 5a3c e237 9f3d
00000060: bee9 a6bd fbe7 903d 5af3 83be b7df 193d
00000070: b9dc 32bd 5969 953d 32b1 d6bc 8f5a 153d
00000080: 728b 853d 9683 b2bc 82f2 f3bd 1536 a2bd
00000090: da36 163d 01f3 ed3d 8ff1 3b3d 36f3 ec3c
000000a0: 5d18 28bc 2840 8dbd 056a 943d 48a2 903c
000000b0: 065d bdbc 1322 0b3e e7f1 1cbd b431 22bd
000000c0: 547b e13d 4d6f 9f3c 98c0 a8be e894 643d
000000d0: f86f 63be 65f7 c3be fdd7 c53d 460e b43d
000000e0: 8b05 d4bd 9929 553d 354f cdbe 7eeb 24bd
000000f0: 0ce1 aabd 8dba bb3d ac8c a03d 8e5f 1fbd
00000100: 43cf b6bd f3f1 c33d c497 4d3d b338 bbbc
00000110: 8e09 12be fd54 6dbe ac6c babb 1599 46bc
00000120: 2e2f 413d 3e0e bfbc d5e8 163d 5efe bc3b
00000130: 2bed 8ebd 6ae8 ffbd 089a dcbc f964 f53b
00000140: 910b a63d 19e3 4cbd 4304 48be 74a0 773d
00000150: f702 cebd 7da6 bcbd 8784 dd3d 96f9 debd
00000160: c77e 313d 5ef4 b7bd cdc3 603d c8ed fbbd
00000170: 5927 23bc c096 02be 95ba 3bbe 15a9 5dbb
00000180: dcde 603d 017d 933d aa5a a4bd 4e68 0dbd
00000190: 9ff4 a5bd f8a5 4d3d 2745 0ebe df17 3a3c
000001a0: 26a2 3ebe 4d29 c73c a367 0a3d 8dcc ac3d
000001b0: 9201 2ebd 1126 7e3d b997 6dbd 290d 303d
000001c0: 4153 ecbd 8d92 50bd e112 a1bb 80dd 693d
000001d0: 8d28 dfba 38bb 933d 2078 10be 5d00 603d
000001e0: 6c82 913d c3b7 df3c f575 883d e93f 28be
000001f0: 2a25 d43c 609d f7bd 2d53 ddbc e4af 1a3d
00000200: 8e32 c83d 9c55 b53d 650d 1dbe c86d de3d
00000210: 04b8 433d a489 4abd 4ebd 3f3c 4225 c6bc
00000220: 3d63 013e 58f0 8fbd ce5b 0abe e409 e5bd
00000230: bcf2 573d 1338 0c3d 3f0d e83b ed3d 813d
00000240: 2ee1 263d 0ee1 20bd 2f6f 5e3d 1736 d4bd
00000250: 86d8 36bc 7a31 d9bd 8f00 c5bc fd64 a8bd
00000260: a987 a6bc f685 01be 9a71 b2bd c708 a7bd
00000270: 96b9 c0bd 2593 9abc 4e4f f93c a7e1 0f3d
00000280: ffba 5ebd c13a cfbd a081 fc3d 7d04 d2bd
00000290: e617 41bd 75d7 2abe 5f73 703c c254 c73d
000002a0: 86f6 a9bd f6b0 edbc 302a 013e 8b0e 8d3d
000002b0: 1be9 efbd fe6e 6dbd e552 413c 8b2b e13c
000002c0: 5f0a 8dbd e878 b3bd 2fb7 4bbd 72e5 72bd
000002d0: 702a 7f3d 0739 77bd 86ef 073d a4ac 81bd
000002e0: d0e6 ab3d f29b 5ebd a3e7 bbbc 0bdd f3bd
000002f0: 96ad 8abd 4485 a73b 8034 aabd a210 cb3d
00000300: 8e5f b1bd bb8b 75bd 2db1 8a3c 7e96 26bd
00000310: 16b9 2cbe 74d6 81be f1fe ef37 0663 21be
00000320: fe5a 5cbd 007b 033d d1d5 173c e909 33bd
00000330: dbfe c9bc 27bf 32bd 2e86 813d 3f15 383d
00000340: c9a7 673d 9a4d af3d 3f02 963c d681 df3c
00000350: 665c ff3d 162d 0b3d d962 cfbc 3dde b1bd
00000360: 2694 c33d 01c9 e6bd 572e 563c 3a28 46bd
00000370: ab6b 3c3d b9b7 c4bc 7c65 d83b 0d2e 8b3d
00000380: fbaf 58bd 63ca b33d 06ad 3ebd 7ed6 2d3e
00000390: 1ce1 303b 310c b6bd 6aa5 66bd cf12 7e3d
000003a0: 7798 d23d fbae debd 16f4 ba3d c1ae 51bd
000003b0: b342 80bd 7d7f a0bd f245 85bd 783d a0bc
000003c0: 4079 c5bc 6651 3a3d cadd d2bc 3b31 8e3d
000003d0: 1a48 23bd 0745 b7bd 8a86 273d ebfe 60ba
000003e0: ece5 5cbd bcf1 05bd 8edc e9bc 14e9 993b
000003f0: 2cdd bf3d 8914 4fbd 801c 683d 9cbf 923d

net.2.bias f4 [64]
0.21128859 -0.09427186 -0.034764245 0.28545937 -0.09936737 -0.058335092 -0.0067876363 0.047912043
0.13191704 -0.11134029 -0.08996048 0.3092837 0.18112211 0.14916661 0.10036454 0.030969253
-0.13063768 -0.1306971 0.2139354 -0.2674957 -0.11523629 -0.0272324 -0.0067662573 0.0012511023
-0.20710745 -0.122504435 0.028630355 0.03276328 0.12995039 0.05148357 0.24273694 0.37661508
-0.33141127 0.20808944 -0.10411279 -0.0999606 0.10642112 0.14639176 0.16391517 0.16394779
0.32869965 0.015552712 0.016122695 0.063029975 0.08751752 0.023222042 -0.02268469 -0.06659196
-0.24367258 -0.11161473 -0.07332848 -0.13317005 0.23436512 -0.025577487 0.06406263 0.073504925
0.30943456 0.07048048 -0.20664176 -0.065259986 0.12217835 0.30917653 0.10846774 -0.05941003
00000000: 095c 583e 9b11 c1bd f464 0ebd bb27 923e
00000010: 1f81 cbbd c7f0 6ebd d26a debb 6b3f 443d
00000020: 4315 073e 6106 e4bd 333d b8bd 6f5a 9e3e
00000030: 1378 393e 22bf 183e ed8b cd3d 3bb3 fd3c
00000040: e2c5 05be 76d5 05be e211 5b3e 32f5 88be
00000050: 0101 ecbd 7b16 dfbc 7bb7 ddbb 07fc a33a
00000060: fa13 54be 9be3 fabd 358a ea3c ca32 063d
00000070: b711 053e 70e0 523d 0890 783e b1d3 c03e
00000080: bdae a9be 6615 553e 1639 d5bd 25b8 ccbd
00000090: 51f3 d93d b9e7 153e 61d9 273e eee1 273e
000000a0: 524b a83e cdd0 7e3c be13 843c dc15 813d
000000b0: 633c b33d 273c be3c 3ed5 b9bc 5e61 88bd
000000c0: 4e85 79be 4396 e4bd 3e2d 96bd bb5d 08be
000000d0: 69fd 6f3e e187 d1bc 4533 833d c089 963d
000000e0: 356e 9e3e 1258 903d e699 53be 07a7 85bd
000000f0: a538 fa3d 634c 9e3e 5624 de3d ee57 73bd

net.4.weight f4 [64, 64]
0.032828737 -0.0041987575 -0.038188677 0.115862 0.12524095 -0.04900212 -0.07234118 0.0036189968
0.09297739 0.06883229 0.032976504 0.15795366 0.09055387 0.046620462 -0.06540886 0.011524135
-0.07773117 -0.2116805 0.012588139 -0.010107177 -0.026315259 0.033792485 0.03996114 -0.00979481
-0.08739657 -0.13224357 -0.33572996 0.00283453 0.0020627824 -0.3062354 0.04049696 -0.02369696
-0.049313594 -0.04564092 0.06321627 0.08755275 -0.040093277 -0.088429056 0.027576335 0.01204335
0.007292584 0.10596236 0.04721998 -0.02947762 -0.2989411 0.13504866 0.032910496 0.084138855
-0.086330846 0.06970543 0.099634424 0.07064183 0.039752003 -0.16507573 -0.11867358 -0.09659121
-0.005766726 0.11141708 -0.1455349 0.12524389 0.07062029 0.12017126 0.11209827 -0.08247384
0.14651632 0.087334596 0.053512357 -0.050971746 -0.07376616 0.05242371 -0.013344448 0.08944672
0.034887236 -0.09305016 -0.07171956 0.018317826 0.0279992 0.1238609 0.06970216 0.110108286
-0.20488505 -0.22068828 -0.033602808 -0.10056821 0.032609478 0.023792656 0.021747429 -0.22575563
-0.11322198 -0.051145945 -0.38815874 -0.013425657 -0.056831352 -0.38363475 0.12872887 0.09751262
-0.11926345 0.052300174 -0.14126973 -0.10598985 -0.021178281 0.065851055 0.11532156 0.0012586316
0.12896962 -0.07730456 0.018107599 0.09880441 -0.3071548 -0.057802025 -0.044254813 -0.054167856
-0.07797342 -0.05569586 -0.07832367 0.026130775 0.14161296 -0.30230808 -0.0654926 0.03601245
0.11982131 0.1466648 -0.09501365 -0.009009066 0.12302784 0.12081663 0.12129637 -0.008806292
0.11511735 -0.10249053 -0.11682104 0.04243467 -0.045836 -0.053072903 -0.0043110093 -0.029005514
-0.029443204 -0.06476491 0.021315297 -0.14907478 -0.08345744 -0.08174144 0.013956826 -0.100599095
-0.13269465 -0.227753 0.056639224 -0.0052311905 -0.008392319 0.1188128 -0.015898226 -0.10602366
0.034440406 0.14346316 -0.10803861 -0.0151180355 -0.08911355 -0.050737295 -0.052272636 -0.10819426
0.0012251419 0.03692446 -0.047024246 -0.0029594197 -0.078414366 0.108545214 0.11891086 0.072324306
-0.0037526619 0.010444149 -0.11123539 0.020634256 0.073080905 0.09578605 0.084422484 0.08765281
0.05971818 0.027372979 0.039048303 -0.0544062 -0.07994961 -0.043240562 -0.021398673 0.061567947
-0.01652205 -0.074730344 0.004164585 0.063094564 -0.016266065 0.07920009 -0.12250782 -0.117445335
-0.10339512 -0.093393125 -0.1364398 0.034253124 -0.09444162 -0.16999565 0.12453144 0.15372999
0.14637712 0.20212077 0.07193074 0.027455594 -0.2711576 -0.009441331 -0.026072998 0.032058228
0.021515643 0.16897888 -0.056192447 -0.13241465 0.10116433 -0.0864633 -0.0033485868 0.102692015
0.050141595 -0.07977863 -0.10449153 0.07419593 -0.054644983 -0.0971142 0.054096196 0.13496296
0.030822674 -0.3517374 0.016675929 -0.06499913 0.011257236 0.09460295 -0.2502999 0.11612153
-0.25491983 0.0009947576 0.053987864 0.039908785 0.11111734 0.1383251 -0.24865402 0.15486173
0.004762551 -0.076313384 -0.04079863 0.022833997 -0.08279879 0.02921348 0.13707156 -0.09451354
0.07105143 0.12803108 0.111948214 0.1188693 -0.25643584 0.09344996 -0.16783611 -0.10400501
00000000: 6d77 063d bb95 89bb bb6b 1cbd 0e49 ed3d
00000010: 2a3f 003e 72b6 48bd 9d27 94bd b12c 6d3b
00000020: ee6a be3d f2f7 8c3d 5f12 073d 9bbe 213e
00000030: 4f74 b93d 19f5 3e3d 15f5 85bd bacf 3c3c
00000040: 8531 9fbd c6c2 58be 7b3e 4e3c 9398 25bc
00000050: 1993 d7bc fd69 0a3d 4bae 233d 697a 20bc
00000060: f9fc b2bd dc6a 07be cce4 abbe 86c3 393b
00000070: bf2f 073b e3ca 9cbe 24e0 253d 2120 c2bc
00000080: 0dfd 49bd f9f1 3abd 8877 813d db4e b33d
00000090: d938 24bd 4b1a b5bd c4e7 e13c 7951 453c
000000a0: a1f6 ee3b cb02 d93d bd69 413d 0d7b f1bc
000000b0: cf0e 99be 324a 0a3e 28cd 063d fe50 ac3d
000000c0: 3ace b0bd b8c1 8e3d 220d cc3d aaac 903d
000000d0: ffd2 223d 9d09 29be 220b f3bd 9dd1 c5bd
000000e0: cef6 bcbb a32e e43d 1a07 15be ef3f 003e
000000f0: 5fa1 903d 591c f63d c793 e53d 0be8 a8bd
00000100: 6008 163e 7bdc b23d c62f 5b3d c0c7 50bd
00000110: b612 97bd 3eba 563d aca2 5abc d82f b73d
00000120: ebe5 0e3d 1591 bebd b4e1 92bd 440f 963c
00000130: 945e e53c c9aa fd3d 02c0 8e3d 7480 e13d
00000140: 63cd 51be 1cfc 61be 19a3 09bd b5f6 cdbd
00000150: 8491 053d d1e8 c23c aa27 b23c 7c2c 67be
00000160: ede0 e7bd 697e 51bd bebc c6be 49f7 5bbc
00000170: fec7 68bd c66b c4be 80d1 033e b2b4 c73d
00000180: 6540 f4bd b538 563d 03a9 10be 3511 d9bd
00000190: 137e adbc ebdc 863d b62d ec3d abf8 a43a
000001a0: 9d10 043e da51 9ebd 6356 943c f759 ca3d
000001b0: 6543 9dbe d1c1 6cbd 8944 35bd 1ddf 5dbd
000001c0: 87b0 9fbd 5821 64bd 2968 a0bd 3510 d63c
000001d0: fd02 113e 20c8 9abe fc20 86bd ca81 133d
000001e0: e064 f53d 4c2f 163e 8496 c2bd c39a 13bc
000001f0: 05f6 fb3d b66e f73d 3b6a f83d 4448 10bc
00000200: a5c2 eb3d 8ee6 d1bd df3f efbd facf 2d3d
00000210: 88be 3bbd f962 59bd 5e43 8dbb f99c edbc
00000220: e032 f1bc 77a3 84bd 6b9d ae3c 0fa7 18be
00000230: bceb aabd 0e68 a7bd 2cab 643c e606 cebd
00000240: 1be1 07be 1538 69be 88fe 673d 686a abbb
00000250: f07f 09bc 2054 f33d ff3c 82bc ef22 d9bd
00000260: 6211 0d3d 02e8 123e 5943 ddbd a3b1 77bc
00000270: 2a81 b6bd e9d1 4fbd d51b 56bd f494 ddbd
00000280: f194 a03a 1a3e 173d 7f9c 40bd d3f2 41bb
00000290: b697 a0bd f44c de3d 8987 f33d c41e 943d
000002a0: 38ef 75bb f01d 2b3c 61cf e3bd 2c09 a93c
000002b0: 71ab 953d 7a2b c43d b2e5 ac3d 5183 b33d
000002c0: 0d9b 743d 4c3d e03c 1df1 1f3d 09d9 5ebd
000002d0: 9fbc a3bd 041d 31bd 454c afbc ac2e 7c3d
000002e0: 4059 87bc 390c 99bd 1277 883b b937 813d
000002f0: 6940 85bc a833 a23d 61e5 fabd 2e87 f0bd
00000300: d2c0 d3bd e544 bfbd e0b6 0bbe 014d 0c3d
00000310: 9c6a c1bd 5713 2ebe 570a ff3d 656b 1d3e
00000320: e2e3 153e bff8 4e3e 6c50 933d 8eea e03c
00000330: 2bd5 8abe d0af 1abc 0a97 d5bc 7d4f 033d
00000340: 9341 b03c cd08 2d3e 0d2a 66bd b597 07be
00000350: 3f2f cf3d ac13 b1bd f773 5bbb 3150 d23d
00000360: 4661 4d3d fa62 a3bd a8ff d5bd 09f4 973d
00000370: 6bd3 5fbd cfe3 c6bd f993 5d3d bb33 0a3e
00000380: d57f fc3c ed16 b4be f59b 883c 441e 85bd
00000390: 4570 383c 31bf c13d 4f27 80be 20d1 ed3d
000003a0: da84 82be 8762 823a 6122 5d3d 6577 233d
000003b0: 7d91 e33d 18a5 0d3e 299f 7ebe 1394 1e3e
000003c0: 2c0f 9c3b 314a 9cbd 771c 27bd 5d0e bb3c
000003d0: 6992 a9bd 1c51 ef3c 7d5c 0c3e 5190 c1bd
000003e0: 6a83 913d 941a 033e 1b45 e53d bf71 f33d
000003f0: 8f4b 83be b162 bf3d 3bdd 2bbe 9400 d5bd

net.4.bias f4 [64]
0.26999882 0.32781944 -0.09525472 0.24353956 -0.105752885 0.26231986 -0.015828116 0.009043384
0.29745725 0.04623694 0.18269157 -0.06541672 -0.20835023 0.17612204 -0.3067533 0.3163852
-0.19743526 -0.26327306 0.32986546 0.14120315 0.4164028 0.19263242 -0.023527352 -0.32898816
-0.034893725 0.22080646 0.10197935 -0.3123529 0.3234102 0.09534897 -0.40317717 0.10602962
-0.34051564 0.27513018 0.294339 -0.35878584 0.019628156 -0.043402016 -0.066535644 0.29109862
0.13316488 0.28075838 -0.06330541 0.24036857 0.3460391 0.12370557 0.15533945 0.19050942
0.4003281 -0.12296274 0.24119323 0.32198465 -0.2936054 -0.015603293 0.008558746 -0.0059227105
0.07467596 0.36796984 0.3981361 0.024618277 -0.15714194 -0.3287866 0.23696862 0.27824697
00000000: 493d 8a3e f3d7 a73e e814 c3bd 6f62 793e
00000010: f894 d8bd ca4e 863e f7a9 81bc b42a 143c
00000020: 514c 983e f262 3d3d 8013 3b3e 34f9 85bd
00000030: c359 55be 5659 343e c50e 9dbe 3efd a13e
00000040: 782c 4abe bacb 86be 20e4 a83e 8f97 103e
00000050: bf32 d53e 6f41 453e 6fbc c0bc 2371 a8be
00000060: b9ec 0ebd 171b 623e 8dda d03d b8ec 9fbe
00000070: 0696 a53e 5246 c33d 3d6d cebe 0f26 d93d
00000080: 1158 aebe dddd 8c3e 9ab3 963e c7b2 b7be
00000090: 3acb a03c 50c6 31bd d743 88bd e10a 953e
000000a0: 605c 083e 90bf 8f3e 44a6 81bd 2e23 763e
000000b0: 092c b13e 5959 fd3d 4e11 1f3e e714 433e
000000c0: cef7 cc3e e4d3 fbbd 5cfb 763e 2cdb a43e
000000d0: 7253 96be f4a4 7fbc fc39 0c3c 4c13 c2bb
000000e0: b6ef 983d 8b66 bc3e 7fd8 cb3e 45ac c93c
000000f0: d1e9 20be b856 a8be e7a7 723e 6376 8e3e

net.6.weight f4 [1, 64]
0.07473711 0.13383003 0.0014508347 -0.13640885 0.018369673 0.27413934 -0.005881414 -0.01516377
0.08726171 -0.032333247 -0.14326788 -0.006162401 -0.0010986003 -0.14827216 -0.06682985 0.10606703
-0.034761872 -0.052791137 0.10818806 -0.031284843 0.19378136 -0.1332172 -0.036958154 -0.13930017
0.0017522423 0.0768881 -0.16119978 -0.16091247 0.0871036 0.102664374 -0.5469589 -0.1329953
-0.051887177 0.0744826 0.14333759 -0.061389 -0.076874904 -0.05012693 0.010752324 0.11413644
-0.14672638 0.14900179 1.440391e-06 0.11295962 0.18444037 -0.034604236 -0.094043806 -0.12773739
0.16931716 -0.00064852205 0.11334363 -0.37968785 -0.10956043 0.00782573 -0.25937673 -0.10924772
-0.0054978835 0.1765741 0.17229255 0.0018747514 -0.09032783 0.26164576 0.09142663 0.13282897
00000000: c50f 993d bd0a 093e ef29 be3a c3ae 0bbe
00000010: ff7b 963c fe5b 8c3e e0b8 c0bb 7671 78bc
00000020: 44b6 b23d de6f 04bd d1b4 12be f7ed c9bb
00000030: e9fe 8fba a8d4 17be 17de 88bd ac39 d93d
00000040: 7762 0ebd 853b 58bd b491 dd3d 8924 00bd
00000050: 9f6e 463e 176a 08be 6f61 17bd b4a4 0ebe
00000060: 7fab e53a 8277 9d3d 8e11 25be 3dc6 24be
00000070: 5f63 b23d b341 d23d 8005 0cbf ec2f 08be
00000080: a687 54bd 558a 983d 17c7 123e 0873 7bbd
00000090: 9770 9dbd e551 4dbd 842a 303c 5ec0 e93d
000000a0: 713f 16be ed93 183e 7553 c135 6057 e73d
000000b0: f0dd 3c3e 2cbd 0dbd 0a9a c0bd 97cd 02be
000000c0: 7a61 2d3e 9401 2aba b520 e83d 7266 c2be
000000d0: 3861 e0bd 7e37 003c 07cd 84be 45bd dfbd
000000e0: 9727 b4bb d7cf 343e 756d 303e 38ba f53a
000000f0: ccfd b8bd 6ff6 853e e33d bb3d 5104 083e
