wine_iterative/wine_models/60_train/tvae_combined_final_model.pt (torch, 41161 bytes, 7 tensors)

net.0.weight f4 [64, 13]
-0.3092374 -0.08246658 -0.08251557 0.273897 -0.4222448 -0.39114383 0.20766573 0.30043256
0.3423325 -0.21663198 -0.09554485 0.24275072 -0.114892356 -0.30677062 -0.18617973 0.013412475
0.056193966 -0.013243797 -0.21251157 0.04817178 -0.36040688 0.17815581 0.06987451 0.086455755
-0.31744847 0.07951978 -0.24962065 -0.12971623 0.2557669 0.0449936 -0.24348824 -0.097293206
0.1574516 0.14231269 -0.34054762 -0.4587828 -0.014307693 0.113246195 0.010515047 -0.22233775
0.08729856 -0.40281814 -0.15790714 -0.15131885 0.2249296 0.1449289 0.35174948 -0.03347553
-0.16110924 -0.27555656 0.056962684 0.052010827 -0.36000147 0.25844094 -0.16443884 0.08562622
0.29333368 0.0291246 0.094044544 -0.049641337 0.140261 -0.15569228 -0.1623858 0.12732536
-0.044356804 0.29888582 0.052589092 -0.23150618 -0.09197893 0.056427807 -0.032608952 0.38206545
0.21566245 0.08080095 0.06403774 0.013593958 0.15860434 -0.12824802 -0.07323501 0.22568373
-0.045857117 0.24279772 0.13120802 -0.17756961 0.20605533 0.15096489 -0.36719435 0.10867586
-0.121851936 -0.24343497 0.2230361 -0.0539633 0.06620688 -0.29337823 -0.3115617 -0.056221668
-0.0857739 -0.25802696 -0.26254505 -0.104772374 0.3434341 -0.21384023 -0.11966662 -0.08553745
-0.10673564 0.22674082 -0.0931204 -0.3144633 0.37905428 -0.34347504 -0.02267329 0.17298688
-0.18211879 0.06448618 0.17336108 -0.07258268 -0.12912251 0.03570853 -0.157719 0.2627779
0.30090138 0.0019179699 0.32971805 0.05490125 0.28764144 -0.20755808 -0.22093506 -0.03817458
0.17383339 -0.08700765 0.26360726 0.059751704 -0.061962705 -0.02746427 0.33186948 -0.019742789
-0.19831733 0.08738189 0.04295339 0.1651449 0.16992524 0.07731763 0.06261936 -0.06833718
-0.038816918 -0.09904277 0.020671759 -0.25292856 0.19524495 0.18972556 -0.22221595 -0.10252948
-0.025706308 -0.012489616 -0.30747452 -0.1619005 0.023791369 -0.14770381 0.2727461 -0.35663733
0.22571419 0.16832972 0.23830794 -0.23203176 -0.011656379 0.19471696 0.33815834 0.06442185
0.35947046 -0.00043069964 0.14534149 0.37039343 -0.012580036 0.21041426 -0.28829968 0.10301467
-0.0041438974 0.042405866 -0.32708988 0.024411619 0.14882766 0.049205597 -0.24773316 0.21914229
0.19715932 -0.30372903 -0.117898636 -0.058628928 0.11754382 -0.1299498 0.158362 -0.66463125
0.05931527 -0.13282363 0.21312329 -0.05803209 -0.26502103 -0.08852849 -0.015106551 0.39303678
-0.22071074 0.11608642 0.24462245 0.43092608 0.10684802 0.34682435 -0.13019562 -0.15938435
0.20493573 0.22887243 0.19812709 -0.12307003 0.15298173 0.12673531 -0.10492168 -0.10982808
0.0520763 -0.09315823 -0.5699401 0.18797262 0.2431647 -0.062976584 0.1251363 0.17892101
-0.14423047 -0.10363234 -0.13096972 0.07836378 0.07150781 -0.21213195 0.24727808 -0.09057144
0.06829823 0.25945014 -0.22642879 -0.31624192 -0.053098578 0.31305888 0.17294589 -0.30996865
0.10681172 -0.03412268 0.2521566 -0.18153033 0.13108899 0.2071921 0.169361 -0.121984676
0.11448991 0.20278507 -0.11281001 0.3878425 -0.1983726 -0.005167159 0.06534699 0.2191878
00000000: 5d54 9ebe 3de4 a8bd ecfd a8bd 3a3c 8c3e
00000010: 7830 d8be 0144 c8be 53a6 543e 4cd2 993e
00000020: 3546 af3e c6d4 5dbe 05ad c3bd a593 783e
00000030: af4c ebbd 0a11 9dbe e6a5 3ebe ffbf 5b3c
00000040: a52b 663d 83fc 58bc a29c 59be c64f 453d
00000050: 4087 b8be 7a6e 363e 5e1a 8f3d b70f b13d
00000060: 9b88 a2be 44db a23d 8e9c 7fbe 55d4 04be
00000070: e1f3 823e 364b 383d fb54 79be a941 c7bd
00000080: fe3a 213e 6bba 113e 425c aebe 94e5 eabe
00000090: d06a 6abc 9fed e73d 4e47 2c3c 82ac 63be
000000a0: 96c9 b23d 2e3e cebe 69b2 21be 54f3 1abe
000000b0: f253 663e 3e68 143e 8218 b43e a31d 09bd
000000c0: d2f9 24be c015 8dbe b451 693d 4e09 553d
000000d0: 1d52 b8be 5f52 843e a862 28be cd5c af3d
000000e0: d52f 963e b796 ee3c 6d9a c03d b754 4bbd
000000f0: 94a0 0f3e cc6d 1fbe 7748 26be 9461 023e
00000100: 7baf 35bd 9007 993e a967 573d f50f 6dbe
00000110: 735f bcbd d820 673d f790 05bd 159e c33e
00000120: 9ed6 5c3e f87a a53d 3826 833d 31b9 5e3c
00000130: 2d69 223e 7353 03be 3dfc 95bd a319 673e
00000140: acd4 3bbd f79f 783e 655b 063e cfd4 35be
00000150: 2b00 533e 8a96 1a3e e600 bcbe 7391 de3d
00000160: 828d f9bd 0447 79be 9363 643e 9f08 5dbd
00000170: 7997 873d ac35 96be 0485 9fbe b148 66bd
00000180: 3aaa afbd 1c1c 84be 4e6c 86be e692 d6bd
00000190: 98d6 af3e eff8 5abe c613 f5bd 422e afbd
000001a0: 3798 dabd bf2e 683e e9b5 bebd 5501 a1be
000001b0: 6713 c23e f6db afbe 56bd b9bc 7923 313e
000001c0: 597d 3abe 5511 843d 9185 313e 3aa6 94bd
000001d0: b138 04be 1c43 123d 1781 21be d38a 863e
000001e0: bf0f 9a3e 6464 fb3a ced0 a83e 22e0 603d
000001f0: bd45 933e 1b8a 54be cd3c 62be f35c 1cbd
00000200: 6101 323e 1131 b2bd 88f7 863e 34be 743d
00000210: 9bcc 7dbd c0fc e0bc ccea a93e a1bb a1bc
00000220: b313 4bbe 47f5 b23d e5ef 2f3d bf1b 293e
00000230: e200 2e3e b558 9e3d 943e 803d 5df4 8bbd
00000240: 7dfe 1ebd f0d6 cabd d257 a93c da7f 81be
00000250: 4bee 473e 6b47 423e 948c 63be fafa d1bd
00000260: 0996 d2bc 3fa1 4cbc 4d6d 9dbe 3fc9 25be
00000270: 1ee6 c23c ab3f 17be 60a5 8b3e 2b99 b6be
00000280: 9f21 673e a05e 2c3e ff06 743e bc99 6dbe
00000290: 66fa 3ebc e263 473e 1723 ad3e 9aef 833d
000002a0: 830c b83e 87cf e1b9 66d4 143e 35a4 bd3e
000002b0: 7f1c 4ebc d676 573e 049c 93be 5bf9 d23d
000002c0: 88c9 87bb c6b1 2d3d 5378 a7be e0fa c73c
000002d0: 4766 183e cf8b 493d c3ad 7dbe d666 603e
000002e0: 22e4 493e 5f82 9bbe d774 f1bd e324 70bd
000002f0: d0ba f03d 8f11 05be a629 223e 4625 2abf
00000300: 92f4 723d eb02 08be fe3c 5a3e 0fb3 6dbd
00000310: d6b0 87be 6d4e b5bd 7881 77bc 1e3c c93e
00000320: ff01 62be b8be ed3d 4f7e 7a3e 58a2 dc3e
00000330: 22d3 da3d f692 b13e 0052 05be a735 23be
00000340: acda 513e 895d 6a3e d4e1 4a3e 240c fcbd
00000350: 3ea7 1c3e e7c6 013e 2ee1 d6bd 8bed e0bd
00000360: f54d 553d bec9 bebd 98e7 11bf e57b 403e
00000370: 2b00 793e def9 80bd bb23 003e 1237 373e
00000380: 27b1 13be 313d d4bd ed1c 06be 317d a03d
00000390: b072 923d 1e39 59be 7736 7d3e 857d b9bd
000003a0: f1df 8b3d a6d6 843e f3dc 67be 76ea a1be
000003b0: e57d 59bd 4149 a03e ba18 313e 36b4 9ebe
000003c0: 1ac0 da3d 39c4 0bbd ab1a 813e 16e3 39be
000003d0: 313c 063e 2a2a 543e f86c 2d3e 1ad3 f9bd
000003e0: b079 ea3d e4a6 4f3e ef08 e7bd 4b93 c63e
000003f0: 3022 4bbe 4551 a9bb a5d4 853d c472 603e

net.0.bias f4 [64]
-0.21809855 0.108305946 -0.20366801 -0.038320426 -0.3503363 -0.00077007525 -0.2852373 -0.2812647
-0.24918655 -0.32596684 0.035213042 -0.15527496 -0.16388531 -0.03319477 -0.120160714 -0.23881714
-0.26861256 0.17726389 -0.08831788 -0.22049807 -0.35210478 -0.059989844 -0.10647819 -0.1566248
-0.25488454 -0.11027241 0.057372518 0.043524217 -0.12801933 -0.20214336 -0.14017677 -0.0969232
0.05946673 -0.38737583 0.054143555 -0.031304087 0.07651854 -0.35357162 0.17111732 -0.30132866
0.06386471 -0.38294548 -0.2939587 -0.054173913 -0.32235494 -0.051104933 -0.0051504136 0.07116621
-0.26285255 -0.34321705 -0.37655392 0.09300741 -0.053788796 -0.1975622 -0.039138485 -0.01446571
0.06638054 -0.04729004 -0.26817814 -0.21041347 0.16525748 -0.35801426 -0.13738884 -0.14856847
00000000: 3a55 5fbe 82cf dd3d 598e 50be e1f5 1cbd
00000010: 485f b3be e0de 49ba a00a 92be ed01 90be
00000020: c22a 7fbe 20e5 a6be 8d3b 103d 6600 1fbe
00000030: 8dd1 27be 3df7 07bd d216 f6bd 7b8c 74be
00000040: 9687 89be aa84 353e 01e0 b4bd 3fca 61be
00000050: 1447 b4be e9b7 75bd 3d11 dabd 4062 20be
00000060: 3a80 82be 80d6 e1bd 72ff 6a3d 7346 323d
00000070: 8017 03be abfe 4ebe 808a 0fbe ac7f c6bd
00000080: 6393 733d 2056 c6be a2c5 5d3d b738 00bd
00000090: c1b5 9c3d 5707 b5be 6139 2f3e c047 9abe
000000a0: 80cb 823d 6e11 c4be c181 96be 77e5 5dbd
000000b0: b50b a5be 6853 51bd cdc4 a8bb 97bf 913d
000000c0: 9c94 86be 25ba afbe adcb c0be ab7a be3d
000000d0: a451 5cbd bf4d 4abe ad4f 20bd 9601 6dbc
000000e0: 85f2 873d 33b3 41bd a54e 89be a176 57be
000000f0: 4239 293e a54d b7be a9af 0cbe 5522 18be

net.2.weight f4 [64, 64]
-0.14024541 -0.19580968 -0.21808636 -0.14501145 -0.23203537 0.02871363 -0.27074164 -0.07864407
-0.0917446 -0.00083384325 -0.2469003 0.05020435 0.05085707 0.14449827 -0.034171756 -0.24798962
-0.023465192 -0.09276802 -0.010547054 -0.042267144 0.046285726 -0.080531165 0.15144761 -0.109929696
-0.05064242 -0.23819923 -0.043232527 0.09802973 0.14476103 -0.14430873 -0.051055875 0.11806899
0.04745192 -0.117612295 0.17755793 -0.06356896 -0.12616861 0.019234657 -0.119484656 0.014505628
0.00227722 0.047067795 -0.1124209 -0.04962742 -0.15371731 -0.20521529 -0.09620678 -0.042556364
-0.16709413 0.09756409 -0.37971598 -0.016237665 0.24246138 0.03228382 -0.023350019 -0.058894835
-0.078419834 0.039238155 -0.13877901 -0.32504565 -0.18714565 -0.1484027 -0.1155228 -0.01127873
-0.066150166 -0.033403017 -0.12663026 -0.16843964 0.0007723214 0.25415614 -0.14120874 -0.51372117
0.107160024 -0.097846486 -0.22928995 -0.06580878 0.1998315 -0.08979125 -0.05176863 0.13683203
0.030344501 0.016184628 0.021896003 -0.29018292 -0.07160662 -0.16798598 -0.10734529 -0.016366197
-0.08150598 -0.18118413 -0.01474445 -0.10974954 -0.0066259387 -0.33786428 0.019638369 0.0137805985
-0.14103648 0.16149339 -0.2453175 -0.02353666 0.06723817 -0.28352258 -0.016961753 -0.15606286
0.027955636 -0.123525456 -0.32054356 -0.012188656 0.03963056 0.20599289 -0.007392017 0.084045015
0.12039287 0.20827559 0.19564512 0.025198814 -0.06514203 -0.34127644 0.10680536 -0.4206787
-0.25494248 0.06464868 -0.019249493 0.12884319 0.16194771 0.21691097 -0.31389228 0.084855266
-0.2685295 0.026390312 0.046898615 -0.2854899 -0.18065101 -0.05407786 -0.29732728 -0.1311616
-0.11807009 -0.20415376 0.21125807 0.19471464 0.22485219 -0.017242769 0.07596584 -0.03420713
-0.09958041 0.015645463 -0.18096702 -0.25218627 0.013762187 0.07115692 0.038075093 -0.019335983
0.088619925 -0.041594382 0.06027752 -0.07340226 -0.32660595 -0.11769373 -0.11766974 -0.085842356
0.025655925 -0.03405512 -0.13494849 -0.4127246 -0.42334375 -0.11273695 -0.02351627 -0.004727356
-0.079841174 -0.11406698 -0.1306332 0.17070816 0.20049012 -0.284827 -0.30741724 -0.17208117
0.12638468 0.032732345 -0.09652743 0.1806532 -0.07617571 -0.26711625 0.28869957 -0.30184722
0.032789636 0.114460066 -0.32643184 -0.10075465 -0.03137538 -0.30918294 -0.32013342 -0.09428746
-0.14957479 -0.009224147 -0.19706962 0.1699217 -0.11324901 -0.105056204 0.06611382 -0.23873322
-0.26958063 0.034993894 -0.31484517 -0.030582193 -0.0020275328 0.009006498 0.18086365 -0.31546262
-0.04430055 0.05643777 -0.008448565 -0.22951205 0.1486019 0.15753217 -0.2845929 -0.040045474
-0.097388566 -0.05386073 -0.07991029 -0.040939 0.24483061 -0.22623967 0.2621497 0.010221591
-0.1486457 -0.4220375 -0.4686751 0.043979276 -0.18178645 0.02407465 -0.20060273 0.15408467
0.09782861 -0.04549001 0.13270758 -0.17420389 -0.06917964 -0.26564658 0.21043377 -0.0896022
-0.1765409 0.25650436 -0.42086816 0.10074171 0.23239306 -0.2854937 0.030563422 -0.13401438
0.016821979 -0.14836155 -0.038714632 0.083666906 -0.08088639 -0.18088 0.12425587 -0.09124849
00000000: 7e9c 0fbe 5582 48be 0852 5fbe e27d 14be
00000010: ae9a 6dbe d938 eb3c a69e 8abe 2410 a1bd
00000020: 98e4 bbbd 4696 5aba 6fd3 7cbe 14a3 4d3d
00000030: 814f 503d 5bf7 133e aff7 0bbd fef0 7dbe
00000040: 133a c0bc 29fd bdbd 8dcd 2cbc 5020 2dbd
00000050: 1a96 3d3d 86ed a4bd 1515 1b3e d222 e1bd
00000060: 6d6e 4fbd 80ea 73be 9714 31bd d0c3 c83d
00000070: 3c3c 143e abc5 13be f71f 51bd 28ce f13d
00000080: f25c 423d b7de f0bd bfd1 353e 7130 82bd
00000090: 5832 01be 0092 9d3c 5fb4 f4bd 03a9 6d3c
000000a0: 693d 153b 29ca 403d ee3c e6bd 1f46 4bbd
000000b0: 1268 1dbe f523 52be 0f08 c5bd 954f 2ebd
000000c0: b91a 2bbe aecf c73d 226a c2be da04 85bc
000000d0: cc47 783e 0a3c 043d 8a48 bfbc b63b 71bd
000000e0: 949a a0bd 30b8 203d 161c 0ebe 626c a6be
000000f0: 1ca3 3fbe e1f6 17be 3897 ecbd 6cca 38bc
00000100: bd79 87bd 9ad1 08bd 5dab 01be 717b 2cbe
00000110: 9d75 4a3a c120 823e 0699 10be 3b83 03bf
00000120: b776 db3d bd63 c8bd fcca 6abe c1c6 86bd
00000130: a1a0 4c3e 7ae4 b7bd 580b 54bd b21d 0c3e
00000140: 0895 f83c a095 843c 3f5f b33c db92 94be
00000150: 7ea6 92bd 8404 2cbe d9d7 dbbd 6712 86bc
00000160: 9bec a6bd 5588 39be b592 71bc 5ec4 e0bd
00000170: 671e d9bb 8cfc acbe a5e0 a03c 05c8 613c
00000180: de6b 10be 865e 253e 8334 7bbe f4cf c0bc
00000190: 2ab4 893d df29 91be 60f3 8abc f1ce 1fbe
000001a0: 3803 e53c eafa fcbd 491e a4be eeb2 47bc
000001b0: a753 223d cdef 523e bc38 f2bb cb1f ac3d
000001c0: 8990 f63d 3246 553e 3257 483e be6d ce3c
000001d0: 2f69 85bd c9bb aebe c5bc da3d 3363 d7be
000001e0: d287 82be 8766 843d 1db1 9dbc 78ef 033e
000001f0: 9fd5 253e e91d 5e3e 7db6 a0be 99c8 ad3d
00000200: b37c 89be 7f30 d83c c318 403d bb2b 92be
00000210: 94fc 38be bf80 5dbd 483b 98be 3a4f 06be
00000220: bbce f1bd af0d 51be 0954 583e 4663 473e
00000230: a73f 663e b540 8dbc fa93 9b3d c71c 0cbd
00000240: d0f0 cbbd ea2a 803c 6b4f 39be 8f1e 81be
00000250: cc7a 613c b8ba 913d a1f4 1b3d 7f66 9ebc
00000260: 5d7e b53d df5e 2abd 90e5 763d ed53 96bd
00000270: e538 a7be 6909 f1bd d5fc f0bd 1ece afbd
00000280: 602c d23c 627d 0bbd f02f 0abe a450 d3be
00000290: 83c0 d8be a1e2 e6bd 31a5 c0bc f0e7 9abb
000002a0: c583 a3bd f39b e9bd b6c4 05be 1fce 2e3e
000002b0: 484d 4d3e d8d4 91be cb65 9dbe 0c36 30be
000002c0: fc6a 013e 5a12 063d 2cb0 c5bd 27fd 383e
000002d0: 0302 9cbd 76c3 88be 6ed0 933e b88b 9abe
000002e0: 6d4e 063d 0a6a ea3d 1322 a7be 7458 cebd
000002f0: 7883 00bd 3a4d 9ebe 87e8 a3be c919 c1bd
00000300: 222a 19be e020 17bc 9ecc 49be f4ff 2d3e
00000310: 19ef e7bd b527 d7bd af66 873d 7b76 74be
00000320: 7906 8abe c255 0f3d 6333 a1be 8287 fabc
00000330: 5be0 04bb fe8f 133c 5234 393e 5184 a1be
00000340: 7e74 35bd 4b2b 673d da6b 0abc 3505 6bbe
00000350: 192b 183e 1d50 213e 29b6 91be b906 24bd
00000360: a873 c7bd 129d 5cbd 02a8 a3bd a7af 27bd
00000370: e0b4 7a3e 5fab 67be 7c38 863e 7678 273c
00000380: 9436 18be 4d15 d8be 2ff6 efbe 9d23 343d
00000390: 3a26 3abe 3338 c53c cd6a 4dbe 5fc8 1d3e
000003a0: 5e5a c83d bc53 3abd 7fe4 073e 8162 32be
000003b0: 0eae 8dbd d402 88be f37b 573e 5c81 b7bd
000003c0: 23c7 34be 8a54 833e 087c d7be ab51 ce3d
000003d0: 72f8 6d3e 3b2c 92be 2460 fa3c 113b 09be
000003e0: 3fce 893c 17ec 17be 3c93 1ebd 8e59 ab3d
000003f0: c3a7 a5bd 9b38 39be dd79 fe3d 7de0 babd

net.2.bias f4 [64]
0.0115206875 0.24396318 -0.11062596 -0.08910754 -0.09181459 -0.03810853 -0.039712578 0.20595057
-0.13006993 -0.037615787 0.13899247 0.08649969 0.012685786 -0.005208729 0.15251932 -0.17530803
-0.13788982 0.21859352 -0.05625152 0.09395144 -0.08484726 -0.12543048 -0.09330047 -0.057532184
0.10877365 -0.09787913 0.0031891717 -0.034064304 0.050767034 -0.12495294 -0.018712806 -0.15698121
0.0463476 -0.02553296 -0.037286382 0.13698223 0.07311597 -0.22556134 0.012596197 0.03386197
0.1929315 0.36826843 -0.002911574 0.2519099 -0.16745484 0.16272366 0.052688185 -0.20228294
0.10417967 0.07657249 -0.12616266 -0.24456826 -0.014610821 -0.07267892 0.19551477 0.39720282
-0.23419105 0.07876141 -0.082623065 -0.03279463 -0.22337113 0.2182384 -0.015191847 -0.17784695
00000000: 44c1 3c3c 7cd1 793e dd8f e2bd 047e b6bd
00000010: 4a09 bcbd b117 1cbd a8a9 22bd b5e4 523e
00000020: 0d31 05be 0313 1abd 0b54 0e3e c026 b13d
00000030: 0bd8 4f3c fcad aabb 062e 1c3e f383 33be
00000040: fd32 0dbe fbd6 5f3e fe67 66bd 9d69 c03d
00000050: 66c4 adbd d970 00be 5114 bfbd dea6 6bbd
00000060: b8c4 de3d da74 c8bd 6c01 513b 0387 0bbd
00000070: 18f1 4f3d 54e7 ffbd 994b 99bc afbf 20be
00000080: fbd6 3d3d 802a d1bc 9bb9 18bd 1245 0c3e
00000090: d3bd 953d 8df9 66be 4860 4e3c d9b2 0a3d
000000a0: d68f 453e ae8d bc3e 1bd0 3ebb 56fa 803e
000000b0: 4879 2bbe 08a1 263e 91cf 573d 4223 4fbe
000000c0: 275c d53d 0ad2 9c3d c930 01be 1a70 7abe
000000d0: 3a62 6fbc b0d8 94bd 0635 483e 2b5e cb3e
000000e0: c7cf 6fbe aa4d a13d 4836 a9bd a953 06bd
000000f0: 67bb 64be e379 5f3e 3ae7 78bc 831d 36be

net.4.weight f4 [64, 64]
0.07385902 -0.008781736 -0.062348377 0.075797774 -0.08219978 -0.07308028 -0.10325125 0.07017738
-0.028706372 -0.020409336 -0.15062544 -0.03717348 -0.09088736 0.0146846 -0.16853712 -0.14295724
-0.03779314 -0.113337286 0.022659827 -0.030970631 -0.05526695 0.10599426 -0.13029873 -0.034727387
0.07403206 -0.07783461 -0.07074127 -0.11946472 -0.11461849 0.013621975 0.05517226 -0.018302916
0.018814057 0.04997109 0.009142214 -0.100330964 -0.020642105 -0.12642339 -0.02807016 0.049302585
-0.01337152 -0.05846315 -0.16756229 0.06350662 0.06522544 0.047855176 0.0628122 0.032598104
-0.07458646 0.018984368 0.08094189 -0.09949935 0.0066449475 0.049653593 -0.01953352 0.041430842
-0.047197934 -0.11915533 -0.07674591 0.057312984 0.021711364 -0.06959531 -0.14856161 0.065665536
0.08255147 -0.3424178 -0.30944017 0.13709097 -0.14582875 -0.1782444 0.06672991 0.076037765
0.0842273 0.2209247 0.057233036 0.12435412 0.07757214 -0.095695585 0.06242084 -0.07553754
0.0028743881 0.05545117 -0.075456 -0.12469144 -0.12877204 0.0954528 0.0668525 -0.09201997
0.32190266 0.07494279 0.025346845 -0.13386156 0.033648636 -0.0051664393 -0.20808156 -0.0950291
0.09586334 0.056928225 0.22236955 -0.016896293 -0.059710726 -0.021482129 0.05525304 -0.16037634
0.0045010755 0.0838802 -0.0064490326 -0.31822312 0.10327151 -0.04894562 -0.13553177 -0.034862716
-0.10088396 -0.050901275 -0.043955952 -0.064102836 -0.030338101 -0.009571207 -0.3298874 -0.03563935
-0.017450964 0.051075734 0.10415469 0.016283013 0.124492094 -0.034247678 0.021469938 0.081109524
0.18774065 0.11878621 0.14335896 -0.13498878 0.05988476 0.0640243 -0.06611254 -0.028000537
-0.42498723 -0.109979734 -0.10679476 -0.1577121 0.10392931 -0.29483715 0.1249591 -0.14094846
-0.03857481 -0.12032309 0.042522177 0.006633071 0.06056921 0.3568741 -0.33591565 0.027944857
-0.2641896 -0.00082523143 -0.019646782 -0.46698275 -0.095414534 0.0995588 0.085555844 -0.034770697
0.057454914 0.1074736 -0.4447326 -0.32628024 0.14447898 -0.14460993 -0.27972066 -0.41906407
-0.008476628 0.17914651 0.16139984 0.07360902 -0.118452534 -0.11842944 -0.5614542 -0.05061185
0.047315527 -0.32442528 -0.29791102 -0.18048161 -0.3649023 0.17582195 -0.0943997 0.12668794
0.104648836 -0.13740239 0.032927167 0.097799085 -0.067233846 -0.23712742 0.12946711 -0.11914128
0.1255157 -0.6234358 -0.39998293 0.14036542 -0.18768433 -0.31003678 0.035417974 0.19746447
0.10528717 0.08027469 0.13652535 0.039228328 0.03646853 -0.10879554 -0.12407949 -0.01631241
0.03073999 0.18548292 -0.15816344 -0.030424561 0.012264941 -0.015950764 0.06284367 -0.026520384
0.15419455 0.053239543 0.09222751 -0.035147984 0.050724596 -0.25345722 -0.4658463 -0.08919102
-0.04995466 -0.19689482 0.27992344 -0.0797758 -0.03313546 0.024083776 0.046564974 -0.13956745
-0.04254931 0.07969561 -0.06662815 -0.40941843 -0.086856626 -0.111684605 0.043370623 0.039222162
-0.31224525 0.1640674 0.04987319 0.01498349 0.21380803 0.10547402 -0.5651154 0.14030442
0.04100855 0.013771312 0.1477235 -0.09199867 -0.09078011 0.09293684 -0.04191678 -0.025147848
00000000: 6643 973d 45e1 0fbc 0361 7fbd dd3b 9b3d
00000010: 5c58 a8bd 1dab 95bd 6475 d3bd 29b9 8f3d
00000020: a029 ebbc 7b31 a7bc 8e3d 1abe 3843 18bd
00000030: 2723 babd ad97 703c ff94 2cbe 6263 12be
00000040: fbcc 1abd 611d e8bd 1aa1 b93c 1fb6 fdbc
00000050: 995f 62bd 8513 d93d 086d 05be 4e3e 0ebd
00000060: 1f9e 973d c167 9fbd cde0 90bd eba9 f4bd
00000070: 19bd eabd b42e 5f3c 4ffc 613d ffef 95bc
00000080: f01f 9a3c 7cae 4c3d 3ac9 153c 527a cdbd
00000090: a219 a9bc 2275 01be 64f3 e5bc 82f1 493d
000000a0: 3814 5bbc 0e77 6fbd 7395 2bbe c20f 823d
000000b0: ea94 853d ca03 443d afa3 803d 9785 053d
000000c0: c9c0 98bd 1b85 9b3c ddc4 a53d 51c6 cbbd
000000d0: dcbd d93b 9161 4b3d c304 a0bc 63b3 293d
000000e0: 9f52 41bd b607 f4bd f62c 9dbd 05c1 6a3d
000000f0: 08dc b13c fc87 8ebd 8920 18be a77b 863d
00000100: bf10 a93d 6351 afbe f16e 9ebe 9361 0c3e
00000110: 2254 15be b385 36be b1a9 883d b0b9 9b3d
00000120: 5d7f ac3d 163a 623e 306d 6a3d 5fad fe3d
00000130: 24de 9e3d 0cfc c3bd ffac 7f3d 6db3 9abd
00000140: 3b60 3c3b c420 633d ad88 9abd 3a5e ffbd
00000150: d1dc 03be c27c c33d f7e9 883d f774 bcbd
00000160: 6dd0 a43e 9b7b 993d 30a4 cf3c 0113 09be
00000170: 27d3 093d 3c4b a9bb 5513 55be 9e9e c2bd
00000180: 0054 c43d 922d 693d d8b4 633e 186a 8abc
00000190: 3c93 74bd 4afb afbc 0351 623d b239 24be
000001a0: c27d 933b 62c9 ab3d 6852 d3bb 24ee a2be
000001b0: 0380 d33d 347b 48bd d7c8 0abe 35cc 0ebd
000001c0: 409c cebd db7d 50bd 280b 34bd 5948 83bd
000001d0: 9c87 f8bc 8dd0 1cbc 00e7 a8be 91fa 11bd
000001e0: 53f5 8ebc ca34 513d 0e4f d53d f463 853c
000001f0: b6f5 fe3d 4b47 0cbd b9e1 af3c c01c a63d
00000200: 163f 403e 2f46 f33d b1cc 123e 803a 0abe
00000210: b949 753d 2c1f 833d 0366 87bd 6261 e5bc
00000220: ed97 d9be 0e3d e1bd 36b7 dabd 487f 21be
00000230: e4d8 d43d e5f4 96be 8eea ff3d cb54 10be
00000240: 9f00 1ebd f46b f6bd bc2b 2e3d 3c5a d93b
00000250: 6c17 783d 34b8 b63e 23fd abbe 9dec e43c
00000260: dc43 87be 5854 58ba 4af2 a0bc 5d18 efbe
00000270: b268 c3bd 7ce5 cb3d e737 af3d b86b 0ebd
00000280: d855 6b3d 1e1b dc3d feb3 e3be 340e a7be
00000290: 4cf2 133e a014 14be 8c37 8fbe 918f d6be
000002a0: 8ee1 0abc 2f72 373e 0046 253e 53c0 963d
000002b0: 3e97 f2bd 228b f2bd 76bb 0fbf 5f4e 4fbd
000002c0: edcd 413d 121b a6be cb87 98be 2cd0 38be
000002d0: 79d4 babe ab0a 343e a154 c1bd 7cba 013e
000002e0: 2152 d63d 36b3 0cbe a3de 063d e34a c83d
000002f0: e6b1 89bd 88d1 72be 0793 043e 5800 f4bd
00000300: 3087 003e 7d99 1fbf 90ca ccbe f4bb 0f3e
00000310: 5230 40be 24bd 9ebe 7012 113d 2034 4a3e
00000320: cda0 d73d 0f67 a43d 4dcd 0b3e e2ad 203d
00000330: 0660 153d 32d0 debd 631d febd 9aa1 85bc
00000340: 6ed2 fb3c 3cef 3d3e 99f5 21be ee3c f9bc
00000350: e4f2 483c 2dab 82bc 2fb4 803d 4741 d9bc
00000360: 2de5 1d3e b511 5a3d c7e1 bc3d 55f7 0fbd
00000370: 98c4 4f3d 25c5 81be 6883 eebe c8a9 b6bd
00000380: 429d 4cbd cc9e 49be 2052 8f3e 7f61 a3bd
00000390: 0cb9 07bd 574b c53c eaba 3e3d c5ea 0ebe
000003a0: 2f48 2ebd 7437 a33d 5774 88bd 4b9f d1be
000003b0: e3e1 b1bd e6ba e4bd 65a5 313d 6ba7 203d
000003c0: 9cde 9fbe 4901 283e d447 4c3d 507d 753c
000003d0: 7ef0 5a3e c302 d83d 67ab 10bf f6ab 0f3e
000003e0: 95f8 273d 12a1 613c d444 173e cc69 bcbd
000003f0: ecea b9bd ac55 be3d eeb0 2bbd dc02 cebc

net.4.bias f4 [64]
-0.08870437 0.10480649 0.17895487 0.29103604 0.15444742 0.053218026 0.28784052 -0.26954266
0.15595807 -0.085757285 0.11250252 -0.14166702 0.16563304 0.1151868 -0.38054913 0.16133532
0.11101898 -0.34938616 0.19524279 -0.061892897 0.249395 0.24293348 0.2088448 -0.12657131
0.30198553 0.25076333 0.21945132 0.20526706 -0.3104334 0.27430335 -0.34290564 0.088824935
0.2660307 0.26519087 0.23339753 0.085024364 0.011103373 -0.32055566 0.18380116 0.32978693
0.061264277 -0.2936762 0.2836448 0.12172775 0.17853272 0.13576822 0.20219424 0.17266123
-0.12039779 0.20079808 -0.093086995 -0.18891141 0.08261501 0.26383722 -0.086845085 0.19513921
-0.2866987 -0.11405968 -0.1423292 0.30570757 0.29416662 0.27011707 -0.3104428 0.23427151
00000000: a3aa b5bd c9a4 d63d f23f 373e ad02 953e
00000010: 7727 1e3e 25fb 593d d55f 933e 7f01 8abe
00000020: 79b3 1f3e 84a1 afbd b967 e63d 2911 11be
00000030: b59b 293e 0fe7 eb3d 56d7 c2be 1635 253e
00000040: eb5d e33d bee2 b2be baed 473e 6883 7dbd
00000050: 6761 7f3e 8ec3 783e 69db 553e e99b 01be
00000060: d99d 9a3e 0d64 803e d9b7 603e 8731 523e
00000070: 20f1 9ebe 7d71 8c3e 5491 afbe d9e9 b53d
00000080: 2d35 883e 19c7 873e c3ff 6e3e 4121 ae3d
00000090: ecea 353c df1f a4be 5f36 3c3e d5d9 a83e
000000a0: 40f0 7a3d ba5c 96be e439 913e 664c f93d
000000b0: 48d1 363e d306 0b3e 020c 4f3e 1bce 303e
000000c0: 1e93 f6bd 039e 4d3e 65a4 bebd fe71 41be
000000d0: 0f32 a93d ac15 873e d6db b1bd 93d2 473e
000000e0: 2cca 92be 1f98 e9bd bfbe 11be b485 9c3e
000000f0: 029d 963e c94c 8a3e 5cf2 9ebe dfe4 6f3e

net.6.weight f4 [1, 64]
-0.0019129202 0.008202054 -0.46811804 0.1907227 0.13110428 -0.20021452 -0.25211415 -0.12422623
-0.38964042 0.403545 0.059599623 -0.08737005 0.018683663 0.07224509 -0.5497432 -0.07222277
-0.32567474 -0.30706397 0.08540007 0.07806629 0.119169824 -0.30185428 0.108864844 -0.1240739
0.14218897 0.07037261 0.0838482 -0.23599516 -0.3327736 0.120650746 -0.08914067 -0.0061808606
0.15720768 0.11164693 0.08937976 0.2834971 0.29775697 -0.39687932 0.04479674 0.16783635
-0.23807532 -0.0234274 0.23614272 0.03581965 0.12448365 -0.52766937 0.1308861 -0.47637352
0.0037093977 0.109810874 0.0067228144 -0.04202962 -0.39790344 0.14724302 -0.014193302 0.037156474
-0.0999899 -0.13637568 0.0036694314 0.15448745 0.09436489 0.08300981 -0.13944755 0.08441933
00000000: f3ba faba e861 063c 2bad efbe d04c 433e
00000010: 3340 063e 0905 4dbe 1b15 81be 526a febd
00000020: f37e c7be 739d ce3e bc1e 743d 12ef b2bd
00000030: 7b0e 993c 3cf5 933d f8bb 0cbf 88e9 93bd
00000040: d7be a6be 7d37 9dbe 3be6 ae3d 38e1 9f3d
00000050: 4f0f f43d a58c 9abe 88f4 de3d 751a febd
00000060: fc99 113e 841f 903d 9bb8 ab3d b7a8 71be
00000070: 4d61 aabe bd17 f73d 628f b6bd d188 cabb
00000080: 0dfb 203e 25a7 e43d bc0c b73d 8826 913e
00000090: 9a73 983e c433 cbbe c97c 373d 4bdd 2b3e
000000a0: 04ca 73be d2ea bfbc 66cf 713e a0b7 123d
000000b0: 49f1 fe3d 5715 07bf 0107 063e 3be7 f3be
000000c0: 5e19 733b 86e4 e03d 0e4b dc3b 4027 2cbd
000000d0: 00ba cbbe e0c6 163e 068b 68bc 6331 183d
000000e0: 81c7 ccbd 11a6 0bbe d87a 703b f531 1e3e
000000f0: 6142 c13d 0c01 aa3d 57cb 0ebe 0be4 ac3d
