wine_iterative/wine_models/10_train/gaussian_combined_final_model.pt (torch, 41217 bytes, 7 tensors)

net.0.weight f4 [64, 13]
0.22765085 -0.13024943 0.034245797 0.02178043 -0.31874266 0.27598515 -0.19062528 0.108847186
0.029395213 -0.08333748 0.07797687 0.04965666 0.034886397 -0.2917689 0.13113174 0.05803532
0.16460574 -0.061136466 0.4333337 0.097237185 0.057408463 -0.28629777 -0.011068415 -0.09275025
-0.21876349 -0.024645925 0.28732532 0.41273752 -0.24997048 0.1086635 -0.028230334 0.24739021
0.11410296 -0.19698659 -0.2519261 -0.21175298 0.2923583 0.055088673 0.11834524 -0.117021926
0.49567488 -0.18582205 0.16830152 -0.124268144 -0.095052 0.034530014 -0.030245947 0.0682708
-0.05261955 -0.08260891 -0.12521173 -0.20394422 0.05306651 -0.17389104 0.26503137 0.17732674
0.039778728 -0.41173574 0.27278402 0.1000464 -0.39607272 0.14954776 0.12133826 0.30049598
-0.030254588 0.16081516 0.24090834 -0.17900929 -0.26678938 -0.4405222 0.016581586 0.06381791
0.12735459 0.26862708 0.12557358 0.16515179 -0.08305122 0.23151805 -0.27710888 0.21575439
-0.11217314 -0.1656974 0.016124602 -0.028881647 0.19838426 -0.20561002 -0.28279963 0.317725
0.090422 0.17521209 0.14815782 -0.26724467 0.078007594 0.11447396 -0.20115314 -0.18730617
0.10573275 0.015521111 -0.11218098 -0.10348476 0.24419801 -0.2587511 -0.009798995 0.088893846
-0.19398962 -0.31602436 0.33445135 0.09921059 0.08906074 -0.07313979 0.04026508 0.24429347
0.38592315 -0.062215254 -0.0010883055 -0.07859455 0.19220802 0.31654993 -0.4901433 -0.24197274
-0.061090875 0.16896503 0.380301 -0.26012978 0.1757944 -0.15661973 -0.48628575 -0.2043621
0.13099696 0.1615261 -0.17888755 0.026444117 0.2923782 0.36118403 0.25058466 0.35171133
0.15672642 0.1689671 -0.08210691 -0.11676994 -0.19097076 -0.047883276 -0.24168639 -0.09590092
0.068222634 -0.057945367 0.14321807 0.15291475 0.16092335 0.15859134 -0.14745033 0.2424279
-0.117219456 -0.10525538 -0.22333287 -0.24103515 -0.13338867 -0.20376998 0.23466495 -0.15775363
-0.23984012 0.18300395 -0.0022901099 0.055465102 0.049686108 0.14816281 -0.029363401 0.004274086
-0.21632074 0.09166311 0.08949684 0.10763443 -0.015324456 0.10233792 0.20564951 0.54588574
0.0781709 -0.068175666 -0.252104 0.14611508 -0.057495996 0.10545742 -0.38619563 -0.2465685
-0.33335334 0.33779234 -0.17271209 -0.36571303 0.11773169 -0.28103516 0.25905067 -0.18477686
0.040780477 -0.046951044 0.34628284 -0.24381404 -0.010504882 0.4098506 0.30266306 -0.18171225
0.16347839 -0.2777431 0.326423 -0.01067009 0.13637646 0.03297703 -0.016533738 -0.2442299
-0.12657507 0.13225675 0.0858 0.13747153 -0.14020362 0.18272455 0.2917416 0.27736655
0.19523242 -0.2445708 -0.13117787 0.4157833 -0.18815249 0.12110385 -0.35893416 -0.4165817
0.368531 -0.1941277 0.16443184 0.27725926 0.20236662 0.102338605 0.007051514 -0.24680525
0.27441868 -0.12925354 -0.25642827 0.20206238 -0.023169579 0.17806645 0.38843682 -0.031891827
-0.19712466 -0.04732766 0.34693038 -0.11654762 0.07562922 0.0784208 -0.3059701 -0.30850554
-0.27448422 0.1141557 0.29825878 -0.11374847 -0.03570433 0.11568583 -0.11907265 -0.23863712
00000000: 4e1d 693e 1b60 05be 5245 0c3d df6c b23c
00000010: 3d32 a3be ed4d 8d3e 4633 43be 46eb de3d
00000020: 3bce f03c d7ac aabd 56b2 9f3d c864 4b3d
00000030: 0ae5 0e3d bc62 95be 6647 063e 72b6 6d3d
00000040: 688e 283e 3b6a 7abd eadd dd3e 4a24 c73d
00000050: 2325 6b3d 9f95 92be 4c58 35bc d8f3 bdbd
00000060: 8903 60be 40e6 c9bc 4e1c 933e 5552 d33e
00000070: 43f8 7fbe f88a de3d 4d43 e7bc dc53 7d3e
00000080: d0ae e93d dab6 49be 75fc 80be c6d5 58be
00000090: fdaf 953e a9a4 613d fd5e f23d 31a9 efbd
000000a0: 19c9 fd3e 2348 3ebe 3c57 2c3e 4c80 febd
000000b0: 9faa c2bd 586f 0d3d 59c6 f7bc 90d1 8b3d
000000c0: 9987 57bd dc2e a9bd 8137 00be c1d6 50be
000000d0: 455c 593d 7e10 32be 31b2 873e 2495 353e
000000e0: 05ef 223d 07cf d2be 59aa 8b3e 21e5 cc3d
000000f0: 0bca cabe 0c23 193e 3280 f83d 9cda 993e
00000100: 78d8 f7bc bbac 243e adb0 763e 364e 37be
00000110: 9e98 88be 208c e1be 1bd6 873c f7b2 823d
00000120: 3e69 023e 7d89 893e 5c96 003e 8d1d 293e
00000130: c216 aabd 1113 6d3e 37e1 8dbe b8ee 5c3e
00000140: 08bb e5bd 94ac 29be be17 843c 3499 ecbc
00000150: 3e25 4b3e 6f8b 52be 1dcb 90be daac a23e
00000160: 2b2f b93d cc6a 333e afb6 173e 4bd4 88be
00000170: 72c2 9f3d 5371 ea3d 17fb 4dbe 30cd 3fbe
00000180: 698a d83d 424c 7e3c 24bf e5bd d1ef d3bd
00000190: 0b0f 7a3e 067b 84be f78b 20bc fa0d b63d
000001a0: 37a5 46be f2cd a1be 353d ab3e ec2e cb3d
000001b0: 7a65 b63d 50ca 95bd ffec 243d 1128 7a3e
000001c0: b897 c53e 6cd5 7ebd 79a5 8eba 2ef6 a0bd
000001d0: 2ed2 443e d512 a23e 10f4 fabe b4c7 77be
000001e0: 6d3a 7abd 2b05 2d3e d0b6 c23e bb2f 85be
000001f0: 7203 343e ec60 20be 72fa f8be 4c44 51be
00000200: 1124 063e 1967 253e 4c2e 37be 55a1 d83c
00000210: 98b2 953e 1ded b83e a24c 803e 8213 b43e
00000220: e47c 203e b605 2d3e ab27 a8bd 1425 efbd
00000230: d78d 43be 4121 44bd a37c 77be b467 c4bd
00000240: 4fb8 8b3d 1f58 6dbd c2a7 123e af95 1c3e
00000250: 17c9 243e c565 223e 38fd 16be 053f 783e
00000260: c110 f0bd 2290 d7bd 5fb1 64be ebd1 76be
00000270: 0a97 08be 14a9 50be 024c 703e 2b8a 21be
00000280: a698 75be 6365 3b3e ab15 16bb 602f 633d
00000290: a983 4b3d feb7 173e 848b f0bc a20d 8c3b
000002a0: 2f83 5dbe deb9 bb3d 1f4a b73d 716f dc3d
000002b0: 6d13 7bbc 8b96 d13d c995 523e 2bbf 0b3f
000002c0: 1118 a03d af9f 8bbd c713 81be 319f 153e
000002d0: ec80 6bbd 0ffa d73d 6fbb c5be 747c 7cbe
000002e0: 4aad aabe 1ef3 ac3e 70db 30be bd3e bbbe
000002f0: 501d f13d d7e3 8fbe 4aa2 843e 2536 3dbe
00000300: 6e09 273d bd4f 40bd fc4b b13e 63aa 79be
00000310: ab1c 2cbc f0d7 d13e a7f6 9a3e c712 3abe
00000320: e166 273e 5834 8ebe ea20 a73e 9ad1 2ebc
00000330: 45a6 0b3e ec12 073d c371 87bc 6717 7abe
00000340: e59c 01be 506e 073e e9b7 af3d 56c5 0c3e
00000350: 8a91 0fbe 251c 3b3e 285f 953e fd02 8e3e
00000360: 02eb 473e c570 7abe 7e53 06be 8ce1 d43e
00000370: 0cab 40be 4c05 f83d 38c6 b7be 324a d5be
00000380: 18b0 bc3e 69c9 46be d260 283e edf4 8d3e
00000390: 3239 4f3e e796 d13d 6310 e73b 84ba 7cbe
000003a0: 9b80 8c3e 0a5b 04be 914a 83be 71e9 4e3e
000003b0: 21ce bdbc 0d57 363e 31e1 c63e 01a1 02bd
000003c0: 0cdb 49be a6da 41bd dca0 b13e 85b0 eebd
000003d0: 7ee3 9a3d 169b a03d 1da8 9cbe 70f4 9dbe
000003e0: 3289 8cbe 77ca e93d 60b5 983e f5f4 e8bd
000003f0: b43e 12bd b1ec ec3d 5ddc f3bd 4a5d 74be

net.0.bias f4 [64]
-0.09456662 -0.40289837 -0.060337253 -0.2521891 0.044447944 -0.39014575 -0.13528588 0.009939978
0.16438857 -0.03511633 -0.2663202 -0.16884549 -0.003873926 -0.34951356 -0.31763864 -0.032820906
-0.2042658 0.0005192987 -0.43912414 -0.063771464 -0.2334468 -0.08169355 -0.34845984 0.068841875
-0.5503428 -0.39926985 -0.21127218 -0.490067 0.075650424 -0.1688773 -0.27233562 0.24887544
-0.19035253 -0.06732832 -0.21329348 -0.25227308 -0.031018736 0.086758874 -0.37126207 -0.1054991
0.09135423 0.00987963 -0.18565032 -0.2314979 -0.20519161 -0.056353178 -0.38832906 -0.36247405
-0.28958938 -0.18590757 -0.012650959 -0.038856726 0.20195454 -0.38262674 0.11111836 0.037261114
-0.25641102 0.0064179623 -0.08988534 0.010875057 -0.0013951138 -0.08916465 -0.4014188 -0.20733576
00000000: 25ac c1bd b248 cebe 3224 77bd ee1e 81be
00000010: 0c0f 363d 2fc1 c7be 6288 0abe 4adb 223c
00000020: 7a55 283e 24d6 0fbd 1f5b 88be d5e5 2cbe
00000030: b1e1 7dbb 71f3 b2be 88a1 a2be 376f 06bd
00000040: 0e2b 51be 8c21 083a e1d4 e0be 9d9a 82bd
00000050: ae0c 6fbe f34e a7bd 5469 b2be f8fc 8c3d
00000060: 44e3 0cbf 196d ccbe bc57 58be 10ea fabe
00000070: 9cee 9a3d 2cee 2cbe 936f 8bbe 34d9 7e3e
00000080: c6eb 42be 6ee3 89bd 9b69 5abe f029 81be
00000090: 011b febc a3ae b13d 1016 bebe ea0f d8bd
000000a0: ed17 bb3d 2cde 213c 1e1b 3ebe c90d 6dbe
000000b0: c01d 52be 97d2 66bd 11d3 c6be 3396 b9be
000000c0: 0f45 94be 8e5e 3ebe f845 4fbc 3b28 1fbd
000000d0: 2ccd 4e3e a7e7 c3be 0692 e33d 1c9f 183d
000000e0: 4e48 83be c54d d23b ce15 b8bd 4c2d 323c
000000f0: 40dc b6ba f59b b6bd c486 cdbe d34f 54be

net.2.weight f4 [64, 64]
-0.09359637 0.010840682 -0.012092816 -0.077103026 -0.20917602 0.19504322 -0.29045886 -0.1511587
0.14510418 -0.23189004 0.004017801 0.03329763 -0.2436859 0.27357665 0.15702012 0.0857712
-0.088082545 -0.01853216 0.01741225 0.09858422 0.15675944 -0.04198316 -0.2486245 -0.05596014
-0.10693327 0.11848207 -0.24853632 0.06958583 0.037398573 -0.3021283 0.03562034 0.05224054
0.13984914 0.24320734 -0.098318174 -0.31750208 0.08790568 -0.085423425 -0.29106402 -0.20481423
-0.05454804 0.010793995 -0.2980394 -0.0048390734 -0.1122804 0.13295628 -0.032699548 -0.03769823
-0.04194019 -0.008156724 -0.055624157 0.0027279458 -0.17741986 0.066713355 0.11820251 -0.197744
-0.027722083 0.14124626 -0.32362705 -0.034844592 0.1348487 0.11866056 -0.20794955 -0.23201804
-0.046540953 -0.009438272 -0.1072172 -0.1634016 0.16669138 0.117448814 0.09933381 -0.011327992
0.1371133 -0.22168565 0.21296349 0.033159398 0.012651989 -0.025581174 -0.0694464 -0.2442141
-0.00437747 -0.20568351 -0.17571749 0.091169365 -0.41015077 0.03354489 0.070082426 0.082926586
-0.25856626 -0.12504414 0.05529812 0.04907926 -0.39052945 -0.19624121 -0.23284495 0.20534874
0.19712873 -0.08033214 -0.069099665 0.082249194 0.044707283 -0.095427044 -0.20282164 0.016395483
0.034514472 -0.25879088 0.053824935 -0.12169561 -0.06410737 0.09499905 0.123826295 -0.12448796
-0.085588686 -0.04394431 0.1116158 0.20597424 0.19558996 0.032301012 0.028582089 0.011878471
0.023661062 -0.02063508 0.026881456 -0.36082914 -0.03057869 -0.093938 -0.26994514 -0.26996663
-0.12132857 -0.21937571 -0.016424768 -0.332808 -0.37500075 0.036082536 -0.035563845 -0.049093727
0.1164939 -0.14812931 0.078863025 -0.0007533844 0.039773915 -0.030153729 -0.2257298 -0.030385168
-0.1564749 0.0059496756 -0.17586236 0.18687005 -0.14668187 0.079943314 -0.11631305 0.07027123
-0.055895694 -0.07520898 -0.0153834345 -0.15354629 0.080295056 -0.11865926 -0.0072499188 0.082058735
0.1263401 -0.0669039 -0.030795628 0.033507407 -0.050860595 -0.0019853748 -0.16215777 -0.13740134
-0.34475094 -0.39463082 -0.15090728 -0.20845015 -0.023240983 0.045860033 0.16570841 0.23438981
-0.086855695 -0.047429767 -0.33505836 -0.3237983 -0.048177954 -0.037148073 0.053612746 -0.10991657
0.0331251 0.15050021 -0.0397249 -0.27346626 0.11960884 -0.245855 -0.10552546 -0.16930513
-0.138357 -0.012563875 0.005576321 -0.12591776 -0.34751356 -0.08723443 -0.018056218 -0.022842634
-0.2967597 0.08223711 -0.23565413 0.07235886 0.061684188 -0.123439796 -0.27374902 -0.097970404
0.0022405423 0.21197997 0.09194992 -0.124812745 0.071795225 -0.012936486 -0.25374314 0.044811536
-0.19568469 0.12151507 0.13155219 0.3775973 -0.0016922548 -0.2094428 -0.048823003 0.12048417
0.17538157 0.17696866 -0.058764834 0.035223667 -0.094643004 -0.16521439 -0.316321 -0.11305805
-0.35584554 0.04898735 -0.11875713 0.1143968 -0.08852505 0.13919815 -0.23793145 -0.095701575
0.07228249 -0.015065089 0.004869505 0.10426363 -0.09608204 0.015897328 0.17243688 0.081345454
-0.40179905 -0.22732899 -0.0528535 -0.1966594 0.049574923 0.065296344 -0.41856453 -0.2545467
00000000: 74af bfbd 1e9d 313c f220 46bc 31e8 9dbd
00000010: 3d32 56be 69b9 473e 06b7 94be 59c9 1abe
00000020: 3196 143e 9574 6dbe c2a7 833b 1863 083d
00000030: cc88 79be 3d12 8c3e e2c9 203e d0a8 af3d
00000040: 9f64 b4bd c2d0 97bc 23a4 8e3c 86e6 c93d
00000050: 8c85 203e 89f6 2bbd 6c97 7ebe 7636 65bd
00000060: d5ff dabd baa6 f23d 4e80 7ebe 0483 8e3d
00000070: 3f2f 193d 8fb0 9abe a2e6 113d 2dfa 553d
00000080: 9d34 0f3e 580b 793e 0a5b c9bd a28f a2be
00000090: e507 b43d 7af2 aebd 5806 95be d2ba 51be
000000a0: c46d 5fbd 4cd9 303c 9f98 98be 1791 9ebb
000000b0: 44f3 e5bd b125 083e f6ef 05bd 7669 1abd
000000c0: 7ac9 2bbd c8a3 05bc 28d6 63bd 56c7 323b
000000d0: 8dad 35be 03a1 883d 2814 f23d 677d 4abe
000000e0: 6c19 e3bc dca2 103e 72b2 a5be 34b9 0ebd
000000f0: c715 0a3e 4f04 f33d baf0 54be 2396 6dbe
00000100: baa1 3ebd fba2 1abc b194 dbbd c052 27be
00000110: 25b1 2a3e 0189 f03d 866f cb3d 0b99 39bc
00000120: 6e67 0c3e 9001 63be 1a13 5a3e 26d2 073d
00000130: 4a4a 4f3c 9c8f d1bc ea39 8ebd 4313 7abe
00000140: e170 8fbb b39e 52be 49ef 33be 01b7 ba3d
00000150: 48ff d1be 5e66 093d 6087 8f3d 6ad5 a93d
00000160: cc62 84be 920b 00be 4880 623d 5607 493d
00000170: 7af3 c7be 75f3 48be e86e 6ebe f146 523e
00000180: 1ddc 493e 2d85 a4bd 2084 8dbd 4472 a83d
00000190: fc1e 373d 416f c3bd 7ab0 4fbe d24f 863c
000001a0: 0c5f 0d3d 3d80 84be 8977 5c3d 8c3b f9bd
000001b0: ba4a 83bd dd8e c23d a498 fd3d 8bf3 febd
000001c0: 1f49 afbd f3fe 33bd d396 e43d e9ea 523e
000001d0: bc48 483e 114e 043d fc24 ea3c eb9d 423c
000001e0: d8d4 c13c e60a a9bc 8036 dc3c 99be b8be
000001f0: 2980 fabc 9162 c0bd 4036 8abe 1139 8abe
00000200: 1d7b f8bd 07a4 60be 3c8d 86bc cf65 aabe
00000210: 1900 c0be 48cb 133d 65ab 11bd 8116 49bd
00000220: 5b94 ee3d 36af 17be f082 a13d c57e 45ba
00000230: f9e9 223d f404 f7bc b625 67be 51ea f8bc
00000240: f53a 20be 7ff5 c23b 4315 34be dd5a 3f3e
00000250: c633 16be 52b9 a33d 8935 eebd 5dea 8f3d
00000260: e2f2 64bd 2a07 9abd cd0a 7cbc 3d3b 1dbe
00000270: bc71 a43d a003 f3bd ba90 edbb 690e a83d
00000280: 4d5f 013e e904 89bd 1d47 fcbc 103f 093d
00000290: 3353 50bd 101d 02bb b00c 26be f0b2 0cbe
000002a0: 3283 b0be 0d0d cabe 7087 1abe f573 55be
000002b0: e063 bebc bbd7 3b3d 77af 293e e203 703e
000002c0: 66e1 b1bd b745 42bd c58c abbe e4c8 a5be
000002d0: 3f56 45bd 9428 18bd 0a99 5b3d f01b e1bd
000002e0: 2fae 073d ba1c 1a3e 94b6 22bd c503 8cbe
000002f0: 7bf5 f43d 6ac1 7bbe bb1d d8bd 535e 2dbe
00000300: 75ad 0dbe b6d8 4dbc 92b9 b63b 96f0 00be
00000310: 4ced b1be f7a7 b2bd a2ea 93bc 7a20 bbbc
00000320: e3f0 97be ee6b a83d 514f 71be e230 943d
00000330: 8fa8 7c3d 01ce fcbd d528 8cbe b5a4 c8bd
00000340: 10d6 123b 4711 593e 3d50 bc3d d39d ffbd
00000350: 6009 933d 8ef3 53bc 9fea 81be 4d8c 373d
00000360: 9161 48be e5dc f83d 9eb5 063e 6f54 c13e
00000370: a6ce ddba 2c78 56be a1fa 47bd 68c0 f63d
00000380: 3a97 333e 4637 353e 65b3 70bd b146 103d
00000390: 31d4 c1bd f62d 29be d3f4 a1be fb8a e7bd
000003a0: 6331 b6be f6a6 483d f036 f3bd df48 ea3d
000003b0: 9f4c b5bd f689 0e3e 4da4 73be 30ff c3bd
000003c0: d808 943d 90d3 76bc 5e90 9f3b 2c88 d53d
000003d0: a9c6 c4bd 1d3b 823c 4b93 303e 7298 a63d
000003e0: 9bb8 cdbe eec8 68be e97c 58bd 1561 49be
000003f0: 130f 4b3d 17ba 853d 174e d6be f253 82be

net.2.bias f4 [64]
-0.034062464 0.08857802 -0.12975857 0.023637695 0.11972414 -0.033178095 0.1814661 0.14415887
-0.15072505 0.09819325 0.09298713 0.063644454 -0.10112084 0.021149172 0.13569078 0.036143236
0.09370921 0.2240446 -0.02547016 -0.21952242 0.02787016 0.14130686 0.091883965 0.19198301
0.13562213 0.084854685 0.05831928 0.05567276 0.17217769 0.12399489 0.0029648028 -0.1369462
0.29124475 -0.058406033 -0.048013527 0.13797288 -0.18619078 0.12514652 -0.017681435 0.14206527
0.2326855 0.034338295 0.086917534 0.07027936 0.051203743 0.19099648 0.1639519 -0.061970457
0.06167096 0.011683962 -0.059443526 -0.16260615 -0.24047679 0.019874547 -0.1631914 -0.12022609
-0.17250387 0.19568364 -0.009067954 -0.07590495 0.08618454 0.02033671 -0.08957422 0.18393527
00000000: 1585 0bbd 6568 b53d 6edf 04be d7a3 c13c
00000010: ee31 f53d c1e5 07bd 40d2 393e 629e 133e
00000020: ab57 1abe 8b19 c93d 0970 be3d 0658 823d
00000030: 7118 cfbd 0741 ad3c 86f2 0a3e ee0a 143d
00000040: 9dea bf3d f36b 653e cca6 d0bc 7cca 60be
00000050: f64f e43c bfb2 103e a92d bc3d 3297 443e
00000060: 87e0 0a3e 4bc8 ad3d 33e0 6e3d 1f09 643d
00000070: 594f 303e 08f1 fd3d 234d 423b a03b 0cbe
00000080: 081e 953e 2a3b 6fbd d5a9 44bd c348 0d3e
00000090: cca8 3ebe 6926 003e a8d8 90bc 8f79 113e
000000a0: 1c45 6e3e 50a6 0c3d d201 b23d a0ee 8f3d
000000b0: 04bb 513d 9594 433e 02e3 273e bcd4 7dbd
000000c0: b09a 7c3d 176e 3f3c 0e7b 73bd 3a82 26be
000000d0: 8c3f 76be f2cf a23c a51b 27be 1939 f6bd
000000e0: dba4 30be 4b61 483e c191 14bc 0e74 9bbd
000000f0: 8581 b03d 2c99 a63c b072 b7bd 8759 3c3e

net.4.weight f4 [64, 64]
0.12788919 0.121652424 -0.048742406 -0.024968324 0.03737782 0.096182056 0.100585155 0.034036566
-0.11146763 0.056226425 -0.06304856 0.09997308 -0.17363639 -0.037205532 0.24613646 0.05862124
0.07887451 0.03989498 0.032406177 0.11839976 0.03689594 0.08987738 0.062069144 0.07849375
0.26508397 0.035977714 0.07941225 -0.12404024 -0.06733795 -0.005938365 0.101840645 0.078475624
0.08436684 0.025035352 0.19896415 0.06554482 0.18509887 0.21583474 -0.06393722 0.16322201
0.33913824 -0.077650934 -0.04362436 -0.08508302 0.13584432 0.26371345 -0.035954885 -0.0933533
0.17058493 0.02383391 0.061502136 -0.05008337 0.10690998 -0.13643862 0.03165641 0.07975436
-0.09487571 0.12354683 0.0581874 0.097496115 0.06567689 0.13487619 -0.08485991 0.07827399
0.21442091 -0.032411616 -0.03143905 -0.16348222 -0.09740088 -0.0022494835 -0.009639089 -0.13655221
0.0344415 -0.08414563 -0.0631397 -0.032677546 -0.011677592 -0.00965905 -0.1557689 -0.19405964
0.028904058 -0.034394804 0.22585145 0.09418943 -0.053358797 -0.124188945 -0.01711511 -0.106471606
0.020044701 0.20520678 -0.09495461 -0.22498092 -0.18911697 -0.020599393 -0.09781877 -0.04833969
-0.13174333 0.10263776 -0.119255 -0.08635049 -0.16393079 -0.021277854 -0.11872989 -0.04953114
-0.28644535 0.19972987 0.06307732 0.05338729 -0.0010532329 -0.12770425 -0.14350502 0.13571158
-0.07609928 0.063611075 -0.153396 -0.0071404516 0.32887286 0.070478626 0.13651662 0.14267479
0.20872971 0.1698673 -0.33353934 0.028530886 0.07646566 -0.02710094 0.3103344 -0.16659476
-0.18049945 -0.029564697 -0.05891448 -0.30076304 0.23970342 0.21053244 0.11591502 -0.2310303
0.089412086 0.26166493 0.17036334 -0.13040195 -0.4294854 -0.097594574 0.13336366 -0.39591706
-0.010071267 0.09909054 -0.1255227 -0.05856358 -0.09879963 -0.1957778 -0.46096668 -0.034425102
0.058911383 -0.37741965 0.09702112 -0.1544452 -0.20428585 -0.04137118 0.1684991 0.1542104
-0.12862496 -0.14188646 -0.07630993 0.1723334 -0.1916481 0.054815043 0.1733001 0.062746644
0.2309384 -0.12534566 -0.063626155 0.17752479 0.36779165 0.23372507 0.13200793 0.010849923
0.19888844 -0.15016896 -0.22916885 -0.10112401 -0.3341308 -0.12597008 0.020811917 -0.22169897
0.026579568 0.13475548 -0.23340976 0.116583414 -0.021896603 -0.03795412 0.05852135 0.1379899
-0.11657178 -0.236191 -0.09353839 0.030134557 0.043973282 -0.3727806 0.070095524 0.06524215
-0.048928738 -0.18822215 -0.093637176 -0.0017826485 0.5035414 -0.023321897 0.022559863 0.29334307
-0.12783428 -0.38318893 0.2585488 0.004614055 -0.11429892 -0.43159482 -0.03226402 -0.12878421
-0.48805708 0.1730916 -0.035035316 -0.14843011 -0.13935822 -0.36933267 -0.2696536 -0.7194946
-0.2699814 -0.2790601 0.0043149395 -0.24061002 0.27881253 -0.40979 0.08218588 -0.19421794
0.13582517 0.16802827 -0.068025336 -0.17385437 -0.20713297 -0.29425713 -0.2932301 -0.00026728178
-0.19550475 -0.14049388 -0.22578709 -0.047170028 0.27575135 0.23958658 0.24142851 0.22017409
-0.15654247 -0.07135211 0.4329429 -0.010722753 0.070704356 -0.10217364 0.06120755 0.03450721
00000000: 62f5 023e e824 f93d 1ea6 47bd 5f8a ccbc
00000010: 7c19 193d 19fb c43d 97ff cd3d ed69 0b3d
00000020: 2449 e4bd ae4d 663d 9a1f 81bd b0be cc3d
00000030: bdcd 31be d464 18bd 320b 7c3e d31c 703d
00000040: f688 a13d eb68 233d 57bc 043d 937b f23d
00000050: 3220 173d a211 b83d 373c 7e3d 55c1 a03d
00000060: 16b9 873e 5e5d 133d e4a2 a23d cf08 febd
00000070: 7be8 89bd 9e96 c2bb d491 d03d d4b7 a03d
00000080: 86c8 ac3d f016 cd3c 42bd 4b3e 5d3c 863d
00000090: 8f8a 3d3e c803 5d3e 84f1 82bd ac23 273e
000000a0: 87a3 ad3e 7407 9fbd 75af 32bd 0240 aebd
000000b0: c61a 0b3e 7305 873e 6e45 13bd 0430 bfbd
000000c0: d1ad 2e3e 553f c33c aae9 7b3d 3824 4dbd
000000d0: 9ff3 da3d 91b6 0bbe 27aa 013d 4156 a33d
000000e0: 324e c2bd 1f06 fd3d e955 6e3d 0bac c73d
000000f0: 9b81 863d fc1c 0a3e 08cb adbd 1d4e a03d
00000100: 2891 5b3e 0bc2 04bd 3cc6 00bd e267 27be
00000110: 1d7a c7bd 126c 13bb 45ed 1dbc 58d4 0bbe
00000120: 8812 0d3d 8b54 acbd 634f 81bd e4d8 05bd
00000130: 5f53 3fbc fe40 1ebc e281 1fbe 92b7 46be
00000140: 34c8 ec3c 91e1 0cbd 9a45 673e 63e6 c03d
00000150: c18e 5abd c656 febd fd34 8cbc c90d dabd
00000160: c934 a43c ba21 523e 9077 c2bd 6661 66be
00000170: e1a7 41be 0fc0 a8bc 3555 c8bd d7ff 45bd
00000180: b9e7 06be bf33 d23d f73b f4bd 87d8 b0bd
00000190: 79dd 27be e54e aebc a828 f3bd 2ae1 4abd
000001a0: f7a8 92be fd85 4c3e af2e 813d a2ac 5a3d
000001b0: a20c 8aba e7c4 02be fbf2 12be faf7 0a3e
000001c0: f0d9 9bbd 8646 823d d713 1dbe 73fa e9bb
000001d0: 0662 a83e 1957 903d 03cb 0b3e 5719 123e
000001e0: 3ebd 553e b2f1 2d3e abc5 aabe 9bb9 e93c
000001f0: 079a 9c3d ca02 debc 27e4 9e3e d197 2abe
00000200: d9d4 38be aa31 f2bc 4f50 71bd 9dfd 99be
00000210: d074 753e d195 573e db64 ed3d 3593 6cbe
00000220: af1d b73d f2f8 853e ba73 2e3e 1788 05be
00000230: 83e5 dbbe aadf c7bd 7c90 083e a4b5 cabe
00000240: f501 25bc fbef ca3d 0689 00be 5de0 6fbd
00000250: 7657 cabd fa79 48be d303 ecbe 5601 0dbd
00000260: 104d 713d 263d c1be 02b3 c63d e226 1ebe
00000270: 4f30 51be d474 29bd 078b 2c3e 55e9 1d3e
00000280: 43b6 03be af4a 11be 6148 9cbd 2b78 303e
00000290: 663f 44be bd85 603d 9575 313e 5081 803d
000002a0: 1e7b 6c3e 9d5a 00be 6e4e 82bd 0fc9 353e
000002b0: 304f bc3e a055 6f3e 162d 073e e0c3 313c
000002c0: 69a9 4b3e e4c5 19be 3dab 6abe 1b1a cfbd
000002d0: 3113 abbe 4dfe 00be c17d aa3c 0e05 63be
000002e0: 65bd d93c 57fd 093e f802 6fbe 49c3 ee3d
000002f0: 8160 b3bc c875 1bbd 15b4 6f3d 394d 0d3e
00000300: 2fbd eebd 0edc 71be 0e91 bfbd bfdc f63c
00000310: 541d 343d 19dd bebe 3e8e 8f3d ad9d 853d
00000320: 8069 48bd 4fbd 40be d9c4 bfbd c2a7 e9ba
00000330: 17e8 003f 900d bfbc 76cf b83c 1031 963e
00000340: fde6 02be 5731 c4be 8260 843e 8031 973b
00000350: 8d15 eabd fff9 dcbe 4727 04bd 02e0 03be
00000360: 9ee2 f9be ed3e 313e 3181 0fbd 10fe 17be
00000370: ecb3 0ebe 2c19 bdbe 0910 8abe cc30 38bf
00000380: 013b 8abe f7e0 8ebe 5664 8d3b 7962 76be
00000390: 84c0 8e3e ffcf d1be 1251 a83d 11e1 46be
000003a0: c115 0b3e 9a0f 2c3e de50 8bbd e106 32be
000003b0: aa1a 54be dfa8 96be 4122 96be f421 8cb9
000003c0: 6632 48be a1dd 0fbe bb34 67be 5c35 41bd
000003d0: 482f 8d3e 2f56 753e 0939 773e 5175 613e
000003e0: ab4c 20be 0e21 92bd b1aa dd3e 7cae 2fbc
000003f0: 72cd 903d 6a40 d1bd c5b4 7a3d 6f57 0d3d

net.4.bias f4 [64]
0.16579746 -0.12636437 -0.024399307 0.052999236 0.038885795 -0.18467169 0.104750656 -0.085046954
0.13803098 0.110626556 0.025309438 0.094068535 -0.17296639 0.0452805 0.12348706 0.0870366
0.113439135 0.056284077 -0.32242957 0.16517106 0.19961914 0.08229652 0.1522945 -0.21775159
-0.15195826 -0.26458463 -0.21741489 0.12784708 0.26422468 0.17100821 -0.0046217064 0.07532919
-0.07626731 0.11878928 0.13279703 0.101242006 0.096792616 -0.22015436 0.17451406 -0.04464587
-0.14673358 -0.029213125 0.11383212 0.086939804 0.14667897 -0.09283929 0.20192063 -0.0023626015
-0.31566057 -0.104478166 0.09429725 0.095579155 0.055241432 -0.32504073 -0.10810422 -0.051060844
-0.0035109099 0.043927856 -0.15592866 0.20543228 -0.31985605 0.08847322 0.16569558 -0.07757412
00000000: cfc6 293e a965 01be 0ee1 c7bc ba15 593d
00000010: b646 1f3d 931a 3dbe 8387 d63d 192d aebd
00000020: fe57 0d3e 2d90 e23d bd55 cf3c 01a7 c03d
00000030: 1a1e 31be 0c78 393d c9e6 fc3d 3f40 b23d
00000040: c752 e83d 228a 663d 7d15 a5be 9a22 293e
00000050: f668 4c3e 148b a83d 17f3 1b3e 46fa 5ebe
00000060: f29a 1bbe a377 87be 02a2 5ebe 58ea 023e
00000070: 7548 873e c71c 2f3e af71 97bb 3146 9a3d
00000080: 0932 9cbd cb47 f33d f2fb 073e f857 cf3d
00000090: 353b c63d 2570 61be d0b3 323e 96de 36bd
000000a0: 5441 16be 5d50 efbc d120 e93d 7f0d b23d
000000b0: 0333 163e 8722 bebd 48c4 4e3e e0d5 1abb
000000c0: 439e a1be a6f8 d5bd eb1e c13d 01bf c33d
000000d0: d744 623d bd6b a6be bf65 ddbd 2d25 51bd
000000e0: 4b17 66bb b2ed 333d c3ab 1fbe d75c 523e
000000f0: 2cc4 a3be 7331 b53d 1aac 293e 2edf 9ebd

net.6.weight f4 [1, 64]
0.067441076 0.130262 0.25114363 0.36042115 0.13411587 -0.08985243 0.107087515 -0.22666387
0.15534715 0.22137998 -0.27045247 0.19881316 -0.03877148 0.1141641 -0.35783544 0.16089565
0.18161795 -0.36881435 -0.16575797 0.12794423 -0.25501415 0.06768553 0.19261447 -0.35813144
-0.3195391 -0.10384802 -0.014498233 -0.23733553 0.13373634 -0.20693342 -0.30142373 0.08102955
0.03891284 0.20862998 0.2081576 0.15662272 0.10365497 -0.07121209 0.16573256 0.15658207
-0.001481845 -0.37511978 0.18526912 0.17980021 0.35753742 0.40177774 0.085048065 -0.21901044
-0.17791328 -0.45814237 0.36400625 0.13440867 -0.22236544 -0.09532048 -0.14463975 0.1575874
0.4889564 0.111115895 0.1309542 -0.373331 -0.1654415 -0.2681967 0.20589548 0.2835633
00000000: 8c1e 8a3d 6763 053e e695 803e 1f89 b83e
00000010: ac55 093e 8d04 b8bd b350 db3d 931a 68be
00000020: 5313 1f3e 6fb1 623e bf78 8abe ad95 4b3e
00000030: d8ce 1ebd dece e93d 3536 b7be d4c1 243e
00000040: 0efa 393e 3cd5 bcbe 75bc 29be d003 033e
00000050: 3791 82be b69e 8a3d ba3c 453e 015d b7be
00000060: a19a a3be 45ae d4bd ff89 6dbc 1608 73be
00000070: 2ef2 083e 5be6 53be 3654 9abe d2f2 a53d
00000080: 1263 1f3d 19a3 553e 4427 553e b561 203e
00000090: 0f49 d43d a5d7 91bd ccb5 293e 0d57 203e
000000a0: 783a c2ba b30f c0be 30b7 3d3e 8c1d 383e
000000b0: 250f b73e d0b5 cd3e ae2d ae3d 4644 60be
000000c0: e62e 36be a391 eabe 075f ba3e 6da2 093e
000000d0: c4b3 63be 6237 c3bd 711c 14be 975e 213e
000000e0: 7e58 fa3e bb90 e33d dc18 063e 3e25 bfbe
000000f0: 7f69 29be 1451 89be 44d6 523e 352f 913e
