cancer_iterative/cancer_models/60_train/tvae_final_model.pt (torch, 45323 bytes, 7 tensors)

net.0.weight f4 [64, 30]
0.08051525 -0.07147535 -0.014402485 0.0013988648 0.10656334 0.0020168421 -0.060039453 0.013223085
-0.3129661 -0.110748135 -0.22018178 0.09398819 0.0024834466 -0.10372827 -0.09397871 0.089645654
-0.30867052 -0.18100299 -0.02135489 0.13962746 -0.098197706 -0.13466395 -0.24449533 0.077795975
-0.06320948 0.10760021 -0.2397 -0.29528362 -0.116587386 -0.008551144 0.006105765 0.18250091
0.16670342 0.06920427 -0.10756753 0.15978467 0.2208579 -0.05240807 -0.19268236 -0.13265121
-0.04254297 0.048872564 0.071731165 0.15528838 -0.24818264 0.15344843 0.0086225 -0.1324512
0.10547855 -0.048463736 -0.007847443 -0.017940687 0.10982206 -0.0015794238 0.058876712 0.015475916
0.06518237 -0.07821655 0.14338155 0.25218183 0.07781753 -0.0790867 0.23060219 -0.2304747
0.080880135 0.17874411 -0.06711805 -0.05598576 0.041181743 -0.13043097 -0.15888178 -0.11961771
-0.17944148 0.06633117 0.152928 -0.021319633 -0.08498036 -0.1657542 0.019708369 0.11856546
-0.04501347 0.24451572 -0.1816432 0.1254468 -0.13089839 0.121008955 -0.12520987 -0.012091549
-0.0923674 -0.14679535 -0.11527717 0.18117173 0.04156628 -0.07099399 0.17890455 0.20496741
0.040013682 -0.0074272673 -0.13974895 -0.21134275 -0.069667205 -0.038710244 0.011681903 -0.07140391
0.09235681 -0.21532296 0.11242804 0.0025488527 -0.086548455 0.0016712031 0.1043768 0.003883888
0.044589303 0.019445682 0.120875254 -0.22869782 -0.23170912 -0.16388543 -0.015347873 -0.08479808
-0.16949384 -0.08804159 0.08621388 -0.20613745 0.02943159 -0.10692476 0.058161605 0.042316187
-0.0064157736 -0.1839944 0.07349738 0.082386985 -0.007723769 -0.07452383 0.13528775 0.17231473
0.08667481 0.018062802 0.2368318 0.10720139 0.15346286 -0.02919443 -0.13329007 -0.14545685
-0.024826722 -0.19537388 -0.090919316 -0.19401972 0.10579278 -0.0396143 -0.058237072 -0.15969509
0.001790294 -0.10425913 -0.041932546 0.14414832 0.0824044 -0.032608982 -0.24676886 -0.10334035
-0.074420154 0.08537727 0.14751941 0.057974994 0.034759022 -0.00081924483 -0.07256943 -0.056962688
0.092408866 -0.09068538 0.0865317 -0.30785686 0.082559444 -0.06122378 0.14078142 0.04903865
-0.20038737 -0.10351577 0.07547813 -0.12787716 -0.01920006 -0.0382646 0.06432747 -0.03358539
0.032250088 -0.09810901 0.014730133 0.10257259 -0.22007276 -0.07000885 -0.27448127 -0.0170896
0.04008725 -0.13287914 -0.07770434 -0.094679594 -0.13739817 -0.13993779 0.10543047 -0.18758701
-0.1759226 0.21784079 -0.23135544 0.1379824 -0.14905794 0.17447619 -0.019195585 -0.058337018
-0.118748344 0.16973154 -0.011475627 0.007839947 -0.10222175 -0.18223713 -0.023550386 -0.06926479
-0.15652312 0.059645742 0.097611986 0.06278763 0.030607488 -0.1984988 -0.17930306 -0.09292943
0.13477544 0.04262603 0.11228219 0.13794312 -0.101329304 -0.029131241 -0.019128071 0.11827496
0.023166865 -0.08005425 0.024046566 0.06394857 -0.21301642 0.16884902 -0.1091527 0.06292888
-0.2386118 -0.14533234 -0.18939982 -0.14975993 -0.15275808 -0.11292869 -0.11305405 -0.06654011
0.19444978 0.06581407 -0.16335443 -0.06878982 -0.027518617 -0.06654246 -0.13707055 0.14484768
00000000: 2ee5 a43d ab61 92bd 67f8 6bbc 1d5a b73a
00000010: e13d da3d ff2c 043b eeeb 75bd a3a5 583c
00000020: 183d a0be ebcf e2bd 5577 61be e17c c03d
00000030: 52c1 223b 7d6f d4bd e977 c0bd 2498 b73d
00000040: 100a 9ebe d958 39be 73f0 aebc 80fa 0e3e
00000050: e11b c9bd 59e5 09be fc5c 7abe 7f53 9f3d
00000060: f973 81bd 805d dc3d eb73 75be 6a2f 97be
00000070: 5ec5 eebd 191a 0cbc de12 c83b 85e1 3a3e
00000080: 4db4 2a3e f8ba 8d3d 5d4c dcbd 989e 233e
00000090: 9328 623e d8a9 56bd 864e 45be b8d5 07be
000000a0: 8a41 2ebd 992e 483d cae7 923d eb03 1f3e
000000b0: 9723 7ebe 9621 1d3e 6345 0d3c 4aa1 07be
000000c0: 2305 d83d e981 46bd 9092 00bc 59f8 92bc
000000d0: 63ea e03d ab04 cfba b528 713d b28e 7d3c
000000e0: 567e 853d 0030 a0bd 9dd2 123e fa1d 813e
000000f0: cc5e 9f3d 35f8 a1bd fb22 6c3e 8f01 6cbe
00000100: 7ca4 a53d b208 373e 3075 89bd 5351 65bd
00000110: 30ae 283d b28f 05be e8b1 22be 21fa f4bd
00000120: 82bf 37be a3d8 873d 2899 1c3e 83a6 aebc
00000130: 2f0a aebd 78bb 29be 7273 a13c 73d2 f23d
00000140: 0b60 38bd 5462 7a3e ad00 3abe 2075 003e
00000150: 3a0a 06be 8bd3 f73d 0437 00be a21b 46bc
00000160: 1f2b bdbd 8551 16be 7016 ecbd 1585 393e
00000170: 6741 2a3d 4c65 91bd c132 373e fae2 513e
00000180: 63e5 233d 6f60 f3bb 591a 0fbe 3c6a 58be
00000190: aead 8ebd a28e 1ebd 7465 3f3c 373c 92bd
000001a0: 9125 bd3d 9f7d 5cbe ac40 e63d a70a 273b
000001b0: 5140 b1bd 450c db3a 81c3 d53d d488 7e3b
000001c0: 46a3 363d 8d4c 9f3c 728d f73d c32f 6abe
000001d0: 2845 6dbe 95d1 27be a575 7bbc 9eaa adbd
000001e0: cb8f 2dbe 264f b4bd e790 b03d b215 53be
000001f0: 851a f13c 5efb dabd dd3a 6e3d bd53 2d3d
00000200: 693b d2bb 0769 3cbe cb85 963d 82ba a83d
00000210: ac17 fdbb f39f 98bd df88 0a3e 4673 303e
00000220: 9082 b13d 71f8 933c 0984 723e 678c db3d
00000230: 5e25 1d3e 2829 efbc 317d 08be a4f2 14be
00000240: 6961 cbbc 1710 48be e833 babd 1bad 46be
00000250: e3a9 d83d 9b42 22bd ff89 6ebd 1c87 23be
00000260: 4ca8 ea3a d085 d5bd 76c1 2bbd 9e9b 133e
00000270: a3c3 a83d ff90 05bd fab0 7cbe 1ba4 d3bd
00000280: 9869 98bd 47da ae3d 540f 173e 3077 6d3d
00000290: 7a5f 0e3d 97c2 56ba 489f 94bd b551 69bd
000002a0: dc40 bd3d 42b9 b9bd 8837 b13d 6a9f 9dbe
000002b0: ed14 a93d c9c5 7abd 0129 103e c0dc 483d
000002c0: 5932 4dbe 1300 d4bd 4794 9a3d 3bf2 02be
000002d0: 7249 9dbc 57bb 1cbd 1fbe 833d d590 09bd
000002e0: ab18 043d 60ed c8bd a856 713c 9411 d23d
000002f0: c15a 61be cd60 8fbd cf88 8cbe 7dff 8bbc
00000300: 8732 243d 7811 08be 7423 9fbd 60e7 c1bd
00000310: 1bb2 0cbe da4b 0fbe eeeb d73d cf16 40be
00000320: 0e25 34be a811 5f3e 71e8 6cbe 424b 0d3e
00000330: a5a2 18be e3a9 323e 0f40 9dbc ccf2 6ebd
00000340: 5532 f3bd 1bce 2d3e 4504 3cbc 1f73 003c
00000350: a359 d1bd 5f9c 3abe bdec c0bc b3da 8dbd
00000360: 9947 20be 184f 743d cbe8 c73d cd96 803d
00000370: 8ebc fa3c 4543 4bbe 399b 37be c951 bebd
00000380: 9302 0a3e a298 2e3d 34f4 e53d f640 0d3e
00000390: bd85 cfbd a4a4 eebc 79b2 9cbc 243a f23d
000003a0: 70c8 bd3c 7cf3 a3bd 4efd c43c 78f7 823d
000003b0: fa20 5abe c2e6 2c3e 738b dfbd dbe0 803d
000003c0: a756 74be 00d2 14be 07f2 41be ab5a 19be
000003d0: 9d6c 1cbe 2847 e7bd e288 e7bd 2e46 88bd
000003e0: d81d 473e 87c9 863d 6246 27be ade1 8cbd
000003f0: b96e e1bc 6a47 88bd 395c 0cbe f352 143e

net.0.bias f4 [64]
0.052334514 0.11912862 0.0053550857 0.32272303 0.09936967 -0.09313493 0.047699515 0.06391731
-0.14629512 -0.08582759 -0.07098364 -0.0999464 0.048111454 0.05590749 -0.12198207 0.21323486
0.22393468 0.1535581 0.10458062 0.08206898 -0.11901652 0.040446732 -0.00082371273 0.09728316
0.009208885 0.0018555279 -0.17430396 0.05872943 0.10029226 0.070672914 0.08556299 0.1448647
-0.0664081 0.1109432 -0.07663002 0.1347562 0.26667577 -0.15203415 -0.17593841 -0.17698488
-0.1202367 0.10959628 -0.1062784 -0.10635433 -0.13105386 -0.062454984 0.16433603 -0.0261047
-0.072458655 0.19795185 0.12499014 0.19242635 -0.1718402 -0.05314757 0.040820293 -0.09907743
0.011312207 -0.18226723 0.018717213 0.2145638 0.12060728 0.15832181 -0.15056074 -0.08867562
00000000: b75c 563d b5f9 f33d b779 af3b f43b a53e
00000010: 5382 cb3d 87bd bebd 9160 433d 14e7 823d
00000020: 63ce 15be 60c6 afbd df5f 91bd b3b0 ccbd
00000030: 8410 453d 41ff 643d bcd1 f9bd 3d5a 5a3e
00000040: 224f 653e 563e 1d3e 5d2e d63d c813 a83d
00000050: efbe f3bd 79ab 253d 6dee 57ba 653c c73d
00000060: dde0 163c 2f35 f33a bd7c 32be 458e 703d
00000070: 0766 cd3d f6bc 903d a63b af3d 6957 143e
00000080: f800 88bd 3036 e33d 33f0 9cbd 87fd 093e
00000090: ba89 883e d7ae 1bbe 3329 34be 863b 35be
000000a0: a93e f6bd 0474 e03d 7da8 d9bd 4dd0 d9bd
000000b0: fc32 06be ccd0 7fbd b447 283e 86d9 d5bc
000000c0: 3465 94bd e4b3 4a3e d5fa ff3d 6a0b 453e
000000d0: e1f6 2fbe 44b1 59bd 2e33 273d 1ce9 cabd
000000e0: d656 393c 43a4 3abe d754 993c 9db6 5b3e
000000f0: f300 f73d 1d1f 223e 982c 1abe 909b b5bd

net.2.weight f4 [64, 64]
0.18302743 -0.060610052 0.1085403 0.11288013 0.008082804 0.17579503 0.04733845 0.114337
-0.014194619 0.016395625 0.0027082781 0.14676887 -0.0142273065 -0.0010782491 0.11791911 -0.031130582
-0.064349 0.16596393 0.030928941 0.072992794 -0.03236378 -0.025991311 0.069378376 -0.16964962
-0.043766696 0.045624796 0.007449968 -0.09234692 0.054843467 0.11383999 -0.10646013 -0.05745929
-0.010053973 -0.068312995 -0.010615489 -0.053076863 0.021363141 0.022940518 -0.0099744415 0.17926629
0.1500547 0.20073031 0.14536627 -0.0003393876 0.11455883 0.05556687 -0.011419677 -0.07886411
0.008718907 0.06725987 0.019659126 0.10917534 0.010846959 0.11968435 -0.014078161 0.001777131
0.096472144 -0.109074295 -0.09572656 -0.091426134 -0.08421606 -0.11202071 -0.17316552 0.006202792
-0.0037645313 -0.04311703 -0.04246015 0.13717648 0.096156746 0.079830796 -0.10368569 -0.06618163
0.028471252 -0.09138177 -0.01788514 0.06531673 0.1463135 -0.108018786 -0.06227092 0.18495664
0.061107848 0.008996337 -0.036584593 0.12273243 -0.013850339 0.11761263 -0.15050322 -0.030200971
0.106009096 -0.10213316 0.05714923 0.03030408 0.11232504 0.07442427 0.10005515 0.014747152
-0.08519085 -0.08423961 0.040770914 -0.02494312 0.09708605 -0.19174868 0.11779722 0.034014683
-0.031256456 -0.10915516 0.020463482 0.1280843 0.14714079 0.00751184 0.024661707 -0.12266376
0.10137097 -0.0075283195 0.047446813 -0.07257327 -0.1697721 -0.0029948202 0.09102236 0.06938049
-0.09577689 0.20015354 -0.019977279 0.17773046 0.07909035 0.07875239 0.00781318 0.037073698
0.043825533 -0.11186861 0.050826814 0.05956167 0.06699074 0.16132471 0.11151407 -0.06265287
0.104737155 -0.037634935 0.18100703 0.059950516 0.0215479 0.18511276 -0.007031641 0.045064703
-0.20187661 0.12819603 0.07529977 -0.1203206 0.060978457 -0.1792623 0.1405112 -0.08516591
0.08907585 0.2019772 0.062883064 -0.087258294 0.052857265 0.12949197 -0.03715461 -0.03212508
0.0043784175 -0.056149688 0.04160643 0.09307327 0.041791003 0.18001953 0.068867005 0.049369194
0.030374387 0.1478543 0.15248978 -0.14890133 -0.04285728 0.082920514 -0.03055544 -0.05423769
0.16843022 -0.079872966 -0.080107905 0.0039141704 0.07350266 0.09995161 -0.08835213 -0.05843096
0.10656644 -0.16102834 -0.116770364 0.08727365 -0.062503114 0.037087735 -0.150203 -0.105768085
0.120648116 0.16152856 -0.082803875 -0.012423807 -0.18906827 -0.10491333 -0.07925931 0.053265896
-0.11739731 0.14030436 -0.069618985 -0.017029084 0.004727997 -0.023859294 0.07561637 -0.03149816
0.12149917 0.051790725 -0.10054945 -0.031737406 0.03392772 0.06773936 0.016748643 0.19361354
-0.039531954 0.06744029 -0.10673741 0.09405528 -0.03296351 0.105528295 0.23457088 -0.10539885
-0.06555546 0.14195399 -0.083940715 0.07968004 0.1027322 0.011883143 0.11753323 -0.12836413
0.13549957 -0.058206525 -0.07093467 0.12062481 -0.19633406 0.07912281 0.09917035 -0.14727204
-0.1677939 0.0692947 -0.1386949 -0.07812641 -0.191261 -0.13260286 -0.045788463 0.12996571
-0.013408318 0.14494468 -0.058042724 0.0032294076 0.08775676 0.10279052 -0.092863746 0.13148844
00000000: 8b6b 3b3e 3f42 78bd 604a de3d b32d e73d
00000010: bd6d 043c 9d03 343e f6e5 413d 8429 ea3d
00000020: 8c90 68bc 1e50 863c 5e7d 313b 944a 163e
00000030: a619 69bc 0954 8dba 937f f13d 9005 ffbc
00000040: 69c9 83bd 73f2 293e b15e fd3c 3f7d 953d
00000050: e28f 04bd bbeb d4bc 4016 8e3d a1b8 2dbe
00000060: b544 33bd 11e1 3a3d dc1e f43b 6220 bdbd
00000070: 8ba3 603d f124 e93d c507 dabd 6f5a 6bbd
00000080: 6bb9 24bc afe7 8bbd 97ec 2dbc 2067 59bd
00000090: c101 af3c c1ed bb3c d76b 23bc 9591 373e
000000a0: f0a7 193e 3f8c 4d3e e5da 143e d5ef b1b9
000000b0: d29d ea3d 169a 633d 9919 3bbc 8283 a1bd
000000c0: bfd9 0e3c 8bbf 893d 2d0c a13c 5297 df3d
000000d0: 72b7 313c 121d f53d 16a8 66bc 9fee e83a
000000e0: 3093 c53d 5862 dfbd 490c c4bd a03d bbbd
000000f0: 7879 acbd 1d6b e5bd 4d52 31be ca40 cb3b
00000100: 5bb6 76bb 7c9b 30bd b2ea 2dbd fe77 0c3e
00000110: d4ed c43d 547e a33d 2a59 d4bd 3c8a 87bd
00000120: 8b3c e93c 5e26 bbbd db83 92bc c7c4 853d
00000130: 35d3 153e f438 ddbd cb0f 7fbd 4665 3d3e
00000140: 394c 7a3d 5f65 133c bad9 15bd 245b fb3d
00000150: 88ec 62bc e4de f03d 841d 1abe 0768 f7bc
00000160: 4c1b d93d 312b d1bd 5015 6a3d 4340 f83c
00000170: ac0a e63d c06b 983d b7e9 cc3d 0a9e 713c
00000180: 8a78 aebd d185 acbd 67ff 263d 8455 ccbc
00000190: 0dd5 c63d c459 44be ab3f f13d fb52 0b3d
000001a0: c506 00bd be8c dfbd 08a3 a73c 8828 033e
000001b0: 13ac 163e e225 f63b 5907 ca3c 2337 fbbd
000001c0: 959b cf3d 1fb0 f6bb 9757 423d 4ba1 94bd
000001d0: bdd8 2dbe bf44 44bb ee69 ba3d 5c17 8e3d
000001e0: ad26 c4bd 0df5 4c3e 64a7 a3bc f9fe 353e
000001f0: 1ffa a13d ef48 a13d da02 003c 97da 173d
00000200: 6782 333d 5f1b e5bd c72f 503d f0f6 733d
00000210: 7132 893d 4e32 253e 7d61 e43d 2650 80bd
00000220: 6f80 d63d 1727 1abd e859 393e ac8e 753d
00000230: 3985 b03c 338e 3d3e ae69 e6bb c495 383d
00000240: beb8 4ebe d245 033e c436 9a3d a66a f6bd
00000250: 8cc4 793d 8990 37be 2be2 0f3e 776b aebd
00000260: 666d b63d 1cd3 4e3e d6c8 803d 7ab4 b2bd
00000270: dc80 583d 8b99 043e 6f2f 18bd 9695 03bd
00000280: d478 8f3b 37fd 65bd 816b 2a3d 339d be3d
00000290: 0b2d 2b3d 0a57 383e 250a 8d3d 5a37 4a3d
000002a0: b5d3 f83c 1e67 173e 4826 1c3e 9779 18be
000002b0: 1d8b 2fbd 3bd2 a93d 674f fabc 5728 5ebd
000002c0: f978 2c3e 7094 a3bd 9d0f a4bd 7142 803b
000002d0: 9088 963d 6eb3 cc3d f6f1 b4bd 4d55 6fbd
000002e0: 813f da3d 9de4 24be 4d25 efbd 87bc b23d
000002f0: a201 80bd 4fe9 173d d1ce 19be f09c d8bd
00000300: 5c16 f73d be67 253e 1495 a9bd 398d 4bbc
00000310: 1d9b 41be cddc d6bd b552 a2bd 572d 5a3d
00000320: 006e f0bd f2ab 0f3e 6694 8ebd 9480 8bbc
00000330: 50ed 9a3b 9174 c3bc c1dc 9a3d 3704 01bd
00000340: 8fd4 f83d 8322 543d dfec cdbd 15ff 01bd
00000350: cbf7 0a3d efba 8a3d 7334 893c a142 463e
00000360: 42ec 21bd 221e 8a3d 2599 dabd 0ea0 c03d
00000370: bf04 07bd 381f d83d 5933 703e 5adb d7bd
00000380: f141 86bd 635c 113e 1ce9 abbd 4a2f a33d
00000390: 4265 d23d 84b1 423c 43b5 f03d e371 03be
000003a0: 66c0 0a3e f769 6ebd 3246 91bd 240a f73d
000003b0: cc0b 49be 240b a23d d319 cb3d 7bce 16be
000003c0: 2ad2 2bbe 61ea 8d3d 0906 0ebe bd00 a0bd
000003d0: ecd9 43be 0bc9 07be af8c 3bbd bb15 053e
000003e0: 90ae 5bbc 616c 143e 35be 6dbd 78a4 533b
000003f0: d1b9 b33d d683 d23d 592f bebd e8a4 063e

net.2.bias f4 [64]
0.108200446 0.021683391 0.09571701 0.023760835 0.14990807 0.1543864 0.034712978 -0.06087697
0.008939364 0.069928996 -0.07508801 0.14840686 0.13269602 -0.023220293 -0.06714381 0.011761235
-0.06442998 -0.02134203 0.067777075 -0.049066022 -0.08471745 0.04017317 -0.035547033 0.16594377
0.05613171 -0.017909886 0.0054139565 0.123047896 0.0049733617 0.06929399 -0.09837319 0.15214804
-0.018722294 0.13744219 0.04698091 -0.070238814 -0.1349979 0.128574 0.018866356 0.045223754
0.019607369 -0.058576565 0.037946805 -0.086793 0.099520616 0.008935006 0.16326466 0.11764771
0.12483045 0.051275667 0.10060393 -0.07159541 0.06443066 0.07372216 -0.0868084 -0.051120643
0.07634902 0.13025329 -0.04932463 0.06797918 -0.0053155855 0.06581349 0.016929612 -0.055923805
00000000: 3298 dd3d 5ea1 b13c 4807 c43d 15a6 c23c
00000010: 8081 193e 7817 1e3e 322f 0e3d 215a 79bd
00000020: 6976 123c ef36 8f3d bec7 99bd f8f7 173e
00000030: 77e1 073e 7c38 bebc b282 89bd 32b2 403c
00000040: def3 83bd 7bd5 aebc b5ce 8a3d 74f9 48bd
00000050: 5880 adbd 9f8c 243d c499 11bd 2aed 293e
00000060: 5dea 653d c1b7 92bc 8f67 b13b 8900 fc3d
00000070: 95f7 a23b 02ea 8d3d e277 c9bd b2cc 1b3e
00000080: 7f5f 99bc a5bd 0c3e 0e6f 403d 5ed9 8fbd
00000090: e43c 0abe e7a8 033e 9e8d 9a3c 8b3c 393d
000000a0: a29f a03c fbed 6fbd 1c6e 1b3d 87c0 b1bd
000000b0: 77d1 cb3d 2264 123c da2e 273e 48f1 f03d
000000c0: 1ba7 ff3d 6f06 523d 6f09 ce3d 9da0 92bd
000000d0: 39f4 833d a5fb 963d 9ac8 b1bd e163 51bd
000000e0: e05c 9c3d 1e61 053e a008 4abd ab38 8b3d
000000f0: 5d2e aebb 39c9 863d f8af 8a3c 5c10 65bd

net.4.weight f4 [64, 64]
0.1770473 -0.02149628 0.005367373 -0.075167336 0.13659467 0.06695493 0.0662641 0.008312095
0.2200357 0.08403572 0.19314201 -0.035995755 0.13333468 0.23633982 0.05479876 0.14338088
0.19131458 -0.05446471 -0.17866753 0.18419112 -0.15381305 -0.002641507 -0.14388458 0.16006646
0.21609409 -0.16647768 0.23414215 -0.019776842 -0.117678896 -0.10624219 0.09423815 -0.03561116
0.055106282 0.030223772 0.22323827 -0.13364026 0.017563486 0.033040136 0.056844275 0.14364062
0.17927876 0.08417781 0.16383596 -0.07237842 0.097449735 -0.12704836 0.17237787 -0.0513369
0.071728095 0.23960453 -0.010330674 -0.019738134 0.13785483 -0.18157749 0.10832852 -0.17605142
0.17818207 0.038113266 -0.057382524 0.0921425 -0.024743633 -0.061627652 0.08532037 0.12886173
-0.15921919 -0.05180113 -0.029505204 0.20117834 -0.15814789 -0.060642485 -0.010797018 0.077508606
-0.17535348 0.09484879 0.052079923 0.0004093952 0.08178566 -0.06682436 0.14330345 -0.111276835
-0.092697084 0.18994114 -0.06322462 -0.061922744 0.056952767 0.18676665 0.21181703 -0.11136959
-0.052562043 0.09535264 -0.034368627 -0.038077418 0.0034116085 0.08805201 -0.07276692 -0.02863838
-0.008708209 0.014964524 -0.049494132 0.008619611 -0.015716199 0.035396114 0.028380051 -0.105529584
-0.14763515 0.06150506 -0.1277809 0.058292344 -0.1043292 0.13847372 0.005479214 0.13656017
0.17085308 -0.115736395 -0.01079138 0.15693818 -0.011719444 0.100641035 -0.15951154 0.06271226
-0.052491583 0.10585512 0.17239064 0.12561193 0.19128266 0.0416916 0.09596141 0.07202511
0.0075071007 -0.07474658 -0.04101286 -0.050361447 0.08112291 0.116155304 0.13656884 -0.057435557
0.13224837 -0.06334173 0.1273348 0.11912898 0.16860364 0.08525332 -0.050083645 0.096935585
0.19242035 -0.01508359 -0.123071775 0.05931442 -0.059574503 -0.13878635 -0.0017384487 0.07069231
-0.015873844 -0.07002218 0.15790084 0.12200634 -0.07291724 -0.0073396964 0.0682603 -0.11849259
0.07496414 0.091732204 0.20834754 -0.15530746 -0.040811285 0.011545934 0.12251738 0.08640155
0.007886485 0.10195762 0.21842124 -0.091770165 0.16285098 -0.18602048 0.062515624 0.03258053
-0.027821474 0.13636538 -0.09425569 -0.10147137 0.1472017 -0.03468966 0.08285676 -0.07932524
-0.0040775556 0.040815096 0.030262997 -0.041562643 0.03550441 -0.17479965 0.19478431 -0.07125489
0.1456373 -0.019446788 -0.009544424 0.010548863 0.15465015 0.09416533 0.061915755 -0.17794526
0.29925722 -0.041623097 0.047569253 0.098677985 -0.037840996 0.17341776 -0.012577444 -0.024100643
0.106641084 -0.19793692 -0.14855005 0.2764834 -0.23988722 0.046770174 -0.18292916 0.0049391133
0.12621929 -0.13453065 0.09251164 0.0659417 -0.060069796 -0.038110968 0.030016277 -0.13248749
0.047618926 0.17382647 0.11459627 -0.13295037 0.04163808 0.04955119 0.019958116 0.18929602
0.11943212 -0.043011382 0.14147675 -0.09834256 0.1990381 -0.053599108 0.1341025 0.07951957
-0.055040795 0.04299287 0.053549852 -0.08170396 0.14102986 -0.24867117 0.04012345 -0.05231548
0.18487166 -0.093462944 0.13940036 -0.009596972 -0.054095834 -0.073759414 0.10652901 0.05450832
00000000: e34b 353e f718 b0bc cae0 af3b 55f1 99bd
00000010: 79df 0b3e ab1f 893d 79b5 873d 742f 083c
00000020: 0a51 613e eb1a ac3d 05c7 453e 4970 13bd
00000030: e388 083e 1103 723e aa74 603d 70d2 123e
00000040: f8e7 433e 6316 5fbd 9ff4 36be 999c 3c3e
00000050: 2b81 1dbe 221d 2dbb 7b56 13be 76e8 233e
00000060: c547 5d3e 2079 2abe f6c2 6f3e 0b03 a2bc
00000070: a201 f1bd 8195 d9bd eeff c03d 02dd 11bd
00000080: 20b7 613d d897 f73c 9398 643e fed8 08be
00000090: 4de1 8f3c 1855 073d 8bd5 683d 8716 133e
000000a0: da94 373e 6a65 ac3d 9dc4 273e 233b 94bd
000000b0: ba93 c73d f718 02be d383 303e a446 52bd
000000c0: 2ee6 923d e45a 753e fd41 29bc deb1 a1bc
000000d0: d129 0d3e 73ef 39be 58db dd3d d346 34be
000000e0: 5c75 363e a81c 1c3d f009 6bbd 35b5 bc3d
000000f0: 29b3 cabc 476d 7cbd 72bc ae3d 54f4 033e
00000100: 5b0a 23be 6c2d 54bd e6b4 f1bc b201 4e3e
00000110: 85f1 21be 4164 78bd fae5 30bc d5bc 9e3d
00000120: dd8f 33be 1540 c23d c251 553d 18a4 d639
00000130: 3d7f a73d 36db 88bd 24be 123e 1ce5 e3bd
00000140: f8d7 bdbd ee7f 423e e97b 81bd b4a2 7dbd
00000150: 4e47 693d c23f 3f3e 90e6 583e bd15 e4bd
00000160: 4c4b 57bd 3f48 c33d 1ec6 0cbd 11f7 1bbd
00000170: 4b95 5f3b 9d54 b43d d306 95bd 099b eabc
00000180: e0ac 0ebc c32d 753c 5cba 4abd 4539 0d3c
00000190: 42bf 80bc 84fb 103d 487d e83c e51f d8bd
000001a0: ab2d 17be bbec 7b3d ffd8 02be f4c3 6e3d
000001b0: 8caa d5bd 0ecc 0d3e fa8a b33b 6ed6 0b3e
000001c0: 1cf4 2e3e 3407 edbd 54ce 30bc 67b4 203e
000001d0: e902 40bc e31c ce3d fe56 23be 496f 803d
000001e0: 6a01 57bd 92ca d83d 2c87 303e 6aa0 003e
000001f0: 9adf 433e d0c4 2a3d 6a87 c43d e781 933d
00000200: 20fe f53b bc14 99bd 1afd 27bd ce47 4ebd
00000210: c523 a63d d5e2 ed3d b4d8 0b3e 8c41 6bbd
00000220: 1e6c 073e 4fb9 81bd 0e64 023e e5f9 f33d
00000230: 6fa6 2c3e 4b99 ae3d 8224 4dbd 2a86 c63d
00000240: d709 453e 2921 77bc 0e0d fcbd adf3 723d
00000250: 6504 74bd 021e 0ebe a9dc e3ba 21c7 903d
00000260: dd09 82bc ca67 8fbd c2b0 213e 76de f93d
00000270: a255 95bd d681 f0bb 0ecc 8b3d 3eac f2bd
00000280: cd86 993d 18de bb3d 0f59 553e eb08 1fbe
00000290: bc29 27bd 282b 3d3c 64ea fa3d 4cf3 b03d
000002a0: 5136 013c 28cf d03d d1a9 5f3e fff1 bbbd
000002b0: 68c2 263e 277c 3ebe 3108 803d 2973 053d
000002c0: dce9 e3bc 5ea3 0b3e 2109 c1bd 39d0 cfbd
000002d0: 0bbc 163e bf16 0ebd ceb0 a93d 4575 a2bd
000002e0: 049d 85bb bb2d 273d 1bea f73c 973d 2abd
000002f0: 126d 113d aefe 32be 8a75 473e 15ee 91bd
00000300: f221 153e df4e 9fbc 3760 1cbc 23d5 2c3c
00000310: 9c5c 1e3e c1d9 c03d 609b 7d3d 4837 36be
00000320: 3e38 993e fb7c 2abd fad7 423d af17 ca3d
00000330: 29ff 1abd 6d94 313e a011 4ebc b66e c5bc
00000340: a466 da3d faaf 4abe 811d 18be 3b8f 8d3e
00000350: ffa4 75be 1592 3f3d c851 3bbe 49d8 a13b
00000360: a13f 013e 67c2 09be be76 bd3d 710c 873d
00000370: bf0b 76bd 3f1a 1cbd b2e4 f53c cdaa 07be
00000380: 100c 433d 91ff 313e 73b1 ea3d 2424 08be
00000390: b18c 2a3d 30f6 4a3d 347f a33c d1d6 413e
000003a0: d498 f43d b42c 30bd 48df 103e d367 c9bd
000003b0: a5d0 4b3e bd8a 5bbd 2a52 093e 28db a23d
000003c0: 7572 61bd 4b19 303d 1757 5b3d 6854 a7bd
000003d0: 226a 103e a8a3 7ebe 7d58 243d c248 56bd
000003e0: ff4e 3d3e 8069 bfbd f8be 0e3e 9e3c 1dbc
000003f0: 9893 5dbd 2d0f 97bd e22b da3d 1e44 5f3d

net.4.bias f4 [64]
0.08000466 0.080157496 0.0310643 -0.022939118 0.067215376 0.1057141 0.09642083 0.046666443
0.08749481 0.08116944 -0.008086594 -0.02884893 -0.012868252 0.0395749 0.032078095 -0.06353817
-0.049876727 0.04441553 0.030242283 -0.06255936 0.09702164 0.06297175 0.123622775 0.00764336
-0.07891597 0.04082858 0.08901131 0.08447198 -0.0782349 0.0617477 -0.07365395 -0.0458406
-0.037028193 -0.025039706 0.13871096 0.16084391 0.017533641 0.07540749 -0.043565515 -0.020559989
0.07741351 0.10187242 0.027816564 0.1611737 0.011594351 -0.030842459 0.04080805 -0.056586746
0.11837959 0.0081729395 -0.060249757 0.05199432 0.07422966 0.1055192 -0.035091583 -0.032659903
-0.07872198 0.027751682 0.07004196 -0.0472208 0.15092894 0.02623541 -0.029734721 -0.072492056
00000000: 7cd9 a33d 9d29 a43d 8f7a fe3c d1ea bbbc
00000010: 37a8 893d a280 d83d 4978 c53d 5025 3f3d
00000020: 7b30 b33d 2a3c a63d a27d 04bc 9754 ecbc
00000030: 5cd5 52bc 4a19 223d 5264 033d 4d20 82bd
00000040: 8a4b 4cbd 0fed 353d aabe f73c 1f1f 80bd
00000050: 48b3 c63d 55f7 803d f02d fd3d 2775 fa3b
00000060: b29e a1bd de3b 273d 904b b63d a5ff ac3d
00000070: 9f39 a0bd 28eb 7c3d e2d7 96bd 5ac3 3bbd
00000080: e0aa 17bd 1220 cdbc 3f0a 0e3e 44b4 243e
00000090: b6a2 8f3c 3e6f 9a3d c171 32bd 6c6d a8bc
000000a0: f98a 9e3d 7da2 d03d 90df e33c b80a 253e
000000b0: 3cf6 3d3c 53a9 fcbc 5826 273d 81c7 67bd
000000c0: 0071 f23d cbe7 053c 73c8 76bd fff7 543d
000000d0: b805 983d 731a d83d 31bc 0fbd 64c6 05bd
000000e0: fd38 a1bd 7f57 e33c 2972 8f3d 996a 41bd
000000f0: 1e8d 1a3e a4eb d63c 3b96 f3bc b776 94bd

net.6.weight f4 [1, 64]
0.20297189 -0.1599309 0.14899242 0.22174689 -0.18379554 0.16857335 0.19366883 -0.21427158
0.18997404 0.22293167 -0.20020632 0.1713373 -0.21331456 -0.20957081 0.5723373 -0.2062968
-0.15058295 0.2691012 0.20305821 -0.14135443 0.23091339 0.1864283 -0.1897842 0.24622919
-0.25986585 0.24640827 0.23590389 0.22507894 -0.16599356 -0.16126975 -0.28571877 -0.12413045
0.23235415 -0.17321807 0.14017096 0.16708943 -0.1791771 0.14132911 -0.035292607 -0.21224433
-0.103244916 0.14892404 -0.135991 0.1489654 0.25269046 -0.17677481 0.19064297 -0.23295203
0.4095813 0.17465957 -0.24158606 0.17667224 -0.034667775 -0.099285215 -0.34648123 -0.21207324
-0.048479196 0.21015243 -0.04703102 -0.1734244 0.2014331 -0.17543748 0.37040868 -0.1390702
00000000: ddd7 4f3e edc4 23be 7891 183e 9e11 633e
00000010: e634 3cbe 7e9e 2c3e 1f51 463e 026a 5bbe
00000020: 8e88 423e 3348 643e e302 4dbe 0c73 2f3e
00000030: 226f 5abe bb99 56be b384 123f 783f 53be
00000040: 6b32 1abe a2c7 893e 7eee 4f3e 37bf 10be
00000050: 8f74 6c3e 0fe7 3e3e ca56 42be 8123 7c3e
00000060: 230d 85be 7352 7c3e ca90 713e 187b 663e
00000070: 37fa 29be e623 25be bb49 92be 1b38 febd
00000080: 3fee 6d3e 1460 31be fa88 0f3e 7e19 2b3e
00000090: 347a 37be 94b8 103e fb8e 10bd 9456 59be
000000a0: 1272 d3bd 8b7f 183e 3a41 0bbe 638a 183e
000000b0: a560 813e 7504 35be e937 433e fa8a 6ebe
000000c0: a4b4 d13e f5d9 323e 5662 77be 91e9 343e
000000d0: ccff 0dbd 0c56 cbbd fd65 b1be ba29 59be
000000e0: 1f92 46bd 3332 573e 99a3 40bd 2a96 31be
000000f0: 7b44 4e3e e2a5 33be 35a6 bd3e 6b68 0ebe
