cancer_iterative/cancer_models/70_train/tvae_combined_final_model.pt (torch, 45513 bytes, 7 tensors)

net.0.weight f4 [64, 30]
0	0x3df90ced	0.121606685
1	0x3d84f47c	0.06491944
2	0xbd8044a2	-0.06263091
3	0x3ea91105	0.33020797
4	0x3e895095	0.26819292
5	0x3d689b0e	0.056788497
6	0x3d6c55bd	0.057698954
7	0x3d82982a	0.06376679
8	0xbdbb5ed3	-0.09148946
9	0x3db9f1bd	0.09079311
10	0x3e584c58	0.21122873
11	0xbe08fbeb	-0.13377349
12	0x3e6d53ca	0.23176494
13	0xbd170e96	-0.036879145
14	0xbd0db8a9	-0.034599934
15	0x3c31e84b	0.010858606
16	0x3d959a72	0.07304849
17	0xbdd92aec	-0.1060389
18	0x3dedff40	0.11620951
19	0xbda7b44b	-0.08188685
20	0x3cb404a8	0.021974877
21	0xbc6a8023	-0.014312777
22	0x3df6a5e4	0.1204336
23	0xbc1c93b6	-0.009556701
24	0x3cba7318	0.02275996
25	0x3e057eb5	0.13036616
26	0xbdaa5340	-0.0831666
27	0x3d90238a	0.070380285
28	0x3da83b58	0.08214444
29	0xbcb23dd5	-0.021758
30	0x3d8ab551	0.067728646
31	0xbd8630d5	-0.06552283
32	0x3df7fbd9	0.12108583
33	0x3d9e70f7	0.0773639
34	0x3e4382d2	0.19092873
35	0x3caa6205	0.020798692
36	0x3c40158f	0.01172389
37	0x3bcbe67e	0.006222545
38	0xbe43c7a6	-0.19119129
39	0x3db37128	0.08761817
40	0x3e21684b	0.15762441
41	0x3d62e65f	0.05539548
42	0x3e089ad4	0.13340312
43	0x3e037ea3	0.12841277
44	0x3cff85ff	0.031191824
45	0xbe1da03e	-0.15393159
46	0xbd820b55	-0.06349818
47	0xbdb9a559	-0.09064741
48	0xbdd977f7	-0.106185846
49	0xbe1899ba	-0.14902392
50	0x3da79930	0.08183515
51	0x3e2994d1	0.16560675
52	0x3e0e75c1	0.13912107
53	0x3c03ecd8	0.008052073
54	0xbe138919	-0.14407767
55	0x3da3b074	0.0799264
56	0x3e287c4e	0.16453668
57	0x3e3c00c1	0.18359663
58	0xbe758fc4	-0.23980623
59	0x3e8acde8	0.2711022
60	0x3b441a4c	0.00299229
61	0xbc8a3d7e	-0.016875025
62	0xbd33b58e	-0.043874316
63	0x3d586bd9	0.052837227
64	0xbdcf92fe	-0.101354584
65	0x3c83c32f	0.016084282
66	0xbd6d0148	-0.05786255
67	0xbdee7c59	-0.11644811
68	0xbe4b598a	-0.19858375
69	0xbd38bac9	-0.045100007
70	0xbd958d16	-0.07302301
71	0xbcbc47db	-0.022983482
72	0xbd4170e4	-0.0472268
73	0xbe30c69c	-0.17263263
74	0xbccc2922	-0.024921957
75	0x3db720f6	0.08941834
76	0xbdbd10dc	-0.09231731
77	0xbdf28be8	-0.11843091
78	0xbcfb7156	-0.030693691
79	0xbd71ad59	-0.059003208
80	0xbe9c3443	-0.30508623
81	0x3de651ff	0.11246108
82	0xbe6bb392	-0.2301772
83	0xbe1fd1ff	-0.15607451
84	0xbe0615ee	-0.13094303
85	0xbe2096d7	-0.15682541
86	0xbe98a451	-0.29812863
87	0xbd27ccd0	-0.04096681
88	0xbd56dd2c	-0.05245702
89	0xbdb806bd	-0.0898566
90	0xbdd1935b	-0.10233184
91	0xbe8fcf10	-0.28087664
92	0x3e569787	0.2095624
93	0xbdf1b7ba	-0.11802621
94	0xbeb4e59d	-0.3533143
95	0xbe450688	-0.19240773
96	0x3e0a9e0f	0.13536857
97	0x3db57d1d	0.08861754
98	0x3e455697	0.19271313
99	0x3da3d714	0.08000007
100	0xbe3d552c	-0.18489522
101	0x3ccc3756	0.02492873
102	0x3e711fec	0.23547333
103	0x3e80a66c	0.2512697
104	0xbdc2f8eb	-0.095201336
105	0xbbfb231f	-0.007664099
106	0x3de1cda2	0.110255495
107	0xbccad7b0	-0.024761051
108	0x3e076439	0.13221826
109	0x3e28a9ce	0.16471025
110	0xbdf3ebea	-0.119102314
111	0xbe1c51e2	-0.15265611
112	0xbe1ab30d	-0.15107365
113	0x3d785fea	0.060638346
114	0xbce76ccc	-0.02825012
115	0xbddc3375	-0.10752002
116	0xbc719781	-0.014745594
117	0xbe3066b5	-0.1722668
118	0xbe1b8e47	-0.15190993
119	0x3cd5c41f	0.026094494
120	0x3e2a9d15	0.16661485
121	0x3db76295	0.0895435
122	0x3d7d9041	0.06190515
123	0xbe0114f5	-0.1260565
124	0xbcfc8da7	-0.030829264
125	0x3e0b2ee0	0.135921
126	0xbde5c72d	-0.112196304
127	0xbe0bdd03	-0.13658528
128	0xbd8299d0	-0.06376994
129	0xbe105607	-0.14095317
130	0xbe00a16b	-0.12561576
131	0xbd1f5529	-0.038899574
132	0xbe8b7dba	-0.2724436
133	0x3e68d6fe	0.22738263
134	0x3d858fa8	0.06521541
135	0xbda08da0	-0.07839513
136	0x3d677944	0.056512132
137	0xbe37a752	-0.17934921
138	0xbc0d351d	-0.00861862
139	0x3d38b88a	0.045097865
140	0x3e31766f	0.17330335
141	0x3da4f771	0.08055008
142	0x3e61b2c4	0.2204085
143	0x3dc3f1ed	0.09567628
144	0xbe7db74a	-0.2477695
145	0x3e298e47	0.16558181
146	0x3d8b7a0a	0.068103865
147	0x3e83f169	0.2577012
148	0xbd3d5bf5	-0.046230275
149	0x3d84c0bb	0.06482073
150	0x3e5ff9b9	0.21872605
151	0x3debe1bc	0.11517665
152	0xbe346ce7	-0.17619668
153	0x3e5a3c4c	0.21312064
154	0x3e59e3b3	0.21278267
155	0xb90d5f1c	-0.00013482239
156	0x3e195df1	0.14977242
157	0xbd653c35	-0.05596562
158	0xbea4ed30	-0.3221221
159	0x3e1b0cb1	0.1514156
160	0x3dca4ca5	0.098779
161	0x3da79ef0	0.08184612
162	0x3e92df8c	0.28686178
163	0x3e4d0ec8	0.2002517
164	0x3b34003c	0.002746596
165	0xbb023159	-0.001986584
166	0x3c1ddd37	0.009635261
167	0x3e3dc690	0.18532777
168	0x3d77a79f	0.06046259
169	0xbe779ccc	-0.24180907
170	0x3d1835b2	0.037160583
171	0xbda7f76d	-0.082014896
172	0x3d8d7fcd	0.06909142
173	0x3decc81a	0.11561604
174	0x3e286ebf	0.16448496
175	0x3d5c441e	0.0537759
176	0x3d078882	0.03308917
177	0xbce546f6	-0.027987938
178	0xbe17e5f5	-0.14833815
179	0x3da40ab3	0.08009853
180	0xbcdf8b93	-0.027288234
181	0xbe139913	-0.14413862
182	0x3d902161	0.070376165
183	0x3db9bfb7	0.0906977
184	0x3e0ea76d	0.13931055
185	0x3d5b4e27	0.05354133
186	0x3e8e2395	0.27761522
187	0x3e246b53	0.16056566
188	0x3d8076ac	0.06272635
189	0x3dca6352	0.09882225
190	0x3daa86e8	0.083265126
191	0x3e1714ad	0.14753981
192	0xbd341468	-0.043964773
193	0xbd70aa0e	-0.058755927
194	0xbe1b42ac	-0.15162152
195	0x3b8b5d5d	0.004253073
196	0xbdedb051	-0.11605895
197	0x3b3cd96a	0.0028816112
198	0xbc01fc85	-0.0079337405
199	0x3df84036	0.12121622
200	0x3d5f9d0e	0.05459314
201	0x3e72d0b4	0.23712426
202	0x3c13c7de	0.00901982
203	0x3ceaa3e6	0.028642606
204	0x3db968a4	0.09053162
205	0xbe62d2cc	-0.22150725
206	0xbe06f274	-0.13178426
207	0xbde063b3	-0.10956516
208	0xbcf1da36	-0.029522996
209	0xbcf58c6e	-0.029974189
210	0x3db56799	0.0885765
211	0x3d1676ea	0.0367345
212	0x3cb58a77	0.022160752
213	0x3de4e72b	0.11176904
214	0x3e02487d	0.12722965
215	0x3bcb5ddd	0.0062062577
216	0x3e880558	0.26566577
217	0xbe134b63	-0.14384227
218	0xbe868033	-0.26269683
219	0xbdc092f7	-0.09403031
220	0x3e201885	0.15634353
221	0x3e021525	0.12703378
222	0x3e54d73c	0.2078523
223	0x3b802319	0.003910434
224	0xbdc97f20	-0.098387
225	0xbdd56908	-0.10420424
226	0xbda2838e	-0.07935248
227	0x3de432da	0.11142512
228	0x3e2668fc	0.16250986
229	0xbbae8b99	-0.0053267
230	0x3dce7a6f	0.10081946
231	0xbdb4cba2	-0.088279024
232	0xbd28764a	-0.041128434
233	0x3dc2ce99	0.095120616
234	0xbd6823fc	-0.056674942
235	0xbddfca22	-0.10927226
236	0xbd9136d1	-0.070905335
237	0x3de86217	0.11346834
238	0xbcb5b9f6	-0.0221834
239	0x3e5fe41d	0.21864362
240	0x3d95c04a	0.07312067
241	0x3e110eb7	0.1416577
242	0x3cfb1f17	0.030654473
243	0x3dff1fc4	0.12457231
244	0xbc4c71ee	-0.012478335
245	0xbd3ea724	-0.046546116
246	0x3c9450e9	0.018104987
247	0x3be00721	0.0068367873
248	0x3de68022	0.11254908
249	0xbe28b17a	-0.16473952
250	0xbe1c8c2d	-0.15287848
251	0x3d886433	0.066597365
252	0xbc0a8d2c	-0.00845651
253	0xbcc5c809	-0.024143236
254	0xbe0109dd	-0.12601419
255	0x3dc03fde	0.09387182

net.0.bias f4 [64]
0	0xbdd51d0c	-0.10405931
1	0x3e3d6b77	0.18498026
2	0x3c4f76e8	0.012662627
3	0x3d2e5d73	0.04256959
4	0xbe076a57	-0.13224159
5	0xbd96d3c5	-0.073646106
6	0xbe8d52fb	-0.27602372
7	0xbd90d075	-0.0707101
8	0x3d905b61	0.07048679
9	0xbe076138	-0.1322068
10	0xbe63bbde	-0.22239634
11	0x3d45627f	0.048189636
12	0x3ce87430	0.028375715
13	0xbcb2fff8	-0.021850571
14	0x3d984286	0.07434563
15	0x3cdfd53f	0.027323363
16	0x3d96322d	0.07333789
17	0xbce55e64	-0.02799911
18	0xbcb36447	-0.021898402
19	0xbe37b590	-0.17940354
20	0xbdee2e2d	-0.11629901
21	0x3e44fc8e	0.19236967
22	0xbe06cdfa	-0.13164511
23	0x3df2743f	0.118385784
24	0xbe16b08a	-0.14715782
25	0xbd4ba21a	-0.04971514
26	0x3e338c3b	0.17533962
27	0xbe323071	-0.17401291
28	0x3df72be5	0.12068919
29	0x3e069c6b	0.13145606
30	0x3e3c5f96	0.18395838
31	0x3e0add54	0.13560992
32	0xbd8d7f0a	-0.069089964
33	0x3d9c9ff1	0.07647694
34	0xbded8cfb	-0.115991555
35	0xbe40f78f	-0.18844436
36	0xbe21edf4	-0.15813428
37	0x3c528d72	0.012851106
38	0x3c4c3d38	0.012465768
39	0xbcfc1d3a	-0.030775655
40	0xbe252535	-0.16127475
41	0xbd184c39	-0.037182067
42	0xbdba09c2	-0.090838924
43	0xbb123b26	-0.0022313087
44	0xbe29804a	-0.16552845
45	0x3dfb0aa8	0.12257892
46	0xbd2bbf7c	-0.04193066
47	0xbdd571a0	-0.10422063
48	0xbc746c99	-0.01491847
49	0x3dc2f006	0.09518437
50	0xbc8745fe	-0.016512867
51	0xbe6005b0	-0.2187717
52	0xbd8127c6	-0.06306414
53	0xbb41645e	-0.0029509286
54	0xbd0341db	-0.032045227
55	0x3d267e38	0.040647715
56	0x3d62ab2c	0.055339023
57	0xbddf9145	-0.1091638
58	0xbdbf8708	-0.09351927
59	0xbceee65e	-0.029162582
60	0x3dc59dfb	0.09649273
61	0xbe219ef1	-0.15783288
62	0x3d3c71c8	0.046006948
63	0xbde2d122	-0.11075045

net.2.weight f4 [64, 64]
0	0x3d219b44	0.039454713
1	0x3e718c80	0.23588753
2	0xbd40bebd	-0.047056902
3	0xbde2ea8c	-0.110798925
4	0x3cb8c20a	0.022553463
5	0x3d1d49cb	0.038400453
6	0x3dd58fab	0.10427793
7	0x3c676314	0.014122743
8	0x3d91d89b	0.07121392
9	0x3e206e5e	0.15667102
10	0x3e1cb614	0.15303832
11	0x3d54882b	0.051887672
12	0xbd62ae3e	-0.05534195
13	0x3e45a314	0.1930049
14	0xbdb32fe0	-0.08749366
15	0x3dc72d20	0.09725404
16	0xbcc77ea0	-0.024352372
17	0x3e763025	0.24041803
18	0xbe0a09f9	-0.13480367
19	0xbc986c34	-0.018606283
20	0xbcad14c4	-0.021128066
21	0xbd806166	-0.06268577
22	0x3d84b35e	0.06479524
23	0x3d1350e0	0.0359658
24	0xbdc1fc48	-0.09471947
25	0xbc213966	-0.009840345
26	0xbdd49bff	-0.103813164
27	0x3de53ecf	0.111936204
28	0xbd9eb331	-0.07749022
29	0x3ab1ae4a	0.001355597
30	0x3e01a5d4	0.12660915
31	0x3cbc27eb	0.022968253
32	0xbb5c4c67	-0.0033614875
33	0xbca2c570	-0.019869536
34	0xbdbf0bc5	-0.09328417
35	0x3e459143	0.19293694
36	0x3d5f3deb	0.05450241
37	0x3e66f4c5	0.2255431
38	0x3e0c439d	0.13697667
39	0x3d29c48c	0.041447207
40	0xbd9375e6	-0.07200222
41	0x3d1f8241	0.03894258
42	0xbbc26d6f	-0.0059334557
43	0x3d23c6a5	0.039984364
44	0x3e37354c	0.17891425
45	0xbe37aee3	-0.17937808
46	0xbd0cc98d	-0.0343719
47	0xbd945cb2	-0.07244243
48	0x3e03dff8	0.12878406
49	0xbd961bab	-0.07329496
50	0x3dac2ed2	0.08407368
51	0x3e48d8c4	0.1961394
52	0xbe4cf1b6	-0.2001408
53	0x3e1a0264	0.15039974
54	0x3e550c4e	0.20805475
55	0x3e105722	0.14095739
56	0x3d1b7d3c	0.03796123
57	0xbd9cc0a0	-0.07653928
58	0x3d08a21a	0.033357717
59	0xbdb25508	-0.08707625
60	0xbe6d612e	-0.23181602
61	0xbcd3693b	-0.025807014
62	0xbd6db66f	-0.05803531
63	0x3e3822c3	0.1798201
64	0xbdd60816	-0.10450761
65	0xbdc7d110	-0.097566724
66	0x3d871208	0.06595236
67	0x3e13fd59	0.14452113
68	0xbcfc0851	-0.030765684
69	0xbe08c195	-0.13355096
70	0xbd99bcce	-0.07506715
71	0xbd0a5ee9	-0.03378192
72	0xbdd6b0c1	-0.10482932
73	0x3d3b04b6	0.04565879
74	0xbe264b79	-0.16239728
75	0xbd82c3af	-0.0638498
76	0x3e99a94a	0.3001197
77	0x3d3a89ee	0.045541696
78	0xbcbdf2b6	-0.023187023
79	0xbe320daa	-0.17388025
80	0x3d0bdc37	0.03414556
81	0xbe14891b	-0.14505427
82	0x3d893f49	0.06701524
83	0xbd990ec4	-0.074735194
84	0x3e3e6344	0.18592554
85	0x3e57c76e	0.2107217
86	0x3defc039	0.117065854
87	0x3de2c273	0.110722445
88	0xbe159a56	-0.14609656
89	0xbc3b59c3	-0.011434975
90	0x3e38202e	0.17981026
91	0xbe67bfaf	-0.22631715
92	0x3d9526aa	0.07282765
93	0x3de84c78	0.1134271
94	0x3e022e59	0.12712993
95	0xbd983705	-0.07432369
96	0x3cc5d5a2	0.02414972
97	0x3e5377d6	0.20651183
98	0x3d686af1	0.056742612
99	0xbde48985	-0.11159042
100	0x3def4e55	0.116848625
101	0xbe002490	-0.12513947
102	0x3cdfe6fa	0.027331818
103	0xbda72b62	-0.081625715
104	0xbd82fc4a	-0.063957766
105	0x3e1c4331	0.15260006
106	0x3bd55ba2	0.0065111676
107	0x3df0258b	0.11725911
108	0xbe36c94f	-0.1785023
109	0xbca44de3	-0.02005667
110	0x3b946cd7	0.0045295763
111	0x3deef24d	0.11667309
112	0x3d907e42	0.07055332
113	0x3e767768	0.24068987
114	0x3df96465	0.12177352
115	0xbda32ea6	-0.07967882
116	0x3ded21a5	0.11578683
117	0x3db47a45	0.088123836
118	0x3e3e882c	0.18606633
119	0xbdc53dbd	-0.09630916
120	0xbad189d5	-0.0015986512
121	0x3d84ba13	0.06480803
122	0xbde54e74	-0.11196604
123	0x3e647027	0.22308408
124	0x3de58231	0.11206473
125	0x3e120ca5	0.14262636
126	0x3d7228f8	0.059121102
127	0x3d3b540f	0.04573446
128	0x3ddf0a72	0.10890664
129	0x3dded60b	0.10880669
130	0xbe3bf6a8	-0.1835581
131	0xbdbb9a93	-0.09160342
132	0xbd05b4a5	-0.03264298
133	0x3e177ca7	0.14793645
134	0x3e0b8bd5	0.1362756
135	0x3da9acc2	0.08284904
136	0xbba7b4c1	-0.005117983
137	0xbc8c37e3	-0.017116493
138	0x3dcd1f20	0.10015702
139	0x3cfa0000	0.030517578
140	0x3d4c3070	0.04985088
141	0x3dd381db	0.10327502
142	0xbb8a966b	-0.004229357
143	0x3d93a8f3	0.07209959
144	0xbdd7f5ee	-0.10544954
145	0x3e3a5fc5	0.18200596
146	0xbdc56415	-0.0963823
147	0xbd99630a	-0.07489593
148	0xbdeeb0eb	-0.11654838
149	0xbe2b3561	-0.16719581
150	0xbdc5c9cd	-0.09657631
151	0x3e2322d6	0.15931258
152	0xbda432c5	-0.08017496
153	0xbdb14705	-0.08656124
154	0x3d4a0661	0.04932249
155	0x3e6e541a	0.2327427
156	0xbe19cf58	-0.15020502
157	0xb9ea8935	-0.00044734185
158	0xbd729d85	-0.059232254
159	0x3d15c3cc	0.03656368
160	0x3e24d0e6	0.16095313
161	0x3bde6534	0.0067869667
162	0x3d1d77d6	0.038444363
163	0x3d51c900	0.05121708
164	0xbd9d3295	-0.076756634
165	0x3e0f0cfd	0.13969798
166	0x3e224d0c	0.15849704
167	0x3c922251	0.017838629
168	0xbe3a2ce3	-0.18181185
169	0x3d9e2bf0	0.07723224
170	0xbdfb6a2e	-0.122761115
171	0xbc376599	-0.011193656
172	0x3dbd671a	0.09248181
173	0xbdd7a2bd	-0.10529087
174	0xbdf10c30	-0.11769903
175	0x3db81789	0.08988864
176	0x3c088926	0.00833348
177	0xbd89e900	-0.06733894
178	0xbdaa1a87	-0.08305841
179	0xbd45a249	-0.04825047
180	0xbe081aab	-0.13291423
181	0xbdb0ef1c	-0.086393565
182	0xbaf2e0a3	-0.0018530082
183	0x3db83bfb	0.08995815
184	0x3e4579fd	0.19284816
185	0xbe4c11d7	-0.1992868
186	0xbdb6e2a0	-0.08929944
187	0xbd4ff1ee	-0.05076783
188	0xbde90170	-0.11377227
189	0x3cbe35ee	0.023219075
190	0xbd84747a	-0.06467529
191	0x3d4fe6fb	0.05075739
192	0x3cf251e0	0.029580057
193	0x3c838c99	0.016058253
194	0xbdecf4fc	-0.115701646
195	0xbdf8f1cf	-0.12155496
196	0x3e0cab20	0.13737154
197	0x3e58471f	0.2112088
198	0x3e1fd97e	0.1561031
199	0x3c0efcfd	0.008727309
200	0x3d4804d2	0.048832722
201	0x3d4bae98	0.049727052
202	0xbd03bfc3	-0.0321653
203	0x3de43c5c	0.11144325
204	0x3df2c46d	0.118538715
205	0x3d511b16	0.05105122
206	0xbce32c00	-0.027730942
207	0x3d1bb8f1	0.03801817
208	0x3ce2cdbb	0.02768599
209	0x3e470927	0.19437085
210	0xbc74379c	-0.014905836
211	0x3d94914e	0.07254277
212	0xbde77483	-0.1130152
213	0xbdf8451b	-0.12122556
214	0xbc481fb1	-0.012214587
215	0x3df1c1a8	0.11804515
216	0xbd220f03	-0.039565098
217	0xbcb491c7	-0.022042168
218	0xbd3dabb2	-0.04630632
219	0x3dd0f1d7	0.10202377
220	0xbd853091	-0.06503404
221	0xbcd926ad	-0.0265077
222	0xbe3be802	-0.18350223
223	0x3e1e4eca	0.15459743
224	0xbcca871c	-0.024722628
225	0xbd5b0a73	-0.053476762
226	0xbd1cd474	-0.03828855
227	0x3d8293fd	0.06375883
228	0x3d5d093a	0.053963877
229	0x3e11ff5b	0.14257567
230	0x3e454e06	0.19268045
231	0xbaaf57c1	-0.0013377593
232	0x3ca69f4f	0.020339636
233	0xbcb1474d	-0.021640444
234	0x3b43134e	0.0029766145
235	0x3c9411ce	0.018074896
236	0x3e50bbc4	0.20384127
237	0xbc8acb15	-0.01694254
238	0xbe1f5f7d	-0.1556377
239	0xbd1dd1c6	-0.038530134
240	0x3d97bb40	0.07408762
241	0xbc40f4c8	-0.01177711
242	0xbd214db3	-0.03938074
243	0x3d234ac3	0.03986622
244	0xbdbe8970	-0.09303558
245	0x3cad5e71	0.021163197
246	0x3d7fad82	0.06242133
247	0x3a3c6c64	0.00071877823
248	0xbd59f73b	-0.053214293
249	0xbde5cb07	-0.11220365
250	0x3debf340	0.11521006
251	0xbdca275a	-0.09870787
252	0xbdcb72fa	-0.099340394
253	0xbe0a119b	-0.13483278
254	0x3dd70ce5	0.10500506
255	0xbc5c0abb	-0.013430293

net.2.bias f4 [64]
0	0xbcfaa4e2	-0.0305962
1	0xbc90fef1	-0.01769969
2	0x3dcf1292	0.10110964
3	0xbc65b700	-0.014020681
4	0x3e0ad490	0.13557649
5	0x3e172f8a	0.14764228
6	0x3dcfe8e0	0.10151839
7	0x3e39903e	0.1812143
8	0x3cbd769a	0.023127843
9	0x3db38a85	0.08766655
10	0x3dddbe34	0.10827294
11	0x3cc28902	0.023746971
12	0xbc8b70cf	-0.017021565
13	0x3dfe59fa	0.124195054
14	0x3e215177	0.15753733
15	0x3e0f871d	0.14016385
16	0xbc96942f	-0.018381206
17	0x3b532a62	0.0032221307
18	0xbd05c164	-0.032655135
19	0x3ae2a915	0.0017292822
20	0xbda1daa9	-0.07903034
21	0xbd029970	-0.03188461
22	0x3d206ba5	0.039165158
23	0x3da2e0b6	0.079530165
24	0x3e1b8f48	0.15191376
25	0x3d436945	0.047707815
26	0xbde614d3	-0.11234441
27	0xbdc571c1	-0.096408375
28	0x3d5492a1	0.05189765
29	0x3db071f3	0.08615484
30	0x3dcee23f	0.10101747
31	0x3deaba2d	0.114612915
32	0xbd3f2e6f	-0.046675142
33	0x3d5ac586	0.05341103
34	0x3e193375	0.14961036
35	0xbd3b227c	-0.045687184
36	0x3dd68271	0.104740985
37	0xbc966e58	-0.018363163
38	0xbcf56c45	-0.029958853
39	0x3e0008de	0.12503383
40	0xbd8bc415	-0.06824509
41	0x3dcb159d	0.09916232
42	0xbd27ed12	-0.040997572
43	0x3d095c83	0.03353549
44	0x3d86f991	0.0659057
45	0x3dfa4eb8	0.12222046
46	0x3d422f1c	0.04740821
47	0xbcef09a1	-0.029179396
48	0x3d7b762f	0.061392006
49	0xbd94b669	-0.072613545
50	0xbd438b0d	-0.04774003
51	0x3e111011	0.14166285
52	0x3d977f1e	0.073972926
53	0xbc97021f	-0.018433629
54	0x3beb70ab	0.007185062
55	0x3dc13486	0.09433846
56	0xbd1138d6	-0.035454594
57	0xbd6699fc	-0.056299195
58	0xbbf645bf	-0.0075156386
59	0x3dd26a24	0.10274151
60	0x3ce20ca7	0.027593924
61	0x3db903fb	0.09033962
62	0x3c8c982d	0.017162407
63	0x3e62f990	0.22165513

net.4.weight f4 [64, 64]
0	0x3e3aa4ce	0.1822693
1	0xbe00288f	-0.12515472
2	0x3d3e8c8c	0.046520755
3	0xbd35002e	-0.044189624
4	0x3e3070ad	0.17230482
5	0xbe266e76	-0.16253075
6	0xbd3f8de3	-0.046766173
7	0x3e0504a1	0.12990047
8	0xbc3182d3	-0.010834414
9	0x3d41f564	0.047353163
10	0x3de89bc8	0.11357838
11	0x3d51ce70	0.051222265
12	0xbe28aff1	-0.16473366
13	0x3e6be9f2	0.23038462
14	0xbcbc156b	-0.022959432
15	0xbce4ae4b	-0.02791514
16	0x3e4b93b3	0.19880562
17	0xbe157988	-0.14597142
18	0xbdb5a213	-0.08868804
19	0xbd5aea11	-0.05344588
20	0xbda8fc4a	-0.08251245
21	0x3e743c2a	0.23851076
22	0x3d87dbcf	0.06633722
23	0x3dfc35b4	0.123149306
24	0x3e2fce31	0.171685
25	0x3e2820c9	0.16418757
26	0xbdc8b640	-0.098003864
27	0xbe37db20	-0.17954683
28	0x3d237ea2	0.03991569
29	0x3c0b92b9	0.008518868
30	0x3bfd51e1	0.007730708
31	0x3e370240	0.17871952
32	0x3e46d840	0.1941843
33	0x3d9781db	0.07397815
34	0x3e769922	0.24081853
35	0x3e1f1dc8	0.15538704
36	0xbddc9733	-0.107710265
37	0x3d4bf939	0.049798224
38	0x3da443ae	0.080207214
39	0xbdf03281	-0.11728383
40	0x3adbab36	0.0016759399
41	0x3e7aa5fc	0.2447738
42	0xbe137610	-0.14400506
43	0xbe0e3a53	-0.13889436
44	0xbe0a5dd3	-0.13512354
45	0xbcdf5e10	-0.027266532
46	0x3e440eda	0.1914629
47	0xbb7b603b	-0.0038356918
48	0xbd90dcb1	-0.070733435
49	0xbe0983a5	-0.13429125
50	0xbe2aed6a	-0.16692129
51	0x3d8dd111	0.06924642
52	0xbdfd1894	-0.123582035
53	0xbd61c64d	-0.055120755
54	0x3d47b4e7	0.048756506
55	0x3e557104	0.20843893
56	0xbeada4f7	-0.3391492
57	0xbe3575d6	-0.17720732
58	0xbd463ab4	-0.048395827
59	0xbde9273f	-0.11384439
60	0xbe4a706c	-0.19769448
61	0xbdff18bc	-0.124558896
62	0x3e4d6551	0.2005818
63	0x3e6f60ed	0.23376818
64	0x3aa94314	0.0012913668
65	0x3dfce83d	0.123489834
66	0xbda4e5ef	-0.08051669
67	0x3d2a03d4	0.041507557
68	0xbdf53ae3	-0.119741224
69	0x3e35055c	0.17677826
70	0x3e2d3cc1	0.16917707
71	0x3dbb5be6	0.091483876
72	0x3d356b41	0.04429174
73	0x3d2986f0	0.041388452
74	0x3dd705f5	0.10499183
75	0x3d4f4c6b	0.050609987
76	0x3e93561d	0.28776637
77	0xbdaaa8df	-0.08332991
78	0x3de6ed5c	0.112757415
79	0x3d0f38f0	0.03496641
80	0xbd5acbef	-0.053417142
81	0x3db3d25e	0.08780359
82	0x3e5e3910	0.21701455
83	0x3d4ddf48	0.050261766
84	0x3e626bf2	0.2211149
85	0xbcdd6255	-0.027024427
86	0x3e3e9378	0.18610942
87	0x3c1afd43	0.009459796
88	0xbd579c69	-0.0526394
89	0x3c27fdea	0.010253409
90	0x3d09c085	0.033630867
91	0xbd059e9b	-0.03262196
92	0x3e4fa7df	0.20278881
93	0x3e3ab5ef	0.18233465
94	0x3dcd316b	0.10019191
95	0x3c69ea5f	0.01427707
96	0xbe1a6028	-0.15075743
97	0x3c1a244e	0.00940807
98	0xbd30bc7c	-0.043148503
99	0xbdc4fef8	-0.09618944
100	0x3e66ecc2	0.22551253
101	0xbd950cb7	-0.07277816
102	0x3c95acab	0.018270811
103	0x3d57127e	0.05250787
104	0x3e17e05e	0.14831683
105	0xbe3232fb	-0.1740226
106	0x3c69ec35	0.014277508
107	0x3d436821	0.047706727
108	0x3d7ff601	0.062490467
109	0x3d6e705d	0.058212627
110	0x3d7ea6d2	0.06217081
111	0xbd652f20	-0.055953145
112	0x3e488d35	0.19585116
113	0xbd77f05d	-0.060531963
114	0x3e9a05a1	0.3008242
115	0xbb2582e4	-0.002525502
116	0x3e206d48	0.15666687
117	0x3cc3f0af	0.023918478
118	0x3d7fc535	0.06244393
119	0x3d8e8833	0.06959572
120	0x3e97a375	0.29616895
121	0x3d4144e1	0.04718483
122	0x3dd4c4dd	0.10389111
123	0x3d1c9747	0.038230207
124	0x3df7bf3a	0.120970204
125	0x3e8caf43	0.27477464
126	0xbe868c56	-0.26278943
127	0x3d215b17	0.03939351
128	0xbd9c2318	-0.07623881
129	0x3e045141	0.12921621
130	0xbd71d721	-0.059043054
131	0x3d923263	0.07138517
132	0x3bac5e35	0.005260254
133	0x3e53cc16	0.20683321
134	0x3dccf5f8	0.10007852
135	0x3d612744	0.054969087
136	0x3d3e78ab	0.046501797
137	0xbcea35da	-0.028590132
138	0x3debb88c	0.11509809
139	0x3d0ddd1e	0.034634702
140	0x3e448eb4	0.19195062
141	0xbdb0c42d	-0.086311676
142	0x3e1d7777	0.15377603
143	0x3e196bea	0.14982572
144	0x3d5efe1e	0.054441564
145	0x3e0c549b	0.1370415
146	0x3e73f25c	0.23822922
147	0x3e38566c	0.18001717
148	0x3d42ccbe	0.04755854
149	0x3c794296	0.015213629
150	0x3dd738fe	0.10508917
151	0xbe47e71e	-0.19521758
152	0x3d90f913	0.07078757
153	0x3949b9ae	0.00019238025
154	0x3d6f95d8	0.05849251
155	0x3e383b2d	0.17991324
156	0x3e213464	0.15742642
157	0x3cca7503	0.024713999
158	0x3dd6c570	0.10486877
159	0x3d374613	0.044744562
160	0xbd321e08	-0.04348567
161	0x3d14bda8	0.036313683
162	0xbe09771d	-0.13424344
163	0xbca2fee2	-0.019896928
164	0x3e589bfe	0.21153256
165	0xbe031598	-0.12801206
166	0xbda99731	-0.082807906
167	0x3e0e4fc3	0.13897614
168	0x3e1a3aa6	0.15061435
169	0x3cb55af6	0.0221381
170	0x3e448875	0.19192679
171	0x3e3d5fd0	0.18493581
172	0x3e6b5445	0.22981365
173	0x3e6cbf69	0.23119892
174	0xbdc86258	-0.097843826
175	0x3c61bc55	0.013777812
176	0x3d9bce10	0.07607663
177	0x3de18169	0.11011011
178	0x3e83d2c9	0.25746754
179	0x3dcd2ad3	0.10017934
180	0x3e5d07d0	0.21585011
181	0x3e368b09	0.17826475
182	0xbd3b954b	-0.045796674
183	0xbd308fc9	-0.043105874
184	0x3e19d149	0.15021242
185	0x3d77f0e4	0.060532466
186	0x3e0016b8	0.12508667
187	0x3db9e0cf	0.09076082
188	0x3dc26a32	0.094929114
189	0x3e21647f	0.15760992
190	0xbe45eae7	-0.1932789
191	0x3d3d32aa	0.046190895
192	0xbe11a95a	-0.14224759
193	0x3e2c4c12	0.16825894
194	0x3d8fb821	0.07017542
195	0x3e1dbeef	0.15404867
196	0xbdbb07cd	-0.09132347
197	0x3dc9fb78	0.09862417
198	0x3e4f527f	0.20246314
199	0xbd64924e	-0.05580359
200	0xbbd0b55b	-0.0063692755
201	0x3cc6ce4a	0.024268288
202	0xbd052ef9	-0.0325155
203	0xbcbea65c	-0.023272686
204	0x3dcd7874	0.1003274
205	0xbc24504c	-0.01002891
206	0x3dca5bdf	0.09880804
207	0x3d3ef507	0.046620395
208	0x3d9c88b5	0.07643262
209	0x3aec5702	0.0018031301
210	0x3e4c232f	0.19935296
211	0x3e05bb07	0.13059627
212	0x3e017215	0.12641175
213	0xbccbcb37	-0.024877174
214	0x3e0517c5	0.12997349
215	0xbe1ecfad	-0.1550891
216	0xbc002ed6	-0.007823667
217	0xbd2a40f6	-0.041565858
218	0x3d877784	0.06614593
219	0x3c9d0f02	0.019172195
220	0x3e455b7d	0.19273181
221	0x3e3f6d65	0.18694074
222	0xbd0c29a7	-0.03421941
223	0xbddb1150	-0.106966615
224	0xbcef7681	-0.029231312
225	0x3e1f0230	0.15528178
226	0x3dc119e6	0.09428768
227	0xbcf52f1f	-0.029929696
228	0x3e50caca	0.20389858
229	0xb9987059	-0.00029075405
230	0xbd5e48ed	-0.054268766
231	0x3ba17903	0.004927756
232	0x3de7f238	0.113254964
233	0x3d8a8f4e	0.067656144
234	0x3cd496ea	0.025950868
235	0x3e752a7d	0.23941989
236	0x3dae44bd	0.085092045
237	0x3d599d75	0.05312868
238	0x3d8dec9a	0.06929894
239	0x3d37de3f	0.044889685
240	0xbcef5d01	-0.029219152
241	0x3e04ce1f	0.12969254
242	0x3e75c18a	0.2399961
243	0x3e0ca3cc	0.13734359
244	0x3e292179	0.16516675
245	0x3df02e79	0.11727614
246	0x3e09603b	0.13415615
247	0xbccce52e	-0.025011625
248	0x3e4eab17	0.20182453
249	0xbb7c657f	-0.0038512645
250	0x3e58c961	0.2117057
251	0xbd839fa0	-0.064269304
252	0x3e1fe302	0.1561394
253	0x3b2be71d	0.0026230284
254	0xbe5324fc	-0.20619577
255	0x3cd252c5	0.025674233

net.4.bias f4 [64]
0	0x3e14a949	0.14517702
1	0x3bc8701b	0.0061168796
2	0xbbbca50a	-0.005756979
3	0xbc90073e	-0.017581578
4	0xbde563fb	-0.112007104
5	0x3cf4cbae	0.029882278
6	0x3de93554	0.11387125
7	0xbc6391a6	-0.013889706
8	0x3bed1033	0.007234597
9	0x3d744c87	0.059643295
10	0x3db87596	0.09006803
11	0x3e813088	0.2523234
12	0x3de4c439	0.11170239
13	0x3d388d2e	0.045056514
14	0xbd6dc203	-0.058046352
15	0x3ca39ac9	0.019971268
16	0x3c6afd53	0.014342624
17	0x3d5e8f84	0.054336086
18	0x3d2364c1	0.03989101
19	0x3dfa1782	0.12211515
20	0x3dc4ded0	0.096128106
21	0x3e1f6b84	0.15568358
22	0xbb971d16	-0.0046116216
23	0xbd0e11ea	-0.034685053
24	0xbd1abb50	-0.03777629
25	0x3df77f64	0.12084845
26	0x3d5ebc16	0.05437859
27	0x3dc1172e	0.09428249
28	0x3d2dd14b	0.042435925
29	0xbd33eb70	-0.043925703
30	0x3cb5d464	0.022196002
31	0x3dc31329	0.09525139
32	0x3b66d863	0.0035224191
33	0xbd2f866e	-0.04285281
34	0xbb2d70f3	-0.0026465028
35	0x3d40e981	0.047097687
36	0x3e4c6588	0.19960606
37	0xbd9707c8	-0.07374531
38	0x3d23a9d1	0.03995687
39	0x3df5f9ab	0.12010511
40	0x3e028867	0.12747346
41	0xbcd9133e	-0.026498433
42	0xbcde4227	-0.027131153
43	0x3d16c328	0.03680721
44	0xbcc65229	-0.024209099
45	0x3e11c7fd	0.14236446
46	0x3e17bd06	0.148182
47	0x3d5cb51e	0.053883664
48	0xbd60d5e2	-0.054891475
49	0xbd805cf4	-0.062677294
50	0x3e08a69f	0.13344811
51	0xbd83e52a	-0.06440194
52	0x3e03df2b	0.128781
53	0x3e32addd	0.17449136
54	0xbd189bbc	-0.037257895
55	0x3d6128ca	0.05497054
56	0xbcec7edd	-0.028869087
57	0x3e1d22b4	0.1534527
58	0x3d57b718	0.052664846
59	0x3d82951d	0.06376097
60	0x3d5dca54	0.054148033
61	0x3e2de291	0.1698096
62	0x3e615355	0.22004445
63	0x3d1827fe	0.037147515

net.6.weight f4 [1, 64]
0	0xbe7a5018	-0.24444616
1	0x3e4205f5	0.18947585
2	0x3e66d227	0.22541104
3	0x3e43d97b	0.19125931
4	0x3efd16fa	0.49431592
5	0x3e4976c9	0.19674219
6	0xbe7fa75b	-0.24966185
7	0xbe4627ca	-0.19351116
8	0xbe01e92b	-0.12686603
9	0x3e17a80c	0.14810199
10	0xbe5ff817	-0.21871983
11	0xbf567477	-0.8377146
12	0x3e9f1602	0.31071478
13	0xbea7c6db	-0.32768902
14	0x3e8e4df4	0.2779385
15	0x3e8e705d	0.278201
16	0x3e180c2d	0.14848395
17	0x3e52a53e	0.20570847
18	0x3e6d881b	0.23196451
19	0xbe6d6584	-0.23183256
20	0x3e6d765d	0.23189683
21	0xbe4f3603	-0.20235448
22	0xbc22e20f	-0.009941592
23	0x3ea8dae6	0.32979506
24	0x3e2fa9e2	0.17154649
25	0xbe05096c	-0.12991875
26	0x3e385c42	0.18003944
27	0xbe5859f6	-0.21128067
28	0xbe47aeca	-0.1950027
29	0x3e856546	0.26053828
30	0xbe6c64fc	-0.23085397
31	0x3e56b9b3	0.20969276
32	0x3d8f554d	0.06998692
33	0x3e439b65	0.19102247
34	0xbe4dc2bd	-0.20093818
35	0x3e7ab577	0.24483286
36	0xbeac9081	-0.33703998
37	0xbe283dbb	-0.16429798
38	0xbe469aff	-0.19395064
39	0xbe61ecdb	-0.2206301
40	0xbe5fa7f8	-0.21841419
41	0x3e5594e3	0.20857577
42	0x3e80c49d	0.25150004
43	0x3e5c9fe3	0.21545367
44	0x3e2b18dc	0.16708702
45	0x3e56dbcf	0.20982288
46	0xbe2d7af8	-0.1694144
47	0xbdfd577e	-0.123702034
48	0x3e0d27a2	0.1378465
49	0x3e77dc4e	0.24205133
50	0xbe79af2a	-0.24383226
51	0x3e701b30	0.23447871
52	0xbe39ae14	-0.18132812
53	0xbe528e1d	-0.20562024
54	0xbea4f3a2	-0.32217127
55	0x3e3bf4b6	0.18355069
56	0xbe2d9778	-0.16952312
57	0xbe55cb66	-0.20878372
58	0xbe548561	-0.20754005
59	0xbdf73fe5	-0.12072734
60	0xbe03502e	-0.12823555
61	0xbed5fde7	-0.41795275
62	0x3f4539d2	0.7704135
63	0xbdb14fc2	-0.08657791
