cancer_iterative/cancer_models/30_train/gaussian_combined_final_model.pt (torch, 45569 bytes, 7 tensors)

net.0.weight f4 [64, 30]
0.011382216 0.08560159 -0.15688941 0.13973011 -0.48555255 -0.04249175 0.022546519 -0.053784207
0.059980813 0.31258726 -0.20285615 0.081460774 0.051046643 -0.23589224 0.08617617 0.031594697
0.22542408 0.20746623 -0.42472982 -0.1343935 0.14726765 0.014033931 -0.07234427 -0.074259624
0.30598906 -0.5364968 0.09302564 -0.098986626 -0.023276092 -0.13152477 -0.08810143 0.11684149
-0.18442966 0.021123406 -0.6177651 -0.092592746 -0.1656951 -0.19726558 -0.24091679 -0.01932092
-0.31972983 -0.28344643 -0.04082348 0.11192084 0.05451971 0.34088877 0.32181194 -0.13406833
-0.26647633 0.09591895 0.054878384 0.18600762 0.16388895 0.17591664 -0.24328256 -0.040281687
-0.021376872 -0.33034056 0.169097 0.02719685 -0.054342844 -0.017405916 -0.08859292 0.24656232
-0.381674 -0.026972441 0.16964345 -0.059912704 -0.049975593 0.27124888 -0.06513692 -0.013694009
-0.16814524 0.15184456 0.1130817 0.0069357124 0.07764269 -0.15443672 -0.15418687 0.107189596
0.16655003 0.101667695 0.14267448 0.48821914 -0.3244087 -0.39975724 -0.13253789 -0.08589985
-0.26273263 0.0517216 -0.21124254 -0.2637052 -0.32751578 0.16999923 -0.34742716 0.17053401
-0.19145569 0.07151304 -0.23871721 0.21438381 0.071153104 0.12191457 -0.021840978 -0.029032087
0.27947253 0.1975549 0.29162437 0.28714532 0.16188988 -0.048654303 0.037715152 0.0861094
-0.18154371 0.117373616 0.17053004 -0.39219496 0.26997015 -0.33591494 -0.17131291 -0.14837898
0.065028846 -0.09336042 0.101364575 0.00832361 -0.112973176 -0.38125846 0.22413638 0.2408528
-0.18052594 -0.27776375 -0.2514365 0.06363533 0.05903472 0.06374978 0.10667526 -0.13591379
0.066508606 -0.22319429 -0.42509377 -0.09088524 0.06298098 -0.061271194 0.042844173 -0.013970914
0.12184967 -0.10523198 0.20689863 0.19782406 -0.27582902 0.13868837 0.20036562 -0.09337183
0.20283662 -0.19824013 0.045779433 -0.108139955 0.0004838659 0.12325236 -0.44689152 0.016847052
-0.09464123 0.15857811 0.19997644 0.118123315 -0.33416438 0.18288441 -0.39005315 0.42159307
-0.07498815 0.07235205 -0.23455204 -0.007044448 -0.13279603 -0.32277808 0.08622425 0.17207888
-0.06315487 0.11514748 -0.5780639 -0.016082335 -0.09748853 -0.21171166 -0.07279013 -0.14590795
-0.23557258 -0.14852034 -0.19149236 0.2661083 0.22489017 -0.18881929 -0.30515766 -0.04860765
0.18794465 0.17922452 0.037340343 0.20399041 0.2525483 -0.2872717 -0.24028967 -0.2323665
-0.28910998 -0.13123693 -0.00046899816 0.11694986 0.28613776 0.046705864 0.27735105 -0.13904431
-0.03494251 0.16883603 0.16944823 0.038337003 -0.027122688 0.19812994 -0.12963703 0.49123606
-0.13179955 -0.07676268 0.073313095 0.07488944 0.3779734 0.06537256 0.058332246 -0.06253229
0.014416804 -0.029850146 -0.08787723 -0.09622127 -0.38085958 -0.17573525 -0.21356809 -0.047687687
-0.14595862 0.104200356 -0.22059187 -0.4289414 -0.39868578 0.039503478 -0.16312015 -0.010335156
0.0011960313 0.1426249 -0.12626052 0.25348136 -0.041899562 0.050530996 0.25731763 0.06201958
-0.16901605 0.15169068 -0.04926972 0.31265426 0.012955861 -0.38570756 -0.058645815 0.1310657
00000000: 797c 3a3c e34f af3d 9ea7 20be 6915 0f3e
00000010: 589a f8be d40b 2ebd 7ab3 b83c d44c 5cbd
00000020: 71ae 753d 700b a03e 86b9 4fbe e8d4 a63d
00000030: 4916 513d bc8d 71be 227d b03d 7169 013d
00000040: 92d5 663e 0772 543e 3076 d9be 739e 09be
00000050: 55cd 163e 93ee 653c 3c29 94bd 6e15 98bd
00000060: 99aa 9c3e db57 09bf 3a84 be3d 80b9 cabd
00000070: 81ad bebc 6eae 06be 866e b4bd 974a ef3d
00000080: 21db 3cbe fe0a ad3c db25 1ebf 44a1 bdbd
00000090: faab 29be fdff 49be e4b2 76be e846 9ebc
000000a0: a1b3 a3be e41f 91be 8536 27bd c136 e53d
000000b0: 0f50 5f3d f988 ae3e 89c4 a43e 3549 09be
000000c0: 966f 88be 2871 c43d 28c8 603d c878 3e3e
000000d0: 81d2 273e 7e23 343e 101f 79be 69fe 24bd
000000e0: 8d1e afbc 6622 a9be c427 2d3e eecb de3c
000000f0: 9a96 5ebd da96 8ebc 3470 b5bd d57a 7c3e
00000100: c66a c3be 4ff5 dcbc 03b7 2d3e 0667 75bd
00000110: 35b3 4cbd 22e1 8a3e 8166 85bd d65c 60bc
00000120: 442e 2cbe 247d 1b3e 6197 e73d f944 e33b
00000130: 2103 9f3d a924 1ebe 2ae3 1dbe 3886 db3d
00000140: 178c 2a3e 2737 d03d 4219 123e dcf7 f93e
00000150: e618 a6be fbac ccbe 03b8 07be 43ec afbd
00000160: e484 86be 07da 533d f74f 58be 5e04 87be
00000170: 26b0 a7be 4714 2e3e f9e1 b1be 78a0 2e3e
00000180: f60c 44be 6e75 923d 4972 74be 6e87 5b3e
00000190: b8b8 913d 59ae f93d daeb b2bc b3d4 edbc
000001a0: 0617 8f3e d54b 4a3e ca4f 953e b604 933e
000001b0: 76c6 253e bc49 47bd 347b 1a3d 205a b03d
000001c0: 98e6 39be 9461 f03d 6d9f 2e3e c7cd c8be
000001d0: 8739 8a3e 0bfd abbe a76c 2fbe a9f0 17be
000001e0: d82d 853d bf33 bfbd 3b98 cf3d c05f 083c
000001f0: 7b5e e7bd 4f34 c3be 0284 653e 1ea2 763e
00000200: cbdb 38be 0d37 8ebe 49bc 80be 3d53 823d
00000210: 64ce 713d 3f8f 823d 8f78 da3d fc2c 0bbe
00000220: aa35 883d 0b8d 64be e4a5 d9be 0a22 babd
00000230: 2cfc 803d 81f7 7abd 5f7d 2f3d 43e6 64bc
00000240: 528c f93d dd83 d7bd 3cdd 533e 6492 4a3e
00000250: 7639 8dbe 5304 0e3e a52c 4d3e bb39 bfbd
00000260: 67b4 4f3e 76ff 4abe 3783 3b3d 7b78 ddbd
00000270: 62af fd39 bc6b fc3d f7ce e4be d402 8a3c
00000280: 43d3 c1bd 4d62 223e a0c6 4c3e a3ea f13d
00000290: 9817 abbe 0d46 3b3e 0cb5 c7be 0cdb d73e
000002a0: 6393 99bd 502d 943d 692e 70be 1dd5 e6bb
000002b0: affb 07be 2b43 a5be 5796 b03d 7235 303e
000002c0: 5757 81bd 71d2 eb3d fffb 13bf 1abf 83bc
000002d0: 11a8 c7bd f1ca 58be fe12 95bd e568 15be
000002e0: f039 71be b715 18be 9316 44be 593f 883e
000002f0: 9c49 663e d859 41be a03d 9cbe d118 47bd
00000300: 9074 403e a286 373e 30f2 183d dde2 503e
00000310: 034e 813e 4715 93be 7f0e 76be 7cf1 6dbe
00000320: 3906 94be f962 06be dee3 f5b9 6883 ef3d
00000330: a680 923e a64e 3f3d f500 8e3e a261 0ebe
00000340: e11f 0fbd 5ae3 2c3e d683 2d3e 4307 1d3d
00000350: 6630 debc 93e2 4a3e 92bf 04be 4b83 fb3e
00000360: 76f6 06be c135 9dbd 2d25 963d a25f 993d
00000370: bb85 c13e 0ce2 853d cbed 6e3d ee10 80bd
00000380: 7534 6c3c 4b88 f4bc faf8 b3bd a80f c5bd
00000390: 0700 c3be f1f3 33be 98b1 5abe 2a54 43bd
000003a0: 2d76 15be ff66 d53d d6e2 61be 359e dbbe
000003b0: 8b20 ccbe 66ce 213d f808 27be c954 29bc
000003c0: 27c4 9c3a 430c 123e 704a 01be 4fc8 813e
000003d0: e09e 2bbd 97f9 4e3d 23bf 833e 3e08 7e3d
000003e0: 8b12 2dbe cd54 1b3e 0ccf 49bd 3814 a03e
000003f0: d244 543c 767b c5be 9836 70bd 1636 063e

net.0.bias f4 [64]
-0.12068012 -0.43524832 -0.32372895 -0.012909726 -0.15961915 -0.26428717 -0.118607506 -0.18287033
-0.25897044 -0.072991654 -0.2707957 -0.16738985 0.15579219 0.001402447 -0.28649166 -0.097344086
-0.22438303 0.010656529 -0.32190728 -0.20146228 -0.27805215 -0.25797 -0.10753184 -0.030337963
-0.10428165 -0.16366084 -0.30532843 -0.15093191 0.019823175 -0.34045383 -0.08123996 -0.11342174
-0.4645998 -0.28020787 -0.073151305 -0.12802714 -0.24788278 -0.18752381 0.005865371 -0.2988984
-0.1791441 -0.34523025 -0.23452845 -0.40801677 -0.012820293 0.042317424 0.022421395 -0.11579185
-0.34596434 -0.19767436 -0.17874922 -0.234396 -0.19753855 -0.06693594 -0.14110023 0.0330695
0.12238958 -0.3771342 -0.32675186 -0.09122706 0.03848528 -0.37372577 -0.056031656 -0.116410226
00000000: 2427 f7bd ded8 debe cdbf a5be 5183 53bc
00000010: 3473 23be a650 87be 7ee8 f2bd 5c42 3bbe
00000020: c697 84be a67c 95bd bca5 8abe 3f68 2bbe
00000030: fd87 1f3e 50d2 b73a 09af 92be 565c c7bd
00000040: aac4 65be b998 2e3c 08d1 a4be 214c 4ebe
00000050: da5c 8ebe a514 84be a739 dcbd 5287 f8bc
00000060: 9e91 d5bd b596 27be 0254 9cbe e58d 1abe
00000070: 3664 a23c f74f aebe 2361 a6bd a849 e8bd
00000080: 06e0 edbe 6877 8fbe 5ad0 95bd 8c19 03be
00000090: fcd4 7dbe 3e06 40be 4c32 c03b 3609 99be
000000a0: 8d71 37be 05c2 b0be 3a28 70be 93e7 d0be
000000b0: 350c 52bc 0955 2d3d 13ad b73c 4724 edbd
000000c0: 3d22 b1be 266b 4abe 090a 37be 8105 70be
000000d0: 8c47 4abe b615 89bd 947c 10be e273 073d
000000e0: 63a7 fa3d bc17 c1be 054c a7be 41d5 babd
000000f0: bea2 1d3d fc58 bfbe 7381 65bd 7c68 eebd

net.2.weight f4 [64, 64]
-0.073178254 0.34427792 0.12518227 -0.3737276 -0.1369244 0.45539933 0.009736566 -0.28107375
0.12359035 0.14363946 -0.3885927 -0.11866134 -0.23094842 0.17293888 0.13076362 -0.0026602831
-0.07163067 -0.35348314 -0.0013563811 0.19567156 -0.09937719 -0.27168527 0.09451941 -0.07560855
0.10020879 -0.5320471 0.24078658 1.6548065e-05 -0.25708294 0.055380378 0.0922309 -0.0066327965
0.16001311 0.05048734 0.0103666205 0.23457487 -0.08484874 -0.2693825 -0.11934486 -0.34924448
0.18377568 -0.06979084 0.07163498 0.17239438 -0.1773379 0.17081162 0.216574 0.20926097
0.08531003 0.04764531 -0.14967592 0.25401208 0.0070431842 -0.07213691 -0.15197669 -0.33923373
-0.7705491 0.20429474 -0.40282282 0.093006715 0.06340261 0.1278944 0.09543481 -0.2030377
0.19371676 0.113633655 0.1760917 0.20344837 -0.6307183 -0.33934912 0.01966273 -0.16886477
0.21136816 -0.3241664 0.24841928 -0.0152210025 0.05430695 -0.021925725 0.031503588 0.22394954
0.036316294 0.060346268 -0.092496164 -0.16937785 0.21995108 -0.6798188 -0.021434857 0.12168359
-0.32839045 0.13940252 -0.11047761 -0.49376428 -0.036491577 0.27835616 -0.10728881 0.02415948
0.05820345 -0.032129202 0.22654057 -0.13145843 0.2559028 0.012586091 0.24335857 0.20041673
0.013416452 0.16256179 0.086843655 0.025564704 0.21666652 0.122610055 -0.4219247 -0.0003198518
-0.09088241 0.01171433 0.40222824 0.2646214 0.06426803 -0.24576692 0.2811099 0.07037049
-0.029692017 -0.03499224 -0.0736599 0.06878285 -0.1937214 -0.07271781 -0.07667617 -0.20008971
0.15415315 -0.005786858 -0.08256329 -0.32982528 0.14467105 0.09523106 0.08142047 -0.18774922
0.021993771 0.2353059 -0.17522466 -0.071459435 0.03821534 0.119530015 -0.033828102 -0.15268575
0.3146009 -0.25146556 0.17993274 0.22162123 -0.06102242 -0.11521541 0.08417106 0.14445819
0.12618418 0.057594478 0.32907915 0.046047103 0.100134745 0.400941 -0.3496711 -0.22123593
0.06775315 0.19982325 -0.38436604 -0.08184452 0.011788196 0.008273657 0.06879188 -0.06506964
-0.1534358 0.046724703 0.2188718 0.09490516 0.060539037 0.014299569 -0.065152735 -0.3807336
0.2692021 0.07505651 -0.2241681 0.1082017 0.04059991 0.100790165 -0.19038472 0.28632152
-0.6059269 0.16844524 -0.7398787 -0.013105549 -0.029057115 0.022340674 0.033685487 0.03107705
0.11019687 0.20598245 -0.090083346 -0.17040531 0.1446417 -0.2180372 0.12127345 0.17525764
-0.5233802 0.05545248 0.114598446 0.13955204 0.033152796 0.071114786 0.049935482 -0.03597226
-0.12266168 0.02221357 0.11883589 0.16837482 -0.017989425 0.31033054 0.030583888 0.24084546
0.07689891 -0.10832599 0.020731807 0.20521991 0.16700058 -0.29416004 0.27904612 0.1469197
0.23892953 -0.04794548 0.058824103 -0.120021656 -0.18703233 -0.006519963 -0.13591293 0.34204042
-0.1557293 0.14438741 -0.1669195 -0.34025845 -0.033754393 -0.32214895 0.12462153 -0.046325214
-0.2738167 -0.10756769 0.20497261 -0.29439944 -0.045490213 0.14174303 0.14313708 0.13002537
-0.06480687 0.22740662 0.052667476 -0.10090607 -0.28540555 0.07562867 -0.23794624 -0.14362511
00000000: 7bde 95bd 3245 b03e c82f 003e 3959 bfbe
00000010: e935 0cbe 1a2a e93e 1e86 1f3c e6e8 8fbe
00000020: f01c fd3d 3916 133e 9ff5 c6be b704 f3bd
00000030: be7d 6cbe e416 313e e6e6 053e 2558 2ebb
00000040: 1ab3 92bd befb b4be 99c8 b1ba 205e 483e
00000050: 4586 cbbd 551a 8bbe 6493 c13d a8d8 9abd
00000060: 443a cd3d 3d34 08bf c290 763e b3d0 8a37
00000070: 60a0 83be 89d6 623d 8ee3 bc3d ee57 d9bb
00000080: 7ada 233e d0cb 4e3d c2d8 293c 6534 703e
00000090: 2dc5 adbd 81ec 89be 146b f4bd 2cd0 b2be
000000a0: b12f 3c3e 80ee 8ebd 5cb5 923d 2788 303e
000000b0: 1198 35be 3ee9 2e3e 93c5 5d3e 8248 563e
000000c0: 06b7 ae3d bb27 433d a544 19be df0d 823e
000000d0: 83ca e63b 84bc 93bd c79f 1bbe 0bb0 adbe
000000e0: b542 45bf a432 513e cb3e cebe 4e7a be3d
000000f0: 3ad9 813d c0f6 023e 5373 c33d 1de9 4fbe
00000100: b05d 463e c3b8 e83d 6251 343e c554 503e
00000110: c176 21bf 2bbf adbe bc13 a13c e3ea 2cbe
00000120: e570 583e 23f9 a5be a061 7e3e 8361 79bc
00000130: f770 5e3d 949d b3bc e809 013d 0753 653e
00000140: 65c0 143d a62d 773d a16e bdbd 6371 2dbe
00000150: db3a 613e 9b08 2ebf 2798 afbc 3f35 f93d
00000160: cb22 a8be 89bf 0e3e 1642 e2bd acce fcbe
00000170: 3178 15bd b384 8e3e 3cba dbbd 1aea c53c
00000180: be66 6e3d e999 03bd 40fa 673e 0a9d 06be
00000190: b105 833e e435 4e3c fd32 793e 0b3a 4d3e
000001a0: aed0 5b3c 9976 263e 16db b13d 126d d13c
000001b0: d4dd 5d3e fb1a fb3d 8406 d8be c8b1 a7b9
000001c0: 8f20 babd 76ed 3f3c dcf0 cd3e 757c 873e
000001d0: f59e 833d 53aa 7bbe a3ed 8f3e 671e 903d
000001e0: ac3c f3bc 0654 0fbd 00db 96bd 06de 8c3d
000001f0: e75e 46be 13ed 94bd 6508 9dbd 51e4 4cbe
00000200: 53da 1d3e af9f bdbb f116 a9bd dcde a8be
00000210: a624 143e 8108 c33d c6bf a63d 5541 40be
00000220: 482c b43c 08f4 703e 186e 33be 5359 92bd
00000230: b087 1c3d 27cc f43d 568f 0abd a759 1cbe
00000240: 5f13 a13e 18c0 80be 4a40 383e adf0 623e
00000250: a5f2 79bd 0ff6 ebbd e061 ac3d d9ec 133e
00000260: 6d36 013e 30e8 6b3d 107d a83e e39b 3c3d
00000270: 7213 cd3d 2448 cd3e 1708 b3be ac8b 62be
00000280: 2ac2 8a3d 779e 4c3e a0cb c4be 1a9e a7bd
00000290: 4723 413c 3c8e 073c c2e2 8c3d 3b43 85bd
000002a0: 461e 1dbe 6762 3f3d ee1f 603e a35d c23d
000002b0: c8f7 773d bd48 6a3c cc6e 85bd 84ef c2be
000002c0: dcd4 893e 3ab7 993d 538c 65be da98 dd3d
000002d0: 174c 263d 136b ce3d 36f4 42be bc98 923e
000002e0: 061e 1bbf e97c 2c3e b168 3dbf a8b8 56bc
000002f0: 3009 eebc ca03 b73c cbf9 093d 4c95 fe3c
00000300: e6ae e13d 10ed 523e 9e7d b8bd bb7e 2ebe
00000310: f41c 143e 2545 5fbe 375e f83d bd76 333e
00000320: 3ffc 05bf 2422 633d 97b2 ea3d bbe6 0e3e
00000330: 3acb 073d a1a4 913d 2689 4c3d a657 13bd
00000340: 0c36 fbbd 3cf9 b53c 3b60 f33d 736a 2c3e
00000350: 8f5e 93bc a5e3 9e3e 108b fa3c 31a0 763e
00000360: 2d7d 9d3d 04da ddbd c0d5 a93c 2b25 523e
00000370: 3302 2b3e 259c 96be 22df 8e3e 1e72 163e
00000380: f1a9 743e 7b62 44bd 8bf1 703d eacd f5bd
00000390: 6785 3fbe 6aa5 d5bb c22c 0bbe ec1f af3e
000003a0: 8077 1fbe 4bda 133e f2ec 2abe 5b36 aebe
000003b0: 0c42 0abd b5f0 a4be 9339 ff3d 82bf 3dbd
000003c0: b431 8cbe 734c dcbd 57e4 513e 86bb 96be
000003d0: f253 3abd 1625 113e 8792 123e 5f25 053e
000003e0: 77b9 84bd 48dd 683e dab9 573d d7a7 cebd
000003f0: ad20 92be 34e3 9a3d 2ea8 73be 7612 13be

net.2.bias f4 [64]
-0.13339308 -0.15341772 -0.16396849 -0.11442842 0.16883017 -0.17440309 0.25278586 0.12781192
-0.024235813 -0.0980381 0.11619299 0.112603106 -0.009755096 -0.12399116 0.07448338 -0.19324403
-0.02698411 -0.079874225 -0.16468331 -0.16833831 -0.04803816 0.04411086 -0.22350934 0.041143626
0.092933565 -0.01423208 0.012694179 0.047260508 0.08909525 0.15557136 -0.1426447 0.1607217
0.19998075 -0.15766187 0.1770507 0.05070743 0.019710457 -0.2700175 0.047247946 -0.061657216
0.027271904 0.08855196 -0.01567833 0.08637087 -0.17349418 -0.09083892 -0.31004006 -0.2626291
-0.08599026 -0.10220191 -0.02249452 0.006799761 -0.044535432 -0.09924004 0.04416377 0.13375019
0.114991255 -0.1425971 -0.03940635 -0.23584957 -0.408089 -0.028763989 -0.100223124 0.063633725
00000000: 3298 08be 8919 1dbe 5be7 27be 7359 eabd
00000010: d1e1 2c3e b996 32be 266d 813e 21e1 023e
00000020: 2f8a c6bc 33c8 c8bd 97f6 ed3d 759c e63d
00000030: d7d3 1fbc 14ef fdbd be8a 983d c3e1 45be
00000040: c80d ddbc 1995 a3bd bea2 28be e160 2cbe
00000050: a9c3 44bd 97ad 343d a2df 64be 3886 283d
00000060: f453 be3d ac2d 69bc 3ffb 4f3c 3c94 413d
00000070: 9277 b63d 194e 1f3e 7411 12be 3b94 243e
00000080: c1c7 4c3e 1d72 21be c74c 353e 98b2 4f3d
00000090: d377 a13c bc3f 8abe 1087 413d 478c 7cbd
000000a0: 5469 df3c bb5a b53d d76f 80bc 36e3 b03d
000000b0: 75a8 31be c109 babd 92bd 9ebe 5277 86be
000000c0: a91b b0bd 3c4f d1bd 6d46 b8bc 88d0 de3b
000000d0: c96a 36bd 5d3e cbbd 12e5 343d cff5 083e
000000e0: 8980 eb3d f904 12be 8e68 21bd 8d82 71be
000000f0: 0bf1 d0be 75a2 ebbc c841 cdbd 6652 823d

net.4.weight f4 [64, 64]
-0.096300706 0.016775606 0.117096394 -0.12122207 0.30250144 -0.5178983 -0.18423094 -0.40959436
0.020065261 0.13068143 0.46964613 -0.25944537 -0.16726823 0.15142947 -0.08011773 -0.12292108
-0.033952154 -0.33092695 -0.26964685 -0.33967355 -0.177139 -0.124029644 -0.14725325 0.064557664
-0.27884054 -0.4158527 -0.06099788 0.0152060995 0.23997888 0.11097573 0.018951787 0.5943099
0.22002831 -0.19268432 0.17587939 -0.37827617 -0.42615104 0.3198706 0.0820222 0.37638852
-0.35757428 0.15119801 0.22434464 -0.23704016 0.06755116 -0.2634677 -0.16582091 -0.100830674
-0.33899087 -0.017164268 -0.2506973 -0.17176986 0.6465599 -0.007539839 -0.3903864 0.50553036
0.14773242 0.088598825 -0.41223282 -0.08213491 -0.12274422 -0.24243456 -0.15618345 0.040316075
0.046566892 0.022465754 0.1582619 -0.063240424 0.32997796 0.09495689 -0.23213296 -0.37922698
0.14523725 0.0066239187 0.22965755 -0.19828294 -0.33513168 0.016676378 -0.09715743 -0.062254157
0.18670286 0.05913721 0.0060333037 -0.22590925 -0.09013195 -0.2025655 -0.07321692 0.14122483
-0.15854652 0.19428535 -0.49655208 0.107038185 0.17620546 0.31393513 0.19978122 0.59531873
0.2201296 -0.39047363 0.46921232 -0.005017341 -0.1280917 0.16439036 0.17103119 -0.02337978
-0.14921212 0.08938244 -0.25917304 -0.35800496 0.00021105171 -0.08075972 -0.088815615 -0.029304877
0.039327048 0.21768326 -0.52917266 -0.36427003 0.5205962 -0.0080102105 0.31774846 0.685869
-0.05304979 0.14093532 -0.47593263 0.21649922 0.16221228 -0.31138057 -0.14072865 0.1327839
-0.037953913 -0.09576103 0.0014934494 0.00475734 0.23870425 -0.30962545 -0.024049386 -0.30211207
-0.076600894 -0.012255537 0.4244724 -0.12311873 -0.2164721 0.05777274 0.054748915 0.22060601
0.17444842 0.2590241 0.1404853 -0.20078777 -0.11673649 -0.16680756 0.04729436 0.0075730192
-0.3438939 0.053872485 0.018178195 -0.01885862 0.22141352 0.19161557 0.10865524 0.6214723
0.28083462 -0.26452142 0.29225275 -0.06350683 0.105120696 0.31094313 0.06913564 0.08962033
-0.22736055 0.08604836 -0.09216659 -0.41042385 -0.027894404 0.10610005 -0.0028880674 -0.20225479
-0.27332735 -0.025697012 -0.2791624 -0.1331618 0.32476595 0.035291288 -0.029533163 0.36029357
-0.10600437 0.08730901 0.13185664 0.13429548 0.03977866 -0.17842188 -0.028727224 0.25401852
-0.4634256 0.15916094 -0.28964242 0.17610812 -0.2524792 0.15965718 0.38585553 0.3913115
-0.044187713 0.013665007 -0.2452168 0.40795577 0.061310302 -0.10798265 -0.059197675 0.05636722
0.30787325 -0.20194599 -0.270352 0.22974476 -0.3166482 0.30899936 0.054725982 -0.38830155
0.11350363 -0.06791237 0.085998625 -0.26094013 -0.48408535 -0.2981409 -0.036172945 -0.45745566
-0.20695387 0.23161751 -0.015041069 0.25025037 -0.074092865 -0.25670844 0.045565523 -0.041977122
0.25094348 0.071228676 0.08744761 0.15149064 -0.29853243 -0.37738672 0.25005314 0.37812442
0.15226464 0.064344466 0.12949541 0.022927633 -0.19177495 -0.06546041 -0.42282936 -0.078835696
0.11944365 -0.12204082 0.18109794 0.068472266 0.13609259 0.16218984 0.20306051 -0.3321234
00000000: 4e39 c5bd ff6c 893c 3cd0 ef3d 4743 f8bd
00000010: 78e1 9a3e fc94 04bf 09a7 3cbe 5ab6 d1be
00000020: e75f a43c 5ad1 053e 7575 f03e 06d6 84be
00000030: 5d48 2bbe 5410 1b3e c414 a4bd 0cbe fbbd
00000040: 6a11 0bbd 426f a9be 270f 8abe b1e9 adbe
00000050: ed63 35be 4103 febd 8ec9 16be cf36 843d
00000060: 30c4 8ebe a5ea d4be ead8 79bd 0123 793c
00000070: 06bd 753e 3e47 e33d c740 9b3c b224 183f
00000080: 1a4f 613e 0a4f 45be ba19 343e 6aad c1be
00000090: 7830 dabe 14c6 a33e 41fb a73d ffb5 c03e
000000a0: fa13 b7be a7d3 1a3e 9aba 653e a8ba 72be
000000b0: 4358 8a3d 3de5 86be f5cc 29be 5080 cebd
000000c0: 3690 adbe 149c 8cbc 665b 80be 70e4 2fbe
000000d0: f384 253f c110 f7bb bae0 c7be 706a 013f
000000e0: 2b47 173e 4d73 b53d 2e10 d3be 5936 a8bd
000000f0: 5261 fbbd c440 78be 8eee 1fbe 7822 253d
00000100: edbc 3e3d 1a0a b83c 680f 223e 3284 81bd
00000110: dff2 a83e c278 c23d 43b4 6dbe 0a2a c2be
00000120: 13b9 143e 750d d93b 592b 6b3e af0a 4bbe
00000130: 6196 abbe e69c 883c 7afa c6bd 37fe 7ebd
00000140: 092f 3f3e dc39 723d 05b3 c53b c154 67be
00000150: 1a97 b8bd 556d 4fbe c1f2 95bd 3e9d 103e
00000160: 055a 22be bdf2 463e 133c febe d636 db3d
00000170: 346f 343e 1bbc a03e 7393 4c3e cf66 183f
00000180: a769 613e 29ec c7be 993c f03e 8268 a4bb
00000190: 782a 03be f255 283e cd22 2f3e f486 bfbc
000001a0: 10cb 18be 240e b73d 54b2 84be 6d4c b7be
000001b0: c34d 5d39 5a65 a5bd f6e4 b5bd c810 f0bc
000001c0: 6615 213d 5ce8 5e3e dc77 07bf 9a81 babe
000001d0: cb45 053f 423d 03bc edaf a23e 1c95 2f3f
000001e0: bd4a 59bd 5951 103e 71ad f3be f9b1 5d3e
000001f0: fa1a 263e 466d 9fbe 2c1b 10be 81f8 073e
00000200: 9075 1bbd 5c1e c4bd d9bf c33a 76e3 9b3b
00000210: e36e 743e 3a87 9ebe 3803 c5bc 6fae 9abe
00000220: eee0 9cbd 73cb 48bc 7254 d93e ac25 fcbd
00000230: ddaa 5dbe 1ca3 6c3d 6640 603d 8be6 613e
00000240: 9ba2 323e cf9e 843e 61db 0f3e 4f9b 4dbe
00000250: 8a13 efbd 9acf 2abe bbb7 413d 1727 f83b
00000260: dc12 b0be 65a9 5c3d 70ea 943c 657d 9abc
00000270: 3aba 623e df36 443e a386 de3d cf18 1f3f
00000280: 8ec9 8f3e 5a6f 87be 27a2 953e de0f 82bd
00000290: 8549 d73d f033 9f3e fd96 8d3d dd8a b73d
000002a0: 34d1 68be 1f3a b03d d6c1 bcbd 1323 d2be
000002b0: ce82 e4bc fc4a d93d bb45 3dbb e11b 4fbe
000002c0: 90f1 8bbe 8a82 d2bc 60ee 8ebe 915b 08be
000002d0: b947 a63e 998d 103d 88ef f1bc 6678 b83e
000002e0: d218 d9bd 11cf b23d 6d05 073e c184 093e
000002f0: f3ee 223d 3ab4 36be 5b55 ebbc b70e 823e
00000300: 1f46 edbe 16fb 223e 034c 94be b055 343e
00000310: f444 81be 2c7d 233e db8e c53e fb59 c83e
00000320: 2dfe 34bd 32e3 5f3c 1d1a 7bbe 94df d03e
00000330: 8320 7b3d 0226 ddbd 4379 72bd 50e1 663d
00000340: 90a1 9d3e eeca 4ebe 946b 8abe 3642 6b3e
00000350: b61f a2be 2a35 9e3e 5a28 603d 76cf c6be
00000360: 9774 e83d a415 8bbd 0c20 b03d f299 85be
00000370: 09da f7be eda5 98be 152a 14bd a137 eabe
00000380: b7eb 53be 242d 6d3e d16e 76bc d120 803e
00000390: 00be 97bd 4a6f 83be eaa2 3a3d 34f0 2bbd
000003a0: aa7b 803e 57e0 913d bc17 b33d 5d20 1b3e
000003b0: 3ed9 98be d538 c1be f706 803e 8699 c13e
000003c0: 43eb 1b3e 08c7 833d 729a 043e bbd2 bb3c
000003d0: a760 44be 1c10 86bd 177d d8be 9c74 a1bd
000003e0: df9e f43d 8af0 f9bd bd71 393e 303b 8c3d
000003f0: db5b 0b3e 1815 263e 18ef 4f3e 140c aabe

net.4.bias f4 [64]
0.15342547 0.17433865 0.06348335 0.07999507 -0.09940412 0.33587992 0.15955697 -0.107840665
-0.10945566 -0.17465016 0.10091139 -0.07109706 -0.035276048 0.16212091 0.09513165 0.14474545
0.059838098 -0.29218525 0.040825542 0.09387376 0.14875789 0.17098606 0.060015425 0.07450479
0.027334236 0.10772438 0.041489627 0.116910435 0.19675949 0.2434213 0.020445878 0.21545409
0.118897736 0.053060822 0.15715514 -0.06854285 0.07795327 -0.29379457 0.08010345 0.15484662
0.10966499 0.10242352 -0.07296872 0.10558896 0.047522046 0.012645832 -0.0037560316 0.2239904
0.08263213 0.058277037 -0.034610517 0.04927823 0.026861018 0.08693876 0.13272 -0.07795819
-0.015236228 0.02136198 -0.007973931 0.18092328 -0.19714719 0.11684432 0.21713954 -0.09262769
00000000: 911b 1d3e d585 323e 8f03 823d 75d4 a33d
00000010: 6394 cbbd 74f8 ab3e e762 233e 91db dcbd
00000020: 4a2a e0bd 7ed7 32be a1aa ce3d 569b 91bd
00000030: 9e7d 10bd 0603 263e 62d4 c23d 2738 143e
00000040: cb18 753d 4e99 95be af38 273d e340 c03d
00000050: fd53 183e f816 2f3e bcd2 753d f895 983d
00000060: 0cec df3c 9a9e dc3d 07f1 293d bd6e ef3d
00000070: 527b 493e 6f43 793e 1d7e a73c ff9f 5c3e
00000080: a880 f33d 4e56 593d 47ed 203e 3260 8cbd
00000090: f7a5 9f3d 3e6c 96be 470d a43d 1d90 1e3e
000000a0: 0a98 e03d 6cc3 d13d a070 95bd 063f d83d
000000b0: 7aa6 423d 7730 4f3c c127 76bb bd5d 653e
000000c0: 093b a93d e7b3 6e3d c2c3 0dbd f8d7 493d
000000d0: a30b dc3c f30c b23d c0e7 073e 8ba8 9fbd
000000e0: 5fa1 79bc 52ff ae3c 17a5 02bc f443 393e
000000f0: f4e0 49be 134c ef3d d459 5e3e 96b3 bdbd

net.6.weight f4 [1, 64]
-0.65238404 -0.5303737 -0.24177991 0.27348238 -0.14008115 0.393607 -0.36702818 0.07346995
-0.22987443 -0.22588105 0.29027706 -0.2876755 -0.35564125 0.3244318 -0.41665596 0.3531594
-0.4323086 -0.00640946 0.31539652 0.25811958 -0.29653177 0.36417395 0.28591338 -0.44357368
-0.39319748 0.3893917 0.37158027 0.26713178 -0.336987 0.33038077 -0.21730793 -0.44443452
-0.3949385 0.2896428 0.32361078 -0.28833124 -0.3079012 0.1253046 -0.40613294 -0.47136953
-0.38342544 -0.35920876 0.16247548 -0.3191439 -0.43880358 0.26482242 -0.3651404 0.37861636
0.25907403 -0.30274892 -0.29985765 0.36105478 0.3037142 0.33117753 0.3235042 0.25577226
0.24278061 -0.34552705 0.3182219 -0.47099775 -0.290529 0.36529922 0.38637063 -0.1983291
00000000: a402 27bf 92c6 07bf 2795 77be e205 8c3e
00000010: 6f71 0fbe db86 c93e 1eeb bbbe 6a77 963d
00000020: 3464 6bbe 5d4d 67be 329f 943e 344a 93be
00000030: 9c16 b6be ed1b a63e ee53 d5be 4fd1 b43e
00000040: 8e57 ddbe 7306 d2bb a77b a13e 4028 843e
00000050: 03d3 97be 0275 ba3e 3d63 923e 171c e3be
00000060: 2e51 c9be 595e c73e c53f be3e 7fc5 883e
00000070: 8f89 acbe ab27 a93e f885 5ebe ec8c e3be
00000080: 6135 cabe 104c 943e 50b0 a53e 27a0 93be
00000090: 3aa5 9dbe d94f 003e a8f0 cfbe 5957 f1be
000000a0: 5750 c4be 36ea b7be f95f 263e d466 a3be
000000b0: ddaa e0be ce96 873e aff3 babe 01da c13e
000000c0: 5aa5 843e e801 9bbe f186 99be 2cdc b83e
000000d0: 6d80 9b3e 1a90 a93e 58a2 a53e 95f4 823e
000000e0: 7b9b 783e ece8 b0be fbed a23e 9e26 f1be
000000f0: 38c0 94be 8008 bb3e 5fd2 c53e c916 4bbe
