cancer_iterative/cancer_models/30_train/real_final_model.pt (torch, 45323 bytes, 7 tensors)

net.0.weight f4 [64, 30]
000000 47 30 9e bd cc 7b 81 bd a1 cf b9 bd a7 57 9e bd
       -0.07724052 -0.063224405 -0.09072805 -0.07731562
000010 55 77 0a 3e 7a 67 54 bd 72 e6 01 be b1 1c 66 bb
       0.13522084 -0.051856495 -0.12685564 -0.0035112316
000020 d4 cf c7 3c 0f a8 f5 bd 19 ba 2f 3e 07 6b 1f be
       0.024391092 -0.11994945 0.17160834 -0.15568171
000030 7c 03 fc 3d eb 34 1e 3e 95 31 0b bd f5 79 fc 3d
       0.12305352 0.15449874 -0.033982832 0.12327949
000040 ab 60 f2 3d 4b 89 0e be dc ee 6d be 39 af bd bd
       0.11834844 -0.1391956 -0.23235649 -0.09261937
000050 30 b0 2b 3e f7 f6 36 3e b9 d6 2a 3e 77 29 5a 3d
       0.16766429 0.17867647 0.16683473 0.0532622
000060 8c 24 95 3d 1a 26 de 3d f5 7c d2 3c 03 38 b5 3c
       0.072823614 0.10847111 0.02569435 0.022121435
000070 40 e8 3d be 59 ae 52 3e 0a 0d 1c 3e fe 78 93 3d
       -0.18545628 0.20574321 0.15239349 0.07200812
000080 2e 6e 07 3e 73 e2 ea 3d 4a 0b 08 be 04 a8 69 bd
       0.13225624 0.11468973 -0.13285556 -0.057044998
000090 57 5c 24 3e eb b0 ad bd d5 54 27 bd bc 64 01 be
       0.1605085 -0.0848101 -0.040852387 -0.12636083
0000a0 3e bf 83 bc 64 41 15 bd 0a 67 18 3e f5 d4 dc 3d
       -0.016082402 -0.036439314 0.14883056 0.10782806
0000b0 fd a5 60 bd 15 5a 1a bb 07 c0 a0 bd 1b 6c 86 3b
       -0.0548458 -0.0023552228 -0.07849126 0.0041022426
0000c0 e9 c4 be 3c dc b0 b5 3c 43 84 60 3e f9 78 7c bd
       0.023287253 0.02217906 0.21925454 -0.061638806
0000d0 b9 fa ce 3d 6f a2 0f 3e 57 ba 5a 3e 13 f9 09 3e
       0.10106415 0.14026807 0.21360146 0.1347392
0000e0 fc 94 87 bd 17 22 3f 3e d4 09 1c 3c cf ee 57 3c
       -0.066202134 0.18665348 0.009523828 0.013179495
0000f0 c4 2d d3 bd dc cd 77 bd f1 89 7f bd cd e8 e7 3b
       -0.103114635 -0.060499057 -0.06238741 0.0070773126
000100 34 f7 2d bc d9 75 42 be f5 75 4b be b8 98 a7 3c
       -0.01061802 -0.18990268 -0.19869216 0.020458564
000110 12 ba be bd d6 58 47 3e ab eb 09 be d4 72 a8 3d
       -0.09312834 0.19467482 -0.13468806 0.08225027
000120 43 5a 35 be d0 4f 7b 3d e5 85 e7 3d f7 7f eb 3c
       -0.17710213 0.061355412 0.11304835 0.028747542
000130 71 05 b6 3d 63 0d 81 bd 81 cf 03 3e 70 22 6e bd
       0.088877566 -0.063013814 0.12872125 -0.05813831
000140 02 01 4a be 48 d6 c8 bd 06 7b 22 be 2d d8 04 bc
       -0.19726947 -0.09806496 -0.15867242 -0.008108181
000150 b8 79 1a be 76 79 2e be 4b 92 21 bd da 1b 69 be
       -0.15085495 -0.17038521 -0.039446156 -0.22764531
000160 d6 4d 18 be 9e e2 1d bd c0 8f 35 be 62 a4 ae 3d
       -0.14873442 -0.038546197 -0.17730618 0.08527447
000170 15 a5 9a bd 62 3a 80 be 50 de a6 3d 60 2a aa bd
       -0.07551018 -0.25044543 0.081478715 -0.08308864
000180 e2 e2 a0 bc 49 8f de bd 6c 05 88 bc a2 3e 27 3e
       -0.019639436 -0.10867173 -0.016604148 0.16332486
000190 5c a0 50 3d a6 0e fb bd dc 74 3a bd 41 fb a4 bb
       0.05093418 -0.12258653 -0.045521602 -0.0050348346
0001a0 ec cb 2d be c9 b0 25 3d 6c 93 19 3e 22 3d e9 3d
       -0.16972321 0.0404518 0.14997643 0.11388613
0001b0 ef 30 12 3e 36 aa d2 3d 0a 32 68 be 97 07 c2 bd
       0.14276479 0.102863714 -0.22675338 -0.09474104
0001c0 bc 8f df bc 42 67 1a bd 54 2c 14 ba 66 67 fc bd
       -0.027290218 -0.03769613 -0.00056523574 -0.12324409
0001d0 e7 ec d5 bc 15 fd 69 bd a0 70 c3 3c ab d4 45 bd
       -0.02611394 -0.057126123 0.023857415 -0.04829852
0001e0 6e 15 2f bd 5c bb bd 3d ee 40 39 be 0a 66 a5 bd
       -0.042745046 0.092642516 -0.18091175 -0.08076103
0001f0 71 db 03 be 84 d0 78 bd c9 e7 37 be d2 2f c2 3d
       -0.12876679 -0.06074573 -0.17959513 0.09481777
000200 80 04 12 3e ae 7f 91 bc 26 be 46 be ea 0d 12 3e
       0.14259529 -0.017761078 -0.19408473 0.1426312
000210 ee 54 fa 3d 9f 4c 3b bd b0 1b 7c bd 36 40 38 3d
       0.1222323 -0.04572737 -0.061549842 0.04498311
000220 c3 97 2a bc 45 75 2e be 2b f5 1c be 0c 12 2c 3d
       -0.010412159 -0.17036922 -0.15327899 0.0420094
000230 00 35 b7 bd 21 41 71 bc 7e 06 fa bd 07 50 18 3d
       -0.08945656 -0.014725001 -0.122082695 0.037185695
000240 a6 66 96 bd 9d 54 d9 3d 13 41 23 3e a2 47 50 be
       -0.073437974 0.10611842 0.15942793 -0.20339826
000250 cb 08 db 3d 37 1f 02 3e d8 64 d0 3d 99 b3 0a bd
       0.106950365 0.1270722 0.101754844 -0.033862684
000260 32 5a 39 3e c0 e6 87 3d 77 99 b0 3d 73 50 83 3d
       0.18100813 0.06635809 0.08623021 0.06411829
000270 95 49 05 3e 5b 38 6a bd dd 90 fc 3d 59 70 d0 bc
       0.1301635 -0.05718265 0.12332318 -0.025444197
000280 c2 90 05 3e 33 2f df 3d 58 72 33 3e e3 90 45 3e
       0.13043502 0.108976744 0.17524087 0.19293551
000290 8f 52 41 bd a9 7a 81 3d e8 7e 1f 3e 33 05 32 3e
       -0.047197875 0.06322224 0.15575755 0.17384796
0002a0 2c 5f 22 be 13 75 2b bd 0b 63 28 3e 5d e9 e0 3d
       -0.15856618 -0.041859698 0.16444032 0.109820105
0002b0 f6 df 25 3c 2a 49 9e 3b 7d ce e6 bd 24 30 ae 3d
       0.010124197 0.004830499 -0.11269853 0.08505276
0002c0 ab 5a de 3d 78 73 05 3e cd 8a c8 3d 7a e5 17 3e
       0.10857137 0.13032329 0.09792099 0.14833632
0002d0 41 c0 a0 3c 39 0e ce 3b d3 81 2d 3e 8d 28 49 3e
       0.019622924 0.0062883166 0.16944055 0.19644375
0002e0 35 f9 9e 3d 1e 91 23 3e 52 bd c6 bd 75 fb d4 bd
       0.07762376 0.15973327 -0.09704079 -0.10399524
0002f0 a3 7f 13 3d 83 cf 24 be 1a 33 d0 3d 9c ea 8a 3d
       0.036010396 -0.16094784 0.10165997 0.067830294
000300 50 9a d2 3d 6d bb 4a 3e 6d 8a cb 3d 1b c0 b6 bd
       0.10283339 0.1979806 0.09938512 -0.0892336
000310 9f 47 cf 3d 5f 09 c1 3c ed 04 95 bc f1 d4 f0 3c
       0.101210825 0.023564039 -0.018190825 0.029398413
000320 ac 9c 28 3b 91 75 15 bd e2 be 66 3e a3 e4 3b 3d
       0.002572815 -0.036489073 0.22533754 0.04587234
000330 70 a9 85 3d 51 3e 31 be f5 14 f4 bc 33 ed b0 bd
       0.06526458 -0.17308928 -0.02979515 -0.08638992
000340 fa f6 85 bc 29 ea 46 be f8 be 20 3e e1 63 9e bd
       -0.01635312 -0.19425263 0.15697849 -0.07733894
000350 99 45 23 3e b2 36 bd 3c e3 e1 80 bd d3 ed 81 3c
       0.15944518 0.02309737 -0.062930845 0.015860474
000360 a0 39 37 3e 31 db a3 bd 9f 6e e7 3d 27 7b 36 3e
       0.17893076 -0.08000792 0.11300396 0.17820416
000370 a6 6e e3 bd 16 37 a4 bd 98 21 9f 3d 1f de 02 3b
       -0.11105089 -0.08018319 0.077700794 0.001996882
000380 af d5 ca bd 2b 8f 44 3e 16 86 fc 3c aa 2f ca 3d
       -0.09904038 0.19195239 0.030825656 0.098723724
000390 0e 85 39 3e c2 75 34 3d 83 e4 43 be 0b fc 1c be
       0.18117163 0.044057615 -0.19130139 -0.15330522
0003a0 03 ec fe bd b4 10 42 be 95 1e 38 be a7 ab 4e bd
       -0.124473594 -0.18951684 -0.17980416 -0.05045667
0003b0 f0 4c 78 bd db a9 a1 bd 40 ab 13 3e 7e da 14 3e
       -0.06062025 -0.078937255 0.14420795 0.14536473
0003c0 13 f3 1c bc 5d 6c 1b bd e1 5d 52 be 07 19 a2 bd
       -0.009579438 -0.03794514 -0.20543624 -0.0791493
0003d0 bf 62 3b bd 04 e1 a3 ba 23 72 53 be 2d 23 7b 3d
       -0.04574847 -0.0012502973 -0.20649008 0.061312843
0003e0 b6 99 45 3d 10 b9 36 3e 00 30 52 bd f2 af de bc
       0.048242293 0.17844033 -0.051315308 -0.027183507
0003f0 33 4c cf bd 82 4c a8 bd 2e 47 91 3d 33 88 8a 3d
       -0.10121956 -0.08217718 0.070936546 0.06764259

net.0.bias f4 [64]
000000 f3 81 6f bc c3 66 71 3e d0 c3 15 3e 8f f2 21 3e
       -0.014618385 0.23574357 0.14625478 0.15815185
000010 5f fe 1a be 1d 14 be 3c 8c d8 d7 bd 0f 16 fc 3c
       -0.15136097 0.02320295 -0.1053935 0.030772237
000020 74 5e 86 3d a7 61 dd 3d 8f 8e b5 3b 1d b6 b2 3d
       0.06560984 0.10809641 0.005540676 0.087261416
000030 57 64 7c bd 4a 7c c5 3d 89 a6 28 be 28 6d 99 3c
       -0.06161913 0.09642847 -0.16469778 0.018728808
000040 65 f5 39 3e 89 72 26 3e d9 69 39 3e e2 31 87 bd
       0.18160017 0.16254629 0.18106784 -0.06601311
000050 04 46 0e bd 90 69 20 3e 99 2f e6 bd 74 77 de 3d
       -0.03473474 0.15665269 -0.11239547 0.108626276
000060 45 f4 03 bd 73 0a 83 3e ec 42 c5 3d 06 f9 e5 bd
       -0.032215375 0.2559391 0.09631905 -0.11229138
000070 eb e0 9f bd 59 e8 32 3d 1f 7d 0d 3e a4 a9 22 3e
       -0.078065716 0.043678615 0.13817261 0.15885025
000080 e1 cd 10 3c b0 d1 1b 3e f8 b6 51 3d 30 0c ee bd
       0.008838148 0.15216708 0.051199883 -0.11623418
000090 9f 8c f5 3d 6c 1f 61 3d 1b 01 60 3e 9f ef 15 3e
       0.11989712 0.054961607 0.21875422 0.1464219
0000a0 1e 81 59 3d 2d 9d 05 3d 1b 24 f6 bd 9b ef bc 3d
       0.05310165 0.032620598 -0.12018605 0.092253886
0000b0 80 94 13 3e 3f b4 77 bd db a0 93 3d 49 78 fc 3c
       0.14412117 -0.06047463 0.07208415 0.030819075
0000c0 5e d2 e3 3d 31 19 a1 3c d9 e2 46 3e a1 5c eb bd
       0.11124109 0.019665333 0.19422473 -0.11492277
0000d0 04 98 5c 3d 10 06 2b bd e0 e0 dc 3d 7c 17 42 3e
       0.05385591 -0.04175383 0.10785079 0.18954271
0000e0 41 b8 92 3c 16 b8 cd bd c7 f6 8c bd f6 3e 83 bd
       0.017910125 -0.10044877 -0.068830065 -0.06408493
0000f0 e2 7a 36 3d d8 ff 1c 3c 5c 91 4f 3e d2 ca 94 bd
       0.044550784 0.009582482 0.20270294 -0.072652474

net.2.weight f4 [64, 64]
000000 60 2b 16 3e 9b b6 b4 3d 23 cb 6c 3c 1b d0 ba 3d
       0.14664984 0.08823892 0.014452728 0.09121724
000010 83 83 1a 38 11 21 c5 bd b4 50 4d bd b6 07 12 be
       3.683894e-05 -0.096254475 -0.050125793 -0.14260754
000020 ad be 1a be 2f 0a 50 3b ec 25 06 be fc 4c 34 bd
       -0.151118 0.003174435 -0.13100404 -0.04401873
000030 21 53 5e 3d f3 d0 b6 bd cd 85 01 3e 00 c9 17 3d
       0.054278497 -0.08926573 0.12648697 0.037056923
000040 2b dd 90 bc f5 92 dd 3d 10 9a 20 3d ae e6 22 3e
       -0.017683586 0.108190455 0.039209425 0.1590831
000050 22 11 83 3d ab 51 45 3d c7 4c 31 bd c8 4f 2d bd
       0.06399752 0.048173588 -0.04328611 -0.042312413
000060 db 23 e7 3d 3a 76 1c bc 24 ff b7 bd ec 22 ff bd
       0.11286136 -0.009549672 -0.08984211 -0.12457833
000070 61 fa a8 3b f5 9b b1 3c 9e 0d 23 3d 93 fa ee bc
       0.0051568006 0.021680811 0.03980791 -0.029172217
000080 72 2e d4 bd 00 bf 09 3e ec ba 1a be fe 1a 13 3e
       -0.10360421 0.13451767 -0.15110368 0.14365765
000090 de fc 24 3e cd 3f 10 3d b7 af da 3d fe 57 81 3d
       0.16112086 0.035217095 0.10678046 0.06315611
0000a0 02 84 26 3e c9 23 df 3d 42 af 5f 3d 47 98 1e bd
       0.16261294 0.10895497 0.0546105 -0.03871944
0000b0 4e 50 d1 bb e0 fe d9 3d f5 3e 80 bd 4b 60 7d 3d
       -0.006387747 0.10644317 -0.06262008 0.06185941
0000c0 88 0e ee 3c d3 62 dd 3d cb 89 5e 3d a7 09 40 3e
       0.029059663 0.10809865 0.05433063 0.18753682
0000d0 1c 4e c5 bd b2 5d ae 3d 2a 5f 54 3d b0 d1 14 3e
       -0.09634039 0.08513965 0.051848568 0.14533114
0000e0 d2 23 ce bd 0e f3 be 3c 91 9d bb bc e8 a5 89 3c
       -0.10065426 0.023309257 -0.022902282 0.016802743
0000f0 43 cf 06 3e 05 46 e6 3d 26 bf 94 3c 18 d3 94 3d
       0.13165002 0.11243824 0.018157553 0.072668254
000100 81 fa 39 3d b4 87 3b 3e 21 a4 2a bd 07 da 00 be
       0.045404915 0.18313485 -0.04166043 -0.12583171
000110 7a d0 64 bd 86 45 8d 3d ae c8 09 3e d9 ee bd 3c
       -0.05586288 0.06898026 0.1345546 0.02318518
000120 6d 6c 18 be 81 6a e7 3b 25 d8 90 bb ed 8f 92 3c
       -0.14885111 0.007062257 -0.0044202977 0.017890895
000130 65 3a 33 3a dc 1a 6d bd 7a 40 04 3e 57 83 ad 3d
       0.00068370096 -0.057886943 0.12915221 0.08472317
000140 1d 27 cd 3d 07 2b 96 3d ba af 01 3e a9 3e a5 bd
       0.10017226 0.073324256 0.1266469 -0.08068592
000150 92 b0 bf 3c 6c a3 63 3d 1b 80 42 3e 1e eb 1a be
       0.023399625 0.055575773 0.18994181 -0.15128753
000160 66 88 28 3e 35 37 8a bb 64 a0 20 3d 5d 18 86 bd
       0.16458282 -0.004218007 0.03921546 -0.06547616
000170 76 83 94 bd b3 b6 34 3e 3a be d7 3d e5 f9 5e 3d
       -0.07251637 0.17647819 0.1053433 0.054437537
000180 c4 bf e6 bc 8c 80 b6 3d 57 5e 80 3d 58 d6 84 3d
       -0.028167613 0.08911237 0.06267994 0.06486195
000190 8a 81 da 3c 87 fb 52 bd 48 14 13 3e 12 e1 35 bd
       0.026673097 -0.051509406 0.14363205 -0.044404097
0001a0 de 46 19 bd 80 85 a6 bd 38 21 76 bd 37 15 ac 3d
       -0.0374211 -0.08130932 -0.060090274 0.08402484
0001b0 a7 2b f0 bd 71 db 22 bd 4a f6 f3 bd 30 e5 26 39
       -0.11727076 -0.039760057 -0.1191221 0.00015916373
0001c0 6e 1e 4c bd 1a 36 e9 3d 9a fd a9 3d 66 12 52 3a
       -0.049833708 0.11387272 0.08300324 0.0008013606
0001d0 ca 10 cc bd fd ec f9 3c 65 73 3c bd a6 ec a9 3d
       -0.0996414 0.030508513 -0.046008486 0.0829709
0001e0 1e 30 23 bc 9f dd 86 bc 4d 0b b0 bc 63 27 8d 3d
       -0.0099602025 -0.016463099 -0.021489764 0.06892278
0001f0 04 cb c9 3d 0d 94 be 3d 98 ed 48 3d 2a d1 14 3e
       0.09853175 0.09305582 0.049054712 0.14532915
000200 c2 04 cc bd 32 29 25 3c a7 6c c6 3d e0 c5 33 3d
       -0.09961845 0.0100806225 0.096886925 0.04388988
000210 44 e9 09 3e b3 56 05 3e 53 f4 b0 bc 68 80 1a 3e
       0.1346789 0.13021354 -0.021600878 0.15088046
000220 28 e5 1f 3d 6f e0 22 3e 78 51 00 3e c9 b3 0b bd
       0.0390369 0.15905927 0.12531078 -0.034107003
000230 81 b4 1c be 46 eb 58 3d 5b bb 32 3c 35 2c 36 3d
       -0.15303232 0.05295875 0.010908927 0.044475753
000240 81 48 fb 3d 58 16 09 3e ad fb f5 3d 93 6f e2 bd
       0.122696884 0.1338743 0.12010894 -0.11056437
000250 94 c6 9f bd 53 44 56 bd 46 06 28 bd 16 2a 76 bc
       -0.07801548 -0.052311253 -0.041021608 -0.0150246825
000260 a9 9d a4 3b fa c3 94 3c 54 f1 a6 3b f6 5f 8d 3d
       0.0050236774 0.018159855 0.0050946865 0.06903069
000270 24 4e 10 be 3a e3 13 be 78 03 1e be 76 c5 c1 bd
       -0.14092308 -0.14442149 -0.1543101 -0.09461491
000280 85 8c 0e 3d b9 7f 73 3c 4e 8f bf 3d 76 bd d7 bc
       0.03480198 0.014861994 0.09353505 -0.02633546
000290 98 03 24 bd fd c5 06 3d 9e 28 a0 3d f5 97 89 bd
       -0.04004249 0.03290366 0.07820247 -0.06718437
0002a0 4b 62 ce bd 1b 14 99 3c 66 03 17 3d 58 cf 2d 3e
       -0.10077342 0.018686345 0.036868475 0.16973627
0002b0 e6 b2 fd 3d ed 4e 7b bd 9e 55 27 3e 85 bd 90 3d
       0.12387638 -0.061354566 0.16341254 0.07067398
0002c0 a9 24 43 3d 9a 0a 0a be 4e 4a 7f 3d 54 d1 a3 3d
       0.047642384 -0.13480607 0.06232672 0.079989105
0002d0 95 c1 8b 3d 97 c2 de bd cc f6 d1 bd db 27 18 3c
       0.06824032 -0.10876959 -0.10252151 0.009286846
0002e0 4c 44 9e 3d 0e 60 9d bd 5d 23 04 3e b5 ac a6 bd
       0.0772787 -0.076843366 0.12904115 -0.0813841
0002f0 d0 da 5e 3d ee 77 95 3d d1 f5 5a 3e fc f2 71 3d
       0.054407895 0.072982654 0.21382834 0.05906962
000300 42 f4 6a 3d 28 ba e1 3d 93 fa 9a bd 29 d3 0e 3b
       0.05736185 0.110218346 -0.075673245 0.0021793342
000310 19 ff 8d 3d 92 53 ed 3c 47 e9 8f bd 54 d4 90 ba
       0.06933422 0.028970513 -0.07026916 -0.0011049607
000320 8b e0 00 be 6c cb 34 3d c7 09 c8 bc 5a a1 95 bc
       -0.12585656 0.04413931 -0.024418725 -0.018265415
000330 a6 b9 d4 3d 74 3b 8a bd 8f 42 0d 3e fa 33 4f 3d
       0.10386972 -0.06749621 0.13794921 0.050586678
000340 46 3a 53 3d 50 9a 3d 3c 80 16 c9 3d f5 b2 94 3c
       0.051569246 0.0115724355 0.09818745 0.01815174
000350 e2 1c c6 3c b0 a5 ba 3d 7e 7c 88 3d 4b 60 70 3a
       0.024183694 0.09113634 0.0666437 0.0009169622
000360 c3 0e 6f 3d 62 ab e7 bd 6c f9 74 bc 14 a1 c3 bd
       0.058363687 -0.113119856 -0.014952045 -0.095522076
000370 17 24 38 b9 e4 27 16 3e 83 60 28 3e a1 6d 7c 3d
       -0.00017561052 0.14663655 0.16443066 0.061627988
000380 5e 16 34 be 0e 87 a4 3d 7a 4b c6 bd 36 d9 48 bc
       -0.17586657 0.08033572 -0.09682365 -0.012258818
000390 51 64 5f bd f0 99 84 bd fc fe e0 bc 07 a8 80 3d
       -0.05453903 -0.06474674 -0.027465336 0.06282049
0003a0 e2 8a 16 3d 43 ed 01 3d 67 0c 90 3d d3 35 da bc
       0.036753543 0.03172041 0.070336156 -0.026636994
0003b0 6c f6 18 bc a4 af a8 3b c2 7f a6 bd 62 a2 e8 bd
       -0.009336095 0.005147891 -0.081298366 -0.11359097
0003c0 70 56 20 bd 43 25 d7 3d ff d9 34 3d fe 8d 29 3e
       -0.039144933 0.10505154 0.04415321 0.16558072
0003d0 b4 99 80 bb 3c 76 cb 3d 21 94 25 3e cd db 33 3d
       -0.003924573 0.09934661 0.16169788 0.04391079
0003e0 20 e8 e5 bd 85 a1 92 3d 86 1f 8a 3c 09 d6 d8 3d
       -0.11225915 0.07159714 0.016860735 0.10587699
0003f0 59 03 a6 3b bc 46 6d 3d e9 77 75 bd b8 08 ae 3c
       0.005066317 0.057928786 -0.05992881 0.021244392

net.2.bias f4 [64]
000000 51 8f 94 bd 9f 2a 5b bd 9a d1 83 bc ce 47 0f 3e
       -0.07253898 -0.053507444 -0.016091157 0.13992235
000010 e2 30 10 3e b8 25 0e 3e 0e a9 27 3e b8 e6 be 3d
       0.14081147 0.13881576 0.16373083 0.0932135
000020 d7 c6 92 3c ed c5 35 bd 7f 88 62 3d b3 ad ec 3d
       0.01791708 -0.04437821 0.055305954 0.11556568
000030 74 99 a7 3d 0c ee ac 3d c1 39 04 3e 64 0e f4 3d
       0.08183566 0.08443841 0.12912656 0.11916807
000040 8f 62 bf 3a 02 25 ca 3d 58 39 0d 3e 4f 4d a3 3d
       0.0014601516 0.0987034 0.13791406 0.0797373
000050 68 19 08 3e 8d a2 7d 3d 49 8e 8c 3d 78 f9 7b bd
       0.13290942 0.0619226 0.06863076 -0.06151721
000060 3a 4b 08 bc dc 00 8d 3c fb 1d 8f 3d 1d 27 a4 3d
       -0.008318717 0.017212324 0.0698814 0.08015273
000070 80 1d 97 bc c2 59 35 3e 28 79 42 3d 4f ce a1 bc
       -0.018446684 0.17710021 0.047478825 -0.019751696
000080 36 70 6b bd 5d a2 e1 3d 76 9e 43 bd 08 b0 52 bb
       -0.05748006 0.110172965 -0.047758542 -0.003214838
000090 11 de fb 39 29 c1 a9 3d ba eb e3 3d 05 93 1b 3e
       0.00048039903 0.082887955 0.11128946 0.15192802
0000a0 3c 0b 5a 3d 04 b4 27 3e 60 4f 5a 3d 8f 4b 5d 3d
       0.05323337 0.16377264 0.053298354 0.054027136
0000b0 36 bc 55 3d 3f cf 0a 3d 3b 72 f0 3c b3 bf 28 3e
       0.052181445 0.03388905 0.029351344 0.16479377
0000c0 10 bd e5 3d 91 9c d3 3c 72 3e 12 3e 19 73 97 bc
       0.112177014 0.025831493 0.14281633 -0.0184875
0000d0 a1 e8 86 3d 14 52 a7 3d bd 85 eb bd 60 ab 21 3e
       0.06587339 0.08169952 -0.11500118 0.1578803
0000e0 41 b4 be bd 2e fe 55 bc 09 0a 0a 3e 58 f6 01 3e
       -0.093117245 -0.013061089 0.1348039 0.12691629
0000f0 a2 cc ff 3d 75 d1 81 bc ae 70 cf 3a 72 f5 02 3d
       0.124902025 -0.015846947 0.0015826428 0.031972356

net.4.weight f4 [64, 64]
000000 3f b2 28 be 1f a6 1b 3c 13 83 a4 3e bf 9a 83 bd
       -0.16474245 0.009500056 0.32131252 -0.06426
000010 ae e0 54 be ac 7e a9 3d 14 1a 02 be 49 1d 28 3e
       -0.20788833 0.08276114 -0.1270526 0.16417421
000020 1d 75 91 3e 94 80 11 3c 47 8c 0f be a4 21 22 3d
       0.28409663 0.008880753 -0.14018355 0.039582863
000030 a4 b9 10 be 29 08 bd 3e d3 c2 89 3e 1e 83 5c 3d
       -0.14133316 0.36920288 0.26906452 0.05383598
000040 27 f3 01 be 21 83 37 3e 1e 2d 32 3e b8 fa 1e 3e
       -0.12690412 0.17921115 0.17400023 0.15525329
000050 5a f4 4f 3e 77 9f 2c 3c 2b 31 ad bd 48 bd db 3d
       0.20308056 0.010536066 -0.08456644 0.10729462
000060 32 08 ad bd 28 33 92 3e ef 8a 16 3d d8 cd 2e 3b
       -0.08448829 0.28554654 0.03675359 0.0026672985
000070 51 ee 68 3c 1e 81 36 3e 54 41 17 be e8 f9 a9 bd
       0.014216975 0.17822692 -0.14771014 -0.08299619
000080 1f 72 88 be 28 2d 1e bd aa 2e 20 be 6a ba bc 3d
       -0.26649567 -0.038617283 -0.15642801 0.09215243
000090 e5 1a 1e 3d 0a f2 d1 bc a2 95 c5 3c ed 1a 01 be
       0.038599867 -0.025628109 0.024119202 -0.12607928
0000a0 75 2e 99 3c 24 e6 74 3d a2 fd 99 bc f4 c3 c2 3a
       0.01869891 0.05978979 -0.0187977 0.0014859424
0000b0 48 64 42 3e c7 3d a8 3e eb 13 82 bc 5d 2f f3 bc
       0.18983567 0.32859632 -0.015878638 -0.02968567
0000c0 04 be ab bd 22 bc b0 bd 9f 0c 62 3e 6b 19 e9 bd
       -0.08385852 -0.086296335 0.22075127 -0.11381801
0000d0 0a 95 55 3e c0 61 7f 3e c0 7b c1 3d dd 04 7c 3e
       0.20857635 0.24939632 0.094474316 0.2461123
0000e0 ba a7 01 3d 2d f2 7d 3d 65 e9 92 3e 2e df a2 3d
       0.031654097 0.061998535 0.2869369 0.079527244
0000f0 d4 90 4b 3e e7 ec ac 3e 47 44 5b 3e b3 17 7a 3e
       0.19879466 0.33774492 0.21412764 0.24423103
000100 05 c3 90 3d 4c 82 d9 3d 35 ce 73 bd 64 f5 2f 3d
       0.07068447 0.10620555 -0.059522826 0.042958632
000110 46 ad a3 3d ea a8 b6 bc 10 98 cb 3c 67 8c a5 3d
       0.07992034 -0.022297341 0.024852782 0.0808342
000120 06 eb f1 bd 04 04 2c 3d c4 53 49 3d 1a 99 ee 3b
       -0.11812405 0.041996017 0.04915215 0.0072814347
000130 66 22 81 3d 71 0c 3a be c8 48 f1 bc 2e 26 32 bd
       0.06305389 -0.18168809 -0.02945365 -0.043493442
000140 a6 8c 6d 3e 5b 94 af bd c0 2b e9 bd 8b 1e 3b bd
       0.23198184 -0.085732184 -0.11385298 -0.045683425
000150 08 b8 12 bd 2f 62 0b 3d ea f0 9a 3d 13 a8 84 bd
       -0.035820037 0.034029182 0.07565482 -0.0647737
000160 88 c1 09 3e 24 33 f3 bd 65 36 2a bd 88 66 2c 3d
       0.13452733 -0.11874989 -0.04155578 0.04208997
000170 13 45 2f 3e 9e 54 b1 3d 2c 3b 6d 3b ad 11 ca 3c
       0.17116193 0.086587176 0.00361986 0.024666632
000180 24 bf 0d 3e fd b1 b9 3d 7a fe 93 bc 8e 83 a5 3d
       0.13842446 0.09067152 -0.01806568 0.08081733
000190 27 8d 45 3d c3 e9 36 3e cb c5 46 bd 0d 5b c4 3d
       0.048230316 0.1786261 -0.048528474 0.09587679
0001a0 f4 1e 05 3e c9 7f 02 3e ad 4f d9 bc 99 5c 98 bd
       0.13000089 0.12744059 -0.02652725 -0.074395366
0001b0 d6 f5 18 be 25 c3 c1 bd f9 e2 b9 3d be ec d4 3b
       -0.14937529 -0.09461049 0.09076495 0.0064979484
0001c0 be 4d 5c 3e d8 55 0b 3e 0b 8e c0 bd 2d 61 1a 3e
       0.21514031 0.13606966 -0.094020925 0.15076132
0001d0 3c 55 45 3d 3a da 35 3d f9 65 06 bd 75 f5 28 3d
       0.04817699 0.04439757 -0.032812092 0.04124971
0001e0 9d f6 c0 3d 8d 60 27 3e 51 4d ad 3c 6a a4 a5 3d
       0.09422038 0.16345425 0.021155031 0.08088
0001f0 f0 83 e8 3d b9 f3 e5 bd 1d 5e 21 bc cf cf 69 bd
       0.1135329 -0.11228127 -0.0098490985 -0.057082947
000200 34 6b 6b 3c 18 24 1f bc 6f f8 88 3d 5b 53 29 3b
       0.014368821 -0.009713195 0.0668801 0.0025837037
000210 1b 10 c6 bd 06 c7 00 3e f7 61 16 be 37 99 29 3e
       -0.096710406 0.12575921 -0.14685808 0.16562353
000220 3c c8 db 3d c8 82 16 3d 54 46 3e bc 79 7d 60 bd
       0.10731551 0.036745816 -0.011613447 -0.05480716
000230 38 5d 0a 3d ee 37 a1 3d 72 a0 6a 3d dc e1 be bc
       0.033780307 0.07871996 0.05728192 -0.023301058
000240 78 f9 07 be 15 6d 18 3d 32 08 2b 3e fd c6 20 3e
       -0.13278759 0.037213404 0.16702345 0.15700908
000250 13 67 64 3e 6c d0 a8 bb bd 03 23 3d 64 35 df 3b
       0.22304945 -0.005151799 0.039798487 0.0068117846
000260 2d b1 0d be 6c 87 2a 3e d9 c3 07 3d 14 10 29 bd
       -0.13837118 0.16653222 0.03314576 -0.0412751
000270 c1 72 b1 bd 8e 41 1a 3e 95 36 13 be c1 1d b8 bd
       -0.08664466 0.1506407 -0.1437629 -0.0899005
000280 21 64 d5 3c b0 57 31 3d a8 a4 d2 bd e6 87 9b 3d
       0.026048722 0.043296516 -0.10285312 0.0759428
000290 58 94 b1 bd 30 5e 28 3c 3a c5 9b 3c 63 c0 8c bd
       -0.086708724 0.010276362 0.019014943 -0.06872632
0002a0 1f 70 ab bd 60 df ae 3d 12 e1 e0 bd d0 ee 93 3c
       -0.08370995 0.08538699 -0.10980429 0.01805821
0002b0 2e 3b 1a 3e 37 c0 d5 bc 3e 6d 1a 3d b5 67 22 bd
       0.15061638 -0.026092632 0.037701838 -0.039649684
0002c0 41 76 12 3d e8 c9 39 be 42 99 c0 3d f4 ea 97 3d
       0.035757307 -0.18143427 0.094042316 0.074178606
0002d0 fd 6d 12 3c d1 76 31 3e 04 48 1c be b7 95 26 3d
       0.008937356 0.17330481 -0.15261847 0.040670123
0002e0 84 ac 2a be cb e5 1b bc ff e3 a1 3d c8 30 d0 3d
       -0.16667372 -0.009515236 0.07904815 0.10165554
0002f0 c5 f0 60 3c 50 e5 07 3e ac 7b 00 3e 61 9f 3c 3e
       0.013729279 0.1327107 0.12547177 0.18420173
000300 f2 82 11 be b5 b8 9e 3d 79 8e 0a 3e 35 d9 e0 bd
       -0.14210108 0.07750074 0.13530912 -0.10978929
000310 d4 69 35 be 6c e3 1b 3e f1 13 0b bd 39 ac 58 bb
       -0.17716151 0.15223473 -0.033954564 -0.0033061637
000320 9e c1 80 3e 55 5d 30 3d d3 9a ba 3d 84 62 f9 bd
       0.25147718 0.04305776 0.091115616 -0.121769935
000330 73 96 a8 bd 8f 7b 45 3d 78 bb 6a 3d 04 c1 ce 3d
       -0.08231821 0.048213538 0.05730769 0.100954086
000340 11 cf 9a bd dd 80 a7 3d b1 06 12 bd 6e ce 1b 3e
       -0.07559026 0.081788756 -0.035650913 0.15215465
000350 3f 3b 5b 3e 4f ec 9c 3d 90 b7 cf bd 32 3f 10 3e
       0.2140932 0.0766226 -0.10142434 0.14086607
000360 59 33 f2 bd e7 1e 6e 3c 28 78 bf 3d 26 e2 c9 3d
       -0.118262 0.014533735 0.0934909 0.098575875
000370 68 00 01 3e b1 96 19 3d 5e 5a 30 be 1e 2b ab 3c
       0.12597811 0.037497226 -0.17221972 0.020894583
000380 08 85 4a be 3f 60 fb 3c 6b 3a be bd d0 b5 ea bc
       -0.1977731 0.030685542 -0.09288486 -0.028651148
000390 3d 0d 80 bd b8 3b 44 bc 25 5d f3 3d 01 bf bf bd
       -0.06252525 -0.011977129 0.11883 -0.09362603
0003a0 f9 f7 6e bd fe 1c 17 3e 45 8a bd bd da 82 c6 bd
       -0.058341954 0.14757153 -0.092548884 -0.09692927
0003b0 af 0a 64 3e 05 0c 04 3d b7 05 27 be b3 09 59 3d
       0.222697 0.032238025 -0.16310774 0.052987766
0003c0 60 dc 71 3d 9e 05 e9 bd d4 52 e3 3d a5 43 47 bd
       0.059048057 -0.113780245 0.110997826 -0.048648495
0003d0 c3 dd 32 3e 70 5d d3 bb 83 d0 fb bd d3 d1 6f bc
       0.17467408 -0.0064503476 -0.1229563 -0.014637428
0003e0 c0 08 48 bc 56 60 26 be 53 33 69 3c 1c 34 17 3d
       -0.012209117 -0.16247687 0.014233428 0.03691493
0003f0 07 1d f5 3d 23 6c 5a 3e 9a 70 44 3e 7c 69 ab 3d
       0.11968427 0.21330313 0.19183579 0.08369729

net.4.bias f4 [64]
000000 b2 bb 44 bd 88 3a 08 bc 1e 69 26 bc 13 fd 2d 3e
       -0.048030563 -0.008314736 -0.010156898 0.16991071
000010 f0 82 21 3b fe bb 12 3c e6 8a 89 3d 1b b8 87 3d
       0.0024644695 0.008955954 0.06715946 0.06626912
000020 b1 af 18 3e 30 53 dd 3d d2 b1 de 3d f3 8b 8e 3d
       0.14910771 0.108068824 0.1087376 0.06960287
000030 09 30 11 bd 28 95 39 3c e0 04 50 3c 92 b9 02 3a
       -0.0354462 0.0113270655 0.012696475 0.00049867586
000040 f6 a2 80 bc 43 23 35 bd dc 7e 78 bd a8 4c a4 3d
       -0.015702706 -0.04422308 -0.060667858 0.080224335
000050 e6 94 04 bd c0 76 89 bd a8 e0 09 3e ab b6 fb bc
       -0.032368563 -0.06712103 0.13464606 -0.030726751
000060 cc b7 c5 3d 4c 6d 75 3c aa c5 6b 3b 95 2c 85 3c
       0.09654197 0.014979672 0.0035975971 0.01625661
000070 5d 42 86 bd 9f 4c 1c 3d a4 14 04 3e 72 fc 01 3e
       -0.065556265 0.03815901 0.12898499 0.12693956
000080 23 c1 56 3d 7a 17 55 bd 9b 9b b5 bd 87 08 35 bd
       0.052430283 -0.052024342 -0.0886757 -0.044197585
000090 5a e9 b4 3c de 62 d0 3d 5d 7e 9d 3d ad 1a 61 3d
       0.022083927 0.101751074 0.076901175 0.05495708
0000a0 f8 25 a5 3c 19 5b db 3b 0e a3 05 3d f0 02 dc 3d
       0.020159706 0.0066942093 0.032626204 0.10742748
0000b0 ea a8 ee bc 75 d9 87 bc ca 6f 35 3d 35 fb 0b 3e
       -0.029133279 -0.016583184 0.044296063 0.13670047
0000c0 ba f1 4b bd 97 ff 03 3e 10 4e 24 3e 08 b5 47 3d
       -0.049791075 0.12890469 0.16045403 0.04875663
0000d0 14 33 8d 3d aa d6 37 3e 96 75 35 3d 3a 65 51 3d
       0.06894508 0.17952982 0.04430159 0.051121928
0000e0 f3 95 87 3c b7 1f ba 3d eb 40 d4 bb 63 b0 4a bd
       0.016550994 0.090880804 -0.0064774654 -0.04948462
0000f0 e5 25 bf 3d f1 7a 2b 3e 87 b3 75 bc e7 84 08 3c
       0.093334 0.16746117 -0.014996416 0.008332468

net.6.weight f4 [1, 64]
000000 ff 02 c5 3e 82 04 e0 bd 9f 08 23 3e da 0c da 3d
       0.38478848 -0.1093836 0.15921257 0.106469825
000010 dd c8 9e be a7 c7 5b 3d a0 95 1c be f5 bf ca 3d
       -0.31012622 0.0536572 -0.15291452 0.09899894
000020 4d 31 4d 3e 48 68 a2 3d 35 b5 ee bd 58 12 e1 3d
       0.20038338 0.07930046 -0.11655656 0.10989827
000030 f8 5f 4c 3e 98 41 4e 3e 5a 55 01 be c3 6f b0 bc
       0.19958484 0.2014221 -0.12630215 -0.021537667
000040 20 68 b6 3d fc 40 f9 bd e0 a8 64 be 76 ff 17 bd
       0.08906579 -0.12170598 -0.22330046 -0.03710886
000050 3e 17 36 3e d8 09 4b be 11 1f 10 3e aa 3d 7f bb
       0.17782304 -0.19827974 0.14074351 -0.0038946667
000060 d4 70 39 3e 8a 90 a0 bd 61 b6 bf bd a6 22 e7 bd
       0.18109447 -0.07840069 -0.09360958 -0.112859055
000070 e4 d9 22 be 0a 2b 1a 3e 7d c1 98 bd c1 bb c2 bd
       -0.15903431 0.1505548 -0.0745878 -0.095084675
000080 27 c0 27 be ed f0 18 3e 76 55 cb bd e2 93 cf bd
       -0.16381894 0.14935656 -0.0992841 -0.10135628
000090 0e 00 f0 3d 01 b0 08 3e 8b 75 a5 bd 80 fc 00 be
       0.117187604 0.1334839 -0.0807906 -0.12596321
0000a0 a1 37 47 be 8d fb 0c be b0 00 1a 3e f5 10 29 be
       -0.19454814 -0.13767834 0.15039325 -0.16510375
0000b0 17 d5 ea bd d3 4b e6 bd 77 da 00 3e d7 47 3e 3e
       -0.11466425 -0.11244931 0.12583338 0.18582092
0000c0 9d c2 18 be 74 99 e7 bd 95 25 46 3e 5d da dc 3d
       -0.14917989 -0.11308566 0.19350274 0.10783837
0000d0 6b 4b 21 be 55 22 d7 3d 18 d4 0a be 9c 37 9f bd
       -0.15751426 0.10504595 -0.1355747 -0.077742785
0000e0 41 53 a7 bd be 9c 3f 3e 1b 27 c3 3d c0 cd c7 bd
       -0.08170176 0.18712136 0.09528943 -0.097560406
0000f0 72 fa b2 bd 8b 16 dd 3d 43 b2 2b be f5 65 2c 3e
       -0.08739175 0.10795315 -0.1676722 0.16835769
