cancer_iterative/cancer_models/30_train/tvae_combined_final_model.pt (torch, 45513 bytes, 7 tensors)

net.0.weight f4 [64, 30]
000000 b8 7c 21 be 44 11 a7 3d 7c 17 cf 3c 60 4a f6 bd
       -0.15770233 0.0815759 0.025279753 -0.12025905
000010 a7 09 4e be 79 5a 85 3d e1 0a 66 be 5f f3 2d be
       -0.2012087 0.06511397 -0.22465087 -0.1698737
000020 90 37 ab bc 28 40 0d 3e b1 c9 03 be 4e 19 7e 3d
       -0.020900518 0.13794005 -0.12869908 0.06203585
000030 9f 09 df 3d 54 33 21 be 34 bd 55 3d 53 20 9e bd
       0.10890507 -0.15742236 0.05218239 -0.07721009
000040 8b 22 b4 3d 4c c9 54 3d 23 cc ff bd 03 02 2b 3d
       0.08795651 0.051949784 -0.12490108 0.041749965
000050 ec d3 09 be 95 5b 9f bb f4 e8 26 3d 86 50 32 3c
       -0.13459748 -0.0048632124 0.040749505 0.010883456
000060 60 69 d9 bc c4 a8 6c 3e 61 c3 f6 3d d5 e6 8c be
       -0.026539505 0.23111254 0.12048984 -0.2751986
000070 6e 2c 28 3e 29 7e 53 bc c7 95 82 3d 2b 50 a5 3d
       0.16423199 -0.012908497 0.06376224 0.080719315
000080 79 79 04 3e dd ba 8a 3e 09 4c 02 3e 1b ce 65 3b
       0.12936963 0.2709569 0.12724318 0.0035065475
000090 cc 3a 14 3e 6b b3 fc bd fb db 1c 3d 2a 02 12 be
       0.14475554 -0.12338909 0.038295727 -0.14258638
0000a0 0e 2b c3 3d ad 29 e1 bb 6e ed 10 3c 1e 23 ec 3d
       0.095296964 -0.006871423 0.00884567 0.115301356
0000b0 0e 05 3a be 3b d8 c2 bc 37 fa 2d be 9b 97 65 3e
       -0.1816599 -0.023784747 -0.1698998 0.22421114
0000c0 14 73 b8 3b 8f 87 b6 bd 2f 21 49 3d 9b 8c 3b 3d
       0.0056289528 -0.089125745 0.049103912 0.04578839
0000d0 7b e1 7a 3e 7b a2 15 3e 7b 8e 15 3d 6d e3 0f 3e
       0.24500076 0.14612763 0.036512833 0.140516
0000e0 c6 ae 79 3d c1 1a 21 bd ab f1 c2 3d 48 f3 a7 bd
       0.060957693 -0.039332155 0.09518751 -0.08200699
0000f0 e3 0f 12 3e 89 3c 30 3e b0 70 30 3e 41 18 c5 3d
       0.14263873 0.17210592 0.17230487 0.09623767
000100 8f 3e f8 3d 90 c4 97 3d f5 4f 1c 3e cd 70 0a 3e
       0.12121307 0.07410538 0.15264876 0.13519593
000110 9a 1e fa bd 86 95 1a be 0a d1 40 3e 91 ca 80 3d
       -0.12212868 -0.15096101 0.18829742 0.062886365
000120 48 69 31 bd a0 3c 53 be e3 58 ca bd 85 02 a2 bd
       -0.043313295 -0.20628595 -0.09880235 -0.07910637
000130 79 bd a9 bd 26 de 39 3b 81 19 72 3d 99 6d ae bc
       -0.08288092 0.002836117 0.059106354 -0.021292495
000140 32 29 77 3e d5 4c 15 bb 54 df 25 3e 9a 8c 73 3e
       0.24136809 -0.002278139 0.16198474 0.23784104
000150 92 a1 77 be 10 d5 92 3d 99 1a 89 3c e0 20 7b bc
       -0.24182728 0.07169545 0.016736316 -0.015327662
000160 5f 60 bd 3d c0 65 dd 3d 3a 3d 42 be 9e f9 d0 bd
       0.09246897 0.10810423 -0.18968669 -0.10203861
000170 48 5c 71 be 5c bb 13 be fe 43 37 be 08 08 1b bc
       -0.23570359 -0.1442694 -0.1789703 -0.009462364
000180 39 d0 ae bd b1 8d 40 bd 42 a3 28 3e 99 72 3c 3c
       -0.08535809 -0.047010127 0.16468528 0.011501932
000190 50 3f 1c 3d b3 90 90 be bd d8 a3 bd d2 aa 83 3d
       0.038146317 -0.28235397 -0.08000324 0.06429066
0001a0 d3 9e 23 bc e3 98 0f 3d 6d f0 a0 be 0b cf b4 3d
       -0.009986597 0.035057914 -0.3143343 0.08828553
0001b0 94 af f3 bd 01 c0 83 be 61 40 81 3e 2d 23 7a 3e
       -0.11898723 -0.25732425 0.2524443 0.24427481
0001c0 90 8a d0 3d 61 50 6d bc 59 12 2a 3e 23 34 45 3e
       0.10182679 -0.014484496 0.16608562 0.1925817
0001d0 4e 7e c3 bb a9 77 99 3d 9a ba 38 3e 1e 1f 12 be
       -0.0059659844 0.074935265 0.18039933 -0.14269683
0001e0 e3 db 3e bb 1d cc ae 3d 2b 9a 1b bd ce 5b 0a bd
       -0.0029122762 0.08535025 -0.037988823 -0.033778958
0001f0 39 ee 09 bd c6 78 2d 3e b3 a6 35 be c3 60 80 3c
       -0.033674452 0.16940603 -0.17739372 0.01567114
000200 4e 0b 35 be 03 94 5b bd dd d1 fe bd 41 ac f2 3d
       -0.17680094 -0.05360795 -0.12442372 0.11849261
000210 42 a9 e8 3d 4a e4 0c be 79 ab 41 3e b3 39 1d bd
       0.11360408 -0.1375896 0.18913068 -0.038385104
000220 9b 84 12 be c9 95 1d be dd ab 6d 3e 0e 43 97 3d
       -0.14308397 -0.1538917 0.23210092 0.073858365
000230 67 9e 42 be 71 c9 8f 3c e8 4c 20 bd 86 79 95 bd
       -0.19005738 0.01755211 -0.039135844 -0.072985694
000240 67 23 6a bd 8b 60 12 bb 24 c7 bb 3d d6 5e 09 be
       -0.05716267 -0.0022335376 0.091688424 -0.13415083
000250 74 de 94 bd 96 a4 25 3e 8a 1e 50 bd c5 45 11 be
       -0.07268992 0.16176066 -0.050810374 -0.14186771
000260 7a 1e a4 3e a3 f5 f4 3d 55 1c 2e bd a0 62 8b 3d
       0.32054502 0.11960914 -0.04250749 0.068059206
000270 2d 68 06 bd 3f b6 84 bc aa 1c 4d bd 76 2a 7a 3e
       -0.032814194 -0.016200183 -0.050076164 0.2443026
000280 05 ba a2 3d 18 ed 90 be b8 2a 21 bd 0e 54 27 be
       0.07945637 -0.28305888 -0.03934738 -0.16340658
000290 d9 9d a8 bd 8e 57 8a be 68 4a c9 bc e8 b3 08 3e
       -0.08233232 -0.27019924 -0.024571612 0.13349879
0002a0 f1 54 3f be fa a8 f9 3c a6 40 8f 3d 98 1c a8 bb
       -0.18684746 0.030476082 0.069947526 -0.0051303618
0002b0 b5 e4 91 bd 9a 53 8a 3d 68 ef 5c 3e 03 c4 44 3e
       -0.071237005 0.06754227 0.21575701 0.19215398
0002c0 14 db 5b be a9 d3 92 bd d7 12 8e bd 73 b1 82 3d
       -0.2147029 -0.07169277 -0.06937187 0.06381502
0002d0 32 af b3 3c f4 4e 7d 3e f4 6d 60 3e 89 fb 29 3e
       0.021934126 0.2473715 0.21916944 0.1659986
0002e0 46 c7 15 3e ed 43 77 bd 74 ae 18 3e 03 66 3c bc
       0.14626798 -0.060367513 0.14910299 -0.011498931
0002f0 35 8e 8c 3e c3 39 5d be 99 ce a1 3d c2 98 53 3e
       0.27452245 -0.21604066 0.079007335 0.20663741
000300 e4 ad b1 3d b3 9c 7b 3d 07 99 54 3e 0f 73 93 be
       0.08675745 0.061428737 0.207615 -0.2879872
000310 58 a5 6c bd 94 78 c5 bc 28 26 0f 3e 04 0e 5b be
       -0.05777487 -0.024105348 0.13979399 -0.21392065
000320 8f e6 0f 3d 6c fc dd bd 61 ab 0b bc 0f f5 47 bd
       0.035131987 -0.10839161 -0.008524747 -0.04881769
000330 ce 34 2a 3e fb 9b dd 3d 3c 88 64 be b6 05 64 3e
       0.16621706 0.108207665 -0.22317594 0.22267804
000340 da 34 0f be 15 10 4e be 0d 70 94 be b4 c5 a2 3d
       -0.13985005 -0.20123322 -0.28991738 0.07947865
000350 99 36 48 be d4 e9 16 be 6d b4 73 3e 27 87 07 be
       -0.19552077 -0.14737636 0.23799296 -0.1323515
000360 ad 16 7d bd 4b ee 39 bc 71 04 eb bd c2 d4 ab 3d
       -0.061789203 -0.011348317 -0.114754565 0.0839019
000370 e8 9f 5c 3d 8e a2 2a bd 56 31 21 be cc 25 98 3d
       0.053863436 -0.04165893 -0.15741476 0.07429084
000380 cf b4 8a 3e cf fa 31 be 3c 32 c0 3d 94 82 4f 3c
       0.2709107 -0.17380832 0.093845814 0.01266541
000390 32 5f 52 bc d5 e9 59 be 55 4c 9e be c5 61 e5 bd
       -0.012840079 -0.21280606 -0.30917612 -0.11200289
0003a0 a5 1f 01 be 8e 36 cc bd a5 e7 0f 3e 28 a4 e1 bd
       -0.12609728 -0.09971343 0.14053209 -0.110176384
0003b0 9c b1 d1 3b 31 59 12 3e 7f 55 36 be da 18 af bb
       0.0063993465 0.14291836 -0.17806052 -0.0053435387
0003c0 53 a2 2d 3e 5d 45 25 be d3 b0 20 3e 9c 01 ef 3d
       0.16956453 -0.16139741 0.15692453 0.11670229
0003d0 41 08 37 3e ce d1 a4 bd d3 cb 6c be b9 fb 8d 3e
       0.17874242 -0.080478296 -0.23124628 0.27731112
0003e0 0d cd b4 bd de e4 81 bd 87 76 57 3c d9 e2 45 3d
       -0.08828173 -0.06342481 0.013150818 0.048312042
0003f0 d9 c8 a5 3d c4 e9 8d 3d e4 cf 39 be 15 d8 28 be
       0.08094949 0.06929353 -0.1814571 -0.16488679

net.0.bias f4 [64]
000000 dc 26 cf bc 86 e0 95 3d 1c 92 5f bd c4 c5 67 bd
       -0.025287084 0.07318215 -0.0545827 -0.05658509
000010 28 11 da bd 61 d2 9e 3d c6 2d c7 bb 96 00 e3 3c
       -0.106478035 0.0775497 -0.0060784547 0.02771024
000020 13 78 7d bd 0a be 04 3e 63 8b 09 3d 3a 88 97 3c
       -0.06188209 0.12963119 0.033580195 0.018497575
000030 bc 33 54 bc 08 4a 13 3e 50 e1 4a 3e e6 08 c0 3d
       -0.012951788 0.1438371 0.19812512 0.09376697
000040 ba c4 09 3e 9b e9 cf 3d a9 6b 3b be a3 73 cb 3d
       0.13453951 0.101519786 -0.18302788 0.09934165
000050 a8 3d 4d 3d 97 1f 4f 3d 89 3f 48 be 93 33 44 3d
       0.050107628 0.050567236 -0.19555487 0.047900748
000060 a3 f9 88 3d 6b 59 55 be e1 8e 8d 3d 3b f6 c3 bd
       0.066882394 -0.20834891 0.069120176 -0.09568449
000070 3c 7a 93 be f3 23 13 3d 8d 47 8c bd 99 65 83 bc
       -0.28804195 0.035922956 -0.06849585 -0.016039656
000080 16 c1 e0 bd 7c ed ba bd 8c 39 7c bb d4 46 a9 3d
       -0.10974328 -0.09127328 -0.003848645 0.082654625
000090 8b 30 b7 3d d9 ef 16 3d 8e 61 ca 3d 8a 6a 65 be
       0.08944806 0.03684983 0.09881888 -0.22403923
0000a0 9c 12 f4 3b c6 74 2e 3e 2e 7d b7 3c 13 94 bc 3b
       0.0074485075 0.17036733 0.022398558 0.0057549565
0000b0 86 b8 73 bd 35 aa 8a 3d 66 92 e1 bd ba 69 45 be
       -0.059502147 0.06770746 -0.110142514 -0.19278613
0000c0 83 4f 0e 3e 37 95 8b bd 9d 31 91 bd 92 f8 1c be
       0.13897519 -0.0681557 -0.07089541 -0.15329197
0000d0 c7 c3 91 bd 3a 28 b3 bc ea 96 0c 3e 0a e3 a3 bd
       -0.0711742 -0.021869767 0.13729444 -0.08002289
0000e0 01 1e dc 3a 52 d2 44 3d 83 64 b5 bc 9a bf b7 3d
       0.001679361 0.04805214 -0.022142654 0.08972092
0000f0 0b d3 07 be 97 69 13 bd d6 39 e5 bc cd 78 80 bd
       -0.132641 -0.03598937 -0.02798168 -0.06273041

net.2.weight f4 [64, 64]
000000 63 0d 56 3d 91 0a 1e be 7e 1d 36 be 01 5b 09 3d
       0.05225886 -0.15433718 -0.17784688 0.033534054
000010 79 dd 98 bc 08 90 b6 3c 5c d1 3e bd fe 87 e3 bc
       -0.018660294 0.022285476 -0.04658638 -0.027774807
000020 1d b6 95 3c 1c 75 0b bc e1 ac da 3d 7d 0c 08 3e
       0.018275315 -0.008511808 0.10677505 0.13286014
000030 2e 96 d5 bd 99 62 81 bd 06 f9 a5 3d 2e ec df 3c
       -0.10429035 -0.06317634 0.08104138 0.027334299
000040 36 46 82 3e be f8 95 3d 46 7a 27 be 5c 09 41 be
       0.25444192 0.073228344 -0.16355237 -0.18851227
000050 33 d2 2b 3e 23 55 12 3e 88 73 14 3e bc 8e bd bd
       0.16779403 0.1429029 0.14497197 -0.0925574
000060 01 b3 33 3d 6b 05 48 3e f4 52 30 3e bb fb 06 bd
       0.043871883 0.19533317 0.17219144 -0.032954913
000070 b4 b6 1d 3e a7 3a 13 3e 29 53 73 3d 0e 09 9d bc
       0.15401727 0.14377843 0.05940548 -0.019169357
000080 d9 5d 8a bd 29 66 f0 3d 5e 15 7d bd 5b d7 0c bd
       -0.06756181 0.117382355 -0.061787955 -0.034385066
000090 90 c9 08 bd 15 06 ba 3c 82 f0 22 3e 78 b4 a8 bd
       -0.03339535 0.022707978 0.15912059 -0.08237547
0000a0 39 5d 11 3e 59 a8 03 bd 21 ea f2 bd f5 36 03 3e
       0.14195718 -0.03214297 -0.11861063 0.12813933
0000b0 d7 cb bd 3d 86 59 11 bd a0 b1 ae bd 6a 3d 8b 3d
       0.09267395 -0.035485767 -0.08529973 0.06798823
0000c0 46 2b 96 3c 06 84 8e bd 0f 0f f5 3c 37 4f e8 3c
       0.018331181 -0.06958775 0.029914407 0.028358085
0000d0 1a e3 fb 3d e2 b4 35 3d 1c d1 52 bd bd 45 8c 3d
       0.122991756 0.044361956 -0.051468953 0.06849239
0000e0 47 0f e9 3c 4d 16 22 bd 48 4e 35 3e 23 c0 61 3d
       0.028449668 -0.03957205 0.17705643 0.055114876
0000f0 6f 0e 01 3e a3 89 81 3d 4a f1 ac 3d 50 a0 2d 3e
       0.12603162 0.0632508 0.0844446 0.16955686
000100 22 5e fa 3c ac 6b 27 3d 0a 03 a6 bd 16 f9 74 3d
       0.030562464 0.04087417 -0.081060484 0.05980786
000110 e3 2d 84 bc 7f 50 83 bd a0 91 bf bd c8 2e 18 be
       -0.016135162 -0.06411838 -0.09353948 -0.14861596
000120 2f 35 18 be af df 92 3d 63 3a 19 3e 46 dc 46 bb
       -0.14864038 0.071715705 0.14963679 -0.0030343696
000130 48 2d 0a 3d 16 66 ee bd 36 6f b9 3d 4a 51 cf 3d
       0.03373459 -0.11640565 0.09054415 0.101229265
000140 ea 8c 48 3d 90 68 e1 3d 93 77 3f 3d e4 d7 16 be
       0.04896251 0.11006272 0.046744894 -0.14730793
000150 67 f7 68 3e c0 7f 24 bd 99 b3 f5 3c 3b 50 1b be
       0.22750627 -0.040160894 0.029992865 -0.15167324
000160 b5 e0 56 3e 0a a5 87 3e 7e 97 de 3d a5 3b 27 be
       0.20984156 0.26493102 0.108687386 -0.16331346
000170 58 6b 06 3e f5 b0 58 3e 79 fc 1e 3e b8 7a 9f 3d
       0.13126886 0.21161254 0.15525998 0.077870786
000180 04 32 99 3c 9c e6 ce 3d 2f e2 39 be 8b 11 15 bd
       0.018700607 0.10102579 -0.18152688 -0.036393683
000190 33 d5 b4 bd 08 46 1a 3e 33 4d 1e 3e 18 04 ed bd
       -0.08829727 0.15065777 0.15459137 -0.115730464
0001a0 ff fe b8 3d 03 6f 5c be 97 c1 73 bd 12 1b 38 3e
       0.09033012 -0.21526723 -0.059510794 0.17979077
0001b0 28 e7 a8 37 7e 52 71 3d ad c3 10 3d 5f d9 5c bb
       2.0134801e-05 0.05891656 0.03534286 -0.00336989
0001c0 36 00 d1 bd cb 4b c2 bd 83 61 d6 3d d8 84 5c 3c
       -0.10205118 -0.094871126 0.10467818 0.013459407
0001d0 06 e0 c3 3d 6e 5b 1e bc d3 e9 f5 3c 5a c8 b3 3d
       0.095642135 -0.009665353 0.030018723 0.087784484
0001e0 a7 9b 5b be b0 f3 b1 bd e3 46 dc 3d e2 59 c1 3d
       -0.21446095 -0.08689058 0.10755708 0.09440972
0001f0 20 e5 1e bd c0 e2 a5 3d 74 5a 1a be 3e 68 85 3e
       -0.03879273 0.0809989 -0.15073568 0.26056093
000200 ae 40 f9 bd 5e 2e 41 bd 2e bb 50 be 33 3a 26 3d
       -0.1217054 -0.04716336 -0.20383903 0.040582847
000210 f9 ef c0 bd 35 11 36 3d 8b 22 a7 bd bd 7b c5 bd
       -0.09420771 0.044450004 -0.081608854 -0.09642742
000220 dd bc de 3c 06 f4 10 be 53 aa df 3d 6a 3f 19 3c
       0.027189666 -0.14155588 0.10921159 0.009353498
000230 11 cd 95 bc 80 2a 30 3e 92 fb 91 3d 67 a9 60 3d
       -0.01828626 0.17203712 0.07128061 0.054849055
000240 20 67 ac 3d bf be 9a 3d 8b 25 c5 3d 00 46 08 bd
       0.08418107 0.07555913 0.096263014 -0.033269882
000250 67 29 49 bd 6e f7 56 bd cb 35 ae 3d eb 18 65 3d
       -0.04911175 -0.05248206 0.08506354 0.055931967
000260 d7 b5 93 bc 22 ee 7e 3d 36 49 e3 3d 53 69 5b bc
       -0.018031044 0.06223882 0.11097948 -0.0133918105
000270 22 b8 31 3e 4a 20 9c 3e ff 7c 8c ba 01 78 bd 3d
       0.17355397 0.30493385 -0.0010718404 0.092514046
000280 18 6d 77 bd 7f 17 79 3d 48 e7 59 bc fb 59 2b 3e
       -0.060406774 0.060813423 -0.013299771 0.16733544
000290 56 dd 19 be 50 9b 03 3d 91 b8 6d 3d 3a 54 61 be
       -0.15025839 0.03213054 0.058037344 -0.22004786
0002a0 3b 8b 74 bc cd a9 32 3e e4 ac 21 be de 54 d6 3d
       -0.014925773 0.17447586 -0.15788609 0.10465406
0002b0 59 69 04 3e 42 f8 97 3d c7 6a 52 3d 0a bf 8f 3d
       0.12930812 0.07420398 0.051371362 0.0701886
0002c0 34 a0 7a 3d 4d 42 0d be 10 71 cc bd 5c 18 84 3e
       0.061187938 -0.13794823 -0.099825025 0.25799835
0002d0 f0 ff 08 3e 03 0e 67 3d 6c 80 0a bd 68 e4 bc 3d
       0.13378882 0.056409847 -0.03381388 0.092232525
0002e0 31 53 a5 bb 2b b1 3e 3d d2 c2 1a 3e b4 48 06 3c
       -0.0050453176 0.04655568 0.1511338 0.008196045
0002f0 90 c8 50 3e 83 ce 32 3d e9 80 a9 3d 85 fd 62 3e
       0.20389009 0.043653976 0.08276541 0.22167023
000300 06 45 2a 3d d7 fc d0 bc 01 72 3d be 8f fe 84 bd
       0.041569732 -0.025511188 -0.1850052 -0.06493866
000310 6a bf 68 bb ad 6a 49 be 21 46 71 be 16 b7 a6 bc
       -0.0035514482 -0.196696 -0.23561908 -0.020350974
000320 33 62 f5 3d 96 7f ae 3c 92 44 c8 3d 90 27 e2 3d
       0.11981621 0.021301072 0.09778704 0.11042702
000330 7f 88 af 3d 53 6c c1 3d d7 2c 24 bd 88 52 ab bd
       0.085709564 0.09444489 -0.040081825 -0.08365351
000340 58 ef 05 3e 18 11 38 3e b1 12 b3 bd d2 6f 80 be
       0.13079584 0.17975271 -0.087437995 -0.25085312
000350 f4 44 f4 3d 94 9e 70 3e ae e1 53 3e 8d 98 35 3e
       0.11927214 0.23497993 0.20691559 0.17733975
000360 e0 ff 42 bd a4 47 e3 3d 75 a9 f3 3c 0e d1 50 ba
       -0.047607303 0.11097649 0.02974389 -0.0007965722
000370 17 b1 37 3c 9e d9 8c 3e 6d 7c 1b bd c2 7f 11 3c
       0.011211655 0.2750978 -0.03796046 0.0088805575
000380 c1 3d e7 bc 67 18 a6 3c 52 9b 6d 3d 84 99 5c 3d
       -0.028227689 0.020275308 0.058009453 0.05385734
000390 4d ee 73 bd 58 37 29 3e df 3f b6 3d 9d 3a 58 be
       -0.059553433 0.16525018 0.08898901 -0.21116109
0003a0 5a 4e 10 3e cc 06 e8 bd 6d ac 92 bd dc ad 45 bd
       0.14092389 -0.113294214 -0.07161794 -0.04826151
0003b0 c6 71 63 3e 1b 81 30 3e c9 6e e3 bd 7f e0 1c 3d
       0.2221137 0.1723675 -0.11105115 0.038300034
0003c0 e0 1f 85 3d e5 8f f4 3c ca d5 ef bd 4f f4 60 3e
       0.0650022 0.02985377 -0.11710699 0.21968196
0003d0 43 6e 2b 3e 4d bb 95 3d 2f 9a 99 bd 5d ac 24 3e
       0.1674128 0.073111154 -0.07500111 0.16081376
0003e0 5d 19 1d 3d ca 91 32 bc 71 73 1d 3d 4c c3 5f 3e
       0.038354266 -0.010899017 0.03844017 0.21851844
0003f0 e5 92 34 3d e0 24 f5 3c d7 c5 5f 3c 25 55 46 3e
       0.044085402 0.02992481 0.013658009 0.19368418

net.2.bias f4 [64]
000000 c7 fe 1f bd a6 d3 f1 bc 87 bd f0 bc 8b c0 d5 3d
       -0.039061334 -0.029519867 -0.029387249 0.10437115
000010 7a 56 2f bd 7f fc 40 3d 48 4d 61 3d e1 4c 89 bd
       -0.04280708 0.0471158 0.05500534 -0.067041166
000020 4c 39 c0 3d 27 01 05 be e2 1f 96 bc 8c 05 a4 3d
       0.093859285 -0.12988721 -0.01832575 0.080088705
000030 c6 de 40 3e 2b 23 04 be 96 42 98 3d c9 47 5c 3e
       0.18834981 -0.1290404 0.07434575 0.21511759
000040 ee cd 21 3e 09 ea f4 bc a3 a2 d3 bd 40 95 cc bd
       0.15801212 -0.029896753 -0.10333755 -0.09989405
000050 50 5c b9 bd 38 b4 94 3d 81 02 a5 3d 5b 18 a4 3b
       -0.0905081 0.072609365 0.08057118 0.005007786
000060 38 7e 84 bd 91 6d 23 bd 30 ee d7 bc 13 44 dc bd
       -0.06469387 -0.039899413 -0.026358694 -0.107551716
000070 99 96 57 bd c1 c4 c5 3d bd 25 b0 bd ab cc d4 3c
       -0.052633855 0.096566685 -0.08600948 0.0259765
000080 26 bf 0b bc f6 4c a4 3d 7c a1 1a 3e aa 9c f5 bc
       -0.00852946 0.08022492 0.15100664 -0.02998193
000090 51 ac 07 3e fa 07 93 3d e3 c9 a6 3c 63 14 8f 3b
       0.13249327 0.07179256 0.020359939 0.004366444
0000a0 f1 67 2f 3d c2 5e fb 3d 7d 48 98 3c ca e6 69 3d
       0.042823736 0.12273933 0.018589253 0.057104863
0000b0 8d c0 97 bd d9 7b 81 3e 4e 64 de bd 57 73 e0 3d
       -0.07409773 0.252898 -0.10858975 0.10959499
0000c0 98 05 d1 bd 9c 3d f7 3c 66 6f 50 bd 1e 5b b0 bd
       -0.10206145 0.030180745 -0.050887488 -0.08611129
0000d0 98 c4 dd bb b2 68 b5 3d 97 17 02 3e 84 cc c3 3d
       -0.0067678206 0.0885786 0.12704311 0.09560493
0000e0 63 41 85 3d de 58 88 bc 74 6b f2 bc 71 8c 04 be
       0.06506612 -0.016643938 -0.029592253 -0.12944199
0000f0 d5 00 d4 3d 52 8b b4 3c a9 f1 d0 bd 61 45 b1 bd
       0.10351721 0.02203909 -0.10202343 -0.08655811

net.4.weight f4 [64, 64]
000000 61 ae a9 3b 3e b9 58 3e 86 83 eb 3d 23 76 24 3d
       0.0051782583 0.21164414 0.114996955 0.040151726
000010 cc 62 8d 3d b4 a0 a0 3e e9 96 8b bd b6 54 6e 3d
       0.0690361 0.31372607 -0.06815893 0.058186255
000020 02 cf 93 3d 06 19 05 3e ca 14 2b bd 54 a0 58 3e
       0.07217218 0.12997827 -0.041767873 0.2115491
000030 a1 64 2d 3e 35 97 03 bd f4 0a 19 3e b1 d8 f5 3d
       0.16932918 -0.032126624 0.14945585 0.12004221
000040 bd c5 86 bc d4 57 f8 bd 3e 2a 63 3c 78 72 b3 3c
       -0.01645171 -0.12126127 0.013865052 0.021905169
000050 b3 d0 b9 3c 57 62 03 be 2a b5 3f be 8a f2 50 3e
       0.022682523 -0.12830482 -0.18721452 0.20405021
000060 65 93 c4 3d 56 bf 02 3d 0b b0 8e be a5 20 8b 3e
       0.09598426 0.031920753 -0.27868685 0.27173343
000070 5f 87 9f 3c c2 93 18 3e 86 7f 33 bd 8d b2 46 3c
       0.01947373 0.14900115 -0.043822788 0.012127531
000080 6f f8 89 3d 97 5d 2d bd 7e 98 26 3e 11 09 95 3d
       0.06736838 -0.042325582 0.16269109 0.0727712
000090 12 97 ca bd 6b 16 1b 3e 40 e2 76 3b cc cf 4c bd
       -0.098920956 0.1514527 0.0037671477 -0.050002858
0000a0 b9 0e f3 3d e6 9c 0a 3e e1 45 8d 3e ce 09 47 be
       0.118680425 0.13536415 0.27592376 -0.19437334
0000b0 b8 89 6e 3d 1e f7 88 3c 76 ea 02 3e c9 47 68 3e
       0.058236808 0.016719397 0.12784752 0.22683634
0000c0 d1 4d 58 3d 02 c0 15 bc de 26 80 be 0d 7e fd 3d
       0.052808587 -0.0091400165 -0.25029653 0.12377558
0000d0 87 90 35 be c9 13 8c 3c a4 5e 2a 3e 15 4d 58 3e
       -0.17730914 0.017099278 0.16637665 0.21123154
0000e0 d8 49 a2 bd 01 99 90 3d d0 13 8c bd 66 64 0f be
       -0.07924241 0.07060433 -0.068397164 -0.14003143
0000f0 f4 b2 a5 3d f9 70 52 3d 5e e5 32 3d 7a 71 87 3e
       0.08090773 0.05137727 0.043675773 0.26453763
000100 a2 78 06 3e 92 0f 20 3e 21 53 1e 3d 74 00 24 3e
       0.13131955 0.1563094 0.038653497 0.16015798
000110 af 9a 57 3d ea 19 3c 3e b5 99 37 be c3 09 7e 3d
       0.052637752 0.1836926 -0.17929728 0.06202103
000120 5a 24 88 3c 41 48 fc 3d 21 57 8b bd 97 f0 a0 bc
       0.016618896 0.12318469 -0.06803728 -0.019645972
000130 d1 f2 86 bd fb a4 de 3d 7b 8c 2a 3c ac fa 5f 3e
       -0.06589282 0.10871311 0.01040947 0.21872967
000140 ae 1f 0f bc 37 9e 1b be 39 08 49 3d b1 26 6b bd
       -0.00873558 -0.15197073 0.049080107 -0.057409946
000150 dc 69 12 bd 59 32 99 bd 2f 0c 46 be 05 27 31 3e
       -0.035745487 -0.07480306 -0.19340585 0.17300041
000160 b9 34 2f 3d 27 ca cf 3d cc 58 08 be 56 b1 2b 3b
       0.04277489 0.101459794 -0.13315123 0.002619823
000170 d4 d3 1e be fd 81 d2 3d 74 2d f9 bb 03 5e b8 bd
       -0.15510494 0.102786995 -0.0076042954 -0.09002306
000180 45 08 ae 3c 63 4b 9a bc 63 8c df bc 6d 85 2d bc
       0.021244178 -0.018834775 -0.027288621 -0.010590893
000190 c0 a9 1d be 1a 04 1e 3e 10 7c 14 3e 2c 57 20 3c
       -0.15396786 0.15431252 0.14500451 0.009786408
0001a0 1e a0 8b 3b d7 9d 90 3d 98 95 1f 3e 68 4d ce bd
       0.004261031 0.070613556 0.15584409 -0.10073358
0001b0 ac 90 9b bc 6a cd 47 3e dc eb 8f 3d 1c 15 0a 3d
       -0.018989883 0.19511953 0.070274085 0.033711538
0001c0 32 0e 4b bd f2 c4 fb bd d4 65 e3 bd d7 93 84 bd
       -0.049574085 -0.12293424 -0.111034065 -0.06473511
0001d0 53 ae c6 bd f9 71 53 3c bf 93 bc 3d fe 68 12 3b
       -0.097012185 0.012905591 0.09207868 0.0022340412
0001e0 86 71 f7 bb ce 2c 9e bd 69 2d 93 bd e3 27 fe bc
       -0.007551375 -0.077233896 -0.07186396 -0.031024879
0001f0 ca a6 e7 3c d8 53 54 3d 1b e2 b6 bc 18 51 18 3e
       0.028277773 0.051837772 -0.022324612 0.14874685
000200 f0 cf 14 3d bb 6e be 3c 01 12 19 be 74 c0 ed bd
       0.036331117 0.02324616 -0.14948274 -0.11608973
000210 88 45 94 bb 12 be 42 be cb e2 c4 3e bf a1 35 be
       -0.0045248903 -0.19017819 0.3845428 -0.17737482
000220 04 55 f1 bd 12 1a 44 3c 4b 12 97 3e 9a 7f 98 bc
       -0.117837936 0.011969106 0.29506144 -0.018615533
000230 de ce e9 3d f0 5a 23 be 3d 15 3c bd 31 6f fa 3d
       0.1141641 -0.15952659 -0.045918692 0.12228239
000240 6c 84 f1 3d 90 9e ea 3d 4f 6a 8c bd f9 9a 42 bd
       0.117928356 0.11456025 -0.06856214 -0.047511075
000250 8e 4b b9 3d 7c 1e 98 3e bc c1 65 3e ee b3 f5 bc
       0.09047614 0.29710758 0.22437185 -0.029993024
000260 30 cc 5b be 07 e0 f7 bd ba f0 a7 3e 82 e1 3c be
       -0.2146461 -0.12103277 0.32800847 -0.184454
000270 25 10 18 3d 37 34 0c 3e 8a 1e 44 3e f5 fc 14 bd
       0.03712477 0.13691793 0.19152275 -0.03637405
000280 53 c9 16 3b b3 b8 56 3e d0 7b 10 bc f2 db 2e be
       0.0023008182 0.20968895 -0.008818582 -0.1707609
000290 6f 74 ab 3d 6e 4a 90 3b 52 32 b0 bd 15 f2 2b bd
       0.08371817 0.004403404 -0.08603348 -0.041978914
0002a0 51 32 0d 3d 97 ba 10 bd e1 0a 18 be b1 a5 6c 3e
       0.034471814 -0.035334196 -0.148479 0.23110081
0002b0 b0 2a 0c be 19 66 2c 3e 0d b2 ab bc 18 4e da bb
       -0.13688159 0.16835822 -0.020958925 -0.0066621415
0002c0 7c 10 17 be 2a 3f c7 bc 76 59 bc 3d 6f 54 09 3d
       -0.14752382 -0.024322111 0.09196751 0.033527788
0002d0 6e c5 01 3e 12 41 50 bd 06 5c c9 3b 17 25 bb bd
       0.1267297 -0.050843306 0.0061450033 -0.09137934
0002e0 7c c7 2b 3e 4c 9a fb bd 88 07 93 3e 5a 33 bb 3c
       0.16775316 -0.12285289 0.28716683 0.022851635
0002f0 f0 0f ca 3d 6e 97 46 bd f5 72 18 bd ac 78 a1 bc
       0.09866321 -0.04848426 -0.037219007 -0.019710861
000300 9e f2 00 3e d1 b7 2c be 1b e4 8e bd 35 2e 2a be
       0.12592551 -0.16866995 -0.069771014 -0.16619189
000310 0e ba 33 be ca 64 53 be 40 02 30 3e 3f 4c eb 3c
       -0.17551443 -0.20643917 0.17188358 0.02872288
000320 43 f0 13 bd cd 7e 04 be 3d d7 62 3e d1 b1 7a 3d
       -0.036117803 -0.12938996 0.2215242 0.061204735
000330 03 7f f8 3d ed 7a 8e 3d 6b 88 41 be b8 d3 f0 3d
       0.121336006 0.0695704 -0.18899696 0.11759132
000340 3f ee 47 3e 09 9a 4b 3d 0c a4 ef bd 42 44 bc bc
       0.19524477 0.049707446 -0.11701211 -0.022981767
000350 60 09 a4 3c 9b 42 bd 3e d1 7d 36 3e 11 72 1d 3e
       0.020024002 0.36964878 0.17821433 0.15375544
000360 e4 5d c1 bd 27 0b 6e bb 01 ff 27 3e df 62 31 bd
       -0.09441736 -0.0036322565 0.1640587 -0.04330718
000370 35 3a 6a 3e ec e4 e1 3d f0 ee 20 3e 0c f7 e3 bd
       0.22873767 0.110299915 0.15716147 -0.11131105
000380 b3 a7 24 bc 13 fe 7b 3d 5d 80 00 3e 41 31 7b 3d
       -0.010049748 0.0615216 0.12548967 0.06132627
000390 e7 fc 92 3c 69 2c 54 3c 06 a4 2e 3c ab 47 23 3d
       0.017942859 0.012950041 0.010659223 0.03986327
0003a0 13 63 a8 bd 9a 76 6f be e4 69 3c 3a ed b2 48 3e
       -0.08222022 -0.23385087 0.000718741 0.19599505
0003b0 fc 3d 8c bd 57 79 b7 3b 41 31 c2 3c 18 06 f8 3d
       -0.0684776 0.0055991816 0.023705127 0.12110537
0003c0 f7 1b e8 bd 6d 07 e5 3d bc 69 99 3e 00 25 40 3d
       -0.11333459 0.11183057 0.2996348 0.046910286
0003d0 10 aa 32 3e 78 0b 98 bd df 74 9e 3d 19 19 9c bd
       0.17447686 -0.074240625 0.07737135 -0.076219745
0003e0 8a f6 be 3d a2 e2 b5 bd c0 8f e9 3d c1 fd 33 3e
       0.09324367 -0.088811174 0.11404371 0.17577268
0003f0 fa d9 b0 bd aa 12 de bc 69 22 8f bd 98 78 45 be
       -0.08635326 -0.02710851 -0.06988985 -0.19284284

net.4.bias f4 [64]
000000 1f 40 5b bd e2 0b 51 3d 4a 2b e2 3d 3b 0d ea 3d
       -0.053527948 0.051036723 0.11043413 0.11428305
000010 86 c9 76 bd 6b 72 00 3e 26 26 45 3a a7 70 47 3d
       -0.06025078 0.12543647 0.0007520638 0.048691418
000020 18 cd 55 bd 0e 10 f6 bc dd 1b 67 bd 44 1e 61 3d
       -0.052197546 -0.030036952 -0.056423057 0.054960504
000030 b9 12 ce bc 09 fe 0b 3e f8 34 f6 bc fb ea 63 bd
       -0.025155412 0.13671125 -0.030054554 -0.055644017
000040 38 72 af bd 29 c5 56 3d 6c f0 66 bd fb f8 c0 3d
       -0.085667074 0.05243412 -0.056381628 0.09422489
000050 93 1f 12 3e 6f 78 00 3e 5a ac 42 bc 07 fc e0 3d
       0.14269857 0.12545942 -0.011881912 0.109855704
000060 06 c9 37 3d a9 64 c8 3d 50 25 f9 3d 1f 9d a2 3d
       0.044869445 0.097848244 0.1216532 0.07940125
000070 69 c3 f0 3d cb be fe 3d 46 44 22 3e 22 54 04 3e
       0.117560215 0.124387346 0.15846357 0.12922719
000080 87 3a 06 3e 20 ca 58 bd 30 c6 89 bc 85 01 2b 3d
       0.13108264 -0.052927136 -0.016818136 0.041749496
000090 a5 be b5 bd 54 1b 51 3c 88 45 e8 3c 3a 29 37 3e
       -0.08874253 0.012762863 0.028353468 0.1788682
0000a0 1b 6a 6a 3d c4 ff 0d 3e 37 42 33 3d 44 a3 e0 3d
       0.057230096 0.13867098 0.04376432 0.109686404
0000b0 ab 87 94 3d 67 e2 3f 3d ea d5 0e 3e 50 45 3f bc
       0.07252439 0.046846773 0.13948789 -0.01167424
0000c0 39 93 74 3b 7c 5a ba 3d 81 63 e1 3d 6c 44 96 3d
       0.0037319197 0.0909929 0.11005307 0.07337269
0000d0 a9 82 8e 3c c3 b3 f0 3c 9b 59 c1 bc 19 35 93 3d
       0.017396288 0.029382592 -0.023602298 0.07187862
0000e0 d6 c5 88 3d cf 33 64 3d 7f 36 55 3b b7 47 02 3e
       0.06678359 0.05571347 0.0032533703 0.1272267
0000f0 85 b6 5c 3d 63 4d 83 3d 5a 5c 89 3d 70 0e a7 3b
       0.053885 0.06411245 0.06707068 0.0050981566

net.6.weight f4 [1, 64]
000000 e9 00 9b 3e cb f9 83 3d 10 90 87 be bf 3e 66 be
       0.30274132 0.064441286 -0.26477098 -0.22484873
000010 9b 88 92 be b1 f1 51 be 97 ba 4f 3e 7a c1 0a 3e
       -0.28619847 -0.20502354 0.20286022 0.13550368
000020 dd fe 52 3e 91 11 4a be ee d3 44 3e a7 e5 4d 3e
       0.20605035 -0.19733264 0.1922147 0.20107137
000030 38 6e 33 be 8e 81 67 be 5d 01 5e 3e cd 25 69 3e
       -0.17522514 -0.22608015 0.21680208 0.22768326
000040 e7 ca a2 be 82 09 8a 3e 1a 1b 8e be b5 91 5e be
       -0.31795427 0.2696038 -0.27755052 -0.2173527
000050 16 51 6a be f3 a8 3e be b0 6b 8a 3e 1a 3c 8c 3e
       -0.22882494 -0.18619137 0.27035284 0.27389604
000060 33 f6 72 3e 16 df 56 be 2b ce 60 be d5 68 75 3e
       0.2372673 -0.20983538 -0.21953647 0.23965771
000070 47 32 47 be ff fc 35 3e 53 34 17 be eb 1a 8e be
       -0.19452773 0.17772292 -0.14766054 -0.27754912
000080 ad 7d 17 be ac 70 a5 be 6f ae 52 3e 00 a0 72 be
       -0.14794035 -0.32312524 0.20574354 -0.23693848
000090 ca 59 d1 3b fc 6d b4 be 10 10 11 3e 64 dd 81 be
       0.0063888775 -0.3524016 0.14166284 -0.2536422
0000a0 b3 d4 26 be 17 39 78 be 08 03 9f be 71 55 2b 3e
       -0.16292076 -0.24240528 -0.31057 0.16731812
0000b0 78 96 cf 3e d5 d8 9e be ff aa 80 3e 2b 20 65 3e
       0.40544486 -0.31024805 0.2513046 0.22375552
0000c0 9a c5 50 be bb c7 a1 be d4 a0 5f be 2a 4b 16 3e
       -0.20387879 -0.31597695 -0.21838695 0.1467711
0000d0 b5 c1 5f 3e b6 81 5f 3e 4a 1c 49 be 42 1b 23 3e
       0.21851237 0.21826825 -0.19639698 0.15928367
0000e0 9e 8c 6c 3e 01 41 a0 be ec 72 6a 3e 73 3f 30 be
       0.23100516 -0.31299594 0.22895402 -0.17211704
0000f0 46 06 85 be 71 46 9e be cf d1 89 3e 43 36 94 be
       -0.2598135 -0.30913118 0.26917884 -0.28947648
