cancer_iterative/cancer_models/30_train/tvae_final_model.pt (torch, 45323 bytes, 7 tensors)

net.0.weight f4 [64, 30]
00000000: 631f 35be 7fc7 8dbd 72b1 48be f8c8 4cbe
00000010: 6aa6 26bd 9702 dfbd cb18 3dbe 4ef4 fbbb
00000020: caf6 073e 4f43 f43d 3d62 02bc 7c55 bb3d
00000030: 816d e2bd c9c0 99bd 094d 09be a39c 9dbd
00000040: 07ba 9fbd 27db 61bd b2ad e4bd b3d2 4e3d
00000050: 45cd 64be 32b4 88be 748e af3d 6db1 42be
00000060: 0c5b 273e 6d91 b4bd 829c 06bc 09f3 3f3b
00000070: 3bfe 183d ef55 9ebd 05b8 6dbe 217e 84be
00000080: 4475 0fbe 074f c33c 8998 d73c c457 5e3e
00000090: 4527 2bbe eb11 583d dbf5 273e 47b7 083e
000000a0: 0ca7 28be b819 ee3c 7c9a 1a3d d723 c03d
000000b0: 0a3c 9f3d 5c53 213d c4d2 d93d 596c d8bc
000000c0: e321 d73d 1798 d4bd e38e febd 362f aabe
000000d0: 9595 9e3d 88be ff3d 840f d8bc f325 3cbe
000000e0: 79c9 febd 0c0f 2ebe 5c29 56bd 638a fabc
000000f0: 649e 87be c6c3 1ebe f39a 183d da2a 53be
00000100: d029 02be e1d0 113e 098f 28be 0934 6ebc
00000110: 4717 043e 8567 9a3e 05ce f53d e432 103d
00000120: 3af8 12be 160c de3d 5d0b 9dbd 2670 9d3c
00000130: ed59 71bc 8b5b 133d 5486 933d 2bbb b53c
00000140: abdb 36bd ab0d 52be eda0 86be 573b 7e3d
00000150: b8a2 27be af1a a7bc c869 8bbe d87b d0bd
00000160: 1157 04bd cd36 54bb 055c 5bbe a591 a73d
00000170: 4138 a13d b71e ecbd b8de b53d f5da 0d3c
00000180: 877e f53d def6 28bd 00a6 1c3b 779e c6bc
00000190: 0118 8b3c cca4 24be 03e9 91bc 4c4f 48be
000001a0: 5f76 09be 8e63 46be 22e8 923d 59f5 0ebe
000001b0: db10 22be fc26 1e3e fe64 dabd cb62 3fbd
000001c0: ba26 abbd a1a4 3cbd 650a b6bd bb7d 453d
000001d0: c591 c4bd d928 e2bd 9328 17bc 3a99 28be
000001e0: f8ee 8ebe d96f 1a3e 3450 33bc 1242 32be
000001f0: 4609 efbd 90ed b83d 70af 83be 3a2e cdbd
00000200: 0fe3 623e 2d6e 29bd 771b b3bc af20 ff3d
00000210: ca3d d9bc cd99 71be 523e 153e 5ed4 bd3c
00000220: 1884 9cbd 001d 8ebe 3099 1dbe c733 793a
00000230: 20b9 8bbc df15 ed3d 58cf bebd 3c5f cabd
00000240: e015 283e f847 39be a2c0 10be ed33 203d
00000250: 346e 5b3d 53d8 64be 71c6 a9be 767b 79bd
00000260: fafb e3bd 2a08 9fbe 8b8c f3bc 9268 173e
00000270: 7ed3 6d3e 8300 e53d 4015 b23c 35da 01be
00000280: 7587 45bd 2aa5 3abc 1623 493e b324 e83c
00000290: ae85 07be 9473 113e cd62 0f3e 2a57 1bbe
000002a0: ccd7 e1bd 57ee 413e b697 19be 87b3 b33d
000002b0: 207e 48bd b53e 0a3e add9 07be 6da3 43bd
000002c0: 6685 9c3c 7f62 ecbd 8e86 143e 81dd c93d
000002d0: d105 be3c 983d 83bd 4c55 e43d 86b7 e13d
000002e0: 57ec 1cbd 8a2d 1fbe b1cf 3f3e d5ed 393e
000002f0: 6d6d 4dbe d28c b2bd 6528 583d ef3a 32bd
00000300: 15d4 2ebd 256d 25bd 3105 1cbe 6cdb 763d
00000310: 0ee0 c0bd 9546 b1bd f172 6c3d 5fcf 013e
00000320: 38ed 3e3e e4ea 353d fd0a 643e 537a 1e3e
00000330: 05a5 843d 8670 0dbd be8b 703d e8b3 493e
00000340: 5d45 0a3e f6dd bdbd ee53 46bc 2762 193e
00000350: 4814 fc3c 56e0 293e 1094 243e ed5f 50bd
00000360: 5ddf e53d 0c54 303c eca3 b3bd b245 153d
00000370: 60ce 2abe 0f13 233e 2943 f23d 4b08 a5bc
00000380: 58dd 573d 7faa 11bd 3be0 8f3d 010e 6bbe
00000390: 83ec 9d3d fa1b 113d b2b6 f63d ddb6 ad3d
000003a0: fcc9 ccbd 76b2 46bd 090f eb3d f403 3ebe
000003b0: 7640 7137 afcf 253e 6320 3abe 1783 22be
000003c0: ded0 59bc 6568 523e ccc1 7dbd 854e 55bc
000003d0: f6a4 763d 4288 48be 769b 373e 184c cdbd
000003e0: 0edf e63d 7afa 1ebe a7f4 05bc 3230 a2bc
000003f0: ab32 34be 567d 12be 2586 bc3d 0683 43bd
-0.17687754 -0.069228165 -0.1959894 -0.19998538 -0.04068605 -0.10889166 -0.18466489 -0.0076890355
0.13277736 0.119269006 -0.007957992 0.09147164 -0.110560425 -0.07507474 -0.13408293 -0.07695892
-0.07799154 -0.05514064 -0.11165942 0.050493907 -0.22343929 -0.26699978 0.08572093 -0.19012995
0.16343325 -0.088168 -0.008216025 0.0029289147 0.037351828 -0.07731234 -0.23214729 -0.2587748
-0.14009577 0.023841394 0.026317852 0.21713167 -0.16714199 0.052751463 0.1640238 0.13351165
-0.16469973 0.029064998 0.037744984 0.09381836 0.077751234 0.03938614 0.106359035 -0.026418852
0.1050451 -0.10380571 -0.12429597 -0.33239144 0.07743374 0.12487513 -0.026374586 -0.18373851
-0.124407716 -0.16997927 -0.052285537 -0.030583566 -0.2648803 -0.15504369 0.037257146 -0.20621815
-0.12711263 0.14239837 -0.16460814 -0.014538773 0.12899505 0.30157104 0.12002186 0.035204783
-0.14352503 0.10842149 -0.07668183 0.019218516 -0.014730913 0.035975974 0.072033554 0.022183975
-0.044643085 -0.20513026 -0.26294652 0.06206831 -0.16370666 -0.020398466 -0.27229142 -0.10179871
-0.032309595 -0.0032381297 -0.21421821 0.08182076 0.07872058 -0.11529296 0.08880371 0.00865816
0.11987024 -0.041251056 0.0023902655 -0.024245484 0.01697922 -0.1607849 -0.017811304 -0.195615
-0.13424061 -0.19373915 0.07173182 -0.1396078 -0.15826742 0.15444559 -0.10663794 -0.046725076
-0.08356996 -0.04605544 -0.08888701 0.04821561 -0.09598116 -0.11042947 -0.009225982 -0.16464701
-0.27916694 0.15081729 -0.010944415 -0.17408016 -0.11671691 0.090296865 -0.25719786 -0.10018583
0.22156928 -0.041364837 -0.021863682 0.12457406 -0.026518721 -0.23593827 0.14574555 0.023172554
-0.076423824 -0.277565 -0.15390468 0.00095063116 -0.017056048 0.11576437 -0.093168914 -0.09881446
0.16414595 -0.1809386 -0.14135984 0.03911202 0.053571895 -0.22348146 -0.3315921 -0.060908757
-0.11132045 -0.31060916 -0.029730102 0.14785984 0.23225209 0.11181738 0.021738648 -0.12680896
-0.048224885 -0.011391917 0.1964229 0.028337812 -0.13234589 0.14204246 0.14002533 -0.15169969
-0.11027488 0.18938576 -0.1499928 0.087744765 -0.048948407 0.13500483 -0.1326663 -0.047763277
0.019106578 -0.11542224 0.14504454 0.09856702 0.023196133 -0.064082325 0.111490816 0.110213324
-0.03831133 -0.15544716 0.18731572 0.18157132 -0.20061274 -0.087182656 0.0527729 -0.043513235
-0.042682726 -0.04038729 -0.15236355 0.06026785 -0.09417735 -0.086560406 0.057726804 0.12676762
0.1864518 0.044413462 0.22269817 0.1547635 0.064767875 -0.03453114 0.05872702 0.19697535
0.13503022 -0.09270851 -0.012104971 0.14978848 0.03077139 0.16589484 0.16072106 -0.050872732
0.11224244 0.010762226 -0.087715 0.03644342 -0.16680288 0.15925239 0.11829216 -0.020145556
0.052701324 -0.03556299 0.070251904 -0.22954561 0.07711127 0.03542707 0.12046565 0.08482144
-0.09999463 -0.048510037 0.11477477 -0.18556195 1.4379728e-05 0.16192506 -0.18176417 -0.1587032
-0.013294427 0.20547636 -0.061952397 -0.013019209 0.060215913 -0.19583228 0.17930397 -0.10024279
0.11273013 -0.15525237 -0.008176005 -0.019798372 -0.17597453 -0.14305624 0.092052735 -0.047732376

net.0.bias f4 [64]
00000000: 7b60 afbc 3d63 0f3e e5a2 113e cf3e 8d3d
00000010: f821 873d b15a 9cbd 7c11 bf3d ee20 743d
00000020: d16c 88bd 2bc4 45bd 8cd8 36bd 4a52 b83d
00000030: 4bd6 2e3e c842 e03d 6310 253e 2b4e 20be
00000040: dbca 7cbe cb52 1f3d f836 0cbd d033 633e
00000050: 24a7 393e 273b 80bc ebae c8bd 89ae 10be
00000060: 5a0d dbbd 09ee 153e ba71 743d 2287 2cbe
00000070: ab13 763d 3a8d b2bd 8937 583e 3b61 0e3e
00000080: af03 d73d 3093 debd 4f3a d5bd 93af 373e
00000090: b66c fbbc 8c9a 4e3e 9436 113e 8961 06bd
000000a0: 3223 2a3e f8aa adbc 1322 383e 77ad 82bd
000000b0: 14eb a63d c328 efbc 980c fd3d 4752 d7bd
000000c0: 053a 3a3d fb25 223e e80a 03bc dc39 b9bc
000000d0: 035b 353e d44c 76bd 63d8 fa3d ab42 563e
000000e0: 0175 683d 0b87 803c 827c a03d 513f 053c
000000f0: 4809 fb3d b883 183e 0b56 f23d b65e 8e3d
-0.02140831 0.140027 0.14222296 0.068967454 0.06598276 -0.076344855 0.09329507 0.059601717
-0.0666138 -0.048282783 -0.04464011 0.090000704 0.17073934 0.109502375 0.16119532 -0.15654819
-0.24686758 0.038897317 -0.03423211 0.22187734 0.18130165 -0.015653206 -0.09798988 -0.1412908
-0.10695906 0.14641584 0.05967877 -0.16848424 0.06007735 -0.08718343 0.21114935 0.13904278
0.104987495 -0.108679175 -0.10411512 0.1793807 -0.030691486 0.20176142 0.14180976 -0.03280786
0.16614988 -0.021199688 0.17981748 -0.06380742 0.08150306 -0.029194241 0.12355918 -0.1051374
0.045465488 0.15834801 -0.007998206 -0.022610597 0.177105 -0.060131863 0.12248304 0.2092387
0.05675221 0.015689394 0.07836248 0.008132772 0.1225763 0.14893997 0.11832818 0.069516584

net.2.weight f4 [64, 64]
00000000: 7a07 6a3e 02be 563e e156 743e c04b 39bd
00000010: 4b92 20be 318b e43d c03a 55be 7c2a 9bbd
00000020: a580 33be 1eb4 143e bf14 193e 99c3 1d3e
00000030: e506 9ebd 3723 f6bd 7874 dd3d c432 cebc
00000040: 1031 b7bd addf 21bd 5945 023e ac89 663d
00000050: e6cc 023e f17d 6fbb 20bf e8bd edd9 a0bc
00000060: faff 9ebd 7c4b 3c3a 9088 8c3c b211 493b
00000070: 8194 073d 12c0 7e3d 629c 5c3d 9bca 893d
00000080: 2acd e73d ed06 423e 1599 6c3c 768e 38bc
00000090: 7389 42bd 26a5 883c 6f26 01be 4095 b13c
000000a0: 6477 cebc d9c3 1f3e 400e d3bd 253f 0a3e
000000b0: 47da 99bb aed3 80bd 1f95 233d f63d 39be
000000c0: 3e26 163e 56d9 bebc 6dd2 b83d 344c f53c
000000d0: d4a9 fd3d 838e b63d d5bf a23d 7780 9fbd
000000e0: 7068 ef3d 0a75 4ebd fcbb 2bbe 1695 4dbb
000000f0: b67d febd dd07 223d 323d d83d 1988 563d
00000100: 0635 23bd 4d4b 00bc 6781 883d 0498 9dbd
00000110: 9da7 9b3d 4c31 223e 7d29 5e3d 585a 38bd
00000120: b6fe c8bd af2d 3e3c 3e3c 0b3e 81af a03d
00000130: 1143 de3c d76c b83d e659 143c f503 053e
00000140: d6b0 88bd 4337 8a3d 8730 c23d 8ab4 e23d
00000150: 1fec b93d 4c84 acbc c991 753d 907c e33b
00000160: 3265 003c e27e ce3c 1897 79bc 59f5 c43d
00000170: 813d dc3d c27a 503d ad51 c03d af07 963d
00000180: 8610 fe3d 31da 533e 9b8d 3ebb 1f09 353e
00000190: 1470 0c3e ba5e 053e 4590 c8bd 653b 3abd
000001a0: 976a 03bd 5b2c 3f3e 57e5 773b bc4b 433e
000001b0: 81c1 b2bc 0dd9 86bd 61eb 1e3e c9bb 4b3b
000001c0: b704 bbbc 1a26 853c e3f6 9f3d dcef 5dbd
000001d0: 93a2 2b3c 2475 2cbd 7b27 06be c9d9 663c
000001e0: db50 253d 343f c6bd 021a 013d 339a 9a3d
000001f0: af0f 7d3d bc7f a5bc 2ea9 923d 2582 bcbd
00000200: fffa 0f3e e19e 36bd d277 1b3d 142b bebd
00000210: a62f 95bd 6265 4e3c 2798 98bd 9be3 0ebe
00000220: 8c2e 4eba f1f7 333d 37fa 723e b129 313e
00000230: 320f f53d 0890 47bd 6091 d5bd 86cb 8f3a
00000240: 5cbb c83c a2d9 e9bd 52e5 eb3d 172f 893d
00000250: 9f4b b03d 52aa 13be 8cd2 0c3e ac4b 83bd
00000260: edd8 36bd c5c2 ba3d 9771 65bd 39c1 08be
00000270: 4d70 9c3c 4951 b5bb 175b cbbc 8c44 d63d
00000280: 4a29 493e 8567 8b3c d840 8c3d 9c22 a7bc
00000290: ea7e c23d 8884 f8bc 21d1 05be de00 abbd
000002a0: d796 d5bc d4bc 903e 9459 0d3d fb5f ea3d
000002b0: bd26 e43c 86c9 d53c d563 413e 4264 04bc
000002c0: 03e1 293d cbbd f5bc 4110 d4bd cb07 753d
000002d0: 2462 0c3d ca47 08be 5b17 1c3d a2c7 fb3d
000002e0: b090 dc3c 9995 94bd 2cdc 6bbc 580d e53d
000002f0: 8d1e 7cbd f38a e7bc 5f83 883d feb9 d03d
00000300: 5b63 0c3e 99bf c5bd 671e 673d 9a96 a33c
00000310: 3ca5 2e3e 6b87 cfbd 21de 043e 9350 ec3d
00000320: 4b9c 01bd dd1b cebc 2d4b edbd 2108 71bd
00000330: 77c8 933d ba12 90bb abb8 2c3d 85a9 20be
00000340: f331 1f3d 531d 08bc 3873 36be c5f0 b1bc
00000350: cfec 3f3e bfa4 443d ceec e3ba b93c 483e
00000360: 3f1d 953d b4ff 3cbd fe78 d6bb 4fe2 113e
00000370: 65ce f23c b4c2 6b3e 5e94 a33d 0adc 433d
00000380: 6f77 b0bd 8cd5 9aba 1e2f 58bd f420 413d
00000390: 4e57 2b3c f6bf e13d 55e5 5b3c 5280 cf3d
000003a0: f88f e53b af59 13be 25d3 6e3d 818b 24be
000003b0: 8708 d43d 8e25 07be 8324 6abd ae1b a93d
000003c0: 849f ddbd 817a a93c 6048 8b3d f082 a13d
000003d0: 093a 973d 32ff 883c 80ea 213e b14f 5b3c
000003e0: 611c 9d3b b94c 2dbd a5b7 ad3b 273a 10bd
000003f0: dd4d 023e 6da7 f4bd ba1a c83c b0b1 d83d
0.22854415 0.2097092 0.23861267 -0.045238256 -0.15680806 0.11159361 -0.20823193 -0.075764626
-0.17529543 0.14521834 0.1494932 0.15406646 -0.07716159 -0.120184354 0.1081323 -0.025170691
-0.08944905 -0.039519954 0.12721767 0.056283638 0.12773475 -0.0036543573 -0.11364579 -0.019635165
-0.077636674 0.0007182879 0.017154962 0.0030680713 0.03310061 0.06219489 0.053860076 0.06728097
0.11318429 0.18947954 0.0144407945 -0.011264434 -0.047494363 0.016680311 -0.12612318 0.021677613
-0.025203414 0.15602054 -0.10305452 0.1350065 -0.00469521 -0.06290375 0.039937135 -0.18090042
0.14663026 -0.023296993 0.090245105 0.029943563 0.12385908 0.08913901 0.07946745 -0.077881746
0.11689842 -0.050404586 -0.16770929 -0.003136938 -0.12426321 0.03955828 0.10558547 0.052375887
-0.03984549 -0.007830453 0.066653065 -0.0769501 0.07600329 0.15839118 0.054238785 -0.045008034
-0.09814207 0.0116075715 0.135972 0.07845975 0.02713159 0.090051346 0.009054637 0.1298979
-0.06674354 0.067488216 0.09481912 0.11069591 0.0907824 -0.021059178 0.059953485 0.0069423392
0.007836627 0.025206987 -0.015233777 0.09617109 0.107539184 0.05089832 0.093905784 0.07325684
0.12405495 0.20688702 -0.0029076103 0.1767926 0.1371463 0.13024417 -0.09793142 -0.0454668
-0.032084074 0.18669264 0.0037825906 0.19071859 -0.021820785 -0.06584368 0.15519477 0.003108727
-0.022829397 0.01625352 0.07810762 -0.054183826 0.010475772 -0.0421039 -0.13100998 0.01409001
0.040360313 -0.09680024 0.031518944 0.075489424 0.061782535 -0.02020251 0.07161175 -0.092045106
0.14060591 -0.044585112 0.037956066 -0.0928556 -0.07284479 0.012597414 -0.07450896 -0.13954012
-0.00078652124 0.043937627 0.23728262 0.1730106 0.11965789 -0.048721343 -0.10428119 0.0010970689
0.024503402 -0.11418463 0.11518349 0.06698435 0.086081736 -0.14420441 0.13752192 -0.06410918
-0.04464047 0.091191806 -0.05601653 -0.13354959 0.019096518 -0.0055333716 -0.024823708 0.10462293
0.19644657 0.017017135 0.068483055 -0.020402245 0.09496863 -0.030336633 -0.13068058 -0.08349775
-0.026072903 0.28269064 0.034509256 0.11444088 0.027850503 0.02609707 0.18885739 -0.008080544
0.041474354 -0.029997727 -0.10354663 0.059821885 0.03427328 -0.13308635 0.03810821 0.12293936
0.026924461 -0.07255096 -0.014395755 0.11184186 -0.061552573 -0.028264498 0.06665682 0.10191725
0.13709776 -0.09655685 0.05642548 0.019969273 0.1705522 -0.10133251 0.1297536 0.11538806
-0.031643193 -0.02515977 -0.11586604 -0.058845643 0.0721597 -0.0043967636 0.0421683 -0.15689667
0.038865995 -0.008307773 -0.1781739 -0.021721253 0.18742679 0.048008677 -0.0017389299 0.19554414
0.07280969 -0.046142295 -0.006545185 0.14246486 0.029639432 0.23023492 0.07987283 0.047817267
-0.0861653 -0.001181291 -0.05277931 0.047150567 0.010457827 0.11022942 0.013421376 0.10131897
0.007005688 -0.1438968 0.058306832 -0.16068842 0.10353189 -0.1319792 -0.057163727 0.082572326
-0.10821441 0.020688297 0.06800914 0.078863025 0.07384116 0.01672325 0.15812111 0.013385699
0.004794643 -0.042309497 0.005301433 -0.03521171 0.12725015 -0.119459964 0.024426807 0.10580766

net.2.bias f4 [64]
00000000: 78b5 823d a2e5 71bd a210 273d f9e6 19bd
00000010: 1735 e03d a79e 193d adf8 093e ce7f c03d
00000020: 92c6 a23d 9be1 343d d73e b0bc 7bcc 2a3d
00000030: 5bc5 bc3d 6353 913d 4960 3b3e 57c6 ee3b
00000040: 4fda 883d c9a2 f9bb 1f32 fa3c 4f1e 2d3e
00000050: b142 d83d bffe 99bd 48a7 043e 14dc 053e
00000060: acc5 d03d dc4f b1bb ed75 64bc f9d9 5abd
00000070: 9f53 2bbd 3e30 963d f761 773d b74e 39bd
00000080: 31bb 1a3e 1bb8 e43d 76a9 51bd 6d11 0d3d
00000090: 9b5b 253e 2bbb 12bd 2291 a73d 9c77 24bd
000000a0: 1ff4 18bd cc60 bc3d 1909 013d 8b20 73bd
000000b0: a677 3e3d 7f53 043d e9a0 893c 0a24 fd3a
000000c0: f3ab 633d 81b5 ff3d ffd4 aa3c 1b9b 5dbc
000000d0: bf40 8b3d ca40 6fbc 5873 31ba 659a be3d
000000e0: 0573 f8bd 4400 c3bd 293a ee39 3cf5 bb3d
000000f0: 8083 b93d b10e 1cbb e395 a23d 2448 303e
0.06382269 -0.059056886 0.040787347 -0.03757379 0.10947626 0.03750482 0.13473769 0.09399377
0.079480305 0.044160467 -0.02151434 0.041698914 0.0921733 0.07095983 0.18298449 0.0072868275
0.06682264 -0.0076182825 0.030541478 0.16906093 0.105595954 -0.07519292 0.12954438 0.13072234
0.10193953 -0.0054111313 -0.013944131 -0.05343053 -0.041827794 0.0733342 0.06039616 -0.045241084
0.1511047 0.11167928 -0.051187 0.034440447 0.16148226 -0.03582303 0.08181979 -0.04015313
-0.037342187 0.0919815 0.031502817 -0.059357207 0.046500824 0.03230619 0.01680036 0.0019313109
0.055583905 0.12485791 0.020853518 -0.01352575 0.06799459 -0.014602849 -0.0006769202 0.09306792
-0.12131313 -0.09521535 0.0004543823 0.09177634 0.09058285 -0.0023812468 0.07938745 0.1721502

net.4.weight f4 [64, 64]
00000000: a864 183e 8126 2b3c c042 e83d cda2 f5bd
00000010: 8d6c bb3d 0410 7a3e 2c29 e53d 2a8f 9abd
00000020: d732 303b 86fb 2abd 896f 61bd 7eb0 4bbe
00000030: 9e12 fcbc d2ca 563e 268c bb3d 1066 22bd
00000040: cccb 843d 0885 9a3d 289a 1abe 7bf2 dc3d
00000050: c5e1 fc3d ed28 d13d 2bb6 a3bd 9d76 f03d
00000060: 9e47 f63c e54f ef3d 7a74 053e 7036 4f3c
00000070: 4f9e 523e b135 f3bd b79b 76bd 3d1f d5bd
00000080: 6585 cf3d 6895 a8bd 88c2 07bd ffc2 fa3d
00000090: f00e d03d 32f0 29be ac46 443e d1c2 b43d
000000a0: ad6f 05be e7d6 c5bd ea5c 543e a5c5 cdbd
000000b0: 9c2e 3c3c e9ca df3d e8f1 783e 692e 0b3d
000000c0: becb 743d 74e5 823e 4967 ea3d e713 4a3e
000000d0: 215a 943c ec19 14be 8ce2 23be 61d8 3d3e
000000e0: 3ad6 23be 636f c7bd d9bd 923d 70e9 e73c
000000f0: e803 3dbd d746 16be 31b2 b4bc f234 403e
00000100: 3568 2dbe 08e1 d73d b7c5 d6bd 12a6 4c3e
00000110: 062d 03bd 1005 10be 3121 893c ae64 e0bc
00000120: 6dbb d23d 441d 5b3e f22d ad3d 3104 003e
00000130: 7366 8e3d 2455 663d a070 94bc 8273 cebd
00000140: e87f 7fbd f88f 10be 7103 4c3e 2fda 7fbd
00000150: 211c 343d 68bc 853d ba3d 013b eacc 583c
00000160: 88d5 c23d 7e7b febd 8f42 dfbc 9158 2b3b
00000170: 5efc bfbb c441 343e 393f 043e 4ec2 bc3d
00000180: 6795 cebd 3f3f ca3d 6821 3e3e cea0 31bb
00000190: f1cc 0cbd c31b 453e 14c7 0abe 5ac7 15be
000001a0: 39e7 6f3e 7050 503e e36a bdbd 01e7 0b3e
000001b0: 3a96 e93c b138 42bb 4986 89be 1d8d 81bc
000001c0: 7271 c63d addc 7f3c ab30 c6bc 201d 65bd
000001d0: 5abd 573d a62f 813e 5ea2 f83c aedf bdbd
000001e0: 0c00 ba3b 9258 4c3d b12f 433e 654d 3fbd
000001f0: acaa ef3d c7d9 593c 976a 0cbd 5447 2cbc
00000200: 1ac3 1a3e 883f a03c cfaa 863e 054b 78bd
00000210: 1a5e 243b 1988 0abc f317 503e 69cb 04be
00000220: 101d 10be 3b27 cc3c 79d1 c63d 1d08 18be
00000230: 4a0f d7bc 7ff4 5e3e 4739 563e afa3 103e
00000240: 8155 f33c 3001 29bc a2de a2bd f744 8f3b
00000250: e021 c63d 3df9 053e 4440 6f3b 4c90 a83d
00000260: b175 933b ce62 263d 509e 033e c645 bdbd
00000270: b1f1 103b d2fe 103c 737b 7c3d 5d83 cebd
00000280: f53f 0b3e b447 91bd 80a3 4fbe 7676 fe3d
00000290: bb28 3f3e 0aed 40be c74d b43d a31e e43d
000002a0: b443 583b 0d68 f23c 63bf bc3d 6c10 47be
000002b0: 2479 1d3c dcfd 433d 5af6 bd3e 5f72 37bd
000002c0: af4f 33be e5d9 a43d ea4d 02bd cb97 e43d
000002d0: bff4 3bbc 1059 3fbd b055 023d e845 febc
000002e0: 2f2e 1cbe ecc1 cabd 7020 e1bd faea 0c3e
000002f0: d714 89bc babb 4abe 96a3 553e 2409 c63d
00000300: 0b06 363e 6b2d 903d 238d 4a3e e683 2b3d
00000310: a71d d93d 0d9a 0d3e c354 b63d 3e94 e5ba
00000320: 8dc8 5a3d 5f2f fabd f0e9 eb3d 5ca0 8abd
00000330: f609 903d b5ea 363e 4bb9 4d3e 5927 a83b
00000340: 9ee6 2a3e 3dca 203e 7352 13be 2ab5 033e
00000350: 8aba 6c3e 2eb7 123e 9a35 e73d 8a98 9f3d
00000360: 053b b7bc 305e f33d 9997 183e 3fe8 36be
00000370: ca26 413e 706b 9abd 1cce a2bd b77a 2abd
00000380: 2886 093e 242d b53d f0d5 e9bd 2cb4 fb3c
00000390: c713 3e3e ccf0 35be c432 12bd 0e22 343e
000003a0: 6985 023d 3075 cfbd 69f3 823d 86d7 dbbd
000003b0: ebb2 03bd 761f 7e3e 08e1 b33e 09ee 6ebd
000003c0: 7c7d 0dbe cf39 7f3e d776 f4bc 14ad 13bc
000003d0: c3ed 093e 0b0a 53be 887e 30be f7ec af3d
000003e0: e022 16bd c044 7a3d 9a84 9abd 41a5 ea3d
000003f0: acc8 e4bd 2995 28be d1c4 f03c 9e56 3b3e
0.14882147 0.010446192 0.113408566 -0.119939424 0.09151564 0.24420172 0.111894935 -0.07546838
0.0026885772 -0.041743778 -0.05503801 -0.19891545 -0.030770596 0.20975807 0.091575906 -0.039648116
0.06484184 0.07544905 -0.15097868 0.10788437 0.123477496 0.10212884 -0.0799373 0.11741374
0.030063447 0.116851605 0.13032714 0.012647256 0.20568202 -0.11875475 -0.060207095 -0.10406349
0.10132865 -0.08231622 -0.033144504 0.12244224 0.10159099 -0.16595533 0.19167584 0.08826221
-0.13030882 -0.0966013 0.20738569 -0.10047463 0.011485722 0.10927374 0.2431103 0.033979807
0.059764616 0.25565684 0.11445481 0.19734155 0.018109383 -0.14463013 -0.1600439 0.18539573
-0.1599969 -0.09738042 0.07165117 0.028309554 -0.046146303 -0.14675461 -0.022057625 0.18770197
-0.16934283 0.10540968 -0.1048693 0.19985226 -0.03202536 -0.14064431 0.01673946 -0.027391758
0.10289655 0.21397883 0.08456029 0.12501599 0.069531344 0.05623354 -0.01812011 -0.10080625
-0.06237784 -0.1411742 0.19923188 -0.062463935 0.04397214 0.06530076 0.001972063 0.013232449
0.09513384 -0.12425898 -0.027253417 0.002614532 -0.005858942 0.17603213 0.12914743 0.09216748
-0.1008709 0.098753445 0.18567431 -0.0027103904 -0.034375135 0.19248872 -0.13552505 -0.14626828
0.23428048 0.20343184 -0.09248903 0.1366234 0.028514016 -0.0029635841 -0.26860264 -0.015814358
0.09689607 0.015616578 -0.024193129 -0.05593598 0.052670814 0.25231665 0.03035086 -0.09271179
0.005676275 0.049889155 0.19061162 -0.04670467 0.11702475 0.013296551 -0.03428134 -0.010515053
0.15113488 0.019561544 0.26302192 -0.06061842 0.0025080503 -0.0084553 0.20321636 -0.1296822
-0.14073586 0.02492105 0.097079225 -0.14846845 -0.026252408 0.21772955 0.20920287 0.1412494
0.029703857 -0.0103152245 -0.0795262 0.004372235 0.0967443 0.13083358 0.003650681 0.082306474
0.004500114 0.04062157 0.1285336 -0.09241824 0.0022116716 0.008849816 0.061641168 -0.10083649
0.13598616 -0.070937544 -0.20277214 0.124249384 0.18667881 -0.18840423 0.08803897 0.11138656
0.0032999339 0.02959063 0.092161916 -0.19439858 0.009611402 0.04784952 0.37102014 -0.044786807
-0.17510866 0.080493726 -0.031812586 0.11161765 -0.011471926 -0.046715796 0.03182 -0.031039193
-0.15251993 -0.09900269 -0.10992515 0.13761511 -0.01673357 -0.19798175 0.20863184 0.09669712
0.17775743 0.07039913 0.19780402 0.041873835 0.10601359 0.13828297 0.08902886 -0.0017515493
0.053413916 -0.122160666 0.115192294 -0.067688674 0.0703315 0.17862971 0.20090215 0.0051316437
0.16689536 0.15702148 -0.1438692 0.12862077 0.23118034 0.1432769 0.112895206 0.077927664
-0.02236701 0.11883199 0.1490158 -0.17862032 0.18862453 -0.07540023 -0.079494685 -0.041620936
0.13430083 0.088465005 -0.114177585 0.030725561 0.18562232 -0.17767638 -0.035692945 0.17591116
0.03186551 -0.101297736 0.06394083 -0.10734467 -0.03215305 0.24816689 0.35132623 -0.058332477
-0.138174 0.24924396 -0.029841824 -0.009013433 0.13469605 -0.206093 -0.17235768 0.08590119
-0.036654353 0.06110072 -0.07544823 0.11457301 -0.111710876 -0.1646315 0.029390724 0.1829476

net.4.bias f4 [64]
00000000: 758c cc3d b91c c93d cd9b cd3d c4c8 10bd
00000010: 780f c0bd d152 aa3d 9a27 1f3e 5a27 7ebc
00000020: 7ff7 2fbc 6190 7c3c ad1d 7bbc 8192 b3bd
00000030: 3eed 3cbd 63f1 143b 34aa 4abc 7f40 96bb
00000040: 4a2d d7bc 2db8 563c 5502 573b 30a9 273d
00000050: e7f7 9abc 3b22 7d3d e7f0 543c c1e9 0bbd
00000060: 3ac5 85bd 15b0 cfbb 6424 a5bd a467 d93c
00000070: fdf7 413c 87bf 8d3d 1b80 bbbc fae9 89bd
00000080: 9dd9 48bd 2c3c c6bc 4aa2 d53d 5137 d4bc
00000090: ce81 a1bd 4c33 da3d d30b 9dbc 2fa5 33bd
000000a0: 8348 163d 26a5 44bd 64c5 7fbd 9d8a 733d
000000b0: da72 0b3d 7814 1a3e 444e 053c 2797 e3bd
000000c0: dfd0 6fbc bcea 153d c558 c6bc 43af 1d3e
000000d0: b586 13bd 4db0 4d3d 3d75 3f3c 08ce f33d
000000e0: f2e4 183e 4a3c a23d 7743 aa3c d0e6 cfbd
000000f0: 3587 8e3d fd50 94bb b9ff 923c b0fb 4ebd
0.099877276 0.098199315 0.10039482 -0.035347715 -0.093779504 0.08316577 0.1554245 -0.015512312
-0.01074016 0.015415282 -0.0153268995 -0.08768178 -0.04612469 0.0022726886 -0.012369681 -0.0045853253
-0.026266713 0.013105434 0.0032807786 0.040932834 -0.018917037 0.061800223 0.012996889 -0.034158472
-0.065317586 -0.0063381293 -0.080635816 0.026538678 0.01183891 0.069212966 -0.022888234 -0.067340806
-0.049035657 -0.024198614 0.10431345 -0.025905283 -0.078860864 0.10654315 -0.019170677 -0.043858703
0.036690246 -0.04800906 -0.062444106 0.059458364 0.034045078 0.1504687 0.008136336 -0.111128144
-0.014637201 0.036600813 -0.02421225 0.15398888 -0.03601714 0.05021696 0.011685667 0.11904532
0.14931086 0.079216555 0.020784123 -0.10151446 0.069593824 -0.004526256 0.017944204 -0.050532997

net.6.weight f4 [1, 64]
00000000: 1586 463e e2f9 3dbe d524 803e 313d 3f3e
00000010: 2fc4 913c 63e1 833e 963d 403e 8a19 623e
00000020: 5a6c 2ebe 6c43 e83e c5aa 153e 36dc 49be
00000030: f65b b73d 08d8 b3bd ff1f 303e 11da 403b
00000040: 96f8 c8be 90a3 4a3e 85b1 8fbe 4b7b f1bd
00000050: dc4e 613e cf08 1a3e 6727 503e 3581 36be
00000060: 2966 8cbe 38e4 2dbe 2f2c 0fbd c17a 353e
00000070: 03b1 6bbe 0496 27be 119d f8bd ded8 2dbe
00000080: de9b 4dbe e4f3 95be d326 18be 856f 713c
00000090: e86c 54be b492 53be 0978 fcbd 2b2f 61be
000000a0: 7ade 5ebe 6e1d 1b3e 2649 87be 2ca2 673e
000000b0: adb2 5c3e d2c6 1e3e 739d 1fbe ae95 0cbe
000000c0: fde6 3f3e d9c4 5d3e 1341 42bd 3a9b 523e
000000d0: 16ac c73e cc6c 27be 605c 383e 95d5 3b3e
000000e0: 9fc3 2f3e 3149 29be 683a 1dbe 95d2 67be
000000f0: 66cb d2bd 1f0b 103e 3a91 883e 2796 3bbe
0.19387086 -0.18552354 0.250281 0.18675686 0.017793743 0.25757894 0.18773493 0.22080055
-0.1703352 0.4536394 0.14615925 -0.1971291 0.08953087 -0.08781439 0.17199706 0.0029426853
-0.39252156 0.19788957 -0.28065124 -0.117910944 0.22002739 0.15042423 0.20327531 -0.17822726
-0.27421692 -0.1698159 -0.034954246 0.17722608 -0.23016743 -0.1636582 -0.12139333 -0.1697726
-0.2007899 -0.29287636 -0.1485856 0.014736061 -0.2074467 -0.20661432 -0.123275824 -0.2199065
-0.21764556 0.15147945 -0.26422995 0.22620457 0.21552534 0.15505531 -0.15587406 -0.13728973
0.18740459 0.21657123 -0.04742534 0.20567027 0.3899848 -0.16350096 0.18003988 0.18343194
0.17164467 -0.16531827 -0.15354311 -0.22638924 -0.102927014 0.14066742 0.266733 -0.18318997
