cancer_iterative/cancer_models/80_train/gaussian_final_model.pt (torch, 45379 bytes, 7 tensors)

net.0.weight f4 [64, 30]
0	0xbdd03eb4	-0.1016821
1	0x3d8f8230	0.07007253
2	0xbd9a050e	-0.07520495
3	0x3d42f6f9	0.047598813
4	0xbdbc41c7	-0.091922335
5	0xbcabe18f	-0.020981578
6	0x3e86e69c	0.26347816
7	0x3e7a9c5f	0.24473713
8	0x3da81c98	0.08208579
9	0xbd93e9d0	-0.072223306
10	0x3e589340	0.21149921
11	0xbd5eb0de	-0.054367892
12	0xbe0f0fe1	-0.13970901
13	0x3e10caed	0.1413991
14	0x3d032c25	0.03202452
15	0xbe0b189c	-0.13583606
16	0x3d319c96	0.043362223
17	0xbe9002f9	-0.28127268
18	0xbdb5795f	-0.0886104
19	0x3db87624	0.090069085
20	0xbe1c26dd	-0.152492
21	0xbdfbf70e	-0.12302981
22	0x3e040f08	0.12896359
23	0x3e40ecba	0.18840304
24	0x3e804011	0.2504888
25	0xbcefc356	-0.029267948
26	0x3e3c7ee9	0.18407787
27	0xbdadbd7d	-0.08483408
28	0x3da7d048	0.08194023
29	0xbb06e29f	-0.0020581854
30	0xbe2f7e67	-0.17138062
31	0xbd30795b	-0.043084484
32	0xbde295d6	-0.11063735
33	0x3d5c0407	0.05371478
34	0x3e077fde	0.13232371
35	0xbe588658	-0.21144998
36	0x3dd2567f	0.10270404
37	0x3d93c919	0.07216091
38	0x3e0faa05	0.14029701
39	0xbd020367	-0.031741526
40	0xbe207c93	-0.15672521
41	0x3e4359c1	0.19077207
42	0xbe40b598	-0.18819273
43	0x3a05f905	0.0005110654
44	0x3e21dc54	0.15806705
45	0x3d0a785c	0.03380619
46	0x3de7d5ed	0.113201
47	0x3e08a95e	0.13345858
48	0x3e3beb23	0.18351416
49	0xbe9aac5d	-0.30209628
50	0x3d17396b	0.036919992
51	0xbd2d96a0	-0.042379975
52	0xbe8b8d5b	-0.27256283
53	0xbe6a85de	-0.22902629
54	0x3e8d8eb5	0.2764794
55	0xbd05aa38	-0.032633036
56	0x3e699080	0.22809029
57	0x3cf4b6df	0.029872356
58	0x3e2a1c85	0.16612442
59	0xbd8eab13	-0.069662236
60	0x3e1d23ea	0.15345731
61	0xbecc1a1c	-0.3986367
62	0xbdebc566	-0.1151226
63	0xbdc79bbc	-0.09746501
64	0xbe31bc8e	-0.17357084
65	0xbe11f8b7	-0.14255033
66	0xbdeb2e2d	-0.11483417
67	0x3e2d1e05	0.16905983
68	0xbcd893a3	-0.026437586
69	0x3c5f2332	0.013619231
70	0xbdf37df9	-0.11889262
71	0xbd7f238c	-0.06228976
72	0x3d275e7a	0.040861584
73	0xbe2d6cc9	-0.1693603
74	0xbd352cfa	-0.044232346
75	0x3daac997	0.083392315
76	0x3d809afa	0.062795594
77	0x3e1858fa	0.14877692
78	0x3eadbec1	0.33934596
79	0xbde6ad0e	-0.11263476
80	0xbdfb0621	-0.12257028
81	0xbe9dadd3	-0.3079668
82	0x3da4e5cd	0.080516435
83	0x3e39214c	0.18079108
84	0x3dd099f3	0.101856135
85	0x3e00cadf	0.12577389
86	0x3e2fb993	0.17160635
87	0xbcfa5133	-0.030556297
88	0xbdf122d5	-0.11774222
89	0xbddbee6b	-0.10738834
90	0xbe0feca8	-0.14055121
91	0xbc8d282f	-0.017231075
92	0xbe5fade3	-0.21843676
93	0xbdf2daf5	-0.11858169
94	0xbd3bea5a	-0.045877792
95	0xbe1a91d9	-0.15094699
96	0xbd5339bf	-0.051568743
97	0xbe9f16e3	-0.3107215
98	0x3e003aa1	0.12522365
99	0xbe470be6	-0.19438133
100	0xbdf9ace1	-0.12191177
101	0xbe99f194	-0.30067122
102	0x3d5f318c	0.05449061
103	0x3ddce32b	0.10785516
104	0xbe885c19	-0.26632765
105	0x3e6dbef0	0.23217368
106	0xbd8add5d	-0.06780503
107	0xbd2362a1	-0.03988898
108	0xbead3eff	-0.33837125
109	0x3e8d8384	0.276394
110	0x3d2e94df	0.042622443
111	0xbde5ae84	-0.11214927
112	0x3e584aa3	0.21122222
113	0x3e2b3577	0.16719614
114	0x3e73d67f	0.23812293
115	0xbdaf5611	-0.08561338
116	0xbe3116bd	-0.1729383
117	0x3da41ae8	0.080129445
118	0x3e1c2b3a	0.15250865
119	0xbdbe2cfe	-0.09285925
120	0x3d06d2e6	0.032915972
121	0x3e5b3563	0.21407084
122	0xbe372c29	-0.1788794
123	0x3db717bc	0.08940074
124	0xbd8f6419	-0.07001514
125	0x3e5ce75e	0.21572635
126	0x3e2ea028	0.17053282
127	0x3df33ab4	0.11876431
128	0xbe242491	-0.16029574
129	0xbc86d78f	-0.016460208
130	0xbd5c2405	-0.05374529
131	0xbea3cfaa	-0.31994373
132	0xbe8ecfa5	-0.27892795
133	0xbe723f0a	-0.2365686
134	0x3e20bb23	0.15696387
135	0xbdf95b34	-0.12175599
136	0x3e08962c	0.13338536
137	0xbd0f57fa	-0.03499601
138	0xbea4860e	-0.32133526
139	0xbe1703cc	-0.14747542
140	0xbdcb6fd6	-0.099334404
141	0xbe6bfca3	-0.23045592
142	0xbe41bc4e	-0.18919489
143	0xbdee4fcc	-0.11636314
144	0x3e2f4a88	0.17118275
145	0xbdcf5e28	-0.10125381
146	0x3dbf2f5a	0.093352035
147	0xbe6924d0	-0.22767949
148	0xbd14abdb	-0.036296707
149	0x3dbd19c5	0.09233431
150	0xbdc1c370	-0.09461105
151	0x3e1234a6	0.14277896
152	0x3dd15f61	0.1022327
153	0xbdb5e238	-0.088810384
154	0xbe25a8f7	-0.16177736
155	0x3e3b38ad	0.18283339
156	0xbe5b6db2	-0.21428564
157	0xbdedc26c	-0.11609349
158	0x3e400959	0.18753566
159	0x3e04e818	0.12979162
160	0x3e6cd043	0.2312632
161	0xbd23c537	-0.039983
162	0xbe607a04	-0.21921545
163	0x3d5e3edb	0.054259162
164	0x3dd8a85f	0.10578989
165	0xbc78b897	-0.015180728
166	0x39eb2844	0.00044852693
167	0x3e8ca83b	0.274721
168	0x3e120e83	0.14263348
169	0x3e085f06	0.13317499
170	0xbdee410a	-0.11633499
171	0x3c8c704c	0.017143391
172	0xbdee586d	-0.1163796
173	0x3dc36995	0.095416225
174	0xbdfecb63	-0.12441137
175	0xbd403b53	-0.046931576
176	0xbe1675f9	-0.1469344
177	0xbdf66f0e	-0.12032901
178	0xbd11f9ec	-0.035638735
179	0xbd9331a6	-0.07187204
180	0xbe139611	-0.14412715
181	0x3e2ed1a4	0.17072159
182	0x3da11a87	0.07866388
183	0xbd3d1d2f	-0.04617041
184	0xbe38394e	-0.1799061
185	0xbe432909	-0.19058622
186	0x3cd3671f	0.025806008
187	0x3db519f0	0.08842838
188	0xbe7f0344	-0.2490359
189	0x3d4bbeff	0.049742695
190	0xbd121d14	-0.035672262
191	0xbd4af47d	-0.04954957
192	0xbc226738	-0.009912305
193	0xbecc0b72	-0.39852482
194	0xbe32a5fb	-0.17446129
195	0xbdc23b76	-0.094839975
196	0xb9cdcf5f	-0.0003925515
197	0xbdf90a79	-0.121602006
198	0xbe3b9902	-0.18320087
199	0xbd58a1e3	-0.052888762
200	0xbe313c25	-0.173081
201	0x3e1d71bd	0.15375419
202	0xbe451510	-0.19246316
203	0x3daac864	0.08339003
204	0xbe67af6c	-0.22625512
205	0xbd884df0	-0.066554904
206	0x3c8ae71f	0.01695591
207	0xbe2ab761	-0.16671516
208	0xbe7f23ab	-0.2491595
209	0x3e708ee6	0.23492011
210	0x3e4dedb1	0.20110203
211	0x3ddeeab5	0.108846106
212	0x3bb7cd32	0.005609178
213	0x3d93fc5e	0.072258696
214	0xbe21fbac	-0.15818661
215	0xbe3051c2	-0.17218688
216	0xbe5bf3f6	-0.21479782
217	0x3cd5da63	0.026105111
218	0xbe0080fb	-0.12549202
219	0x3e219c93	0.15782385
220	0xbe2b2e31	-0.1671684
221	0x3c8844f4	0.016634442
222	0x3d7c1b8f	0.06154972
223	0xbe1b3692	-0.15157536
224	0x3e04836c	0.12940758
225	0x3db6e792	0.08930887
226	0xbe2c2259	-0.16809978
227	0x3e72b304	0.23701102
228	0xbd35c5c9	-0.044378076
229	0x3dcfed2b	0.10152658
230	0x3dc1f9ef	0.09471499
231	0x3e6ba5de	0.23012492
232	0xbdbdfe54	-0.09277025
233	0xbd8cb113	-0.06869712
234	0xbe279ec8	-0.16369164
235	0x3e3daa66	0.18522033
236	0x3d3f69be	0.046731703
237	0x3e1f3fc5	0.1555167
238	0x3db72b88	0.0894385
239	0x3e2f6622	0.17128804
240	0xbd3422a0	-0.043978333
241	0x3e32b286	0.17450914
242	0xbd802d70	-0.062586665
243	0xbbfe1190	-0.0077535585
244	0x3d606982	0.05478812
245	0x3dd1f9e7	0.10252743
246	0xbca236e8	-0.019801572
247	0xbe8b92c8	-0.27260423
248	0x3d2c25a9	0.042028103
249	0xbe4fa8d4	-0.20279247
250	0x3e2d522c	0.16925877
251	0x3e6b8f56	0.23003897
252	0xbd6db7fa	-0.05803678
253	0x3d847b31	0.064688094
254	0x3e485299	0.19562759
255	0xbde45fa3	-0.11151054

net.0.bias f4 [64]
0	0x3c643b58	0.013930164
1	0x3d42243f	0.04739785
2	0xbe2ddc6c	-0.16978616
3	0xbe0df867	-0.13864289
4	0xbe18acc3	-0.14909653
5	0x3d99e59f	0.075145
6	0xbe824e7d	-0.25450507
7	0x3df30baf	0.11867463
8	0xbbadd310	-0.0053047016
9	0xbe76b308	-0.24091733
10	0x3db8903b	0.09011885
11	0x3c9f9e85	0.019484768
12	0xbe55dc69	-0.20884861
13	0x3d329301	0.043597225
14	0xbdf66763	-0.12031438
15	0xbdd8f385	-0.10593323
16	0xbdc2a9c4	-0.095050365
17	0x3e468b61	0.19389106
18	0xbdd238d1	-0.10264743
19	0xbda5e394	-0.08100048
20	0x3df1bd43	0.11803677
21	0x3d8ff3d7	0.07028931
22	0xbd7202a9	-0.05908457
23	0x3be65a20	0.0070297867
24	0xbeabd8f1	-0.3356395
25	0xbe30ae8c	-0.17254084
26	0xbe123ca8	-0.14280951
27	0xbcaaad76	-0.020834666
28	0x3d856b21	0.06514574
29	0xbdda6258	-0.10663289
30	0xbe77cfb8	-0.24200332
31	0xbda5b9bc	-0.08092067
32	0xbe4335a2	-0.19063428
33	0x3e3223af	0.17396425
34	0x3d7b6c7f	0.061382767
35	0xbe338f11	-0.17535044
36	0x3d59ddcd	0.05319004
37	0xbdd175f3	-0.10227575
38	0xbce97ce2	-0.028501932
39	0x3cb86c70	0.022512645
40	0xbe584e52	-0.21123627
41	0xbc9e5648	-0.019328251
42	0x3e10074f	0.14065288
43	0xbe27fdf9	-0.16405477
44	0xbdaeb149	-0.08529908
45	0x3d7e59d5	0.06209739
46	0xbe4caca8	-0.19987738
47	0xbd9f0a36	-0.077656195
48	0xbd95db99	-0.073172756
49	0xbd3a30e2	-0.045456775
50	0x3dee023b	0.11621519
51	0x3ce53311	0.027978452
52	0xbd981c68	-0.07427293
53	0x3d997c5b	0.07494422
54	0x3cf56ba0	0.029958546
55	0xbc4fdd3d	-0.012687025
56	0x3dc21495	0.09476582
57	0xbe76fd56	-0.24120077
58	0xbe0024ac	-0.12513989
59	0xbdaeccfd	-0.08535192
60	0x3e302421	0.17201282
61	0xbe3f643a	-0.18690577
62	0xbd92dfec	-0.07171616
63	0xbda70a84	-0.081563026

net.2.weight f4 [64, 64]
0	0x3d3e5584	0.046468273
1	0x3d43c989	0.04779962
2	0xbe1b5212	-0.15168026
3	0x3e023b7b	0.12718002
4	0xbc9cd7d4	-0.019145884
5	0xbcd1a73b	-0.025592437
6	0x3dae2fcd	0.08505211
7	0xbe32e636	-0.17470631
8	0x3b97fe17	0.004638444
9	0xbd129706	-0.03578856
10	0xbe98958a	-0.2980159
11	0x3ddd9680	0.10819721
12	0x3de3559f	0.11100315
13	0x3dce6598	0.10077971
14	0x3dc211ff	0.09476089
15	0x3c177dff	0.009246348
16	0xbe712a93	-0.23551397
17	0xbee16805	-0.44024673
18	0xbce26e85	-0.02764059
19	0xbeae949d	-0.34097758
20	0xbe965f68	-0.29369664
21	0xbd857861	-0.06517101
22	0xbec4f1c5	-0.38465706
23	0xbe3724f8	-0.17885196
24	0x3de75a0d	0.11296473
25	0x3e969133	0.29407653
26	0x3e234940	0.15945911
27	0xbdfdec52	-0.1239859
28	0xbe30884f	-0.17239498
29	0xbe87c7c7	-0.26519606
30	0xbc9f6f50	-0.019462258
31	0xbd96e902	-0.073686615
32	0xbe944ca9	-0.28964737
33	0xbdadba36	-0.084827825
34	0xbd2a844c	-0.041630074
35	0xbd81b753	-0.063337944
36	0x3ab2246a	0.0013591175
37	0x3bc1e970	0.0059177205
38	0xbd97b5f4	-0.07407752
39	0xbcea991e	-0.028637465
40	0xbd988375	-0.074469484
41	0x3d76561b	0.06014071
42	0x3d07918a	0.03309778
43	0xbbf251ed	-0.00739502
44	0x3db2fb75	0.08739368
45	0x3dc38c05	0.09548191
46	0xbd7df6b5	-0.062002856
47	0xbe8e810e	-0.27832836
48	0xbd5c4b43	-0.053782713
49	0x3d9f1617	0.07767885
50	0xbcf9e56d	-0.030504907
51	0xbdf8b31b	-0.12143537
52	0xbd68501b	-0.05671702
53	0x3de10f42	0.10989238
54	0x3cd62a5d	0.026143247
55	0x3e74fe67	0.23925172
56	0x3cc5e424	0.024156637
57	0x3e82a626	0.25517386
58	0xbedf96af	-0.4366965
59	0xbe022df6	-0.12712845
60	0xbab90cb7	-0.0014118169
61	0x3d8fbeaa	0.07018788
62	0xbbc67064	-0.0060558785
63	0xbdb7b269	-0.08969576
64	0x3d83828d	0.06421385
65	0x3de6a7e1	0.11262489
66	0xbcb43c72	-0.022001479
67	0xbd4cada0	-0.04997027
68	0x3dea7e76	0.11449902
69	0xbd869fac	-0.06573424
70	0x3dac0703	0.08399775
71	0xbdced747	-0.10099655
72	0xbd45626c	-0.048189566
73	0x3dc7b579	0.0975141
74	0x3d8473b4	0.06467381
75	0xbe4cd935	-0.20004733
76	0x3de4c95e	0.1117122
77	0xbe1167ea	-0.14199796
78	0x3cc1f59b	0.023676684
79	0x3d98c228	0.07458907
80	0xbe98fefd	-0.2988204
81	0x3de5e13b	0.112246
82	0x3d431670	0.04762882
83	0xbd88ef4e	-0.06686269
84	0x3db99f69	0.09063608
85	0x3c9a90e7	0.018867923
86	0x3e1b46b6	0.15163693
87	0x3dc2a203	0.095035575
88	0xbdc7dfc2	-0.09759475
89	0x3dd9ce83	0.10635092
90	0xbdb3cbfb	-0.087791406
91	0x3e05cf43	0.13067345
92	0xbc82981a	-0.015941668
93	0x3dfcd37e	0.123450264
94	0xbdcc6eba	-0.09982057
95	0xbcaa04a2	-0.020754162
96	0xbedf04a3	-0.43558225
97	0x3dfd8b89	0.1238013
98	0x3d5b3b15	0.053523142
99	0xbe565c84	-0.2093373
100	0x3dd3c840	0.10340929
101	0x3c1027c4	0.008798543
102	0xbe1341fe	-0.14380643
103	0xbc5a9325	-0.013340746
104	0xbd33f4ed	-0.04393475
105	0x3d0260d7	0.031830635
106	0xbd717fe7	-0.058959868
107	0xbe24f6e8	-0.16109812
108	0xbdc7098b	-0.09718617
109	0xbd59432f	-0.053042587
110	0xbac6e2bb	-0.0015173772
111	0x3da08e45	0.07839636
112	0x3e353689	0.17696585
113	0x3cfb84bb	0.03070294
114	0xbdd35d69	-0.10320551
115	0x3e148447	0.14503585
116	0xbe200847	-0.15628158
117	0x3cebf6df	0.02880424
118	0xbd336726	-0.043799542
119	0xbdb60643	-0.08887913
120	0x3de7a3a1	0.113105066
121	0xbcd2d409	-0.025735872
122	0x3e3ab3ef	0.18232702
123	0x3e2ffd65	0.17186506
124	0x3e169f0b	0.14709108
125	0x3de00330	0.10938108
126	0xbb12830b	-0.002235594
127	0xbd87b2d1	-0.066259034
128	0xbd8d4d56	-0.06899516
129	0xbd2c2d1c	-0.042035207
130	0xbcbe4bef	-0.023229567
131	0x3dfcd574	0.123454005
132	0xbe365d72	-0.17809084
133	0x3d5364c7	0.05160978
134	0xbcec04db	-0.028810909
135	0xbd5ec7cd	-0.054389764
136	0x3e31b4e8	0.17354167
137	0x3e378d1a	0.1792492
138	0x3c116eda	0.008876527
139	0x3c5d5d97	0.013511083
140	0xbd6b3d43	-0.05743147
141	0x3d2fb8e5	0.04290094
142	0x3ddd1c32	0.107963935
143	0x3cb15887	0.021648658
144	0xbd764fea	-0.060134806
145	0x3d5a5d8b	0.053311866
146	0xbd130889	-0.03589681
147	0x3d0ae04c	0.033905312
148	0xbd01ed95	-0.031720717
149	0x3e13f2bf	0.14448069
150	0x3dab8755	0.08375422
151	0x3dc6debc	0.09710452
152	0xbd4f55a7	-0.050618794
153	0x3df81ff3	0.12115469
154	0x3da1a99f	0.07893681
155	0xbd5be7ac	-0.053687736
156	0xbd6a2ae2	-0.057169802
157	0x3bf8d099	0.007593226
158	0xbe296a77	-0.1654452
159	0x3dd31a46	0.10307746
160	0xbdcde5ad	-0.10053573
161	0xbdd9c2bf	-0.10632848
162	0xbbd6439a	-0.0065388205
163	0xbd015b68	-0.031581312
164	0x3e0739f2	0.13205698
165	0xbe4846fc	-0.19558328
166	0xbe3f79a2	-0.18698743
167	0x3c754125	0.014969145
168	0xbd66abea	-0.056316294
169	0x3e538e99	0.20659865
170	0xbd8f1268	-0.069859326
171	0x3e55f059	0.20892467
172	0xbdab62cb	-0.08368453
173	0xbd8ebead	-0.06969962
174	0xbcbd1fbe	-0.023086425
175	0xbcff9bcc	-0.03120222
176	0xbe132c6c	-0.14372414
177	0x3de06feb	0.10958847
178	0xbbc0cbc6	-0.0058836667
179	0x3e01d42f	0.12678598
180	0xbe63586c	-0.22201699
181	0xbdfeae94	-0.12435642
182	0x3cfbdd33	0.030745124
183	0xbda9d0dd	-0.08291791
184	0x3d83b410	0.064308286
185	0xbd9a2b8f	-0.075278394
186	0xbc19675f	-0.0093630245
187	0xbc1de747	-0.00963766
188	0xbe1d6474	-0.15370351
189	0x3e5292eb	0.20563857
190	0xbcfd7340	-0.030938745
191	0x3daed679	0.08537001
192	0xbda031b8	-0.07821983
193	0x3e5c116a	0.21491018
194	0x3eaf538a	0.34243423
195	0xbdcaa625	-0.09894971
196	0x3e035645	0.12825878
197	0x3dd4b831	0.10386694
198	0x3e41943f	0.18904208
199	0xbe3997e0	-0.18124342
200	0x3dadbc99	0.08483238
201	0xbd8bdac4	-0.068288356
202	0x3dbe2d4f	0.09285986
203	0x3ce42c35	0.02785311
204	0xbd18b84d	-0.037285138
205	0xbe1d2b8d	-0.15348645
206	0xbe2770ab	-0.16351573
207	0xbd880d0b	-0.06643113
208	0x3dd5a5c3	0.10432007
209	0x3e16f824	0.14743096
210	0xbdbec91b	-0.093157016
211	0x3e23a9e7	0.15982781
212	0x3d6b2372	0.05740685
213	0x3dc76316	0.09735696
214	0xbde7f3be	-0.11325787
215	0x3e1b3ce8	0.15159953
216	0xbe7aeaa7	-0.24503575
217	0xbc764432	-0.0150309075
218	0x3dd2290f	0.102617376
219	0x3e377fad	0.17919798
220	0xbdbdd4c3	-0.09269097
221	0x3e2363c0	0.1595602
222	0xbe29b978	-0.16574657
223	0x3e0c88ee	0.1372411
224	0x3d83b7e5	0.064315595
225	0x3e2af2e7	0.16694222
226	0x3b587437	0.0033028254
227	0x3dc9e675	0.09858409
228	0x3d48eb43	0.049052488
229	0xbda33f6d	-0.07971082
230	0x3dd8ad79	0.10579962
231	0x3da19c42	0.07891132
232	0xbdfe778f	-0.12425148
233	0x3d98fe45	0.07470373
234	0xbe06d995	-0.13168938
235	0x3e3d5ba3	0.18491988
236	0xbd17a4e2	-0.03702248
237	0xbd844da3	-0.064601205
238	0xbd824d05	-0.063623466
239	0xbd75b472	-0.05998654
240	0xbdb0b3e7	-0.08628064
241	0x3e626018	0.2210697
242	0xbcce9566	-0.025217723
243	0x3e098e9b	0.13433306
244	0xbe44d309	-0.19221129
245	0xbe2765b2	-0.16347387
246	0xbcf00776	-0.029300433
247	0xbd4a53db	-0.049396377
248	0xbe23a520	-0.15980959
249	0x3d58bcbc	0.052914366
250	0x3d02f64a	0.03197316
251	0x3e8a46ef	0.27007243
252	0x3d2b860f	0.041875895
253	0x3cef77ce	0.029231932
254	0xbe60afbf	-0.21942042
255	0xbd3b9e90	-0.045805514

net.2.bias f4 [64]
0	0xb83e2b62	-4.5339933e-05
1	0xbdc894a9	-0.0979398
2	0x3e217324	0.15766579
3	0x3d6cb422	0.057788976
4	0xbd96826f	-0.07349097
5	0x3be126f3	0.006871098
6	0x3d50c803	0.050971996
7	0x3d67a541	0.056554083
8	0xbe05324b	-0.13007466
9	0x3bf10298	0.0073550455
10	0xbd058e71	-0.032606546
11	0xbe0ef971	-0.13962342
12	0x3c62c52c	0.013840955
13	0x3d890891	0.06691087
14	0xbdc99bc2	-0.098441616
15	0xbb15e023	-0.0022869192
16	0xbdb91c60	-0.09038615
17	0x3dc0cb9f	0.09413838
18	0xbd65413d	-0.05597042
19	0x3dc2e30d	0.09515963
20	0xbd6369cc	-0.055520818
21	0x3dd46153	0.103701256
22	0xbda51ca8	-0.08062106
23	0x3e13a071	0.14416672
24	0xbe062a6b	-0.13102119
25	0xbc1ba3de	-0.009499518
26	0x3dcf0317	0.10108011
27	0x3dfa963c	0.12235686
28	0xbd0277b4	-0.03185244
29	0xbbc8f7ee	-0.006133071
30	0x3d8c7899	0.0685894
31	0x3e1e5203	0.15460972
32	0xbc8c79ec	-0.01714798
33	0xbdbbcf67	-0.09170418
34	0xbe151d10	-0.14561868
35	0x3d1be00f	0.038055476
36	0x3ca6b78d	0.020351196
37	0x3d7e5ccc	0.062100217
38	0x3e2bf978	0.16794384
39	0xbd360981	-0.044442657
40	0xbd173b48	-0.03692177
41	0x3c924db5	0.01785932
42	0x3e1e34dd	0.15449853
43	0x3dcc9d65	0.09990958
44	0x3c9902e5	0.018678138
45	0x3e4980c9	0.19678034
46	0xbe0ddb03	-0.13853078
47	0xbd559193	-0.052140784
48	0xbd1be9db	-0.03806482
49	0xbc92774b	-0.017879149
50	0x3d2fdeec	0.042937204
51	0x3dfe3658	0.12412709
52	0x3d731688	0.05934766
53	0x3ca3fce4	0.020018049
54	0x3dea6bf5	0.114463724
55	0x3d70df9c	0.058807
56	0x3d1fb50a	0.03899101
57	0xbe33f687	-0.17574511
58	0x3db1bbcf	0.086784
59	0x3d2308b7	0.039803233
60	0xbd4673e0	-0.04845035
61	0xbce2a8cc	-0.02766838
62	0xbba7856e	-0.0051123416
63	0xbd6720a8	-0.056427628

net.4.weight f4 [64, 64]
0	0x3ebcc9ef	0.36872813
1	0x3dd64976	0.1046323
2	0x3d448d92	0.047986574
3	0x3cd460a4	0.025924988
4	0x3ca9a738	0.020709619
5	0x3d7a4112	0.061097212
6	0x3b78540c	0.0037891893
7	0x3b9131ed	0.0044310004
8	0x3df754c0	0.12076712
9	0x3d964e3c	0.07339141
10	0xbe49658a	-0.1966764
11	0x3de8e34e	0.1137148
12	0xbde3f2c4	-0.11130288
13	0xbdc0dded	-0.09417329
14	0x3e27ab64	0.16373974
15	0x3e547913	0.20749311
16	0x3da43f9c	0.08019945
17	0x3e662250	0.22474027
18	0xbe9dc37e	-0.3081321
19	0x3df754f5	0.12076751
20	0xbc86c7b7	-0.016452653
21	0x3d039a44	0.03212954
22	0x3dc21966	0.094775006
23	0x3e513cfb	0.20433418
24	0xbefadcaf	-0.48996493
25	0xbdbf28b9	-0.09333939
26	0x3b9068d5	0.004407028
27	0xbdb71497	-0.08939474
28	0x3e4b763c	0.19869322
29	0x3e95e2f7	0.29274723
30	0xbdb8afea	-0.09017928
31	0xbe487a6f	-0.19577955
32	0x3d8dde65	0.06927184
33	0x3e1c5562	0.15266946
34	0x3d701c21	0.058620576
35	0x3e8121fa	0.25221235
36	0x3cd2e4a1	0.025743784
37	0xbe31e7a9	-0.17373528
38	0x3e894d5f	0.26816842
39	0xbe8a84ae	-0.27054352
40	0xbc51ec05	-0.012812619
41	0xbe0ee5d9	-0.13954867
42	0x3db2a11d	0.08722136
43	0x3d2e2165	0.042512316
44	0xbd689e18	-0.056791395
45	0x3cac9278	0.021065935
46	0xbe6d6d41	-0.23186208
47	0xbdfbc485	-0.122933425
48	0x3c2270e8	0.009914614
49	0xbe75e563	-0.24013285
50	0x3e1916b4	0.14950067
51	0x3e25e830	0.16201854
52	0xbbf29a50	-0.0074036494
53	0x3e7cb177	0.24677072
54	0x3e239daa	0.15978113
55	0x3d8e8d27	0.069605164
56	0x3d4135a4	0.047170296
57	0x3e047679	0.12935819
58	0x3e2768ae	0.16348526
59	0x3d594d5e	0.0530523
60	0xbe904e35	-0.28184667
61	0xbe2979e5	-0.16550405
62	0x3e020d95	0.12700494
63	0x3e802a70	0.25032377
64	0x3ec92dc0	0.39292717
65	0x3d203563	0.039113414
66	0x3dc8a8c8	0.097978175
67	0x3e4fa01e	0.20275924
68	0xbd84afa1	-0.06478811
69	0xbd099fe9	-0.033599768
70	0x3dbea5a0	0.09308934
71	0x3ddddd8c	0.10833272
72	0x3e560db0	0.20903659
73	0x3de13866	0.10997085
74	0xbe171c56	-0.14756903
75	0xbd34070a	-0.043952025
76	0xbe036675	-0.12832053
77	0xbdccde5d	-0.1000335
78	0x3e211d6c	0.1573388
79	0x3e94d416	0.2906806
80	0x3d75f349	0.060046468
81	0x3e347443	0.17622475
82	0xbe88d002	-0.26721197
83	0x3e01ea6f	0.12687086
84	0x3d84da77	0.06486981
85	0x3d235e33	0.039884757
86	0x3dbbcf88	0.09170443
87	0x3c7fea91	0.01561989
88	0xbeabc5c1	-0.33549312
89	0xbdc06279	-0.09393782
90	0x3dd04723	0.10169818
91	0xbe0ebf61	-0.13940193
92	0x3e50f116	0.20404467
93	0x3d612e0e	0.05497556
94	0xbe29e749	-0.16592135
95	0xbe4a5692	-0.19759586
96	0x3dfb9cd6	0.122857735
97	0x3dd1c7bd	0.10243175
98	0x3e35f05e	0.17767474
99	0x3e325db6	0.1741856
100	0x3e586789	0.21133246
101	0xbe592354	-0.21204883
102	0x3e8b1d69	0.27170876
103	0xbe38b0f1	-0.18036248
104	0x3d82d893	0.063889645
105	0xbe0f3607	-0.13985454
106	0xbe144535	-0.14479525
107	0x3e19f5a8	0.15035117
108	0xbd0840d2	-0.033264942
109	0x3d19ae47	0.03751972
110	0xbea34ab7	-0.3189294
111	0x3e0c6aec	0.13712662
112	0x3da8fcaf	0.082513206
113	0x3b67702f	0.003531467
114	0x3e42e4a9	0.1903254
115	0x3e5d509c	0.21612781
116	0x3d4d5d09	0.050137553
117	0x3e557208	0.2084428
118	0x3d8c8b81	0.06862546
119	0x3de11eb1	0.10992182
120	0x3e3a069f	0.18166588
121	0x3e1f85be	0.15578362
122	0xbb5a2651	-0.0033286999
123	0x3e019046	0.12652692
124	0xbec8db10	-0.3922963
125	0xbe45929e	-0.19294211
126	0x3ea68bf5	0.32528654
127	0x3ef0e978	0.47053123
128	0x3e69000e	0.22753927
129	0xbd263f82	-0.04058791
130	0xbc89ffea	-0.016845662
131	0x3e162460	0.14662313
132	0x3d0b3245	0.033983488
133	0xbc0b37ab	-0.008497159
134	0x3d370056	0.044678055
135	0x3d85f459	0.06540746
136	0x3e31baee	0.17356464
137	0x3b361c89	0.0027788004
138	0xbde69ec1	-0.11260749
139	0x3df10275	0.11768047
140	0xbe1e31f1	-0.15448739
141	0x3db58f93	0.08865275
142	0x3e8d90b7	0.2764947
143	0x3e2403ad	0.16017027
144	0x3e0c12d2	0.13679054
145	0x3e796fba	0.24359027
146	0x3cc94373	0.024568295
147	0xbd3df1b1	-0.046373073
148	0x3d881b20	0.06645799
149	0xbe1b472e	-0.15163872
150	0x3e16bfbe	0.14721581
151	0x3e0ecda0	0.13945627
152	0xbe5df983	-0.21677212
153	0xbc2f1866	-0.010686969
154	0xbb9f1451	-0.004854717
155	0x3b8abe50	0.004234113
156	0x3e7073c4	0.23481661
157	0x3e53d8a3	0.20688109
158	0x3bc11bab	0.005893191
159	0x3cf40101	0.029785635
160	0x3d37c746	0.044867776
161	0x3c42d72d	0.011892122
162	0x3d87418c	0.06604299
163	0x3db985ba	0.090587094
164	0x3e033eba	0.12816897
165	0xbceb77cc	-0.028743647
166	0x3d57c494	0.052677706
167	0xbe48ddbf	-0.1961584
168	0x3e14c4e6	0.14528236
169	0xbd93def8	-0.07220262
170	0xbbf7c13c	-0.007560877
171	0x3d876872	0.06611718
172	0xbd182106	-0.03714087
173	0x3e0d5269	0.13800968
174	0xbe11bbd4	-0.14231807
175	0xbe2ec21a	-0.17066231
176	0x3da70e3d	0.081570126
177	0xbdbd0b57	-0.092306785
178	0x3d3e1513	0.046406817
179	0x3e5e255f	0.21693943
180	0x3d4d9359	0.05018935
181	0x3bf43706	0.0074528484
182	0x3d34f5c6	0.0441797
183	0x3e30027f	0.17188452
184	0xbd1e3d0b	-0.038632434
185	0x3dabe7d1	0.08393825
186	0xbcc95759	-0.024577783
187	0x3e13d353	0.14436083
188	0xbeb71c17	-0.35763618
189	0x3d08f6be	0.033438437
190	0x3df8c4af	0.121468894
191	0x3ec96ce6	0.39340895
192	0xbec1405d	-0.37744418
193	0xbe996a15	-0.29963747
194	0x3df5e9fa	0.12007518
195	0x3d936a6f	0.07198035
196	0x3c801145	0.015633235
197	0xbd2a1c94	-0.04153116
198	0x3dec8cd2	0.11550297
199	0xbe0bc0a5	-0.13647707
200	0xbdb0d583	-0.08634474
201	0xbe28a22b	-0.16468112
202	0x3e2e3f0f	0.17016242
203	0xbe28a457	-0.1646894
204	0xba83162f	-0.0010001118
205	0x3e3291dc	0.17438453
206	0xbdc5c05e	-0.09655832
207	0x3c74db43	0.014944854
208	0xbe0fc45a	-0.14039746
209	0xbe1e23df	-0.15443371
210	0x3e3af48a	0.18257347
211	0x3dd549cd	0.10414467
212	0xbe88818a	-0.2666133
213	0x3cb9047e	0.02258515
214	0xbe82af4a	-0.2552436
215	0x3ccca39e	0.024980363
216	0x3ec523b5	0.38503805
217	0x3e0fc906	0.14041528
218	0xbe1f2abd	-0.15543647
219	0x3dff677f	0.12470912
220	0xbe880a1e	-0.2657022
221	0xbe65164f	-0.22371791
222	0x3defb8ad	0.11705146
223	0x3e01bafd	0.12668987
224	0xbca226b9	-0.019793855
225	0xbe4303a1	-0.19044353
226	0xbe5c957c	-0.21541399
227	0x3d25e80c	0.0405045
228	0xbc9dbb65	-0.019254396
229	0x3e8807bb	0.26568398
230	0xbe2113b6	-0.15730175
231	0x3e66beb8	0.22533691
232	0xbe57aab0	-0.21061206
233	0x3e9d7837	0.3075578
234	0x3e0daf0d	0.13836308
235	0x3e159be7	0.14610253
236	0x3db90db3	0.09035816
237	0x3e2b97b5	0.1675709
238	0x3e9f9452	0.31167847
239	0x3e0309ec	0.12796754
240	0x3dae0640	0.08497286
241	0x3c81a5d5	0.015826145
242	0x3c8c6c91	0.017141612
243	0xbe106742	-0.1410189
244	0x3dff89b0	0.12477434
245	0xbe170865	-0.14749296
246	0xbd385e54	-0.045011833
247	0xbe8d65f5	-0.2761685
248	0xbe353814	-0.17697173
249	0xbd504006	-0.050842308
250	0xbdba5188	-0.09097582
251	0x3d6976dc	0.05699812
252	0x3e779ce3	0.24180941
253	0x3e4672d5	0.19379742
254	0xbea2af06	-0.31774157
255	0xbeadb4ab	-0.339269

net.4.bias f4 [64]
0	0x3d98f7f3	0.074691676
1	0xbc55ccb1	-0.0130492905
2	0xbdcb8c12	-0.09938826
3	0x3dd1bfd1	0.10241664
4	0xbb915eaa	-0.0044363337
5	0x3e8db6e6	0.27678603
6	0x3d562c39	0.052288268
7	0x3e12b78b	0.14327829
8	0xbd4063c8	-0.04697016
9	0xbd583206	-0.05278208
10	0xbcd96cfe	-0.02654123
11	0x3d3b952d	0.045796562
12	0x3e2b7458	0.167436
13	0x3dd7d0ae	0.10537849
14	0xbc5637c0	-0.013074815
15	0x3da1c3cb	0.07898673
16	0x3ce33415	0.027734796
17	0x3d3b69b2	0.045755096
18	0x3d822213	0.063541554
19	0x3daed386	0.08536439
20	0x3d982cbb	0.07430407
21	0xbd2c560b	-0.042074244
22	0xbb965da4	-0.0045887996
23	0xbda787c9	-0.08180196
24	0x3d81b29d	0.06332896
25	0x3e4d5790	0.20052934
26	0x3e3619c0	0.1778326
27	0x3d9cd5cf	0.07657968
28	0x3cc9f8ba	0.024654735
29	0xbd69bf6a	-0.057067312
30	0x3d850da8	0.06496745
31	0x3e2827c0	0.16421413
32	0x3e0c494e	0.13699839
33	0x3beaa73c	0.007161049
34	0x3e059867	0.13046418
35	0x3de91c3e	0.1138234
36	0xbadef070	-0.0017008912
37	0xbc4f4c4a	-0.012652466
38	0x3dcce68c	0.10004911
39	0x3e54df05	0.207882
40	0x3dc82ad2	0.09773792
41	0x3d301dc4	0.042997137
42	0x3e4ee4bd	0.20204444
43	0x3d50992c	0.050927326
44	0x3df26def	0.118373744
45	0x3db7b0b3	0.089692496
46	0x3d7008bb	0.058602076
47	0x3e023e81	0.12719156
48	0x3e45f970	0.19333434
49	0xbcf4e1d3	-0.029892838
50	0x3d2cc862	0.042183287
51	0x3e1bb4e3	0.15205722
52	0x3d81648a	0.063180044
53	0x3e0403d6	0.12892088
54	0xbd638296	-0.05554446
55	0xbdb4894f	-0.08815252
56	0x3d5a6e1f	0.053327676
57	0x3db37c70	0.08763969
58	0x3dd53f2e	0.10412441
59	0xbdfeee13	-0.12447753
60	0x3c01c7a3	0.007921132
61	0xbda18ef7	-0.078885965
62	0x3e5cc316	0.21558794
63	0x3e4190c8	0.18902886

net.6.weight f4 [1, 64]
0	0x3ea2de14	0.31810057
1	0x3e8f40ba	0.2797907
2	0x3e9e946f	0.3097262
3	0xbeb0c050	-0.34521723
4	0x3eab8816	0.33502263
5	0xbebcc7ea	-0.36871272
6	0x3e88c7b7	0.2671487
7	0xbe9dbc85	-0.3080789
8	0x3e91b16f	0.28455684
9	0x3e980097	0.2968795
10	0x3e510b06	0.20414361
11	0x3e6137bd	0.21993919
12	0xbec1fe62	-0.3788939
13	0x3e7e0b1d	0.24808927
14	0x3e4a24d2	0.19740608
15	0x3e38a122	0.18030217
16	0x3e86d587	0.26334783
17	0x3e6aa865	0.229158
18	0x3eab1350	0.33413172
19	0x3e6c71e3	0.2309032
20	0xbe9f9cbe	-0.31174272
21	0x3e9f89d4	0.31159842
22	0x3e87e683	0.26543054
23	0x3e174b7b	0.14774887
24	0x3e9189ef	0.28425547
25	0xbeaab39d	-0.3334016
26	0xbebd8f75	-0.37023512
27	0x3e5e99ee	0.21738407
28	0x3ead2454	0.3381678
29	0x3e6b81b7	0.22998701
30	0x3ed8b2e3	0.4232398
31	0xbeaa6bdc	-0.33285415
32	0x3e62549e	0.22102591
33	0x3e8d1e6a	0.27562267
34	0x3e9b228f	0.30299804
35	0x3e87c133	0.26514587
36	0xbea6d557	-0.3258464
37	0x3e6c3bdf	0.23069714
38	0x3eb99f84	0.36254513
39	0xbf16821e	-0.58792293
40	0xbe942e20	-0.2894144
41	0x3e8fbceb	0.2807382
42	0xbeb2617d	-0.34840003
43	0xbebc4f5a	-0.3677929
44	0xbeaf7af1	-0.34273484
45	0x3e61bccd	0.22044678
46	0x3ea43b13	0.3207632
47	0xbea8f8a0	-0.33002186
48	0xbeb82cde	-0.3597173
49	0x3e9979c6	0.29975718
50	0x3e553346	0.2082034
51	0xbedf310c	-0.43592107
52	0x3e821f6d	0.254146
53	0x3e8d5164	0.2760116
54	0x3e567f27	0.20946942
55	0x3e5cdab8	0.2156781
56	0x3e959025	0.29211536
57	0xbe9c9107	-0.30579397
58	0xbeb901d8	-0.3613422
59	0x3e2811c8	0.16413033
60	0x3eabf837	0.3358781
61	0x3e98dff7	0.29858372
62	0xbe9ffe0f	-0.3124852
63	0xbeb30680	-0.34965897
