cancer_iterative/cancer_models/50_train/copula_final_model.pt (torch, 45351 bytes, 7 tensors)

net.0.weight f4 [64, 30]
0.08177296 -0.09943642 -0.17285757 0.036453176 0.10317594 0.029180918 0.044961136 -0.059750427
0.08561387 -0.18396339 -0.026418047 -0.051698882 -0.107707486 -0.19564977 0.11413039 -0.03554186
-0.04634082 0.17233442 -0.21642733 0.07753884 0.02961569 -0.119607516 -0.22976719 -0.09930595
-0.110923976 -0.10734835 0.13521817 -0.096634924 0.15346597 -0.05095805 0.08454052 0.115169205
-0.12620048 -0.041072484 0.016087368 -0.16088514 -0.08758127 0.09096362 0.04232975 -0.19826925
-0.093955524 0.1867227 0.007497676 -0.11778424 -0.02245596 -0.177147 -0.05366151 -0.020166997
-0.19318347 0.051220886 -0.16655749 0.11271923 -0.02147869 0.11587477 0.015367337 -0.12049008
-0.21082395 0.07182596 -0.1328728 -0.024439463 0.13121128 0.02564169 0.11946127 0.10547221
-0.11389977 0.16789734 -0.007989677 0.107338086 0.108694635 0.13156378 -0.03577126 0.11058611
0.15828215 0.12882471 -0.12615827 -0.043461155 -0.003976004 -0.067081116 -0.1588476 -0.08123692
-0.11903145 0.024617694 0.024361184 -0.005599744 -0.13910492 -0.09552812 -0.12831844 0.2336959
-0.031076469 -0.035428047 0.22229522 -0.020033557 -0.0068445946 0.14071704 -0.19360946 -0.14857371
0.11553854 0.14374435 0.1828609 0.160565 0.06483631 0.15113948 -0.16647945 -0.12306906
-0.06719106 0.13747449 0.08710659 -0.19234638 0.0058039646 0.09079949 0.19088599 0.042111218
-0.01761158 -0.01547824 0.11343782 -0.14738694 0.13258371 0.02819226 0.0388004 0.10452169
0.20382726 -0.12666108 -0.12648423 0.24807781 -0.13797456 0.10111409 0.03926921 0.15586333
0.12105721 0.056943998 -0.096988626 0.007132542 0.2043022 0.030985592 0.02463886 0.20346256
-0.10351664 0.13435219 0.022571433 0.014220106 0.12169436 0.1385135 0.0064633973 0.19999221
0.04474919 -0.14834327 0.16341315 0.15907027 0.15701054 -0.21888924 -0.040801037 -0.005988132
-0.038764652 -0.26468003 -0.07694918 -0.124355726 0.01155314 -0.20373903 0.035680313 -0.052280232
0.061718054 -0.15314229 0.12039548 -0.2273401 -0.12784134 -0.05876336 0.048034884 0.083285205
-0.18761118 -0.1680039 -0.13016222 0.10676102 0.11742559 -0.27211076 -0.028432675 -0.19910465
-0.17491932 -0.090576254 -0.026193345 0.098877735 0.06395248 -0.02773902 -0.13158749 -0.2191672
0.18373325 0.14897855 0.05731143 -0.116509825 -0.15812972 -0.108994566 0.02947265 0.13859376
0.0059828903 -0.07141444 0.09967096 0.02980765 -0.17519318 0.061114985 -0.14716989 0.023623027
-0.14698973 -0.18428837 -0.12923944 0.08508689 -0.11441607 -0.057401795 0.067512475 0.10886694
-0.16933519 0.051678974 -0.22864622 -0.061793774 0.054336745 -0.080864795 0.20446391 0.049472127
0.070127085 0.11132282 0.0016657716 0.06590217 -0.023666617 0.10779768 -0.0824128 0.05517254
0.15376066 0.0908407 -0.04168276 0.07839879 -0.11766237 0.09287909 0.034118295 -0.027422369
-0.087003805 -0.15486243 -0.03982851 0.04753735 -0.051423863 -0.14995983 -0.08250704 -0.17308956
-0.15076758 0.02641855 -0.12817144 -0.1752408 -0.14516546 0.2221229 -0.07326481 0.0021745437
-0.17681056 -0.0507164 -0.055932015 0.016915653 -0.024223104 0.034731857 0.10625383 -0.06736601
00000000: 9578 a73d 52a5 cbbd 9301 31be ed4f 153d
00000010: e84d d33d d20c ef3c 2b29 383d ddbc 74bd
00000020: 5356 af3d e660 3cbe a96a d8bc 35c2 53bd
00000030: be95 dcbd 6a58 48be 32bd e93d 5794 11bd
00000040: dfcf 3dbd 6f78 303e 209f 5dbe afcc 9e3d
00000050: 9a9c f23c c9f4 f4bd 1748 6bbe eb60 cbbd
00000060: 1c2c e3bd 74d9 dbbd a276 0a3e 88e8 c5bd
00000070: 2f26 1d3e 63b9 50bd 9523 ad3d d5dd eb3d
00000080: b33a 01be 9f3b 28bd a8c9 833c 13bf 24be
00000090: cf5d b3bd 224b ba3d f661 2d3d 1807 4bbe
000000a0: c16b c0bd 3c34 3f3e 11af f53b dd38 f1bd
000000b0: 90f5 b7bc 0666 35be 2ccc 5bbd 4235 a5bc
000000c0: e3d1 45be fecc 513d 0c8e 2abe 57d9 e63d
000000d0: 14f4 afbc c04f ed3d 48c7 7b3c 81c3 f6bd
000000e0: 3ce2 57be 7d19 933d cf0f 08be 4535 c8bc
000000f0: 405c 063e 850e d23c 1ca8 f43d d001 d83d
00000100: 4844 e9bd 48ed 2b3e 22e7 02bc 12d4 db3d
00000110: 4b9b de3d a8b8 063e e284 12bd f87a e23d
00000120: b714 223e a0ea 033e a22f 01be 5304 32bd
00000130: 2449 82bb d361 89bd f2a8 22be 8b5f a6bd
00000140: c3c6 f3bd 0cab c93c 1b91 c73c 0f7e b7bb
00000150: 8571 0ebe 3fa4 c3bd e965 03be fa4d 6f3e
00000160: 1494 febc 001d 11bd 5ca1 633e 6a1d a4bc
00000170: 9f48 e0bb 2118 103e 8f41 46be b523 18be
00000180: 789f ec3d b831 133e e33f 3b3e 276b 243e
00000190: e6c8 843d 4fc4 1a3e 9779 2abe a20b fcbd
000001a0: 779b 89bd 1dc6 0c3e f164 b23d 73f6 44be
000001b0: 2f2f be3b 15f5 b93d 9e77 433e d07c 2c3d
000001c0: 2946 90bc 7298 7dbc 1652 e83d 9aec 16be
000001d0: 06c4 073e 74f3 e63c 2bed 1e3d 780f d63d
000001e0: 18b8 503e 71b3 01be 1585 01be 1c08 7e3e
000001f0: 3449 0dbe e714 cf3d c0d8 203d a39a 1f3e
00000200: d8ec f73d 1c3e 693d f9a1 c6bd 19b8 e93b
00000210: 9934 513e 7fd5 fd3c 6fd7 c93c 7d58 503e
00000220: 8800 d4bd 9f93 093e bae7 b83c 73fb 683c
00000230: e53a f93d 7cd6 0d3e e8ca d33b c2ca 4c3e
00000240: ed4a 373d 4ce7 17be c755 273e 51e3 223e
00000250: 5fc7 203e 8024 60be fd1e 27bd 1838 c4bb
00000260: afc7 1ebd 2484 87be 8897 9dbd 37ae febd
00000270: 6249 3d3c f7a0 50be 8525 123d cc23 56bd
00000280: 12cc 7c3d 55d1 1cbe e891 f63d d8cb 68be
00000290: d7e8 02be d9b1 70bd 3ac0 443d 6f91 aa3d
000002a0: 251d 40be 3709 2cbe 3f49 05be 86a5 da3d
000002b0: d47c f03d 1a52 8bbe a4eb e8bc 17e2 4bbe
000002c0: 0d1e 33be 0b80 b9bd 6d93 d6bc 6980 ca3d
000002d0: 85f9 823d f13c e3bc dfbe 06be 5e6d 60be
000002e0: 9224 3c3e d58d 183e 64bf 6a3d b49c eebd
000002f0: c2ec 21be 8b38 dfbd a070 f13c 86eb 0d3e
00000300: 1f0c c43b bc41 92bd 4a20 cc3d 2c2f f43c
00000310: d765 33be b553 7a3d b4b3 16be 1485 c13c
00000320: 7a84 16be 17b6 3cbe 5857 04be 0942 ae3d
00000330: f952 eabd 251e 6bbd fb43 8a3d a1f5 de3d
00000340: 3466 2dbe 55ad 533d 3c22 6abe 781b 7dbd
00000350: 3590 5e3d 719c a5bd fd5e 513e 49a3 4a3d
00000360: ca9e 8f3d 38fd e33d 0556 da3a b8f7 863d
00000370: 7ee0 c1bc 08c5 dc3d 0bc8 a8bd 9afc 613d
00000380: 6f73 1d3e b00a ba3d 8bbb 2abd 8b8f a03d
00000390: f8f8 f0bd 6437 be3d a0bf 0b3d e0a4 e0bc
000003a0: 0d2f b2bd 4294 1ebe 3823 23bd 86b6 423d
000003b0: d4a1 52bd 128f 19be 73f9 a8bd 643e 31be
000003c0: d162 1abe b76b d83c 603f 03be 5372 33be
000003d0: 41a6 14be 2f74 633e dc0b 96bd ca82 0e3b
000003e0: d40d 35be 00bc 4fbd f818 65bd b292 8a3c
000003f0: 886f c6bc fe42 0e3d 9c9b d93d 31f7 89bd

net.0.bias f4 [64]
0.18240014 0.22685882 0.07645616 0.30429235 -0.02165342 0.16615647 -0.10010358 0.04183001
-0.048926063 0.18192266 0.15667449 0.05231678 0.243984 0.019403918 0.19036148 0.0051042656
0.14021134 -0.17814499 0.12987514 0.21594566 -0.08445815 0.07682588 0.20697296 0.20832661
-0.0691333 0.12909572 -0.050288968 -0.06482856 0.067329824 -0.022359984 -0.047340628 0.22213964
0.07395689 0.06977996 -0.06379754 0.23928317 0.136374 0.11838071 0.0093918275 0.22733249
0.12534882 -0.030466244 0.14685398 0.15820119 0.008914839 0.18674716 0.017507514 0.21089779
0.06859229 0.003441139 0.011630594 -0.15606865 0.08356694 -0.13902965 0.11165208 -0.04330878
0.22935781 0.087010734 -0.018852487 0.07586962 0.058133457 0.09493573 0.066653796 0.18930458
00000000: 1ac7 3a3e ae4d 683e 0c95 9c3d 35cc 9b3e
00000010: 8362 b1bc ec24 2a3e 1b03 cdbd f255 2b3d
00000020: b266 48bd ef49 3a3e 476f 203e 1f4a 563d
00000030: f1d6 793e f7f4 9e3c 1fee 423e af41 a73b
00000040: 9093 0f3e a46b 36be fdfd 043e dc20 5d3e
00000050: 65f8 acbd e356 9d3d b8f0 533e 9253 553e
00000060: c295 8dbd ab31 043e cefb 4dbd d6c4 84bd
00000070: 38e4 893d 492c b7bc 3fe8 41bd 9378 633e
00000080: b676 973d cce8 8e3d 49a8 82bd a606 753e
00000090: a0a5 0b3e 9671 f23d 2ee0 193c d9c9 683e
000000a0: 715b 003e 5894 f9bc e460 163e 7eff 213e
000000b0: 8b0f 123c a63a 3f3e eb6b 8f3c 97f5 573e
000000c0: 1d7a 8c3d bb84 613b 3f8e 3e3c 76d0 1fbe
000000d0: 2525 ab3d ca5d 0ebe d9a9 e43d 8c64 31bd
000000e0: c6dc 6a3e af32 b23d 8870 9abc 8861 9b3d
000000f0: 591d 6e3d aa6d c23d c981 883d 0fd9 413e

net.2.weight f4 [64, 64]
0.013163011 0.014686214 0.043546747 -0.10124249 -0.13713947 0.21238041 0.13828713 0.14143191
0.0028222054 0.061387654 0.051917516 0.044970307 -0.11605818 0.043018214 -0.086082034 0.15483725
0.14162305 -0.06988441 0.043456744 0.1661678 -0.06531694 0.08094819 0.1351549 0.005770901
-0.0016065532 -0.006456841 0.1497977 -0.05511609 0.018597703 0.084943116 0.10184218 0.03173146
0.039618433 0.18967488 -0.008958279 0.06462666 0.059398524 4.238407e-05 0.12437734 0.04049871
0.02102024 -0.04339191 0.13997154 -0.11129445 0.018038947 0.13708207 0.0280408 0.11783596
0.05640025 -0.11491356 0.03186017 0.016915519 -0.061884932 0.074541464 0.04897391 0.08725576
0.025162103 -0.09840067 0.0035024418 0.08857089 0.08839012 -0.0162968 0.006811246 0.004932464
0.093383156 0.09356908 0.1652603 0.05344833 0.18608417 0.043078173 0.024453396 0.1081314
0.15499379 0.06622398 0.01623746 0.15882102 0.1762161 0.17591909 0.047743175 -0.025157735
0.14657451 0.11104726 0.07151173 0.03690704 0.025849532 0.1230825 0.16629538 0.15693058
0.17926891 0.13280664 0.13981046 0.00730793 -0.04775188 -0.015083971 0.0017813661 0.11039857
-0.017732123 0.090273485 -0.040116932 0.073701516 0.15607157 0.17427014 0.042282872 -0.05461062
0.047391936 0.010610196 0.0070891 0.056993745 0.09157684 0.06482342 0.19134273 0.12534462
-0.046787336 0.066390574 0.2100865 -0.04664037 0.15444267 0.02414833 0.17679353 -0.046823703
0.11771455 0.03371133 -0.0008922908 -0.04064616 0.12189546 0.13849181 0.021137703 0.063931696
0.0678695 -0.047175955 -0.054618657 0.08709865 0.069600485 -0.010220093 0.15427999 0.08764108
-0.023011772 0.006155722 0.091093116 0.13039179 -0.08239177 -0.02249052 -0.03982835 0.050216403
0.09230857 -0.089583166 0.13258976 -0.058406767 -0.08906015 0.093918 0.067841396 -0.058286496
0.013289614 -0.1423883 0.110180885 -0.08644283 -0.03313555 0.0032706973 0.118585356 0.0072348025
-0.007746886 0.12825745 0.06343097 0.14190821 0.014736315 -0.07716707 0.11301225 -0.071578585
-0.10054987 0.047373526 0.08841931 -0.014880852 0.034724105 0.08900767 -0.07463386 -0.068283275
0.025852567 0.07908863 -0.17149386 -0.024718367 -0.06903345 -0.057447005 0.09703712 -0.030684516
-0.07700676 -0.03448663 0.1569547 0.0602072 0.12191413 0.015449217 0.1420646 0.0773131
0.08743979 -0.011675762 -0.0396505 0.1739176 0.15869936 -0.057385202 -0.043376982 -0.062345542
-0.047552638 0.058950204 0.15497412 -0.08944091 0.04207861 -0.032014374 0.0992405 -0.0738029
0.028579315 0.097608075 -0.08641201 -0.06832374 0.1414447 -0.0858468 0.06039444 0.07331352
0.0722257 0.15263924 -0.016073428 0.020086005 -0.082473636 0.048220802 -0.053436376 0.10657779
-0.10509512 0.122821234 -0.016034404 -0.09621169 0.0027182936 0.18572088 0.019183185 0.09299316
0.17009932 0.014652113 0.003464113 0.14465076 0.0928498 0.03991235 0.021779077 0.027389705
0.021130513 0.08692077 0.0317679 0.06729383 -0.040435363 -0.018129613 0.08968629 0.04665967
-0.07470539 -0.0010310098 0.009712009 -0.08641446 -0.11012583 -0.024709873 -0.039957903 -0.0323917
00000000: aba9 573c 729e 703c 135e 323d 3958 cfbd
00000010: 4a6e 0cbe 407a 593e 249b 0d3e 87d3 103e
00000020: c0f4 383b 9f71 7b3d 76a7 543d c932 383d
00000030: e9af edbd de33 303d c74b b0bd a88d 1e3e
00000040: a205 113e 8f1f 8fbd b3ff 313d e427 2a3e
00000050: e3c4 85bd 2ac8 a53d 0c66 0a3e d419 bd3b
00000060: fb92 d2ba e893 d3bb 9164 193e 69c1 61bd
00000070: 365a 983c a8f6 ad3d a292 d03d d9f8 013d
00000080: f046 223d 223a 423e bfc5 12bc fb5a 843d
00000090: de4b 733d 8cc5 3138 8cb9 fe3d fae1 253d
000000a0: a332 ac3c b7bb 31bd b354 0f3e 58ee e3bd
000000b0: 6ac6 933c 3e5f 0c3e d2b5 e53c fb53 f13d
000000c0: f303 673d cd57 ebbd cf7f 023d 6a92 8a3c
000000d0: 0e7b 7dbd 32a9 983d de98 483d 26b3 b23d
000000e0: c120 ce3c 4a86 c9bd 3989 653b a864 b53d
000000f0: e105 b53d de80 85bc df30 df3b 82a0 a13b
00000100: ab3f bf3d 25a1 bf3d ff39 293e a3ec 5a3d
00000110: d98c 3e3e bd72 303d 7d52 c83c ff73 dd3d
00000120: b1b6 1e3e 70a0 873d 6c04 853c faa1 223e
00000130: fe71 343e 2224 343e 598e 433d 9817 cebc
00000140: a117 163e bf6c e33d be74 923d d62b 173d
00000150: 66c2 d33c ae12 fc3d 5649 2a3e 69b2 203e
00000160: 4592 373e 77fe 073e 792a 0f3e 5c77 ef3b
00000170: 7a97 43bd c322 77bc ba7c e93a a518 e23d
00000180: f542 91bc 4ee1 b83d a751 24bd d2f0 963d
00000190: 3ad1 1f3e df73 323e ce30 2d3d 63af 5fbd
000001a0: 0c1e 423d 63d6 2d3c ae4b e83b 4672 693d
000001b0: a38c bb3d 24c2 843d 59ef 433e 575a 003e
000001c0: 14a4 3fbd c8f7 873d ea20 573e f909 3fbd
000001d0: 3826 1e3e b8d2 c53c 5d09 353e 36ca 3fbd
000001e0: 5314 f13d e414 0a3d 9fe8 69ba 967c 26bd
000001f0: 54a4 f93d ccd0 0d3e fa28 ad3c 9fee 823d
00000200: 2aff 8a3d 933b 41bd d0b7 5fbd c760 b23d
00000210: b38a 8e3d 2d72 27bc 93fb 1d3e 2b7d b33d
00000220: 2f83 bcbc f0b5 c93b 078f ba3d 6d85 053e
00000230: 04bd a8bd 0a3e b8bc 0d23 23bd b7af 4d3d
00000240: 470c bd3d 6177 b7bd 9cc5 073e ef3b 6fbd
00000250: 2b65 b6bd 1558 c03d 6ef0 8a3d d2bd 6ebd
00000260: aebc 593c 3dce 11be 84a6 e13d f008 b1bd
00000270: 24b9 07bd 3259 563b e1dc f23d ec11 ed3b
00000280: 97d9 fdbb ec55 033e 19e8 813d 6350 113e
00000290: 9670 713c c509 9ebd f772 e73d cb97 92bd
000002a0: 17ed cdbd be0a 423d 2f15 b53d d1ce 73bc
000002b0: dd3a 0e3d a749 b63d a3d9 98bd 1ad8 8bbd
000002c0: c3c8 d33c 38f9 a13d 169c 2fbe 2c7e cabc
000002d0: 6961 8dbd 8d4d 6bbd 66bb c63d 185e fbbc
000002e0: b8b5 9dbd da41 0dbd bcb8 203e d39b 763d
000002f0: 1eae f93d b61e 7d3c 6279 113e 5556 9e3d
00000300: a213 b33d b24b 3fbc 9068 22bd 7517 323e
00000310: 1682 223e bf0c 6bbd 10ac 31bd 0a5e 7fbd
00000320: 8ec6 42bd c575 713d 89b1 1e3e cc2c b7bd
00000330: 9f5a 2c3d 8121 03bd 9a3e cb3d fa25 97bd
00000340: 2b1f ea3c bee6 c73d c8f8 b0bd 51ed 8bbd
00000350: e1d6 103e 72d0 afbd 2960 773d 6625 963d
00000360: 11eb 933d 764d 1c3e 6cac 83bc 688b a43c
00000370: f0e7 a8bd 2d83 453d 1ae0 5abd 7545 da3d
00000380: 1c3c d7bd b389 fb3d 955a 83bc a20a c5bd
00000390: 6625 323b 9d2d 3e3e 0e26 9d3c 3373 be3d
000003a0: 842e 2e3e 6b0f 703c 2c06 633b 541f 143e
000003b0: 0928 be3d 227b 233d 096a b23c 6060 e03c
000003c0: e619 ad3c 8403 b23d 0f1f 023d 59d1 893d
000003d0: 8d9f 25bd 8e84 94bc 72ad b73d 361e 3f3d
000003e0: 24ff 98bd f322 87ba 1e1f 1f3c 10fa b0bd
000003f0: a789 e1bd 5c6c cabc e6aa 23bd 29ad 04bd

net.2.bias f4 [64]
-0.05472541 0.07288174 0.13958584 0.16239771 -0.09754899 -0.025606936 -0.044339925 0.040187754
0.03989485 -0.047801025 0.12403015 -0.012473458 0.1383203 -0.049216732 -0.04253491 -0.06607322
0.1593254 0.14583072 -0.024343574 0.023859896 0.04743756 0.05418551 0.081903905 -0.11943543
-0.07099286 0.03634178 0.009238555 0.026762132 -0.031620756 0.18671554 0.04077188 0.13206333
-0.033894543 0.12906595 0.108844995 0.0285824 0.0443072 0.003724916 -0.05330507 0.09400995
0.1498477 0.069268614 0.17888498 0.04661954 0.04770361 0.18571337 0.06906789 -0.0930973
-0.06849843 0.011410113 0.12916237 0.09582512 -0.07093523 0.062036548 0.12347836 0.020077864
0.13132532 -0.036587354 0.029234974 0.114446625 0.026772112 0.0053687035 0.12567915 0.07102123
00000000: c027 60bd 0643 953d 97ef 0e3e 964b 263e
00000010: c4c7 c7bd a3c5 d1bc c89d 35bd ea9b 243d
00000020: c868 233d 02cb 43bd 8503 fe3d 7a5d 4cbc
00000030: d6a3 0d3e 7c97 49bd 1639 2ebd 6551 87bd
00000040: 3326 233e a654 153e 2d6c c7bc d475 c33c
00000050: e34d 423d a0f1 5d3d 3cbd a73d 909a f4bd
00000060: b464 91bd 1edb 143d 4f5d 173c 423c db3c
00000070: c484 01bd 5c32 3f3e 6a00 273d 9c3b 073e
00000080: 01d5 0abd dd29 043e 20ea de3d a325 ea3c
00000090: 777b 353d b81d 743b 6b56 5abd 4a88 c03d
000000a0: ad71 193e b4dc 8d3d a02d 373e 21f4 3e3d
000000b0: dc64 433d a52b 3e3e 7773 8d3d cca9 bebd
000000c0: e848 8cbd 7cf1 3a3c 2443 043e f63f c43d
000000d0: 7d46 91bd 091a 7e3d 39e2 fc3d 557a a43c
000000e0: 257a 063e 9fdc 15bd 2f7e ef3c fe62 ea3d
000000f0: 3051 db3c f3eb af3b 09b2 003e 9473 913d

net.4.weight f4 [64, 64]
0.08253275 0.1480788 -0.0681284 0.10017389 0.103119574 0.034898203 -0.18905623 0.052123845
0.031245282 0.15213092 -0.011247407 0.19445436 0.1290089 0.06101634 -0.02547555 -0.11587833
0.17205676 0.12987842 -0.13150427 0.09932657 0.011935135 -0.11747007 -0.15645723 0.005210592
-0.014311609 0.07869021 -0.07422694 -0.09359968 -0.08975837 0.1244655 -0.040219158 -0.011463428
-0.030347176 0.2024519 0.17242008 -0.0798181 0.014190122 0.1458238 -0.0132720955 -0.14743362
0.057105042 0.13361414 0.108807825 -0.033835113 -0.09529419 0.07178167 -0.013245939 -0.04019999
0.060903758 0.043364115 0.22904414 -0.039965127 0.1211207 0.13841592 0.18934059 0.20894283
0.101474956 0.09376141 -0.07404112 -0.10197461 0.0591001 0.14569367 0.14880389 0.058571957
-0.1299881 0.17834412 -0.05679832 0.17689662 -0.013056896 0.06496633 0.011473284 0.022581572
-0.017915318 0.17053518 -0.04196495 0.10645617 -0.017484711 0.024774255 0.05346993 0.0561569
0.19067706 0.0015728519 0.050012533 -0.0063251327 -0.028500086 -0.121831425 -0.13580303 -0.01903465
0.011908181 -0.04551239 0.07441217 -0.058138184 -0.0010527679 0.103935435 -0.058590416 -0.09434563
0.11103355 0.16357529 0.14076202 -0.027495332 0.07340418 -0.02294098 0.056394063 -0.1305845
0.07653172 -0.05840231 0.07824754 -0.11969151 -0.07460454 0.16236527 0.17111383 -0.03633361
-0.014126705 -0.074081436 0.27108732 -0.026466478 0.15523435 0.13700333 0.15644005 0.2044141
0.120379835 -0.051591042 -0.07310633 -0.045998238 -0.13937517 0.034997296 -0.0019063896 -0.009962515
-0.050169393 -0.097861364 0.04639543 -0.012086291 0.028142827 -0.11476985 0.004152952 -0.078173436
0.06546857 -0.13388006 -0.102232054 -0.054762308 0.035749737 0.041496783 -0.0072897207 -0.05818625
-0.075885385 0.109394245 0.09658641 0.025817275 0.054372426 0.054989643 0.086848706 -0.030565877
-0.096148275 -0.08578176 -0.07087691 0.008115601 0.024712283 -0.12558691 -0.0041047744 -0.061462052
-0.054074418 -0.05433898 0.021579087 -0.062163427 0.10008121 0.07485994 0.05598185 -0.05200173
0.05000875 0.07993868 0.0077872477 0.07330786 0.078007646 -0.0113969045 -0.09230264 -0.114297025
0.06879688 0.08710107 0.087610446 -0.08157604 -0.010116732 0.017791996 0.06543325 0.09384988
-0.006413252 -0.01759948 -0.0968854 -0.036709044 0.07492133 -0.1136197 0.10751983 -0.09305846
0.091307 0.18647301 0.09250209 0.13238062 0.07902249 0.17996135 -0.10553299 -0.04544492
-0.07800694 0.18996242 0.123378284 0.14205019 0.1753847 -0.025164051 0.20022766 0.047422126
0.1972385 0.12834144 -0.074273214 0.20688343 0.05135174 0.10064978 -0.06689227 0.13658546
0.043329597 -0.08856675 -0.084040016 0.12928663 -0.07226555 0.030235488 -0.08773593 0.002689936
0.047399323 0.21825555 -0.017216232 -0.026433628 0.19207226 0.103767365 -0.062483564 0.071455106
0.13783804 -0.06921551 -0.03608941 -0.13509765 0.0059145107 0.012693322 0.07639548 0.057761095
-0.09220704 -0.0343453 0.045495834 -0.0045577795 0.14484553 0.020034436 0.08702179 0.06884511
0.10270923 0.15764707 -0.10268373 -0.08470372 0.034771428 0.1338601 0.11999368 -0.020838797
00000000: ee06 a93d f8a1 173e e786 8bbd f827 cd3d
00000010: 5b30 d33d 6bf1 0e3d f597 41be d07f 553d
00000020: 1bf6 ff3c 35c8 1b3e 0b47 38bc 0b1f 473e
00000030: e91a 043e 45ec 793d 1ab2 d0bc 9e51 edbd
00000040: a62f 303e d9fe 043e 0ea9 06be bb6b cb3d
00000050: 968b 433c 2694 f0bd 5336 20be 9dbd aa3b
00000060: 3d7b 6abc 5528 a13d 4b04 98bd 30b1 bfbd
00000070: 3cd3 b7bd c5e7 fe3d d8bc 24bd 1ad1 3bbc
00000080: a49a f8bc 8d4f 4f3e e48e 303e ac77 a3bd
00000090: af7d 683c d652 153e 3473 59bc d7f8 16be
000000a0: fae6 693d 25d2 083e a3d6 de3d b096 0abd
000000b0: 9a29 c3bd 4502 933d 7f05 59bc bfa8 24bd
000000c0: 3876 793d 929e 313d 8c8a 6a3e 79b2 23bd
000000d0: 210e f83d e7bc 0d3e 80e2 413e 1cf5 553e
000000e0: 1ad2 cf3d fb05 c03d dfa2 97bd 10d8 d0bd
000000f0: f212 723d b930 153e 0c60 183e 26e9 6f3d
00000100: 9a1b 05be d79f 363e 5ba5 68bd 6324 353e
00000110: 97ec 55bc 110d 853d 71fa 3b3c fdfc b83c
00000120: 25c3 92bc c6a0 2e3e 70e3 2bbd b105 da3d
00000130: 193c 8fbc 61f3 ca3c 4903 5b3d c704 663d
00000140: d940 433e 2728 ce3a f1d9 4c3d 0f43 cfbb
00000150: 0379 e9bc c182 f9bd f30f 0bbe 8eee 9bbc
00000160: 881a 433c 336b 3abd 6865 983d 4e22 6ebd
00000170: 07fd 89ba 1adc d43d 81fc 6fbd 4838 c1bd
00000180: 8f65 e33d 4880 273e eb23 103e e43d e1bc
00000190: ee54 963d b9ee bbbc 76fd 663d f1b7 05be
000001a0: aabc 9c3d 4337 6fbd 3f40 a03d d320 f5bd
000001b0: 44ca 98bd 1543 263e 7738 2f3e 8dd2 14bd
000001c0: b273 67bc 02b8 97bd f5cb 8a3e 3ad0 d8bc
000001d0: c1f5 1e3e 9a4a 0c3e d231 203e ee51 513e
000001e0: b489 f63d 2151 53bd c6b8 95bd a668 3cbd
000001f0: 5db8 0ebe 5359 0f3d d2df f9ba d139 23bc
00000200: 6c7e 4dbd 8a6b c8bd 2209 3e3d 9405 46bc
00000210: c98b e63c 750c ebbd 7d15 883b 6519 a0bd
00000220: 6314 863d db17 09be 0a5f d1bd 714e 60bd
00000230: 516e 123d 88f8 293d 9cde eebb b554 6ebd
00000240: cc69 9bbd 170a e03d 19cf c53d c07e d33c
00000250: 9fb5 5e3d d23c 613d bcdd b13d 4a65 fabc
00000260: 63e9 c4bd 59ae afbd ea27 91bd 4cf7 043c
00000270: 6a71 ca3c db99 00be 5881 86bb a2bf 7bbd
00000280: 237d 5dbd 8d92 5ebd a0c6 b03c 149f 7ebd
00000290: 61f7 cc3d 2b50 993d 394d 653d c4ff 54bd
000002a0: fad5 4c3d e4b6 a33d 2b2c ff3b 6e22 963d
000002b0: 79c2 9f3d 15ba 3abc 2b09 bdbd 8f14 eabd
000002c0: 61e5 8c3d 0c62 b23d 1b6d b33d 5711 a7bd
000002d0: a6c0 25bc 85c0 913c de01 863d 5e34 c03d
000002e0: 4226 d2bb c92c 90bc da6b c6bd 395c 16bd
000002f0: 5b70 993d 72b1 e8bd 5b33 dc3d 6f95 bebd
00000300: 2aff ba3d c8f2 3e3e bc71 bd3d c98e 073e
00000310: 8bd6 a13d ca47 383e ae21 d8bd 7424 3abd
00000320: 1ac2 9fbd 8285 423e c1ad fc3d 9b75 113e
00000330: 0c98 333e d724 cebc 7b08 4d3e b43d 423d
00000340: e4f8 493e f06b 033e 8e1c 98bd 40d9 533e
00000350: 3456 523d 7921 ce3d d1fe 88bd 0fdd 0b3e
00000360: 607a 313d 7c62 b5bd 2c1d acbd b763 043e
00000370: f6ff 93bd 6ab0 f73c e5ae b3bd a349 303b
00000380: cb25 423d 627e 5f3e 0e09 8dbc 568b d8bc
00000390: 97ae 443e fc83 d43d c4ee 7fbd 0e57 923d
000003a0: 6a25 0d3e dcc0 8dbd 7dd2 13bd 0a57 0abe
000003b0: 83ce c13b a7f7 4f3c 3c75 9c3d e696 6c3d
000003c0: 0bd7 bcbd a8ad 0cbd d759 3a3d 6d59 95bb
000003d0: 6352 143e 421f a43c 7b38 b23d aafe 8c3d
000003e0: 3759 d23d 3c6e 213e d94b d2bd 2579 adbd
000003f0: 7c6c 0e3d 9f12 093e 3fbf f53d 20b6 aabc

net.4.bias f4 [64]
-0.0070811585 0.000743114 0.004569407 -0.032167356 0.094354406 0.0769677 0.071690395 0.11969798
-0.08220963 0.064073525 0.0750223 0.14003931 0.03084622 -0.02770226 0.13441853 0.07083219
0.07257775 0.04769589 0.086900264 0.041351244 0.11116476 0.14866959 0.0625798 0.016714837
-0.0079707485 0.026600057 -0.035988763 -0.10277345 0.036013022 0.13173051 0.10290222 0.040514965
0.090086184 0.09761936 -0.011021919 0.025461433 -0.096804224 0.093608975 -0.011488415 0.07196056
0.029127926 0.061106738 0.11259712 -0.027388502 0.05919995 0.12547114 0.08626585 0.08808215
-0.0034942878 0.03401342 -0.05786524 0.03731038 -0.09928886 0.15366894 0.11945097 0.03600338
0.10340245 0.09146425 0.09117672 0.1136826 0.14436933 -0.012803478 -0.068723835 0.0795674
00000000: 1009 e8bb 89cd 423a f7ba 953b ebc1 03bd
00000010: e23c c13d 3ea1 9d3d 6ad2 923d 3724 f53d
00000020: 865d a8bd fb38 833d 4ba5 993d 7766 0f3e
00000030: 36b1 fc3c daef e2bc 03a5 093e 7810 913d
00000040: a5a3 943d c45c 433d c4f8 b13d ec5f 293d
00000050: 5aaa e33d d73c 183e d729 803d 8eed 883c
00000060: be97 02bc 5de8 d93c f468 13bd e37a d2bd
00000070: 6482 133d 5de4 063e 66be d23d 05f3 253d
00000080: 1b7f b83d a9ec c73d 4795 34bc 7f94 d03c
00000090: 4b41 c6bd 10b6 bf3d e839 3cbc 0f60 933d
000000a0: b09d ee3c 0f4b 7a3d 5299 e63d da5d e0bc
000000b0: a67b 723d 827b 003e 26ac b03d 6a64 b43d
000000c0: 6c00 65bb a851 0b3d 1a04 6dbd c5d2 183d
000000d0: f557 cbbd 645b 1d3e b6a2 f43d 4878 133d
000000e0: aac4 d33d 9c51 bb3d dcba ba3d 6cd2 e83d
000000f0: 8ed5 133e aec5 51bc 15bf 8cbd 3cf4 a23d

net.6.weight f4 [1, 64]
-0.1861863 -0.18116128 -0.07169412 -0.1884405 0.16666928 0.17984788 0.20856969 0.16430973
0.19761896 -0.20269541 -0.19813286 -0.15465437 0.19272317 0.11767678 -0.13455407 -0.12359065
0.10796667 0.10539762 -0.09863554 0.10869071 -0.13937612 0.12903951 -0.15888594 0.2085447
0.109485775 -0.13734213 -0.1744536 0.2945885 -0.11933122 0.16460381 -0.12968972 -0.20178308
-0.11748201 -0.19136488 -0.21016996 -0.12775087 0.16897516 -0.14027673 0.1963845 0.07336309
0.18597227 0.16060913 0.19997953 -0.10116896 -0.22068237 -0.14017676 0.19295117 0.16647029
0.14961159 0.13239454 0.12755808 0.18244505 0.1543982 0.1475746 -0.158041 0.18028182
0.11832569 -0.12055945 -0.0046136845 0.125551 0.19624169 -0.18089046 0.17671217 0.09313038
00000000: 9fa7 3ebe 5882 39be 5ed4 92bd 8cf6 40be
00000010: 5aab 2a3e 0b2a 383e 4b93 553e cf40 283e
00000020: a05c 4a3e 638f 4fbe 57e3 4abe b75d 1ebe
00000030: 3959 453e 8600 f13d 8bc8 09be 181d fdbd
00000040: a11d dd3d b5da d73d 6e01 cabd 3c99 de3d
00000050: 9db8 0ebe ef22 043e ffb2 22be be8c 553e
00000060: 143a e03d 6aa3 0cbe f7a3 32be 4ed4 963e
00000070: ed63 f4bd e78d 283e 62cd 04be 39a0 4ebe
00000080: 689a f0bd 28f5 43be cb36 57be 20d1 02be
00000090: d307 2d3e b4a4 0fbe 0519 493e 633f 963d
000000a0: 846f 3e3e b876 243e 6fc7 4c3e ac31 cfbd
000000b0: 8ffa 61be 7f8a 0fbe fe94 453e 3077 2a3e
000000c0: c833 193e 6f92 073e 969e 023e e0d2 3a3e
000000d0: 901a 1e3e cc1d 173e 80d5 21be cc9b 383e
000000e0: bd54 f23d dfe7 f6bd 642e 97bb 7190 003e
000000f0: 95f3 483e 593b 39be 09f4 343e 24bb be3d
